models/opt-160x66x3.tflite (tflite, 234512 bytes, 9 tensors)

sequential/quant_conv2d/Conv2D;sequential/quant_conv2d/LastValueQuant/FakeQuantWithMinMaxVarsPerChannel i1 [24, 5, 5, 3]
0	0x27	39
1	0xd6	-42
2	0x99	-103
3	0xdd	-35
4	0x27	39
5	0xa1	-95
6	0x7b	123
7	0x11	17
8	0xb5	-75
9	0x75	117
10	0xf3	-13
11	0xb6	-74
12	0x99	-103
13	0xc5	-59
14	0x7b	123
15	0xa8	-88
16	0x0a	10
17	0x4a	74
18	0x38	56
19	0xc8	-56
20	0x17	23
21	0x70	112
22	0xd7	-41
23	0x86	-122
24	0xac	-84
25	0x85	-123
26	0xbc	-68
27	0xe6	-26
28	0x47	71
29	0x24	36
30	0xa9	-87
31	0x81	-127
32	0x84	-124
33	0xe4	-28
34	0xad	-83
35	0x82	-126
36	0x0d	13
37	0x44	68
38	0x2f	47
39	0x39	57
40	0x02	2
41	0xd9	-39
42	0xdb	-37
43	0x98	-104
44	0xcd	-51
45	0xf2	-14
46	0x67	103
47	0xa9	-87
48	0xd9	-39
49	0x3d	61
50	0x3d	61
51	0x2f	47
52	0x63	99
53	0x4e	78
54	0x3d	61
55	0x73	115
56	0x28	40
57	0xb6	-74
58	0x81	-127
59	0x75	117
60	0xd3	-45
61	0x6b	107
62	0x5b	91
63	0xed	-19
64	0x6b	107
65	0xf1	-15
66	0x5a	90
67	0x67	103
68	0x0c	12
69	0x76	118
70	0x63	99
71	0x69	105
72	0xab	-85
73	0x83	-125
74	0xc5	-59
75	0x7c	124
76	0xf6	-10
77	0x75	117
78	0xe3	-29
79	0x3f	63
80	0x7c	124
81	0x51	81
82	0xa8	-88
83	0x64	100
84	0x92	-110
85	0x5f	95
86	0x0a	10
87	0x60	96
88	0xb3	-77
89	0xa8	-88
90	0x36	54
91	0x53	83
92	0x9b	-101
93	0x5b	91
94	0x3c	60
95	0x01	1
96	0xe4	-28
97	0x19	25
98	0xdd	-35
99	0x8c	-116
100	0xf2	-14
101	0x21	33
102	0x92	-110
103	0xb5	-75
104	0xe5	-27
105	0x02	2
106	0xdb	-37
107	0x37	55
108	0x22	34
109	0x18	24
110	0xf8	-8
111	0xab	-85
112	0x4a	74
113	0x86	-122
114	0xfe	-2
115	0x34	52
116	0x32	50
117	0x7f	127
118	0x16	22
119	0xd1	-47
120	0xb8	-72
121	0x2d	45
122	0x72	114
123	0x92	-110
124	0xfa	-6
125	0x79	121
126	0x66	102
127	0x40	64
128	0x09	9
129	0x78	120
130	0xdb	-37
131	0x19	25
132	0xcf	-49
133	0xcc	-52
134	0xff	-1
135	0xce	-50
136	0x50	80
137	0x82	-126
138	0x65	101
139	0x10	16
140	0xeb	-21
141	0x46	70
142	0x92	-110
143	0xb5	-75
144	0xb1	-79
145	0x67	103
146	0xfd	-3
147	0xe9	-23
148	0x1c	28
149	0xbd	-67
150	0xc1	-63
151	0x05	5
152	0x26	38
153	0xe4	-28
154	0x8c	-116
155	0xb5	-75
156	0x18	24
157	0xc2	-62
158	0xda	-38
159	0x73	115
160	0xd8	-40
161	0x27	39
162	0x51	81
163	0xae	-82
164	0x74	116
165	0xac	-84
166	0x03	3
167	0x86	-122
168	0x4b	75
169	0xd1	-47
170	0xe4	-28
171	0xc7	-57
172	0x96	-106
173	0x0b	11
174	0x5e	94
175	0x81	-127
176	0x30	48
177	0xa4	-92
178	0x43	67
179	0x3d	61
180	0x38	56
181	0x0f	15
182	0xd4	-44
183	0xc9	-55
184	0x25	37
185	0x4e	78
186	0x54	84
187	0x5e	94
188	0x8b	-117
189	0x45	69
190	0x97	-105
191	0xbb	-69
192	0xf4	-12
193	0xb4	-76
194	0x49	73
195	0xed	-19
196	0x00	0
197	0xc7	-57
198	0xd8	-40
199	0x77	119
200	0x97	-105
201	0x34	52
202	0xd7	-41
203	0x77	119
204	0x58	88
205	0xe7	-25
206	0x8b	-117
207	0xae	-82
208	0x5e	94
209	0x72	114
210	0x9e	-98
211	0xf9	-7
212	0xb8	-72
213	0xb5	-75
214	0x2f	47
215	0xf3	-13
216	0x5d	93
217	0xc0	-64
218	0xf9	-7
219	0x4b	75
220	0x92	-110
221	0x03	3
222	0xdc	-36
223	0xf6	-10
224	0x3f	63
225	0xf7	-9
226	0x30	48
227	0x2f	47
228	0xa1	-95
229	0x1e	30
230	0xb7	-73
231	0x4e	78
232	0x12	18
233	0xf2	-14
234	0xe7	-25
235	0x20	32
236	0xa7	-89
237	0xdb	-37
238	0xb7	-73
239	0x4b	75
240	0x45	69
241	0xe6	-26
242	0xae	-82
243	0xf1	-15
244	0x90	-112
245	0xaa	-86
246	0x1c	28
247	0xd9	-39
248	0x2e	46
249	0x53	83
250	0x3d	61
251	0x8c	-116
252	0x3f	63
253	0x37	55
254	0xf4	-12
255	0x0d	13

sequential/quant_conv2d_1/Conv2D;sequential/quant_conv2d_1/LastValueQuant/FakeQuantWithMinMaxVarsPerChannel i1 [36, 5, 5, 24]
0	0x07	7
1	0xf9	-7
2	0xb3	-77
3	0x5b	91
4	0xe8	-24
5	0xe4	-28
6	0xdc	-36
7	0x52	82
8	0x30	48
9	0xcf	-49
10	0xb6	-74
11	0x1c	28
12	0x6b	107
13	0xe4	-28
14	0xae	-82
15	0xa9	-87
16	0x3a	58
17	0xd4	-44
18	0x30	48
19	0xed	-19
20	0xfd	-3
21	0xda	-38
22	0xa8	-88
23	0xd4	-44
24	0xd4	-44
25	0x90	-112
26	0x29	41
27	0x3c	60
28	0x1b	27
29	0xaf	-81
30	0x9e	-98
31	0x2c	44
32	0x50	80
33	0xb0	-80
34	0xdf	-33
35	0xde	-34
36	0xac	-84
37	0xd6	-42
38	0xe5	-27
39	0xcc	-52
40	0xca	-54
41	0x3a	58
42	0x51	81
43	0x30	48
44	0x27	39
45	0xe0	-32
46	0x23	35
47	0xcb	-53
48	0x2e	46
49	0xf9	-7
50	0x31	49
51	0x25	37
52	0x5a	90
53	0xe9	-23
54	0x03	3
55	0xeb	-21
56	0x97	-105
57	0x9f	-97
58	0x62	98
59	0x53	83
60	0xe6	-26
61	0x70	112
62	0x63	99
63	0x12	18
64	0x19	25
65	0x31	49
66	0x22	34
67	0x55	85
68	0xe3	-29
69	0x10	16
70	0x14	20
71	0x92	-110
72	0x21	33
73	0x6c	108
74	0x02	2
75	0x36	54
76	0x3b	59
77	0xce	-50
78	0x03	3
79	0xa0	-96
80	0x49	73
81	0x3e	62
82	0xe9	-23
83	0x28	40
84	0xc9	-55
85	0xad	-83
86	0x4a	74
87	0x2f	47
88	0xc2	-62
89	0xaa	-86
90	0x9e	-98
91	0x17	23
92	0x5c	92
93	0xdd	-35
94	0x6c	108
95	0x71	113
96	0x05	5
97	0x33	51
98	0x35	53
99	0x1d	29
100	0x07	7
101	0x06	6
102	0x39	57
103	0xe4	-28
104	0xf1	-15
105	0x46	70
106	0xbc	-68
107	0xc2	-62
108	0x64	100
109	0xab	-85
110	0xea	-22
111	0xfa	-6
112	0xc9	-55
113	0xe0	-32
114	0xac	-84
115	0xe7	-25
116	0x88	-120
117	0x52	82
118	0x5c	92
119	0xbd	-67
120	0x88	-120
121	0xef	-17
122	0xfa	-6
123	0x5f	95
124	0x9f	-97
125	0x13	19
126	0xe0	-32
127	0x06	6
128	0xca	-54
129	0x3a	58
130	0x9e	-98
131	0x9c	-100
132	0xb0	-80
133	0xf6	-10
134	0x33	51
135	0x9a	-102
136	0x1f	31
137	0x69	105
138	0x60	96
139	0x10	16
140	0xbe	-66
141	0x78	120
142	0x05	5
143	0xb8	-72
144	0xdb	-37
145	0x15	21
146	0x81	-127
147	0xad	-83
148	0x3f	63
149	0x2f	47
150	0xfb	-5
151	0x40	64
152	0x8e	-114
153	0x3e	62
154	0x37	55
155	0xec	-20
156	0xe9	-23
157	0x9f	-97
158	0x96	-106
159	0x5c	92
160	0x98	-104
161	0xdf	-33
162	0x48	72
163	0xeb	-21
164	0x29	41
165	0x74	116
166	0x94	-108
167	0x94	-108
168	0x50	80
169	0x14	20
170	0xf7	-9
171	0x70	112
172	0xff	-1
173	0xac	-84
174	0xe9	-23
175	0xc3	-61
176	0xab	-85
177	0x59	89
178	0x4d	77
179	0xdc	-36
180	0x62	98
181	0xcd	-51
182	0xf9	-7
183	0x67	103
184	0x9e	-98
185	0xad	-83
186	0x98	-104
187	0xeb	-21
188	0x99	-103
189	0xc2	-62
190	0xd0	-48
191	0xee	-18
192	0xf2	-14
193	0x1e	30
194	0x61	97
195	0xa9	-87
196	0x99	-103
197	0x75	117
198	0x04	4
199	0xcc	-52
200	0xec	-20
201	0xa3	-93
202	0x20	32
203	0x39	57
204	0xa7	-89
205	0xe3	-29
206	0xcd	-51
207	0x67	103
208	0x11	17
209	0xdf	-33
210	0x57	87
211	0x65	101
212	0x71	113
213	0x9f	-97
214	0x40	64
215	0x38	56
216	0xb6	-74
217	0xb4	-76
218	0x92	-110
219	0x8f	-113
220	0x32	50
221	0xaf	-81
222	0x17	23
223	0xf0	-16
224	0x65	101
225	0x53	83
226	0x55	85
227	0x29	41
228	0xb8	-72
229	0xc0	-64
230	0x8f	-113
231	0x9a	-102
232	0xd3	-45
233	0x66	102
234	0xa4	-92
235	0x99	-103
236	0x25	37
237	0x16	22
238	0xcb	-53
239	0xb1	-79
240	0x3d	61
241	0x8b	-117
242	0x19	25
243	0x18	24
244	0xb1	-79
245	0x3b	59
246	0xa9	-87
247	0xc0	-64
248	0xe8	-24
249	0xc3	-61
250	0xc4	-60
251	0x72	114
252	0x4e	78
253	0x2b	43
254	0x68	104
255	0x3b	59

sequential/quant_conv2d_2/Conv2D;sequential/quant_conv2d_2/LastValueQuant/FakeQuantWithMinMaxVarsPerChannel i1 [48, 5, 5, 36]
0	0x3e	62
1	0x03	3
2	0xcb	-53
3	0xac	-84
4	0x6e	110
5	0xc3	-61
6	0xc8	-56
7	0xcc	-52
8	0x06	6
9	0xd0	-48
10	0x5c	92
11	0xd0	-48
12	0x61	97
13	0x29	41
14	0xcd	-51
15	0xdf	-33
16	0x4d	77
17	0xb1	-79
18	0x48	72
19	0xf0	-16
20	0xa3	-93
21	0x23	35
22	0xf2	-14
23	0x66	102
24	0x5b	91
25	0x28	40
26	0xce	-50
27	0xaf	-81
28	0x09	9
29	0xfc	-4
30	0xc6	-58
31	0x34	52
32	0x12	18
33	0x25	37
34	0x4d	77
35	0xd1	-47
36	0xd0	-48
37	0x3a	58
38	0xae	-82
39	0xe0	-32
40	0xc1	-63
41	0x29	41
42	0x29	41
43	0xca	-54
44	0x47	71
45	0xdc	-36
46	0x21	33
47	0x2b	43
48	0x55	85
49	0x26	38
50	0x34	52
51	0xda	-38
52	0x0d	13
53	0xa8	-88
54	0x23	35
55	0x8c	-116
56	0x4b	75
57	0x4d	77
58	0x1f	31
59	0x47	71
60	0x2b	43
61	0xe8	-24
62	0x1f	31
63	0x41	65
64	0x04	4
65	0x19	25
66	0x1a	26
67	0x58	88
68	0x95	-107
69	0x07	7
70	0xeb	-21
71	0xfa	-6
72	0xec	-20
73	0x2a	42
74	0x26	38
75	0xd6	-42
76	0x71	113
77	0x6e	110
78	0x72	114
79	0x23	35
80	0xcd	-51
81	0x5f	95
82	0x52	82
83	0x28	40
84	0x47	71
85	0xce	-50
86	0xa7	-89
87	0x25	37
88	0xcc	-52
89	0xf2	-14
90	0xef	-17
91	0xda	-38
92	0x31	49
93	0xe7	-25
94	0xbd	-67
95	0xc4	-60
96	0xb9	-71
97	0xd6	-42
98	0xb3	-77
99	0x02	2
100	0xf8	-8
101	0x4d	77
102	0xb6	-74
103	0xe5	-27
104	0x2e	46
105	0xac	-84
106	0x57	87
107	0x50	80
108	0xe5	-27
109	0x73	115
110	0xe8	-24
111	0x4c	76
112	0x00	0
113	0xe5	-27
114	0x60	96
115	0xff	-1
116	0x3b	59
117	0x3e	62
118	0xb1	-79
119	0x20	32
120	0xe2	-30
121	0x09	9
122	0x9d	-99
123	0xe0	-32
124	0x1d	29
125	0x46	70
126	0xc6	-58
127	0xd8	-40
128	0x3d	61
129	0x0c	12
130	0xca	-54
131	0x0e	14
132	0xcf	-49
133	0xe5	-27
134	0x5a	90
135	0xad	-83
136	0xc8	-56
137	0x12	18
138	0xc7	-57
139	0x9a	-102
140	0xa2	-94
141	0xe9	-23
142	0xac	-84
143	0x60	96
144	0xb7	-73
145	0x1f	31
146	0xdc	-36
147	0xd4	-44
148	0xc2	-62
149	0x4c	76
150	0x5c	92
151	0xa9	-87
152	0xd3	-45
153	0xb8	-72
154	0xdb	-37
155	0x1f	31
156	0xec	-20
157	0x12	18
158	0xa2	-94
159	0xc8	-56
160	0xbb	-69
161	0xc0	-64
162	0x39	57
163	0xb9	-71
164	0x51	81
165	0xe5	-27
166	0xe0	-32
167	0x49	73
168	0x05	5
169	0xf7	-9
170	0xd9	-39
171	0x09	9
172	0x46	70
173	0x68	104
174	0xf6	-10
175	0xb9	-71
176	0xfe	-2
177	0x1b	27
178	0x3f	63
179	0xd1	-47
180	0x55	85
181	0x27	39
182	0xe2	-30
183	0x06	6
184	0xf5	-11
185	0x6d	109
186	0x2d	45
187	0x5e	94
188	0x60	96
189	0x95	-107
190	0x65	101
191	0x2e	46
192	0x1b	27
193	0x2d	45
194	0x5e	94
195	0xf0	-16
196	0x4d	77
197	0xd3	-45
198	0xf6	-10
199	0xb0	-80
200	0x18	24
201	0xe3	-29
202	0xf9	-7
203	0xd8	-40
204	0xda	-38
205	0xe2	-30
206	0x39	57
207	0x30	48
208	0xe6	-26
209	0x35	53
210	0x94	-108
211	0x25	37
212	0xbb	-69
213	0x9a	-102
214	0x42	66
215	0xde	-34
216	0x60	96
217	0xdf	-33
218	0xdb	-37
219	0x34	52
220	0x15	21
221	0x7d	125
222	0xd0	-48
223	0x2c	44
224	0xc7	-57
225	0xad	-83
226	0xd9	-39
227	0x52	82
228	0x17	23
229	0x16	22
230	0xc5	-59
231	0xaf	-81
232	0xcb	-53
233	0x37	55
234	0xf5	-11
235	0xe8	-24
236	0x5d	93
237	0xd3	-45
238	0x58	88
239	0xa8	-88
240	0xc8	-56
241	0x51	81
242	0x1e	30
243	0x93	-109
244	0xba	-70
245	0xbb	-69
246	0xb6	-74
247	0x86	-122
248	0xa0	-96
249	0xe3	-29
250	0xef	-17
251	0x56	86
252	0x5f	95
253	0x4a	74
254	0xb4	-76
255	0xf7	-9

sequential/quant_conv2d_3/Conv2D;sequential/quant_conv2d_3/LastValueQuant/FakeQuantWithMinMaxVarsPerChannel i1 [64, 3, 3, 48]
0	0x07	7
1	0x07	7
2	0x24	36
3	0xaf	-81
4	0x9d	-99
5	0x0e	14
6	0xa0	-96
7	0x9c	-100
8	0x58	88
9	0x45	69
10	0x63	99
11	0xc0	-64
12	0x1f	31
13	0xc6	-58
14	0x55	85
15	0x68	104
16	0x4b	75
17	0x3f	63
18	0x58	88
19	0x65	101
20	0xba	-70
21	0x13	19
22	0xb3	-77
23	0x33	51
24	0x5f	95
25	0xd6	-42
26	0x2c	44
27	0x20	32
28	0x41	65
29	0xf2	-14
30	0x1d	29
31	0x9c	-100
32	0xd7	-41
33	0x4a	74
34	0xb1	-79
35	0xf1	-15
36	0x44	68
37	0x3d	61
38	0xc8	-56
39	0x56	86
40	0xf2	-14
41	0x46	70
42	0x40	64
43	0x49	73
44	0xaa	-86
45	0x33	51
46	0x59	89
47	0x68	104
48	0xf2	-14
49	0xd8	-40
50	0x96	-106
51	0x44	68
52	0x88	-120
53	0xfc	-4
54	0x1f	31
55	0xcd	-51
56	0x68	104
57	0xb9	-71
58	0x9b	-101
59	0xf7	-9
60	0xe2	-30
61	0x33	51
62	0x28	40
63	0x30	48
64	0x64	100
65	0xbf	-65
66	0xe4	-28
67	0x20	32
68	0xfe	-2
69	0x26	38
70	0x29	41
71	0xe9	-23
72	0x3a	58
73	0x4d	77
74	0x13	19
75	0x57	87
76	0xe6	-26
77	0x39	57
78	0x8e	-114
79	0xe6	-26
80	0x38	56
81	0xc0	-64
82	0xa4	-92
83	0xf4	-12
84	0x20	32
85	0x52	82
86	0xe4	-28
87	0xa3	-93
88	0x27	39
89	0x41	65
90	0xc3	-61
91	0xb7	-73
92	0xb2	-78
93	0x96	-106
94	0xfd	-3
95	0xae	-82
96	0xfe	-2
97	0x1a	26
98	0x04	4
99	0x0b	11
100	0x41	65
101	0xe7	-25
102	0x96	-106
103	0x0c	12
104	0xdf	-33
105	0xe4	-28
106	0x27	39
107	0xa1	-95
108	0xc0	-64
109	0x09	9
110	0x99	-103
111	0x35	53
112	0x6d	109
113	0x5d	93
114	0x03	3
115	0x76	118
116	0xb7	-73
117	0x38	56
118	0x6c	108
119	0xae	-82
120	0x3e	62
121	0x94	-108
122	0x43	67
123	0x52	82
124	0x55	85
125	0x11	17
126	0x66	102
127	0x9e	-98
128	0x4b	75
129	0x47	71
130	0x06	6
131	0x0a	10
132	0x48	72
133	0x5d	93
134	0xaa	-86
135	0x0b	11
136	0x3b	59
137	0xf9	-7
138	0x42	66
139	0x06	6
140	0xdc	-36
141	0xba	-70
142	0xf3	-13
143	0x2b	43
144	0xf2	-14
145	0x0c	12
146	0x0b	11
147	0xf3	-13
148	0xcb	-53
149	0xe9	-23
150	0xcd	-51
151	0xa7	-89
152	0x54	84
153	0xb2	-78
154	0xfb	-5
155	0x58	88
156	0x5a	90
157	0xd9	-39
158	0x63	99
159	0xc8	-56
160	0xbb	-69
161	0xfb	-5
162	0xd9	-39
163	0x52	82
164	0x3a	58
165	0xbd	-67
166	0x3c	60
167	0x58	88
168	0x0c	12
169	0xf2	-14
170	0x54	84
171	0x54	84
172	0x2d	45
173	0x2d	45
174	0x7f	127
175	0xd3	-45
176	0xf2	-14
177	0x97	-105
178	0x49	73
179	0xdf	-33
180	0x39	57
181	0xb5	-75
182	0xd9	-39
183	0xda	-38
184	0x06	6
185	0xb6	-74
186	0xa3	-93
187	0x15	21
188	0xad	-83
189	0xe1	-31
190	0xf3	-13
191	0x6d	109
192	0x9a	-102
193	0x56	86
194	0xaa	-86
195	0x55	85
196	0xc7	-57
197	0x04	4
198	0x07	7
199	0x1c	28
200	0xcf	-49
201	0xb7	-73
202	0x27	39
203	0x17	23
204	0x1b	27
205	0xa2	-94
206	0xa4	-92
207	0x50	80
208	0xd3	-45
209	0xeb	-21
210	0x2f	47
211	0xdb	-37
212	0xdc	-36
213	0xc7	-57
214	0x46	70
215	0xb8	-72
216	0xbc	-68
217	0xcd	-51
218	0xba	-70
219	0x70	112
220	0xab	-85
221	0xf5	-11
222	0xd8	-40
223	0xfd	-3
224	0xb6	-74
225	0x14	20
226	0x5b	91
227	0xf0	-16
228	0xaa	-86
229	0x2b	43
230	0x21	33
231	0x39	57
232	0xb2	-78
233	0xf9	-7
234	0xc8	-56
235	0x24	36
236	0x18	24
237	0x46	70
238	0xf3	-13
239	0xc5	-59
240	0x10	16
241	0x05	5
242	0x1e	30
243	0x59	89
244	0x0b	11
245	0xc3	-61
246	0x08	8
247	0xf4	-12
248	0xd2	-46
249	0x29	41
250	0xcd	-51
251	0x5f	95
252	0xa6	-90
253	0xb1	-79
254	0xb8	-72
255	0xac	-84

sequential/quant_conv2d_4/Conv2D;sequential/quant_conv2d_4/LastValueQuant/FakeQuantWithMinMaxVarsPerChannel i1 [64, 3, 3, 64]
0	0x1c	28
1	0x4e	78
2	0x60	96
3	0x02	2
4	0x3f	63
5	0x06	6
6	0x62	98
7	0x38	56
8	0xa9	-87
9	0xe1	-31
10	0x39	57
11	0xb5	-75
12	0xa5	-91
13	0x49	73
14	0xb2	-78
15	0xcd	-51
16	0x8b	-117
17	0xa4	-92
18	0x1e	30
19	0xd7	-41
20	0xed	-19
21	0x68	104
22	0xb1	-79
23	0x0f	15
24	0x22	34
25	0x03	3
26	0x9b	-101
27	0xa8	-88
28	0x68	104
29	0x08	8
30	0x23	35
31	0xae	-82
32	0x3d	61
33	0x02	2
34	0x4b	75
35	0x3d	61
36	0xa6	-90
37	0x48	72
38	0x56	86
39	0x2a	42
40	0xbd	-67
41	0x0f	15
42	0x34	52
43	0x97	-105
44	0x97	-105
45	0xdf	-33
46	0x65	101
47	0xfd	-3
48	0x49	73
49	0xe8	-24
50	0x26	38
51	0x3a	58
52	0xc4	-60
53	0x4a	74
54	0x0e	14
55	0xb4	-76
56	0x73	115
57	0xb1	-79
58	0xee	-18
59	0xb9	-71
60	0xa2	-94
61	0xd4	-44
62	0xc2	-62
63	0x08	8
64	0x0f	15
65	0xed	-19
66	0x34	52
67	0x54	84
68	0x6a	106
69	0xc9	-55
70	0xcb	-53
71	0x5b	91
72	0x04	4
73	0x18	24
74	0x1f	31
75	0x4a	74
76	0xa2	-94
77	0xca	-54
78	0x26	38
79	0x97	-105
80	0x69	105
81	0x00	0
82	0xc7	-57
83	0x4b	75
84	0xbe	-66
85	0x05	5
86	0xce	-50
87	0x34	52
88	0xa8	-88
89	0x50	80
90	0x2c	44
91	0x2b	43
92	0xea	-22
93	0xdd	-35
94	0xf7	-9
95	0x9e	-98
96	0x55	85
97	0xe8	-24
98	0xad	-83
99	0x2f	47
100	0x06	6
101	0xe4	-28
102	0xe8	-24
103	0xff	-1
104	0x35	53
105	0xa0	-96
106	0x04	4
107	0xef	-17
108	0xcc	-52
109	0x1c	28
110	0x3c	60
111	0x64	100
112	0x5d	93
113	0xd2	-46
114	0x16	22
115	0xb4	-76
116	0x0d	13
117	0xe3	-29
118	0x54	84
119	0x19	25
120	0xe3	-29
121	0x0b	11
122	0x53	83
123	0xf5	-11
124	0x40	64
125	0x4a	74
126	0xca	-54
127	0x4a	74
128	0x4d	77
129	0x43	67
130	0xe2	-30
131	0xee	-18
132	0xe9	-23
133	0x2a	42
134	0xe5	-27
135	0x4a	74
136	0x4b	75
137	0x3e	62
138	0x47	71
139	0xdb	-37
140	0x1e	30
141	0xbe	-66
142	0x2b	43
143	0x43	67
144	0x4f	79
145	0x44	68
146	0x48	72
147	0x53	83
148	0xba	-70
149	0xfc	-4
150	0xfa	-6
151	0x03	3
152	0xef	-17
153	0xc5	-59
154	0xd7	-41
155	0x64	100
156	0x0b	11
157	0x48	72
158	0xfd	-3
159	0x25	37
160	0xb1	-79
161	0xd7	-41
162	0xf0	-16
163	0xba	-70
164	0x9c	-100
165	0x24	36
166	0x4b	75
167	0xe0	-32
168	0xec	-20
169	0x99	-103
170	0x3e	62
171	0x58	88
172	0x9d	-99
173	0xe9	-23
174	0x9f	-97
175	0xe0	-32
176	0xa0	-96
177	0x4d	77
178	0x98	-104
179	0x2c	44
180	0xb8	-72
181	0x1c	28
182	0x65	101
183	0xa4	-92
184	0xc9	-55
185	0x0d	13
186	0x1a	26
187	0x50	80
188	0xa8	-88
189	0xdb	-37
190	0xae	-82
191	0x93	-109
192	0xa8	-88
193	0xb3	-77
194	0xd2	-46
195	0x84	-124
196	0x95	-107
197	0xf6	-10
198	0xb0	-80
199	0x29	41
200	0x5a	90
201	0x9e	-98
202	0xbf	-65
203	0x61	97
204	0x37	55
205	0x20	32
206	0xc0	-64
207	0xdc	-36
208	0x67	103
209	0xd7	-41
210	0xb1	-79
211	0x9a	-102
212	0xcc	-52
213	0xe6	-26
214	0x47	71
215	0x4e	78
216	0x89	-119
217	0x31	49
218	0xdb	-37
219	0x41	65
220	0x15	21
221	0x3c	60
222	0x4f	79
223	0xf3	-13
224	0x3f	63
225	0x50	80
226	0x33	51
227	0xc4	-60
228	0xa3	-93
229	0x36	54
230	0x96	-106
231	0x26	38
232	0x26	38
233	0x56	86
234	0x43	67
235	0xc6	-58
236	0x9f	-97
237	0xba	-70
238	0x6e	110
239	0x15	21
240	0x65	101
241	0xc1	-63
242	0x95	-107
243	0x2e	46
244	0x64	100
245	0x41	65
246	0xf0	-16
247	0xde	-34
248	0xc8	-56
249	0x14	20
250	0x1f	31
251	0x40	64
252	0x2f	47
253	0xa4	-92
254	0x42	66
255	0x99	-103

sequential/quant_dense/MatMul;sequential/quant_dense/LastValueQuant/FakeQuantWithMinMaxVars i1 [100, 832] scale=0.0009161311 zero_point=0
0	0xbd	-0.06138078
1	0x12	0.016490359
2	0x02	0.0018322621
3	0xb3	-0.07054209
4	0xf5	-0.010077442
5	0xe0	-0.029316194
6	0xe3	-0.026567802
7	0x3e	0.056800127
8	0x1f	0.028400064
9	0xdf	-0.030232325
10	0xae	-0.07512275
11	0x1f	0.028400064
12	0xca	-0.049471077
13	0x4c	0.06962596
14	0xb4	-0.06962596
15	0x01	0.0009161311
16	0x40	0.05863239
17	0xc4	-0.054967865
18	0x27	0.03572911
19	0x4c	0.06962596
20	0x30	0.04397429
21	0xee	-0.016490359
22	0xe9	-0.021071015
23	0xf3	-0.011909704
24	0x14	0.01832262
25	0xdd	-0.032064587
26	0x55	0.077871144
27	0xc8	-0.051303342
28	0xdf	-0.030232325
29	0x4b	0.06870983
30	0xb2	-0.07145822
31	0xf3	-0.011909704
32	0xee	-0.016490359
33	0x38	0.051303342
34	0x55	0.077871144
35	0x0b	0.010077442
36	0x49	0.06687757
37	0x00	0.0
38	0x2a	0.038477506
39	0x11	0.015574228
40	0xc4	-0.054967865
41	0x17	0.021071015
42	0x40	0.05863239
43	0x3c	0.054967865
44	0x40	0.05863239
45	0xe9	-0.021071015
46	0xae	-0.07512275
47	0x47	0.065045305
48	0x38	0.051303342
49	0x58	0.08061954
50	0xc4	-0.054967865
51	0x03	0.0027483932
52	0x3f	0.057716258
53	0xef	-0.015574228
54	0x36	0.049471077
55	0x41	0.05954852
56	0xda	-0.03481298
57	0xe4	-0.025651671
58	0xd4	-0.04030977
59	0x0a	0.00916131
60	0x3c	0.054967865
61	0xfd	-0.0027483932
62	0xb8	-0.065961435
63	0xea	-0.020154884
64	0xc2	-0.056800127
65	0x3f	0.057716258
66	0xa6	-0.0824518
67	0x22	0.031148456
68	0x41	0.05954852
69	0xef	-0.015574228
70	0xe7	-0.022903277
71	0x54	0.07695501
72	0x49	0.06687757
73	0x00	0.0
74	0x29	0.037561376
75	0xf8	-0.0073290486
76	0x3e	0.056800127
77	0x54	0.07695501
78	0xdb	-0.03389685
79	0xcf	-0.044890422
80	0x3f	0.057716258
81	0x4b	0.06870983
82	0x0c	0.010993573
83	0xcb	-0.048554946
84	0xf2	-0.0128258355
85	0xe8	-0.021987146
86	0x0e	0.0128258355
87	0xd0	-0.04397429
88	0xa6	-0.0824518
89	0x2a	0.038477506
90	0xc8	-0.051303342
91	0xe8	-0.021987146
92	0x05	0.004580655
93	0xeb	-0.019238753
94	0x48	0.065961435
95	0xc7	-0.052219473
96	0xb1	-0.07237435
97	0xb2	-0.07145822
98	0x12	0.016490359
99	0xf6	-0.00916131
100	0xb3	-0.07054209
101	0xe6	-0.023819407
102	0xb9	-0.065045305
103	0xbf	-0.05954852
104	0xd1	-0.04305816
105	0x10	0.014658097
106	0xe8	-0.021987146
107	0x31	0.044890422
108	0x17	0.021071015
109	0xba	-0.064129174
110	0xcd	-0.046722684
111	0x11	0.015574228
112	0xbe	-0.06046465
113	0x55	0.077871144
114	0x48	0.065961435
115	0xc8	-0.051303342
116	0xb4	-0.06962596
117	0xc0	-0.05863239
118	0x22	0.031148456
119	0x43	0.06138078
120	0xc6	-0.053135604
121	0x4d	0.07054209
122	0x0e	0.0128258355
123	0x18	0.021987146
124	0xca	-0.049471077
125	0x46	0.064129174
126	0x2f	0.04305816
127	0x21	0.030232325
128	0x43	0.06138078
129	0xbb	-0.06321304
130	0x39	0.052219473
131	0x12	0.016490359
132	0xed	-0.01740649
133	0xcf	-0.044890422
134	0x38	0.051303342
135	0x22	0.031148456
136	0xbb	-0.06321304
137	0x55	0.077871144
138	0xab	-0.077871144
139	0x14	0.01832262
140	0x0c	0.010993573
141	0xc3	-0.055883996
142	0x1d	0.026567802
143	0xe4	-0.025651671
144	0x45	0.06321304
145	0x2f	0.04305816
146	0xa9	-0.079703405
147	0xf6	-0.00916131
148	0x3e	0.056800127
149	0xe8	-0.021987146
150	0x42	0.06046465
151	0xbc	-0.062296912
152	0xe8	-0.021987146
153	0xf7	-0.008245179
154	0xde	-0.031148456
155	0x3c	0.054967865
156	0xbd	-0.06138078
157	0x35	0.048554946
158	0xd5	-0.039393637
159	0x31	0.044890422
160	0x39	0.052219473
161	0x1b	0.024735538
162	0x50	0.07329048
163	0xcc	-0.047638815
164	0x20	0.029316194
165	0xf0	-0.014658097
166	0xab	-0.077871144
167	0x49	0.06687757
168	0x17	0.021071015
169	0xdd	-0.032064587
170	0x25	0.03389685
171	0x2f	0.04305816
172	0x4d	0.07054209
173	0x19	0.022903277
174	0x24	0.032980718
175	0x4d	0.07054209
176	0x11	0.015574228
177	0xf8	-0.0073290486
178	0x46	0.064129174
179	0x06	0.0054967864
180	0x45	0.06321304
181	0x36	0.049471077
182	0xf2	-0.0128258355
183	0xcc	-0.047638815
184	0xe0	-0.029316194
185	0xeb	-0.019238753
186	0x49	0.06687757
187	0x2d	0.0412259
188	0xe6	-0.023819407
189	0xf4	-0.010993573
190	0x33	0.046722684
191	0xc4	-0.054967865
192	0xf3	-0.011909704
193	0x43	0.06138078
194	0xbf	-0.05954852
195	0x18	0.021987146
196	0xec	-0.01832262
197	0xba	-0.064129174
198	0xe5	-0.024735538
199	0x3e	0.056800127
200	0xe3	-0.026567802
201	0x27	0.03572911
202	0xc3	-0.055883996
203	0xee	-0.016490359
204	0x13	0.01740649
205	0xfb	-0.004580655
206	0x99	-0.0943615
207	0xd8	-0.03664524
208	0x9f	-0.088864714
209	0x3a	0.053135604
210	0xe6	-0.023819407
211	0xe3	-0.026567802
212	0xd4	-0.04030977
213	0xb8	-0.065961435
214	0x05	0.004580655
215	0xe8	-0.021987146
216	0x4f	0.07237435
217	0xc9	-0.050387207
218	0x03	0.0027483932
219	0xc5	-0.054051735
220	0xfe	-0.0018322621
221	0xcc	-0.047638815
222	0xbe	-0.06046465
223	0xfa	-0.0054967864
224	0x4f	0.07237435
225	0xf7	-0.008245179
226	0xc2	-0.056800127
227	0x37	0.050387207
228	0xe3	-0.026567802
229	0x12	0.016490359
230	0x19	0.022903277
231	0xcf	-0.044890422
232	0xbd	-0.06138078
233	0xbf	-0.05954852
234	0x2c	0.04030977
235	0x46	0.064129174
236	0x48	0.065961435
237	0xbe	-0.06046465
238	0xe3	-0.026567802
239	0x1c	0.025651671
240	0x16	0.020154884
241	0x0b	0.010077442
242	0xcc	-0.047638815
243	0xe7	-0.022903277
244	0xaf	-0.07420662
245	0x42	0.06046465
246	0x1b	0.024735538
247	0x54	0.07695501
248	0x47	0.065045305
249	0xed	-0.01740649
250	0xb0	-0.07329048
251	0x22	0.031148456
252	0xb5	-0.06870983
253	0x36	0.049471077
254	0xc6	-0.053135604
255	0x24	0.032980718

sequential/quant_dense_1/MatMul;sequential/quant_dense_1/LastValueQuant/FakeQuantWithMinMaxVars i1 [50, 100] scale=0.0016830667 zero_point=0
0	0x13	0.03197827
1	0xed	-0.03197827
2	0x4c	0.12791307
3	0x57	0.1464268
4	0x5e	0.15820827
5	0x08	0.013464534
6	0xdc	-0.0605904
7	0x69	0.176722
8	0xd5	-0.07237187
9	0x6a	0.17840508
10	0xc1	-0.106033206
11	0x25	0.06227347
12	0xb6	-0.12454694
13	0x2b	0.07237187
14	0x03	0.0050492003
15	0xb2	-0.1312792
16	0x34	0.08751947
17	0x52	0.13801147
18	0xba	-0.11781467
19	0xe2	-0.050492
20	0xff	-0.0016830667
21	0x98	-0.17503893
22	0xe5	-0.0454428
23	0x04	0.006732267
24	0xbd	-0.11276547
25	0xdd	-0.058907334
26	0x07	0.011781467
27	0xdf	-0.055541202
28	0x15	0.0353444
29	0x1a	0.043759733
30	0x58	0.14810987
31	0x37	0.092568666
32	0x6d	0.18345428
33	0x5b	0.15315907
34	0x3f	0.106033206
35	0xea	-0.037027467
36	0xda	-0.06395654
37	0x2b	0.07237187
38	0x01	0.0016830667
39	0x34	0.08751947
40	0x14	0.033661336
41	0x5c	0.15484214
42	0x9f	-0.16325746
43	0x5b	0.15315907
44	0xf4	-0.020196801
45	0x3b	0.099300936
46	0x67	0.17335588
47	0xaf	-0.1363284
48	0x13	0.03197827
49	0xf8	-0.013464534
50	0x57	0.1464268
51	0x4b	0.12623
52	0x35	0.08920254
53	0x79	0.20365107
54	0x6b	0.18008813
55	0x3a	0.09761787
56	0x5e	0.15820827
57	0xff	-0.0016830667
58	0x3f	0.106033206
59	0x18	0.040393602
60	0x04	0.006732267
61	0x49	0.122863874
62	0xef	-0.028612135
63	0x1d	0.048808936
64	0xea	-0.037027467
65	0x25	0.06227347
66	0xff	-0.0016830667
67	0x08	0.013464534
68	0x43	0.11276547
69	0xf2	-0.023562934
70	0x0e	0.023562934
71	0x2d	0.075738005
72	0xa8	-0.14810987
73	0x49	0.122863874
74	0x5f	0.15989134
75	0x63	0.1666236
76	0xd1	-0.07910413
77	0x02	0.0033661334
78	0x05	0.008415334
79	0x9a	-0.1716728
80	0x2d	0.075738005
81	0x9f	-0.16325746
82	0xdf	-0.055541202
83	0x3e	0.104350135
84	0x04	0.006732267
85	0x19	0.04207667
86	0x38	0.09425174
87	0xdd	-0.058907334
88	0x70	0.18850347
89	0x71	0.19018655
90	0xb9	-0.11949774
91	0xf1	-0.025246
92	0x4d	0.12959614
93	0x15	0.0353444
94	0xde	-0.05722427
95	0xed	-0.03197827
96	0xb5	-0.12623
97	0x58	0.14810987
98	0xe1	-0.052175067
99	0x93	-0.18345428
100	0x17	0.038710535
101	0xe0	-0.053858135
102	0x94	-0.1817712
103	0x90	-0.18850347
104	0xed	-0.03197827
105	0x18	0.040393602
106	0xb0	-0.13464534
107	0x51	0.1363284
108	0xf1	-0.025246
109	0x5d	0.15652521
110	0x6a	0.17840508
111	0xd9	-0.0656396
112	0xb8	-0.1211808
113	0xa4	-0.15484214
114	0xa3	-0.15652521
115	0x9f	-0.16325746
116	0xa5	-0.15315907
117	0x3a	0.09761787
118	0xcb	-0.08920254
119	0x13	0.03197827
120	0x18	0.040393602
121	0xec	-0.033661336
122	0x3b	0.099300936
123	0x34	0.08751947
124	0x4c	0.12791307
125	0x3d	0.10266707
126	0xcb	-0.08920254
127	0xe6	-0.043759733
128	0x60	0.16157441
129	0xb2	-0.1312792
130	0xe5	-0.0454428
131	0xc5	-0.099300936
132	0x5a	0.15147601
133	0xe4	-0.04712587
134	0x3c	0.100984
135	0x01	0.0016830667
136	0xd7	-0.069005735
137	0xdb	-0.06227347
138	0x37	0.092568666
139	0x02	0.0033661334
140	0x1b	0.0454428
141	0x58	0.14810987
142	0x61	0.16325746
143	0xf1	-0.025246
144	0x4b	0.12623
145	0x45	0.1161316
146	0x6e	0.18513733
147	0x5b	0.15315907
148	0x9d	-0.1666236
149	0x33	0.0858364
150	0xb5	-0.12623
151	0x9d	-0.1666236
152	0x09	0.0151476
153	0x52	0.13801147
154	0xa7	-0.14979294
155	0x34	0.08751947
156	0x03	0.0050492003
157	0x22	0.05722427
158	0xf3	-0.021879867
159	0x41	0.10939933
160	0xa2	-0.15820827
161	0x4d	0.12959614
162	0xf6	-0.016830668
163	0xce	-0.08415334
164	0x1c	0.04712587
165	0x5d	0.15652521
166	0xd2	-0.07742107
167	0x2d	0.075738005
168	0x2c	0.074054934
169	0x14	0.033661336
170	0x6c	0.1817712
171	0x29	0.069005735
172	0xbe	-0.111082405
173	0xf8	-0.013464534
174	0x0a	0.016830668
175	0xb8	-0.1211808
176	0xfb	-0.008415334
177	0x4d	0.12959614
178	0x6d	0.18345428
179	0x69	0.176722
180	0x4e	0.1312792
181	0x0c	0.020196801
182	0x91	-0.1868204
183	0x62	0.16494054
184	0xff	-0.0016830667
185	0x12	0.0302952
186	0x4c	0.12791307
187	0xfb	-0.008415334
188	0xc4	-0.100984
189	0x9b	-0.16998973
190	0xcc	-0.08751947
191	0xfb	-0.008415334
192	0xae	-0.13801147
193	0x8d	-0.19355267
194	0xcb	-0.08920254
195	0x07	0.011781467
196	0x11	0.028612135
197	0x69	0.176722
198	0x6c	0.1817712
199	0x26	0.06395654
200	0x3a	0.09761787
201	0x60	0.16157441
202	0xfe	-0.0033661334
203	0x0b	0.018513734
204	0x0f	0.025246
205	0xc3	-0.10266707
206	0x36	0.0908856
207	0xca	-0.0908856
208	0x78	0.201968
209	0x03	0.0050492003
210	0xff	-0.0016830667
211	0x6e	0.18513733
212	0x33	0.0858364
213	0x2d	0.075738005
214	0x92	-0.18513733
215	0x28	0.06732267
216	0x8d	-0.19355267
217	0xb6	-0.12454694
218	0xc7	-0.0959348
219	0x1d	0.048808936
220	0x3b	0.099300936
221	0x25	0.06227347
222	0xf6	-0.016830668
223	0x38	0.09425174
224	0x97	-0.176722
225	0x40	0.10771627
226	0xe1	-0.052175067
227	0x4a	0.12454694
228	0xbd	-0.11276547
229	0x91	-0.1868204
230	0xa2	-0.15820827
231	0x54	0.1413776
232	0xc1	-0.106033206
233	0x41	0.10939933
234	0x25	0.06227347
235	0xbe	-0.111082405
236	0x5b	0.15315907
237	0x9a	-0.1716728
238	0x5e	0.15820827
239	0xb3	-0.12959614
240	0x48	0.1211808
241	0x35	0.08920254
242	0x15	0.0353444
243	0x9a	-0.1716728
244	0xcc	-0.08751947
245	0xfe	-0.0033661334
246	0xeb	-0.0353444
247	0x5b	0.15315907
248	0x9b	-0.16998973
249	0x3d	0.10266707
250	0xb5	-0.12623
251	0x51	0.1363284
252	0xa8	-0.14810987
253	0x73	0.19355267
254	0x4f	0.13296227
255	0xd2	-0.07742107

sequential/quant_dense_2/MatMul;sequential/quant_dense_2/LastValueQuant/FakeQuantWithMinMaxVars i1 [10, 50] scale=0.0025261245 zero_point=0
0	0xe3	-0.07325761
1	0x26	0.09599273
2	0xec	-0.05052249
3	0xaf	-0.20461608
4	0x73	0.2905043
5	0xbc	-0.17177646
6	0x71	0.28545207
7	0x7b	0.31071332
8	0x78	0.30313495
9	0x36	0.13641073
10	0x8e	-0.2879782
11	0x84	-0.31323943
12	0x65	0.25513858
13	0x76	0.29808268
14	0x49	0.18440709
15	0xdf	-0.08336211
16	0x14	0.05052249
17	0xf6	-0.025261246
18	0x56	0.21724671
19	0x7e	0.3182917
20	0x56	0.21724671
21	0x2f	0.11872785
22	0x86	-0.3081872
23	0x54	0.21219446
24	0x51	0.20461608
25	0x0b	0.027787369
26	0x52	0.2071422
27	0x1c	0.07073148
28	0x6d	0.27534756
29	0xbb	-0.1743026
30	0x31	0.1237801
31	0xbc	-0.17177646
32	0xd5	-0.108623356
33	0x6c	0.27282146
34	0x95	-0.27029532
35	0x75	0.29555658
36	0x7c	0.31323943
37	0x4a	0.1869332
38	0xed	-0.047996365
39	0x4c	0.19198546
40	0x6b	0.27029532
41	0x05	0.012630623
42	0xd4	-0.111149475
43	0x39	0.1439891
44	0x10	0.04041799
45	0x49	0.18440709
46	0x2e	0.11620173
47	0x5c	0.23240346
48	0xb4	-0.19198546
49	0xa9	-0.21977283
50	0xf4	-0.030313494
51	0x60	0.24250795
52	0x17	0.058100864
53	0xac	-0.21219446
54	0x60	0.24250795
55	0x65	0.25513858
56	0x69	0.26524308
57	0x9b	-0.25513858
58	0x2a	0.10609723
59	0x5d	0.23492958
60	0x5a	0.2273512
61	0xf1	-0.03789187
62	0x95	-0.27029532
63	0x3c	0.15156747
64	0x4e	0.19703771
65	0x42	0.16672422
66	0xac	-0.21219446
67	0x3c	0.15156747
68	0xb2	-0.19703771
69	0x78	0.30313495
70	0xb3	-0.19451158
71	0x15	0.053048614
72	0xdd	-0.088414356
73	0x47	0.17935483
74	0x78	0.30313495
75	0x2d	0.1136756
76	0x07	0.01768287
77	0xc2	-0.15661971
78	0x31	0.1237801
79	0xd5	-0.108623356
80	0xde	-0.08588823
81	0x1a	0.06567924
82	0xd7	-0.1035711
83	0x79	0.30566105
84	0x38	0.14146297
85	0xae	-0.2071422
86	0xc9	-0.13893685
87	0x1a	0.06567924
88	0xbc	-0.17177646
89	0xe7	-0.06315311
90	0xee	-0.04547024
91	0x90	-0.28292593
92	0xd9	-0.098518856
93	0x26	0.09599273
94	0x4e	0.19703771
95	0x28	0.10104498
96	0x6e	0.2778737
97	0x43	0.16925034
98	0xc1	-0.15914585
99	0x57	0.21977283
100	0x16	0.055574737
101	0x9b	-0.25513858
102	0xfb	-0.012630623
103	0x36	0.13641073
104	0x8a	-0.29808268
105	0x38	0.14146297
106	0x95	-0.27029532
107	0x71	0.28545207
108	0x99	-0.2601908
109	0xdb	-0.0934666
110	0x4b	0.18945934
111	0xf8	-0.020208996
112	0x00	0.0
113	0x52	0.2071422
114	0x61	0.24503407
115	0x8f	-0.28545207
116	0x91	-0.28039983
117	0x3b	0.14904134
118	0xfd	-0.0075783734
119	0x84	-0.31323943
120	0x60	0.24250795
121	0x75	0.29555658
122	0xbb	-0.1743026
123	0x61	0.24503407
124	0x31	0.1237801
125	0xc7	-0.1439891
126	0xf0	-0.04041799
127	0xcf	-0.1237801
128	0x0b	0.027787369
129	0xb3	-0.19451158
130	0x21	0.08336211
131	0xe4	-0.07073148
132	0xef	-0.042944115
133	0x99	-0.2601908
134	0xd2	-0.11620173
135	0x14	0.05052249
136	0x6e	0.2778737
137	0x5d	0.23492958
138	0x39	0.1439891
139	0x20	0.08083598
140	0xcd	-0.12883236
141	0x89	-0.3006088
142	0xb8	-0.18188097
143	0xcd	-0.12883236
144	0xd3	-0.1136756
145	0x16	0.055574737
146	0xdc	-0.09094048
147	0x9b	-0.25513858
148	0xea	-0.055574737
149	0xb9	-0.17935483
150	0x47	0.17935483
151	0x20	0.08083598
152	0xf1	-0.03789187
153	0x2c	0.111149475
154	0x2f	0.11872785
155	0xec	-0.05052249
156	0xfc	-0.010104498
157	0xcc	-0.13135847
158	0x98	-0.26271695
159	0x57	0.21977283
160	0x4d	0.19451158
161	0xf0	-0.04041799
162	0x84	-0.31323943
163	0xa1	-0.23998183
164	0xc2	-0.15661971
165	0x0b	0.027787369
166	0x1c	0.07073148
167	0xfb	-0.012630623
168	0xf1	-0.03789187
169	0xcc	-0.13135847
170	0x12	0.04547024
171	0x6e	0.2778737
172	0x05	0.012630623
173	0x58	0.22229895
174	0xdd	-0.088414356
175	0x53	0.20966834
176	0x5a	0.2273512
177	0x5b	0.22987732
178	0xac	-0.21219446
179	0x2b	0.108623356
180	0x06	0.015156747
181	0xee	-0.04547024
182	0xc7	-0.1439891
183	0x8a	-0.29808268
184	0x1f	0.07830986
185	0x94	-0.27282146
186	0x78	0.30313495
187	0x14	0.05052249
188	0x77	0.3006088
189	0x92	-0.2778737
190	0x2c	0.111149475
191	0x0d	0.03283962
192	0x33	0.12883236
193	0x13	0.047996365
194	0x17	0.058100864
195	0x70	0.28292593
196	0xb1	-0.19956383
197	0x45	0.1743026
198	0x13	0.047996365
199	0x4f	0.19956383
200	0xe2	-0.07578374
201	0xef	-0.042944115
202	0xaf	-0.20461608
203	0x9d	-0.25008634
204	0xce	-0.12630622
205	0x5b	0.22987732
206	0xb7	-0.18440709
207	0x78	0.30313495
208	0x0e	0.03536574
209	0x37	0.13893685
210	0xe8	-0.060626987
211	0xa8	-0.22229895
212	0x20	0.08083598
213	0x1e	0.07578374
214	0xf6	-0.025261246
215	0xda	-0.09599273
216	0x4c	0.19198546
217	0xfd	-0.0075783734
218	0x9b	-0.25513858
219	0x1b	0.068205364
220	0x39	0.1439891
221	0xd1	-0.11872785
222	0x6c	0.27282146
223	0xf2	-0.03536574
224	0x4d	0.19451158
225	0xf6	-0.025261246
226	0xdc	-0.09094048
227	0x6d	0.27534756
228	0x15	0.053048614
229	0x0f	0.03789187
230	0x48	0.18188097
231	0xa4	-0.23240346
232	0x76	0.29808268
233	0x45	0.1743026
234	0x3b	0.14904134
235	0x71	0.28545207
236	0x33	0.12883236
237	0xe1	-0.07830986
238	0xff	-0.0025261245
239	0xa9	-0.21977283
240	0x61	0.24503407
241	0x03	0.0075783734
242	0xe2	-0.07578374
243	0x32	0.12630622
244	0xc4	-0.15156747
245	0xdc	-0.09094048
246	0x25	0.0934666
247	0x87	-0.30566105
248	0x41	0.16419809
249	0x02	0.005052249
250	0x0d	0.03283962
251	0x36	0.13641073
252	0x01	0.0025261245
253	0x9c	-0.25261244
254	0x34	0.13135847
255	0x1a	0.06567924

sequential/quant_output/MatMul;sequential/quant_output/LastValueQuant/FakeQuantWithMinMaxVars i1 [1, 10] scale=0.0055212826 zero_point=0
0	0xb7	-0.40305364
1	0x9d	-0.54660696
2	0xd4	-0.24293643
3	0xd3	-0.24845771
4	0x36	0.29814926
5	0x81	-0.70120287
6	0x20	0.17668104
7	0xd6	-0.23189387
8	0x7e	0.6956816
9	0x82	-0.6956816
