models/opt-160x66x3.tflite (tflite, 234720 bytes, 9 tensors)

sequential_4/quant_conv2d_19/Conv2D;sequential_4/quant_conv2d_19/LastValueQuant/FakeQuantWithMinMaxVarsPerChannel i1 [24, 5, 5, 3]
0	0x62	98
1	0x95	-107
2	0x13	19
3	0xa6	-90
4	0xa7	-89
5	0x33	51
6	0x24	36
7	0x11	17
8	0x2e	46
9	0x62	98
10	0x1c	28
11	0x16	22
12	0x55	85
13	0x11	17
14	0xb1	-79
15	0x18	24
16	0xd0	-48
17	0xc0	-64
18	0x60	96
19	0xa6	-90
20	0x03	3
21	0x7f	127
22	0x3a	58
23	0x38	56
24	0x63	99
25	0xb2	-78
26	0xe6	-26
27	0x62	98
28	0x17	23
29	0x63	99
30	0x7a	122
31	0x0a	10
32	0x3e	62
33	0x32	50
34	0x2e	46
35	0x12	18
36	0xfa	-6
37	0xe6	-26
38	0x0d	13
39	0xa1	-95
40	0x16	22
41	0xc2	-62
42	0xce	-50
43	0x17	23
44	0xc7	-57
45	0xa1	-95
46	0x56	86
47	0x04	4
48	0xf8	-8
49	0xc9	-55
50	0xe9	-23
51	0xa3	-93
52	0xd0	-48
53	0x6e	110
54	0x62	98
55	0xe2	-30
56	0x5d	93
57	0x75	117
58	0x53	83
59	0x21	33
60	0x1b	27
61	0xb9	-71
62	0xe7	-25
63	0x2f	47
64	0xa4	-92
65	0x36	54
66	0x91	-111
67	0x06	6
68	0x9c	-100
69	0x4b	75
70	0xfa	-6
71	0x1a	26
72	0x0e	14
73	0x1f	31
74	0x59	89
75	0x88	-120
76	0x99	-103
77	0xbf	-65
78	0x7f	127
79	0xf3	-13
80	0x1e	30
81	0x05	5
82	0x40	64
83	0x0c	12
84	0x3e	62
85	0x96	-106
86	0x37	55
87	0xd0	-48
88	0x49	73
89	0xa8	-88
90	0xdf	-33
91	0x0e	14
92	0xfe	-2
93	0x02	2
94	0x88	-120
95	0xcd	-51
96	0xd8	-40
97	0xed	-19
98	0x93	-109
99	0x7d	125
100	0x6a	106
101	0xb7	-73
102	0x73	115
103	0xbd	-67
104	0xb7	-73
105	0x73	115
106	0x1c	28
107	0xb7	-73
108	0x1e	30
109	0xa7	-89
110	0xcc	-52
111	0x6f	111
112	0x75	117
113	0x2b	43
114	0x1c	28
115	0x7b	123
116	0x61	97
117	0x42	66
118	0xf5	-11
119	0xe6	-26
120	0x4b	75
121	0x29	41
122	0x18	24
123	0x66	102
124	0x54	84
125	0x77	119
126	0x31	49
127	0x22	34
128	0x07	7
129	0x31	49
130	0x48	72
131	0xad	-83
132	0x5e	94
133	0x23	35
134	0xbe	-66
135	0x04	4
136	0x18	24
137	0xdc	-36
138	0xea	-22
139	0xb3	-77
140	0x64	100
141	0xf3	-13
142	0xb6	-74
143	0x86	-122
144	0x34	52
145	0xdc	-36
146	0x83	-125
147	0x2e	46
148	0xd1	-47
149	0x8d	-115
150	0x44	68
151	0xb7	-73
152	0xb3	-77
153	0x27	39
154	0xc7	-57
155	0x42	66
156	0x48	72
157	0xda	-38
158	0x40	64
159	0xe4	-28
160	0xdb	-37
161	0xfa	-6
162	0x6d	109
163	0xe4	-28
164	0x7f	127
165	0xb9	-71
166	0x28	40
167	0xef	-17
168	0x30	48
169	0xe1	-31
170	0x06	6
171	0xeb	-21
172	0xfe	-2
173	0xd8	-40
174	0x3a	58
175	0x5e	94
176	0xca	-54
177	0xbb	-69
178	0xdd	-35
179	0x06	6
180	0xcd	-51
181	0x50	80
182	0xbe	-66
183	0xc0	-64
184	0x20	32
185	0x6e	110
186	0x1d	29
187	0x11	17
188	0x5a	90
189	0xe4	-28
190	0x44	68
191	0x66	102
192	0x34	52
193	0xdb	-37
194	0x69	105
195	0x56	86
196	0xb0	-80
197	0x27	39
198	0xf2	-14
199	0x3d	61
200	0x1e	30
201	0xa4	-92
202	0x47	71
203	0x52	82
204	0x09	9
205	0x17	23
206	0xf9	-7
207	0xee	-18
208	0xbd	-67
209	0xf4	-12
210	0x4f	79
211	0xb2	-78
212	0x75	117
213	0xe0	-32
214	0x6b	107
215	0xc2	-62
216	0x66	102
217	0x49	73
218	0x52	82
219	0x68	104
220	0x14	20
221	0x29	41
222	0x16	22
223	0x36	54
224	0x48	72
225	0x3f	63
226	0xc7	-57
227	0x9b	-101
228	0x3c	60
229	0x4d	77
230	0x3e	62
231	0x7e	126
232	0x53	83
233	0xaa	-86
234	0x0f	15
235	0xb5	-75
236	0xf4	-12
237	0xc2	-62
238	0x4a	74
239	0x4b	75
240	0x7f	127
241	0xc9	-55
242	0x38	56
243	0xe0	-32
244	0x70	112
245	0x71	113
246	0x61	97
247	0x67	103
248	0x31	49
249	0x46	70
250	0x2a	42
251	0x29	41
252	0xaa	-86
253	0xe6	-26
254	0xf6	-10
255	0x4e	78

sequential_4/quant_conv2d_20/Conv2D;sequential_4/quant_conv2d_20/LastValueQuant/FakeQuantWithMinMaxVarsPerChannel i1 [36, 5, 5, 24]
0	0xb8	-72
1	0xdf	-33
2	0xbc	-68
3	0x38	56
4	0xda	-38
5	0x53	83
6	0x38	56
7	0x9c	-100
8	0x27	39
9	0xf0	-16
10	0x0b	11
11	0xe4	-28
12	0x24	36
13	0xfd	-3
14	0x63	99
15	0x94	-108
16	0xd8	-40
17	0x49	73
18	0x2a	42
19	0x5b	91
20	0x1f	31
21	0x59	89
22	0xcf	-49
23	0xbb	-69
24	0x90	-112
25	0x09	9
26	0xd4	-44
27	0xfd	-3
28	0x06	6
29	0xbe	-66
30	0xe8	-24
31	0x12	18
32	0xf9	-7
33	0x50	80
34	0x2d	45
35	0x4d	77
36	0x2f	47
37	0x9a	-102
38	0x4b	75
39	0xb3	-77
40	0x09	9
41	0x08	8
42	0x52	82
43	0x18	24
44	0xc4	-60
45	0xb6	-74
46	0x5d	93
47	0x3e	62
48	0x8d	-115
49	0x60	96
50	0x44	68
51	0xe2	-30
52	0xaa	-86
53	0xba	-70
54	0x42	66
55	0xe5	-27
56	0xf7	-9
57	0x00	0
58	0xd4	-44
59	0x1e	30
60	0xcb	-53
61	0x51	81
62	0x18	24
63	0xa5	-91
64	0x3f	63
65	0xa4	-92
66	0xdc	-36
67	0x15	21
68	0xb7	-73
69	0x1f	31
70	0x22	34
71	0xd6	-42
72	0xd0	-48
73	0x51	81
74	0x5f	95
75	0x4d	77
76	0xfa	-6
77	0x00	0
78	0xad	-83
79	0x0a	10
80	0x98	-104
81	0x35	53
82	0xf9	-7
83	0x40	64
84	0xa8	-88
85	0xf9	-7
86	0x3d	61
87	0xa9	-87
88	0xf3	-13
89	0xdf	-33
90	0xee	-18
91	0xf7	-9
92	0x57	87
93	0x0c	12
94	0x35	53
95	0xf3	-13
96	0x8e	-114
97	0xe6	-26
98	0x99	-103
99	0xd4	-44
100	0x91	-111
101	0x6f	111
102	0x49	73
103	0xa2	-94
104	0x66	102
105	0x2f	47
106	0xaf	-81
107	0xa0	-96
108	0x2b	43
109	0x44	68
110	0x50	80
111	0x15	21
112	0x99	-103
113	0x18	24
114	0xa4	-92
115	0x34	52
116	0x51	81
117	0x23	35
118	0x99	-103
119	0xc7	-57
120	0x1f	31
121	0xc2	-62
122	0x34	52
123	0xc8	-56
124	0x3a	58
125	0xd0	-48
126	0x3d	61
127	0xd6	-42
128	0x68	104
129	0xd1	-47
130	0xc0	-64
131	0xa0	-96
132	0xcb	-53
133	0xa8	-88
134	0xce	-50
135	0xa2	-94
136	0x16	22
137	0xf6	-10
138	0x67	103
139	0x14	20
140	0x61	97
141	0xe7	-25
142	0xcc	-52
143	0x22	34
144	0xa9	-87
145	0xea	-22
146	0x1e	30
147	0xac	-84
148	0x0f	15
149	0xd0	-48
150	0x57	87
151	0xe6	-26
152	0x2b	43
153	0x96	-106
154	0x10	16
155	0x1d	29
156	0x67	103
157	0xdb	-37
158	0x1c	28
159	0x55	85
160	0xcd	-51
161	0x8d	-115
162	0x14	20
163	0xf5	-11
164	0x50	80
165	0x04	4
166	0xf7	-9
167	0x1c	28
168	0x42	66
169	0x40	64
170	0xfd	-3
171	0x9a	-102
172	0x35	53
173	0xdb	-37
174	0xc7	-57
175	0x26	38
176	0x33	51
177	0x1c	28
178	0xd8	-40
179	0x06	6
180	0xa7	-89
181	0x49	73
182	0xb6	-74
183	0xab	-85
184	0x90	-112
185	0x19	25
186	0x64	100
187	0xcd	-51
188	0xd1	-47
189	0x3a	58
190	0xbb	-69
191	0x44	68
192	0x58	88
193	0x4f	79
194	0x0a	10
195	0x8e	-114
196	0x00	0
197	0xff	-1
198	0x6b	107
199	0x99	-103
200	0xd9	-39
201	0x67	103
202	0x5b	91
203	0xf6	-10
204	0x0a	10
205	0x4c	76
206	0xfa	-6
207	0x5a	90
208	0x67	103
209	0x20	32
210	0xb0	-80
211	0x62	98
212	0xdd	-35
213	0x97	-105
214	0xf1	-15
215	0x9e	-98
216	0xbc	-68
217	0xe8	-24
218	0xdc	-36
219	0xdf	-33
220	0x17	23
221	0x5e	94
222	0x2d	45
223	0xfc	-4
224	0x2f	47
225	0xe3	-29
226	0xd5	-43
227	0x47	71
228	0x26	38
229	0xe7	-25
230	0xb8	-72
231	0x55	85
232	0xdd	-35
233	0x92	-110
234	0x11	17
235	0x4f	79
236	0x53	83
237	0xdf	-33
238	0x27	39
239	0xf1	-15
240	0x97	-105
241	0x37	55
242	0xe1	-31
243	0xb9	-71
244	0x13	19
245	0xc0	-64
246	0x42	66
247	0x3d	61
248	0xb2	-78
249	0x60	96
250	0xc9	-55
251	0x65	101
252	0xe8	-24
253	0xd6	-42
254	0x30	48
255	0xb8	-72

sequential_4/quant_conv2d_21/Conv2D;sequential_4/quant_conv2d_21/LastValueQuant/FakeQuantWithMinMaxVarsPerChannel i1 [48, 5, 5, 36]
0	0xcf	-49
1	0xca	-54
2	0x13	19
3	0x07	7
4	0xb4	-76
5	0x36	54
6	0xd6	-42
7	0xd4	-44
8	0xbc	-68
9	0xaf	-81
10	0x13	19
11	0xef	-17
12	0xd1	-47
13	0xd4	-44
14	0xb7	-73
15	0x3e	62
16	0x3f	63
17	0x23	35
18	0xcd	-51
19	0xc6	-58
20	0x59	89
21	0x39	57
22	0x2d	45
23	0xeb	-21
24	0x4b	75
25	0x0b	11
26	0xe9	-23
27	0xb5	-75
28	0x24	36
29	0xf8	-8
30	0xce	-50
31	0xea	-22
32	0x00	0
33	0xce	-50
34	0xb5	-75
35	0xcc	-52
36	0x2a	42
37	0xe2	-30
38	0xd4	-44
39	0x04	4
40	0xad	-83
41	0xb7	-73
42	0x49	73
43	0xe7	-25
44	0xe4	-28
45	0x10	16
46	0x41	65
47	0xc5	-59
48	0xf3	-13
49	0x10	16
50	0xfd	-3
51	0xca	-54
52	0x4f	79
53	0xe5	-27
54	0x46	70
55	0x9c	-100
56	0x3e	62
57	0xd8	-40
58	0xd3	-45
59	0x0a	10
60	0xe4	-28
61	0x20	32
62	0x03	3
63	0x17	23
64	0xa5	-91
65	0xc9	-55
66	0x5d	93
67	0x0c	12
68	0x00	0
69	0xde	-34
70	0x99	-103
71	0xc3	-61
72	0xb4	-76
73	0x35	53
74	0xd7	-41
75	0x1f	31
76	0x32	50
77	0xf8	-8
78	0xb1	-79
79	0x1b	27
80	0x44	68
81	0xc0	-64
82	0x03	3
83	0x9e	-98
84	0x2a	42
85	0xe8	-24
86	0xcf	-49
87	0xa7	-89
88	0xc0	-64
89	0x1c	28
90	0x0c	12
91	0x46	70
92	0x3d	61
93	0x12	18
94	0x09	9
95	0x02	2
96	0xfc	-4
97	0x03	3
98	0x24	36
99	0x4b	75
100	0xdd	-35
101	0x22	34
102	0x41	65
103	0x3e	62
104	0x12	18
105	0xdf	-33
106	0x06	6
107	0x32	50
108	0xe1	-31
109	0x1f	31
110	0x06	6
111	0xda	-38
112	0xf9	-7
113	0x15	21
114	0xc0	-64
115	0x54	84
116	0xf7	-9
117	0xeb	-21
118	0xab	-85
119	0xb3	-77
120	0xd9	-39
121	0x24	36
122	0x4b	75
123	0x4c	76
124	0x45	69
125	0xa7	-89
126	0x53	83
127	0x62	98
128	0x2d	45
129	0x5a	90
130	0xd0	-48
131	0x2c	44
132	0xa7	-89
133	0x34	52
134	0x01	1
135	0x1a	26
136	0x43	67
137	0xcd	-51
138	0x06	6
139	0xe2	-30
140	0xb1	-79
141	0xaa	-86
142	0x0e	14
143	0xb4	-76
144	0xc9	-55
145	0x0b	11
146	0x0e	14
147	0xc0	-64
148	0xb7	-73
149	0x23	35
150	0x5b	91
151	0xe6	-26
152	0xb9	-71
153	0xd9	-39
154	0x3d	61
155	0xfa	-6
156	0xf1	-15
157	0xda	-38
158	0x0c	12
159	0x3f	63
160	0x18	24
161	0x27	39
162	0x31	49
163	0x51	81
164	0x08	8
165	0xdf	-33
166	0xa3	-93
167	0x3d	61
168	0x44	68
169	0xd8	-40
170	0x00	0
171	0x4e	78
172	0x2e	46
173	0x45	69
174	0xb3	-77
175	0x33	51
176	0x37	55
177	0x27	39
178	0x1e	30
179	0xa4	-92
180	0xc7	-57
181	0x40	64
182	0x10	16
183	0x00	0
184	0x4a	74
185	0xcc	-52
186	0x2b	43
187	0x08	8
188	0x01	1
189	0x00	0
190	0x32	50
191	0x26	38
192	0xec	-20
193	0xb2	-78
194	0x59	89
195	0x5e	94
196	0xc0	-64
197	0x07	7
198	0xc5	-59
199	0xdf	-33
200	0xbe	-66
201	0x3d	61
202	0xaf	-81
203	0x04	4
204	0xb9	-71
205	0xc2	-62
206	0x3b	59
207	0xda	-38
208	0xc2	-62
209	0x37	55
210	0x50	80
211	0x1c	28
212	0x39	57
213	0xd6	-42
214	0xe1	-31
215	0x32	50
216	0x60	96
217	0x0a	10
218	0x2f	47
219	0xb2	-78
220	0x23	35
221	0x4d	77
222	0xc0	-64
223	0x42	66
224	0x67	103
225	0xa1	-95
226	0xda	-38
227	0xf4	-12
228	0x5b	91
229	0x3f	63
230	0x0a	10
231	0x20	32
232	0xb5	-75
233	0x35	53
234	0xff	-1
235	0x41	65
236	0xbb	-69
237	0x08	8
238	0x1f	31
239	0x36	54
240	0x17	23
241	0x54	84
242	0x2f	47
243	0x18	24
244	0xdc	-36
245	0xbf	-65
246	0xa5	-91
247	0xd6	-42
248	0x0a	10
249	0xf4	-12
250	0x57	87
251	0x52	82
252	0xb8	-72
253	0x24	36
254	0x2d	45
255	0xd8	-40

sequential_4/quant_conv2d_22/Conv2D;sequential_4/quant_conv2d_22/LastValueQuant/FakeQuantWithMinMaxVarsPerChannel i1 [64, 3, 3, 48]
0	0xab	-85
1	0x5a	90
2	0xf7	-9
3	0x2d	45
4	0x2c	44
5	0xf1	-15
6	0xd0	-48
7	0xb8	-72
8	0xaa	-86
9	0xd3	-45
10	0xb1	-79
11	0xd0	-48
12	0xfa	-6
13	0xa4	-92
14	0xb0	-80
15	0x05	5
16	0xb3	-77
17	0xdc	-36
18	0x9e	-98
19	0xb5	-75
20	0x5f	95
21	0x06	6
22	0x6b	107
23	0xfb	-5
24	0xa2	-94
25	0xf5	-11
26	0x22	34
27	0x56	86
28	0x36	54
29	0xd3	-45
30	0xc6	-58
31	0x1f	31
32	0xb1	-79
33	0x9e	-98
34	0x90	-112
35	0xb9	-71
36	0x38	56
37	0x2f	47
38	0x0a	10
39	0x39	57
40	0xce	-50
41	0xbc	-68
42	0xed	-19
43	0x17	23
44	0x02	2
45	0x38	56
46	0x50	80
47	0x9b	-101
48	0xee	-18
49	0x4f	79
50	0xd4	-44
51	0x0a	10
52	0x47	71
53	0x25	37
54	0x4a	74
55	0x8f	-113
56	0xda	-38
57	0x9a	-102
58	0x4f	79
59	0x54	84
60	0x02	2
61	0x4d	77
62	0x37	55
63	0x34	52
64	0x25	37
65	0x14	20
66	0x51	81
67	0x1c	28
68	0xf2	-14
69	0xe8	-24
70	0x5a	90
71	0xd0	-48
72	0x29	41
73	0x08	8
74	0xdd	-35
75	0x34	52
76	0xe3	-29
77	0x5b	91
78	0x88	-120
79	0xa9	-87
80	0xc3	-61
81	0x1a	26
82	0x91	-111
83	0xbd	-67
84	0xa3	-93
85	0xf2	-14
86	0x06	6
87	0x3c	60
88	0x09	9
89	0xfa	-6
90	0xf7	-9
91	0xa7	-89
92	0x18	24
93	0x2c	44
94	0x3c	60
95	0x90	-112
96	0x8f	-113
97	0x59	89
98	0xd5	-43
99	0xcf	-49
100	0x41	65
101	0xda	-38
102	0xcd	-51
103	0x8c	-116
104	0x39	57
105	0xff	-1
106	0xf7	-9
107	0x3b	59
108	0xf6	-10
109	0x1d	29
110	0xd1	-47
111	0x60	96
112	0xd5	-43
113	0x1d	29
114	0xad	-83
115	0x8f	-113
116	0xac	-84
117	0xc8	-56
118	0xbd	-67
119	0xca	-54
120	0x12	18
121	0xee	-18
122	0x01	1
123	0x10	16
124	0x9f	-97
125	0xb8	-72
126	0x4b	75
127	0x6c	108
128	0xbc	-68
129	0xe2	-30
130	0xd9	-39
131	0xd6	-42
132	0xdf	-33
133	0x03	3
134	0x1f	31
135	0x5e	94
136	0x99	-103
137	0x17	23
138	0x9e	-98
139	0x2d	45
140	0x29	41
141	0xad	-83
142	0x0b	11
143	0xa6	-90
144	0x27	39
145	0x05	5
146	0xa8	-88
147	0x29	41
148	0x10	16
149	0xf4	-12
150	0x4f	79
151	0xf4	-12
152	0x13	19
153	0xbe	-66
154	0x25	37
155	0xe4	-28
156	0xf0	-16
157	0xa3	-93
158	0xae	-82
159	0xcf	-49
160	0x58	88
161	0xaf	-81
162	0xad	-83
163	0xeb	-21
164	0x33	51
165	0x08	8
166	0x0d	13
167	0x61	97
168	0x2f	47
169	0xff	-1
170	0xa6	-90
171	0xf9	-7
172	0x8c	-116
173	0x5e	94
174	0xbc	-68
175	0xc5	-59
176	0x55	85
177	0xce	-50
178	0xce	-50
179	0x63	99
180	0x94	-108
181	0xc3	-61
182	0x2f	47
183	0x30	48
184	0x5e	94
185	0x48	72
186	0x8b	-117
187	0xf3	-13
188	0x35	53
189	0x1e	30
190	0xcc	-52
191	0x34	52
192	0xaf	-81
193	0x01	1
194	0x31	49
195	0x35	53
196	0x90	-112
197	0x37	55
198	0xaa	-86
199	0x19	25
200	0x0d	13
201	0xdc	-36
202	0x8a	-118
203	0x8f	-113
204	0xc5	-59
205	0xf4	-12
206	0xb7	-73
207	0xe7	-25
208	0x89	-119
209	0x8e	-114
210	0xfb	-5
211	0xe4	-28
212	0xda	-38
213	0x39	57
214	0x42	66
215	0xf6	-10
216	0xd8	-40
217	0xc8	-56
218	0x28	40
219	0x16	22
220	0x13	19
221	0xf0	-16
222	0x9e	-98
223	0xb0	-80
224	0x37	55
225	0x53	83
226	0xb6	-74
227	0xdd	-35
228	0xb2	-78
229	0x38	56
230	0x4d	77
231	0xb6	-74
232	0xd7	-41
233	0xf7	-9
234	0xf1	-15
235	0xe9	-23
236	0xc8	-56
237	0x6f	111
238	0xba	-70
239	0xf2	-14
240	0x03	3
241	0x62	98
242	0x06	6
243	0x98	-104
244	0x5c	92
245	0x38	56
246	0x1e	30
247	0xf0	-16
248	0x33	51
249	0x21	33
250	0xa8	-88
251	0x09	9
252	0x09	9
253	0x36	54
254	0x67	103
255	0x33	51

sequential_4/quant_conv2d_23/Conv2D;sequential_4/quant_conv2d_23/LastValueQuant/FakeQuantWithMinMaxVarsPerChannel i1 [64, 3, 3, 64]
0	0x19	25
1	0xc5	-59
2	0x54	84
3	0xea	-22
4	0xd2	-46
5	0xbe	-66
6	0xba	-70
7	0xba	-70
8	0x03	3
9	0x00	0
10	0xd7	-41
11	0xd7	-41
12	0x01	1
13	0xac	-84
14	0x1d	29
15	0xe9	-23
16	0x5e	94
17	0xac	-84
18	0x9b	-101
19	0xea	-22
20	0xf3	-13
21	0x58	88
22	0xab	-85
23	0xc5	-59
24	0x2b	43
25	0xdf	-33
26	0x09	9
27	0xb4	-76
28	0x54	84
29	0xb3	-77
30	0x3a	58
31	0xf9	-7
32	0xd6	-42
33	0x28	40
34	0xb2	-78
35	0x13	19
36	0x01	1
37	0x1c	28
38	0x3d	61
39	0xc0	-64
40	0xaa	-86
41	0xe4	-28
42	0x08	8
43	0xb8	-72
44	0xc2	-62
45	0x35	53
46	0x0f	15
47	0x14	20
48	0xc3	-61
49	0x08	8
50	0x5d	93
51	0xab	-85
52	0x15	21
53	0xd1	-47
54	0x49	73
55	0xce	-50
56	0xdf	-33
57	0xcf	-49
58	0xb1	-79
59	0x9c	-100
60	0xeb	-21
61	0xa9	-87
62	0xb0	-80
63	0xc5	-59
64	0x33	51
65	0xea	-22
66	0xec	-20
67	0x54	84
68	0xa6	-90
69	0xe3	-29
70	0xf1	-15
71	0x47	71
72	0x58	88
73	0xcb	-53
74	0xac	-84
75	0x19	25
76	0xe7	-25
77	0x92	-110
78	0x1e	30
79	0x10	16
80	0xf7	-9
81	0x25	37
82	0xb1	-79
83	0x50	80
84	0x33	51
85	0xda	-38
86	0x29	41
87	0xb2	-78
88	0xb0	-80
89	0xe1	-31
90	0xa3	-93
91	0x2f	47
92	0xe9	-23
93	0xe0	-32
94	0x2b	43
95	0x4d	77
96	0xe6	-26
97	0x2d	45
98	0xee	-18
99	0xcb	-53
100	0x21	33
101	0x6c	108
102	0xb3	-77
103	0xa8	-88
104	0x19	25
105	0x0f	15
106	0x58	88
107	0x3d	61
108	0x42	66
109	0xef	-17
110	0x2a	42
111	0x27	39
112	0xbc	-68
113	0xd6	-42
114	0x1f	31
115	0x1d	29
116	0xf0	-16
117	0xbd	-67
118	0xcf	-49
119	0x56	86
120	0xa6	-90
121	0xaa	-86
122	0x0d	13
123	0xd6	-42
124	0xed	-19
125	0x4c	76
126	0x39	57
127	0xf5	-11
128	0x32	50
129	0x9b	-101
130	0xcf	-49
131	0xbb	-69
132	0xa0	-96
133	0x42	66
134	0xc4	-60
135	0xd0	-48
136	0xe2	-30
137	0x58	88
138	0xb2	-78
139	0xc5	-59
140	0xbd	-67
141	0x33	51
142	0xe1	-31
143	0x56	86
144	0xb1	-79
145	0x9d	-99
146	0x33	51
147	0x60	96
148	0xf8	-8
149	0x5c	92
150	0x67	103
151	0xdc	-36
152	0x18	24
153	0x4b	75
154	0xe6	-26
155	0xb7	-73
156	0x52	82
157	0x39	57
158	0xe3	-29
159	0xaf	-81
160	0xa7	-89
161	0x96	-106
162	0x40	64
163	0xa3	-93
164	0x8b	-117
165	0x37	55
166	0xad	-83
167	0x08	8
168	0xd8	-40
169	0xf2	-14
170	0xa7	-89
171	0x05	5
172	0x92	-110
173	0x10	16
174	0xa6	-90
175	0x3d	61
176	0xbf	-65
177	0xe7	-25
178	0x1b	27
179	0xf7	-9
180	0xbe	-66
181	0x66	102
182	0xb2	-78
183	0x49	73
184	0x3f	63
185	0x44	68
186	0x47	71
187	0x28	40
188	0x29	41
189	0x68	104
190	0xaf	-81
191	0xeb	-21
192	0x3e	62
193	0xf2	-14
194	0xc3	-61
195	0x11	17
196	0xb4	-76
197	0x27	39
198	0x1a	26
199	0xa7	-89
200	0xf6	-10
201	0x02	2
202	0xd5	-43
203	0x05	5
204	0xdd	-35
205	0xc3	-61
206	0xb3	-77
207	0xf8	-8
208	0x11	17
209	0xfc	-4
210	0x5d	93
211	0xae	-82
212	0xc7	-57
213	0x07	7
214	0xe5	-27
215	0xf2	-14
216	0xdc	-36
217	0x1b	27
218	0xa4	-92
219	0x35	53
220	0x10	16
221	0x31	49
222	0x10	16
223	0x5d	93
224	0xf4	-12
225	0xcf	-49
226	0x82	-126
227	0x39	57
228	0xd0	-48
229	0xba	-70
230	0xd9	-39
231	0xaa	-86
232	0x25	37
233	0xc4	-60
234	0x50	80
235	0x97	-105
236	0xb0	-80
237	0x0d	13
238	0xac	-84
239	0xa3	-93
240	0x07	7
241	0x33	51
242	0x23	35
243	0x17	23
244	0xd9	-39
245	0xe0	-32
246	0xac	-84
247	0xc5	-59
248	0xc0	-64
249	0x2a	42
250	0xe2	-30
251	0x4e	78
252	0x02	2
253	0xd3	-45
254	0x56	86
255	0x56	86

sequential_4/quant_dense_12/MatMul;sequential_4/quant_dense_12/LastValueQuant/FakeQuantWithMinMaxVars i1 [100, 832] scale=0.000910328 zero_point=0
0	0xaa	-0.078288205
1	0x39	0.051888697
2	0xa8	-0.080108866
3	0x36	0.049157713
4	0x0d	0.011834264
5	0xe1	-0.028220167
6	0x12	0.016385904
7	0x3b	0.05370935
8	0xed	-0.017296232
9	0xec	-0.01820656
10	0xe0	-0.029130496
11	0x0d	0.011834264
12	0x1d	0.026399512
13	0xea	-0.020027217
14	0xc8	-0.05097837
15	0xf3	-0.011834264
16	0xee	-0.016385904
17	0xbc	-0.061902303
18	0x15	0.019116888
19	0xd1	-0.042785417
20	0x2a	0.038233776
21	0x09	0.008192952
22	0xc0	-0.058260992
23	0xf5	-0.010013608
24	0x23	0.03186148
25	0xcf	-0.04460607
26	0xcc	-0.047337055
27	0xcd	-0.04642673
28	0x39	0.051888697
29	0xe9	-0.020937543
30	0x4e	0.07100558
31	0x51	0.07373657
32	0xf7	-0.008192952
33	0xa3	-0.08466051
34	0x08	0.007282624
35	0xa9	-0.07919854
36	0x0d	0.011834264
37	0x1b	0.024578856
38	0x11	0.015475576
39	0xb6	-0.067364275
40	0x26	0.034592465
41	0xbf	-0.05917132
42	0xda	-0.034592465
43	0x38	0.05097837
44	0x07	0.0063722963
45	0xb4	-0.06918493
46	0xa5	-0.08283985
47	0x30	0.043695744
48	0x4c	0.06918493
49	0xcf	-0.04460607
50	0xc0	-0.058260992
51	0x4e	0.07100558
52	0xf9	-0.0063722963
53	0xfc	-0.003641312
54	0x52	0.0746469
55	0x32	0.0455164
56	0xec	-0.01820656
57	0x01	0.000910328
58	0xe5	-0.024578856
59	0x46	0.06372296
60	0x43	0.060991976
61	0xcf	-0.04460607
62	0xbd	-0.060991976
63	0x16	0.020027217
64	0x48	0.065543614
65	0xbf	-0.05917132
66	0xd4	-0.040054433
67	0x17	0.020937543
68	0xb5	-0.0682746
69	0xe9	-0.020937543
70	0xd2	-0.041875087
71	0xce	-0.0455164
72	0xfd	-0.002730984
73	0x04	0.003641312
74	0xea	-0.020027217
75	0xac	-0.07646755
76	0x4e	0.07100558
77	0xbd	-0.060991976
78	0x16	0.020027217
79	0x07	0.0063722963
80	0x0b	0.010013608
81	0xce	-0.0455164
82	0xe2	-0.02730984
83	0xed	-0.017296232
84	0x25	0.033682138
85	0x07	0.0063722963
86	0xf5	-0.010013608
87	0xf1	-0.01365492
88	0x0a	0.00910328
89	0xbe	-0.06008165
90	0xc7	-0.051888697
91	0xe6	-0.023668528
92	0xed	-0.017296232
93	0x4b	0.0682746
94	0xdc	-0.032771807
95	0xed	-0.017296232
96	0xb7	-0.06645394
97	0xb0	-0.07282624
98	0x3a	0.052799024
99	0x3f	0.057350665
100	0xed	-0.017296232
101	0xf6	-0.00910328
102	0xec	-0.01820656
103	0x4b	0.0682746
104	0x57	0.07919854
105	0xd1	-0.042785417
106	0xf5	-0.010013608
107	0x15	0.019116888
108	0x27	0.03550279
109	0xc7	-0.051888697
110	0xa6	-0.08192952
111	0x3a	0.052799024
112	0xac	-0.07646755
113	0xb5	-0.0682746
114	0xc6	-0.052799024
115	0xe5	-0.024578856
116	0xfa	-0.005461968
117	0xb5	-0.0682746
118	0x30	0.043695744
119	0xba	-0.06372296
120	0xee	-0.016385904
121	0x06	0.005461968
122	0x1c	0.025489185
123	0x18	0.021847872
124	0x11	0.015475576
125	0xd1	-0.042785417
126	0xb3	-0.070095256
127	0xf9	-0.0063722963
128	0x4a	0.067364275
129	0x46	0.06372296
130	0xf5	-0.010013608
131	0xa8	-0.080108866
132	0xdc	-0.032771807
133	0xec	-0.01820656
134	0xad	-0.075557224
135	0x37	0.05006804
136	0xea	-0.020027217
137	0xd4	-0.040054433
138	0xb2	-0.07100558
139	0x23	0.03186148
140	0xf4	-0.010923936
141	0xd9	-0.03550279
142	0x4f	0.07191591
143	0xe5	-0.024578856
144	0xd2	-0.041875087
145	0xad	-0.075557224
146	0xd8	-0.03641312
147	0xe5	-0.024578856
148	0xd2	-0.041875087
149	0xb1	-0.07191591
150	0xae	-0.0746469
151	0xd7	-0.03732345
152	0x2a	0.038233776
153	0xba	-0.06372296
154	0xf3	-0.011834264
155	0x4c	0.06918493
156	0xad	-0.075557224
157	0x2c	0.040054433
158	0x0d	0.011834264
159	0x43	0.060991976
160	0x23	0.03186148
161	0x29	0.03732345
162	0xb9	-0.06463329
163	0xc1	-0.057350665
164	0xf4	-0.010923936
165	0xa8	-0.080108866
166	0xbe	-0.06008165
167	0xa4	-0.08375017
168	0xd6	-0.038233776
169	0xbe	-0.06008165
170	0x57	0.07919854
171	0xfc	-0.003641312
172	0x02	0.001820656
173	0x45	0.062812634
174	0x2b	0.039144102
175	0xeb	-0.019116888
176	0xc0	-0.058260992
177	0xb4	-0.06918493
178	0xc2	-0.056440335
179	0xa5	-0.08283985
180	0xeb	-0.019116888
181	0xe8	-0.021847872
182	0xf5	-0.010013608
183	0xef	-0.015475576
184	0xb9	-0.06463329
185	0xf9	-0.0063722963
186	0x40	0.058260992
187	0x1b	0.024578856
188	0x25	0.033682138
189	0x1a	0.023668528
190	0xb9	-0.06463329
191	0xb5	-0.0682746
192	0x14	0.01820656
193	0x3a	0.052799024
194	0xe9	-0.020937543
195	0x2f	0.042785417
196	0xb3	-0.070095256
197	0xf8	-0.007282624
198	0xb9	-0.06463329
199	0xab	-0.07737788
200	0x11	0.015475576
201	0x3b	0.05370935
202	0x00	0.0
203	0xc0	-0.058260992
204	0xcb	-0.048247386
205	0x25	0.033682138
206	0x23	0.03186148
207	0xba	-0.06372296
208	0xc2	-0.056440335
209	0xdd	-0.03186148
210	0xa8	-0.080108866
211	0x18	0.021847872
212	0x44	0.061902303
213	0x25	0.033682138
214	0xa9	-0.07919854
215	0xf3	-0.011834264
216	0x27	0.03550279
217	0xe1	-0.028220167
218	0xd9	-0.03550279
219	0xf1	-0.01365492
220	0x07	0.0063722963
221	0x21	0.030040825
222	0x51	0.07373657
223	0x0a	0.00910328
224	0xf7	-0.008192952
225	0x2a	0.038233776
226	0x14	0.01820656
227	0xe4	-0.025489185
228	0xc7	-0.051888697
229	0x0a	0.00910328
230	0x26	0.034592465
231	0x19	0.0227582
232	0xed	-0.017296232
233	0x55	0.07737788
234	0xae	-0.0746469
235	0x34	0.047337055
236	0xe9	-0.020937543
237	0xe3	-0.026399512
238	0xbe	-0.06008165
239	0xe6	-0.023668528
240	0xbb	-0.062812634
241	0x09	0.008192952
242	0xcc	-0.047337055
243	0x09	0.008192952
244	0xc6	-0.052799024
245	0xce	-0.0455164
246	0x0f	0.01365492
247	0xff	-0.000910328
248	0x40	0.058260992
249	0xeb	-0.019116888
250	0xd2	-0.041875087
251	0x12	0.016385904
252	0xcb	-0.048247386
253	0x25	0.033682138
254	0x01	0.000910328
255	0x12	0.016385904

sequential_4/quant_dense_13/MatMul;sequential_4/quant_dense_13/LastValueQuant/FakeQuantWithMinMaxVars i1 [50, 100] scale=0.0018883158 zero_point=0
0	0xe4	-0.05287284
1	0x0f	0.028324736
2	0xc5	-0.11141063
3	0xcd	-0.096304104
4	0xba	-0.1321821
5	0x14	0.037766315
6	0x36	0.10196905
7	0x2e	0.08686253
8	0xf2	-0.02643642
9	0xef	-0.032101367
10	0xb1	-0.14917694
11	0x1e	0.056649473
12	0x1c	0.05287284
13	0x50	0.15106526
14	0x63	0.18694326
15	0xf6	-0.018883158
16	0xe6	-0.04909621
17	0x69	0.19827315
18	0xed	-0.035878
19	0x2b	0.081197575
20	0x51	0.15295358
21	0x14	0.037766315
22	0x55	0.16050684
23	0xcb	-0.100080736
24	0x0e	0.02643642
25	0x40	0.12085221
26	0xb9	-0.13407043
27	0x18	0.04531958
28	0xcd	-0.096304104
29	0xe8	-0.04531958
30	0x31	0.09252747
31	0x24	0.067979366
32	0xbb	-0.13029379
33	0xc9	-0.10385737
34	0x03	0.0056649474
35	0xe0	-0.060426105
36	0xd4	-0.083085895
37	0x16	0.041542947
38	0x59	0.16806011
39	0x1f	0.05853779
40	0xd9	-0.07364432
41	0x28	0.07553263
42	0x1d	0.054761156
43	0x31	0.09252747
44	0xa8	-0.16617179
45	0x25	0.069867685
46	0xc4	-0.113298945
47	0x24	0.067979366
48	0xf1	-0.028324736
49	0xbd	-0.12651716
50	0x18	0.04531958
51	0x58	0.16617179
52	0x11	0.032101367
53	0x18	0.04531958
54	0x9a	-0.19260821
55	0xe4	-0.05287284
56	0x26	0.071756
57	0x17	0.043431263
58	0xc1	-0.1189639
59	0x1a	0.04909621
60	0x21	0.06231442
61	0x27	0.07364432
62	0xb3	-0.14540032
63	0x38	0.10574568
64	0x2f	0.08875084
65	0xa4	-0.17372505
66	0x2a	0.07930926
67	0x13	0.035878
68	0xc0	-0.12085221
69	0x5a	0.16994841
70	0xdb	-0.069867685
71	0xf8	-0.015106526
72	0xc7	-0.107634
73	0xee	-0.033989683
74	0x4e	0.14728864
75	0x03	0.0056649474
76	0xac	-0.15861852
77	0x3a	0.10952231
78	0x4a	0.13973537
79	0xf5	-0.020771474
80	0x49	0.13784705
81	0x15	0.03965463
82	0x06	0.011329895
83	0xd8	-0.07553263
84	0x67	0.19449653
85	0x18	0.04531958
86	0xae	-0.1548419
87	0x5a	0.16994841
88	0x42	0.12462884
89	0xc7	-0.107634
90	0xfc	-0.007553263
91	0x31	0.09252747
92	0x33	0.096304104
93	0x36	0.10196905
94	0x25	0.069867685
95	0xf3	-0.024548106
96	0x0d	0.024548106
97	0x6a	0.20016147
98	0x29	0.07742095
99	0xdb	-0.069867685
100	0xaa	-0.16239515
101	0xbb	-0.13029379
102	0x42	0.12462884
103	0xb8	-0.13595873
104	0xc5	-0.11141063
105	0xb8	-0.13595873
106	0x30	0.09063916
107	0xc6	-0.10952231
108	0x0d	0.024548106
109	0x63	0.18694326
110	0xd0	-0.09063916
111	0xcc	-0.09819242
112	0x75	0.22093295
113	0xe8	-0.04531958
114	0x73	0.21715632
115	0x00	0.0
116	0x22	0.06420273
117	0x6e	0.20771474
118	0x3c	0.113298945
119	0x44	0.12840547
120	0xe9	-0.043431263
121	0xb1	-0.14917694
122	0x46	0.1321821
123	0x28	0.07553263
124	0x0f	0.028324736
125	0x17	0.043431263
126	0xee	-0.033989683
127	0xb9	-0.13407043
128	0xb7	-0.13784705
129	0xf5	-0.020771474
130	0xf3	-0.024548106
131	0x4a	0.13973537
132	0xb9	-0.13407043
133	0x42	0.12462884
134	0x5a	0.16994841
135	0xa2	-0.17750168
136	0x99	-0.19449653
137	0x50	0.15106526
138	0xdc	-0.067979366
139	0x51	0.15295358
140	0x9e	-0.18505494
141	0x14	0.037766315
142	0x04	0.007553263
143	0xe2	-0.056649473
144	0xce	-0.09441579
145	0x6c	0.2039381
146	0x6a	0.20016147
147	0xaf	-0.15295358
148	0x06	0.011329895
149	0x39	0.107634
150	0xc1	-0.1189639
151	0xfb	-0.009441579
152	0xde	-0.06420273
153	0x58	0.16617179
154	0x26	0.071756
155	0x28	0.07553263
156	0x09	0.016994841
157	0xba	-0.1321821
158	0xde	-0.06420273
159	0xa9	-0.16428347
160	0x52	0.1548419
161	0xa1	-0.17939
162	0xa6	-0.16994841
163	0x01	0.0018883158
164	0xaa	-0.16239515
165	0xfe	-0.0037766316
166	0x0c	0.02265979
167	0xcf	-0.09252747
168	0xd7	-0.07742095
169	0x4a	0.13973537
170	0x4f	0.14917694
171	0x9b	-0.19071989
172	0xb9	-0.13407043
173	0x30	0.09063916
174	0x3a	0.10952231
175	0xa7	-0.16806011
176	0xd9	-0.07364432
177	0xa2	-0.17750168
178	0x52	0.1548419
179	0xf4	-0.02265979
180	0x12	0.033989683
181	0xee	-0.033989683
182	0x21	0.06231442
183	0xd7	-0.07742095
184	0x21	0.06231442
185	0xfb	-0.009441579
186	0x35	0.100080736
187	0x28	0.07553263
188	0xf4	-0.02265979
189	0x2a	0.07930926
190	0x45	0.13029379
191	0x46	0.1321821
192	0x2c	0.083085895
193	0xeb	-0.03965463
194	0x1a	0.04909621
195	0xa6	-0.16994841
196	0x49	0.13784705
197	0x10	0.030213052
198	0xa4	-0.17372505
199	0xa6	-0.16994841
200	0x0d	0.024548106
201	0xc7	-0.107634
202	0xb0	-0.15106526
203	0xc8	-0.10574568
204	0xa4	-0.17372505
205	0x18	0.04531958
206	0x2c	0.083085895
207	0x0e	0.02643642
208	0xf7	-0.016994841
209	0xa9	-0.16428347
210	0xeb	-0.03965463
211	0x34	0.09819242
212	0x3b	0.11141063
213	0xb4	-0.143512
214	0xbe	-0.12462884
215	0xaa	-0.16239515
216	0x50	0.15106526
217	0xbf	-0.12274052
218	0x16	0.041542947
219	0x69	0.19827315
220	0x3d	0.115187265
221	0xb1	-0.14917694
222	0x31	0.09252747
223	0x5d	0.17561337
224	0x64	0.18883158
225	0x0f	0.028324736
226	0xb8	-0.13595873
227	0xa8	-0.16617179
228	0xa1	-0.17939
229	0x00	0.0
230	0xdc	-0.067979366
231	0xd1	-0.08875084
232	0x0c	0.02265979
233	0x4a	0.13973537
234	0x56	0.16239515
235	0x52	0.1548419
236	0xb3	-0.14540032
237	0x97	-0.19827315
238	0xd7	-0.07742095
239	0x52	0.1548419
240	0x35	0.100080736
241	0xc0	-0.12085221
242	0xe0	-0.060426105
243	0xf9	-0.01321821
244	0xc2	-0.11707558
245	0x60	0.18127832
246	0x5d	0.17561337
247	0x1d	0.054761156
248	0x3b	0.11141063
249	0x15	0.03965463
250	0xa6	-0.16994841
251	0x58	0.16617179
252	0x0c	0.02265979
253	0x38	0.10574568
254	0xf2	-0.02643642
255	0x48	0.13595873

sequential_4/quant_dense_14/MatMul;sequential_4/quant_dense_14/LastValueQuant/FakeQuantWithMinMaxVars i1 [10, 50] scale=0.0025776245 zero_point=0
0	0xfc	-0.010310498
1	0xfe	-0.005155249
2	0x73	0.29642683
3	0x00	0.0
4	0x9f	-0.25002956
5	0x28	0.10310498
6	0x19	0.064440615
7	0x74	0.29900444
8	0xb9	-0.18301134
9	0xe1	-0.07990636
10	0xae	-0.21136521
11	0x9f	-0.25002956
12	0xcf	-0.1263036
13	0x00	0.0
14	0x98	-0.26807296
15	0x68	0.26807296
16	0xef	-0.043819617
17	0x44	0.17527847
18	0x01	0.0025776245
19	0x33	0.13145885
20	0x21	0.08506161
21	0x5e	0.24229671
22	0x2e	0.11857073
23	0xbd	-0.17270084
24	0x1f	0.07990636
25	0x23	0.09021686
26	0x99	-0.26549533
27	0xba	-0.18043372
28	0xe1	-0.07990636
29	0x93	-0.28096107
30	0x09	0.023198621
31	0xc7	-0.1469246
32	0xfe	-0.005155249
33	0xd8	-0.10310498
34	0xb6	-0.19074422
35	0xab	-0.21909809
36	0x56	0.22167571
37	0xa1	-0.24487433
38	0x0b	0.02835387
39	0x44	0.17527847
40	0xc6	-0.14950222
41	0x18	0.06186299
42	0x29	0.105682604
43	0x76	0.3041597
44	0xd3	-0.115993105
45	0xda	-0.09794973
46	0x96	-0.2732282
47	0x2d	0.115993105
48	0x02	0.005155249
49	0x29	0.105682604
50	0x97	-0.27065057
51	0x69	0.27065057
52	0x3c	0.15465747
53	0xca	-0.13919172
54	0xc3	-0.1572351
55	0x77	0.3067373
56	0x94	-0.27838343
57	0x6f	0.28611633
58	0x29	0.105682604
59	0xdf	-0.08506161
60	0x0d	0.03350912
61	0xbf	-0.16754559
62	0xcf	-0.1263036
63	0xfb	-0.012888122
64	0xef	-0.043819617
65	0x71	0.29127157
66	0xed	-0.048974864
67	0x02	0.005155249
68	0xfc	-0.010310498
69	0x81	-0.3273583
70	0x28	0.10310498
71	0xc2	-0.15981272
72	0x8a	-0.3041597
73	0x98	-0.26807296
74	0xa1	-0.24487433
75	0x2a	0.10826023
76	0x92	-0.2835387
77	0xdc	-0.092794485
78	0x17	0.059285365
79	0x20	0.082483985
80	0x63	0.25518483
81	0xef	-0.043819617
82	0xbe	-0.17012322
83	0xec	-0.05155249
84	0xef	-0.043819617
85	0x58	0.22683096
86	0xa5	-0.23456383
87	0xaa	-0.22167571
88	0x22	0.087639235
89	0xdc	-0.092794485
90	0x56	0.22167571
91	0xe1	-0.07990636
92	0xd3	-0.115993105
93	0xfb	-0.012888122
94	0xe4	-0.07217348
95	0xa9	-0.22425333
96	0x8b	-0.30158207
97	0x2c	0.11341548
98	0x16	0.05670774
99	0xf7	-0.023198621
100	0xf9	-0.01804337
101	0xa5	-0.23456383
102	0xaa	-0.22167571
103	0x32	0.12888123
104	0x68	0.26807296
105	0x0d	0.03350912
106	0x24	0.092794485
107	0x28	0.10310498
108	0x34	0.13403648
109	0xdc	-0.092794485
110	0xca	-0.13919172
111	0xb5	-0.19332184
112	0x8f	-0.29127157
113	0xfa	-0.015465748
114	0x68	0.26807296
115	0x9b	-0.26034006
116	0x1f	0.07990636
117	0xf8	-0.020620996
118	0x91	-0.28611633
119	0x31	0.1263036
120	0xd1	-0.121148355
121	0x93	-0.28096107
122	0x8c	-0.29900444
123	0x45	0.17785609
124	0x5c	0.23714146
125	0xcd	-0.13145885
126	0xa6	-0.23198621
127	0x0a	0.025776245
128	0xec	-0.05155249
129	0x1d	0.07475111
130	0xfc	-0.010310498
131	0xbe	-0.17012322
132	0x11	0.043819617
133	0x10	0.041241992
134	0xe4	-0.07217348
135	0xa7	-0.22940858
136	0x29	0.105682604
137	0x4c	0.19589946
138	0x77	0.3067373
139	0xa9	-0.22425333
140	0xeb	-0.054130115
141	0x04	0.010310498
142	0x47	0.18301134
143	0x69	0.27065057
144	0xd3	-0.115993105
145	0x24	0.092794485
146	0xb7	-0.18816659
147	0x59	0.22940858
148	0xbb	-0.17785609
149	0x84	-0.31962544
150	0xce	-0.12888123
151	0x70	0.28869393
152	0x60	0.24745196
153	0xf1	-0.038664367
154	0xa8	-0.22683096
155	0x6d	0.28096107
156	0xbf	-0.16754559
157	0x2d	0.115993105
158	0xa3	-0.23971908
159	0x57	0.22425333
160	0x9a	-0.2629177
161	0x1f	0.07990636
162	0x1d	0.07475111
163	0x51	0.20878759
164	0xe5	-0.06959586
165	0xbf	-0.16754559
166	0x92	-0.2835387
167	0x21	0.08506161
168	0x41	0.16754559
169	0x26	0.09794973
170	0x4c	0.19589946
171	0x66	0.2629177
172	0xcc	-0.13403648
173	0xf6	-0.025776245
174	0xf1	-0.038664367
175	0x98	-0.26807296
176	0x36	0.13919172
177	0x22	0.087639235
178	0x46	0.18043372
179	0xd2	-0.11857073
180	0x34	0.13403648
181	0x6f	0.28611633
182	0x6b	0.27580583
183	0x27	0.10052735
184	0x0c	0.030931495
185	0xf3	-0.03350912
186	0x22	0.087639235
187	0x24	0.092794485
188	0x93	-0.28096107
189	0xb0	-0.20620996
190	0x46	0.18043372
191	0x99	-0.26549533
192	0x63	0.25518483
193	0xe0	-0.082483985
194	0x1b	0.06959586
195	0x60	0.24745196
196	0x0f	0.038664367
197	0x1f	0.07990636
198	0xab	-0.21909809
199	0x64	0.25776246
200	0xa1	-0.24487433
201	0x25	0.09537211
202	0xa2	-0.24229671
203	0x06	0.015465748
204	0xf4	-0.030931495
205	0x0f	0.038664367
206	0xcf	-0.1263036
207	0x36	0.13919172
208	0x35	0.1366141
209	0x20	0.082483985
210	0xfe	-0.005155249
211	0xac	-0.21652046
212	0xa2	-0.24229671
213	0x85	-0.3170478
214	0x4e	0.2010547
215	0x66	0.2629177
216	0x63	0.25518483
217	0x06	0.015465748
218	0x61	0.25002956
219	0x47	0.18301134
220	0xbe	-0.17012322
221	0x94	-0.27838343
222	0x40	0.16496797
223	0x1a	0.06701824
224	0x41	0.16754559
225	0xc7	-0.1469246
226	0x2b	0.110837854
227	0xae	-0.21136521
228	0xbd	-0.17270084
229	0xdc	-0.092794485
230	0x1d	0.07475111
231	0xe1	-0.07990636
232	0xa6	-0.23198621
233	0x83	-0.32220307
234	0xbd	-0.17270084
235	0xc6	-0.14950222
236	0x9a	-0.2629177
237	0xdc	-0.092794485
238	0x57	0.22425333
239	0x69	0.27065057
240	0xb8	-0.18558897
241	0xe6	-0.06701824
242	0xe3	-0.07475111
243	0x03	0.007732874
244	0x0f	0.038664367
245	0x11	0.043819617
246	0x61	0.25002956
247	0x50	0.20620996
248	0xee	-0.046397243
249	0x8d	-0.29642683
250	0x2a	0.10826023
251	0x20	0.082483985
252	0xf4	-0.030931495
253	0xef	-0.043819617
254	0x24	0.092794485
255	0xa3	-0.23971908

sequential_4/quant_output/MatMul;sequential_4/quant_output/LastValueQuant/FakeQuantWithMinMaxVars i1 [1, 10] scale=0.0055497456 zero_point=0
0	0x59	0.49392736
1	0xff	-0.0055497456
2	0x81	-0.7048177
3	0x6a	0.58827305
4	0x06	0.033298474
5	0x6d	0.6049223
6	0xed	-0.10544517
7	0x88	-0.6659695
8	0x14	0.11099491
9	0xab	-0.47172838
