models/opt-80x60x3.tflite (tflite, 156808 bytes, 9 tensors)

sequential_35/quant_conv2d_173/Conv2D;sequential_35/quant_conv2d_173/LastValueQuant/FakeQuantWithMinMaxVarsPerChannel i1 [24, 5, 5, 3]
0	0x50	80
1	0xb0	-80
2	0xc3	-61
3	0x30	48
4	0xca	-54
5	0x02	2
6	0x61	97
7	0xe3	-29
8	0xf2	-14
9	0x1a	26
10	0x7a	122
11	0xd5	-43
12	0x93	-109
13	0xe7	-25
14	0x86	-122
15	0x88	-120
16	0x81	-127
17	0x24	36
18	0x07	7
19	0x6b	107
20	0xd5	-43
21	0x45	69
22	0xcf	-49
23	0x22	34
24	0xb8	-72
25	0x53	83
26	0xc5	-59
27	0x81	-127
28	0x1b	27
29	0x9f	-97
30	0x4c	76
31	0xbf	-65
32	0xcd	-51
33	0x0d	13
34	0x69	105
35	0x30	48
36	0x40	64
37	0xf4	-12
38	0xea	-22
39	0x97	-105
40	0xc8	-56
41	0x49	73
42	0x76	118
43	0x50	80
44	0xbd	-67
45	0x2c	44
46	0x57	87
47	0xc2	-62
48	0xe5	-27
49	0x3f	63
50	0x28	40
51	0x2a	42
52	0x1a	26
53	0x13	19
54	0x4a	74
55	0x16	22
56	0x91	-111
57	0xa4	-92
58	0xd6	-42
59	0xf4	-12
60	0x26	38
61	0xd7	-41
62	0x40	64
63	0x06	6
64	0xe9	-23
65	0xd1	-47
66	0x79	121
67	0xff	-1
68	0xac	-84
69	0xb2	-78
70	0xe0	-32
71	0xa7	-89
72	0x5e	94
73	0x59	89
74	0x7a	122
75	0xef	-17
76	0x8d	-115
77	0xec	-20
78	0xa8	-88
79	0xdb	-37
80	0x9d	-99
81	0x16	22
82	0xad	-83
83	0x71	113
84	0x0c	12
85	0xdb	-37
86	0x76	118
87	0xe1	-31
88	0x2b	43
89	0x30	48
90	0xb2	-78
91	0xa1	-95
92	0x6f	111
93	0x69	105
94	0x95	-107
95	0x81	-127
96	0x7a	122
97	0x85	-123
98	0xd8	-40
99	0xf0	-16
100	0xc7	-57
101	0xa3	-93
102	0x5c	92
103	0xa1	-95
104	0x91	-111
105	0x22	34
106	0xe1	-31
107	0x1c	28
108	0x02	2
109	0x4d	77
110	0xad	-83
111	0x57	87
112	0x47	71
113	0x57	87
114	0x9a	-102
115	0x59	89
116	0xc6	-58
117	0x6c	108
118	0x41	65
119	0xea	-22
120	0xff	-1
121	0x63	99
122	0x40	64
123	0xb3	-77
124	0x24	36
125	0x59	89
126	0x03	3
127	0x04	4
128	0x8b	-117
129	0xb8	-72
130	0xe2	-30
131	0xaa	-86
132	0x52	82
133	0x8d	-115
134	0xa9	-87
135	0x0f	15
136	0xcd	-51
137	0xd0	-48
138	0x8c	-116
139	0xe8	-24
140	0xe4	-28
141	0x11	17
142	0x83	-125
143	0x93	-109
144	0x56	86
145	0x49	73
146	0x4b	75
147	0xda	-38
148	0xb5	-75
149	0x5d	93
150	0xe9	-23
151	0x92	-110
152	0x3f	63
153	0x00	0
154	0xf5	-11
155	0xbc	-68
156	0xb1	-79
157	0xc0	-64
158	0x92	-110
159	0xfb	-5
160	0xfc	-4
161	0xe8	-24
162	0xba	-70
163	0xb1	-79
164	0x02	2
165	0x9e	-98
166	0x58	88
167	0x0d	13
168	0x48	72
169	0xe8	-24
170	0xe6	-26
171	0xff	-1
172	0xc2	-62
173	0x3b	59
174	0xea	-22
175	0x6f	111
176	0x96	-106
177	0x88	-120
178	0xcf	-49
179	0x82	-126
180	0x84	-124
181	0x7c	124
182	0x70	112
183	0x33	51
184	0xde	-34
185	0xda	-38
186	0xb0	-80
187	0x91	-111
188	0x50	80
189	0xad	-83
190	0x8c	-116
191	0x6d	109
192	0xc5	-59
193	0x7f	127
194	0xe9	-23
195	0x0b	11
196	0xc7	-57
197	0x8a	-118
198	0x40	64
199	0x98	-104
200	0x3f	63
201	0x99	-103
202	0xd2	-46
203	0xdf	-33
204	0xfe	-2
205	0xfa	-6
206	0xaa	-86
207	0xd4	-44
208	0xe9	-23
209	0x24	36
210	0x18	24
211	0xab	-85
212	0x95	-107
213	0xd8	-40
214	0xdf	-33
215	0xb4	-76
216	0x8f	-113
217	0xcf	-49
218	0x75	117
219	0x56	86
220	0xd3	-45
221	0x49	73
222	0x23	35
223	0xae	-82
224	0x3a	58
225	0xb3	-77
226	0x3e	62
227	0x0c	12
228	0xd4	-44
229	0x64	100
230	0x49	73
231	0xb8	-72
232	0xc1	-63
233	0xe4	-28
234	0x1f	31
235	0xd2	-46
236	0x4e	78
237	0x3a	58
238	0x1b	27
239	0xbb	-69
240	0x5a	90
241	0xc2	-62
242	0x17	23
243	0x4f	79
244	0xc2	-62
245	0xe6	-26
246	0x53	83
247	0x99	-103
248	0x4d	77
249	0x40	64
250	0xfe	-2
251	0x28	40
252	0x2e	46
253	0xd7	-41
254	0x0c	12
255	0xf6	-10

sequential_35/quant_conv2d_174/Conv2D;sequential_35/quant_conv2d_174/LastValueQuant/FakeQuantWithMinMaxVarsPerChannel i1 [36, 5, 5, 24]
0	0xd6	-42
1	0x46	70
2	0x36	54
3	0xfe	-2
4	0x3f	63
5	0x96	-106
6	0x21	33
7	0x2e	46
8	0x1f	31
9	0x6c	108
10	0xdc	-36
11	0x01	1
12	0x3d	61
13	0xd3	-45
14	0x05	5
15	0xc4	-60
16	0x6b	107
17	0x43	67
18	0x11	17
19	0x2e	46
20	0xae	-82
21	0x2b	43
22	0x15	21
23	0x41	65
24	0xc0	-64
25	0xfa	-6
26	0xeb	-21
27	0x2b	43
28	0x2b	43
29	0x63	99
30	0x9e	-98
31	0x38	56
32	0x25	37
33	0x70	112
34	0x28	40
35	0xe8	-24
36	0x60	96
37	0x9b	-101
38	0xa0	-96
39	0xd0	-48
40	0x19	25
41	0x04	4
42	0xa2	-94
43	0xf5	-11
44	0x64	100
45	0x19	25
46	0xa3	-93
47	0x31	49
48	0x09	9
49	0x30	48
50	0xd2	-46
51	0x44	68
52	0xc4	-60
53	0x98	-104
54	0xe9	-23
55	0x99	-103
56	0x52	82
57	0x49	73
58	0x0a	10
59	0xce	-50
60	0xd4	-44
61	0x0a	10
62	0xb2	-78
63	0x19	25
64	0xed	-19
65	0xc1	-63
66	0xa5	-91
67	0x1b	27
68	0xd2	-46
69	0x31	49
70	0x15	21
71	0x9d	-99
72	0x9f	-97
73	0xb1	-79
74	0xd1	-47
75	0x95	-107
76	0xd9	-39
77	0x57	87
78	0xdc	-36
79	0xbe	-66
80	0x08	8
81	0xe2	-30
82	0x65	101
83	0xff	-1
84	0xab	-85
85	0x4e	78
86	0xf8	-8
87	0xf9	-7
88	0xff	-1
89	0x6a	106
90	0x14	20
91	0xea	-22
92	0xdd	-35
93	0x20	32
94	0x3e	62
95	0xba	-70
96	0x5a	90
97	0x0c	12
98	0x09	9
99	0xb9	-71
100	0xe5	-27
101	0xd8	-40
102	0x96	-106
103	0xd7	-41
104	0x9e	-98
105	0x04	4
106	0x65	101
107	0x5b	91
108	0x3f	63
109	0x07	7
110	0x8f	-113
111	0xc5	-59
112	0xe3	-29
113	0x61	97
114	0x9b	-101
115	0x21	33
116	0x07	7
117	0xfc	-4
118	0x4e	78
119	0x34	52
120	0xc2	-62
121	0x1d	29
122	0x48	72
123	0xaa	-86
124	0x3a	58
125	0x52	82
126	0x18	24
127	0x42	66
128	0x1c	28
129	0xef	-17
130	0x51	81
131	0x61	97
132	0x5a	90
133	0x10	16
134	0x9c	-100
135	0x46	70
136	0x81	-127
137	0x4a	74
138	0x06	6
139	0xd7	-41
140	0xf1	-15
141	0xc8	-56
142	0x39	57
143	0x19	25
144	0x21	33
145	0x94	-108
146	0x3e	62
147	0x10	16
148	0x3b	59
149	0x04	4
150	0x24	36
151	0xb4	-76
152	0xe6	-26
153	0xbc	-68
154	0xc6	-58
155	0x1e	30
156	0x50	80
157	0x10	16
158	0xd8	-40
159	0x61	97
160	0xf9	-7
161	0xfa	-6
162	0x17	23
163	0xd0	-48
164	0xfe	-2
165	0x2b	43
166	0xc8	-56
167	0x15	21
168	0xb2	-78
169	0x51	81
170	0x5d	93
171	0xad	-83
172	0x12	18
173	0xb9	-71
174	0x33	51
175	0xb5	-75
176	0xf7	-9
177	0x52	82
178	0xf3	-13
179	0x96	-106
180	0x99	-103
181	0x61	97
182	0x32	50
183	0x3b	59
184	0x4e	78
185	0xd3	-45
186	0x18	24
187	0xcd	-51
188	0x4e	78
189	0x1a	26
190	0xc9	-55
191	0x9d	-99
192	0xab	-85
193	0x41	65
194	0x9e	-98
195	0xee	-18
196	0x15	21
197	0xcf	-49
198	0xb9	-71
199	0x05	5
200	0xbe	-66
201	0xf3	-13
202	0x3c	60
203	0x11	17
204	0x4b	75
205	0x49	73
206	0xb7	-73
207	0x48	72
208	0x8c	-116
209	0x95	-107
210	0x0e	14
211	0xe6	-26
212	0x26	38
213	0xa1	-95
214	0xfd	-3
215	0x51	81
216	0x04	4
217	0xfc	-4
218	0x3f	63
219	0xdf	-33
220	0xf1	-15
221	0x54	84
222	0x22	34
223	0x3e	62
224	0xc8	-56
225	0x3a	58
226	0x05	5
227	0x3b	59
228	0x9e	-98
229	0xd6	-42
230	0x12	18
231	0x5b	91
232	0xa3	-93
233	0xb5	-75
234	0xc5	-59
235	0x9a	-102
236	0x45	69
237	0xb8	-72
238	0x19	25
239	0xeb	-21
240	0xae	-82
241	0xd2	-46
242	0x60	96
243	0xea	-22
244	0x02	2
245	0xb5	-75
246	0xd7	-41
247	0xe4	-28
248	0x44	68
249	0xbc	-68
250	0x4f	79
251	0xf1	-15
252	0xd7	-41
253	0xd3	-45
254	0x4d	77
255	0x40	64

sequential_35/quant_conv2d_175/Conv2D;sequential_35/quant_conv2d_175/LastValueQuant/FakeQuantWithMinMaxVarsPerChannel i1 [48, 5, 5, 36]
0	0xd5	-43
1	0x14	20
2	0x16	22
3	0x14	20
4	0xf8	-8
5	0xad	-83
6	0xb0	-80
7	0x12	18
8	0xa2	-94
9	0x4f	79
10	0x33	51
11	0x17	23
12	0xb1	-79
13	0xb8	-72
14	0x11	17
15	0xc8	-56
16	0xfb	-5
17	0xd0	-48
18	0xe1	-31
19	0xd0	-48
20	0x37	55
21	0x54	84
22	0xd1	-47
23	0xfb	-5
24	0xc2	-62
25	0x5b	91
26	0x35	53
27	0xc1	-63
28	0x3d	61
29	0x5b	91
30	0x0a	10
31	0x1e	30
32	0x26	38
33	0x44	68
34	0x10	16
35	0xef	-17
36	0xd6	-42
37	0xca	-54
38	0x34	52
39	0x28	40
40	0x35	53
41	0x37	55
42	0xd5	-43
43	0xe4	-28
44	0x28	40
45	0x34	52
46	0x1f	31
47	0x08	8
48	0x62	98
49	0xa0	-96
50	0xfc	-4
51	0x01	1
52	0x42	66
53	0x39	57
54	0x31	49
55	0xfe	-2
56	0x2a	42
57	0x11	17
58	0x0a	10
59	0xc6	-58
60	0x51	81
61	0xfc	-4
62	0x22	34
63	0x61	97
64	0x59	89
65	0x5e	94
66	0xe6	-26
67	0xf9	-7
68	0x07	7
69	0xe7	-25
70	0xe2	-30
71	0x1b	27
72	0xd4	-44
73	0x0b	11
74	0x1e	30
75	0xb5	-75
76	0x28	40
77	0xc0	-64
78	0x59	89
79	0x0a	10
80	0xde	-34
81	0xef	-17
82	0x07	7
83	0xb0	-80
84	0x17	23
85	0xa6	-90
86	0x51	81
87	0xe6	-26
88	0x51	81
89	0x02	2
90	0xaa	-86
91	0xf3	-13
92	0xf5	-11
93	0x34	52
94	0xdc	-36
95	0x54	84
96	0xd8	-40
97	0x0c	12
98	0x26	38
99	0xb4	-76
100	0x03	3
101	0x12	18
102	0x1c	28
103	0x09	9
104	0x1c	28
105	0x04	4
106	0xd4	-44
107	0x54	84
108	0x48	72
109	0xff	-1
110	0x48	72
111	0xbe	-66
112	0xd4	-44
113	0x3e	62
114	0x22	34
115	0x16	22
116	0xdc	-36
117	0x5b	91
118	0xe0	-32
119	0x17	23
120	0xca	-54
121	0x4f	79
122	0xef	-17
123	0xb0	-80
124	0x5c	92
125	0x16	22
126	0xbd	-67
127	0x1c	28
128	0x2a	42
129	0x09	9
130	0x08	8
131	0xc5	-59
132	0xa8	-88
133	0x48	72
134	0x39	57
135	0x33	51
136	0x9a	-102
137	0xc5	-59
138	0x00	0
139	0xc8	-56
140	0xd9	-39
141	0xd0	-48
142	0x5b	91
143	0x4b	75
144	0x59	89
145	0x55	85
146	0xff	-1
147	0xca	-54
148	0xfd	-3
149	0xb2	-78
150	0xe8	-24
151	0x2d	45
152	0xc6	-58
153	0xeb	-21
154	0x48	72
155	0x46	70
156	0x70	112
157	0x1c	28
158	0x32	50
159	0x24	36
160	0xdc	-36
161	0xea	-22
162	0x5b	91
163	0x4a	74
164	0x57	87
165	0xbc	-68
166	0xff	-1
167	0x23	35
168	0xea	-22
169	0x22	34
170	0xad	-83
171	0x18	24
172	0x56	86
173	0x4c	76
174	0xd7	-41
175	0x3f	63
176	0x30	48
177	0x3a	58
178	0x57	87
179	0xdb	-37
180	0xcf	-49
181	0x14	20
182	0x28	40
183	0xf8	-8
184	0xb9	-71
185	0xca	-54
186	0xd0	-48
187	0xb9	-71
188	0x0b	11
189	0x22	34
190	0x2d	45
191	0x28	40
192	0xd5	-43
193	0x5d	93
194	0xde	-34
195	0xb5	-75
196	0xce	-50
197	0xbf	-65
198	0x3a	58
199	0xdc	-36
200	0xbc	-68
201	0x15	21
202	0x1c	28
203	0xcc	-52
204	0xa3	-93
205	0x05	5
206	0x25	37
207	0x3a	58
208	0xab	-85
209	0x49	73
210	0x04	4
211	0x37	55
212	0xa1	-95
213	0xe2	-30
214	0xa8	-88
215	0xaf	-81
216	0x9f	-97
217	0x3a	58
218	0xe4	-28
219	0xac	-84
220	0xe9	-23
221	0xb6	-74
222	0x24	36
223	0x51	81
224	0x07	7
225	0xa3	-93
226	0x12	18
227	0xee	-18
228	0x59	89
229	0xfb	-5
230	0xe3	-29
231	0xcc	-52
232	0x65	101
233	0xa5	-91
234	0x21	33
235	0xd4	-44
236	0xcc	-52
237	0x18	24
238	0xde	-34
239	0x46	70
240	0xc0	-64
241	0x37	55
242	0x4b	75
243	0xdf	-33
244	0xbd	-67
245	0xf9	-7
246	0xf9	-7
247	0xbe	-66
248	0xe5	-27
249	0x20	32
250	0x10	16
251	0x0b	11
252	0xc4	-60
253	0xea	-22
254	0x5e	94
255	0x30	48

sequential_35/quant_conv2d_176/Conv2D;sequential_35/quant_conv2d_176/LastValueQuant/FakeQuantWithMinMaxVarsPerChannel i1 [64, 3, 3, 48]
0	0xc5	-59
1	0xcd	-51
2	0x19	25
3	0x2e	46
4	0x51	81
5	0xd3	-45
6	0xcb	-53
7	0x21	33
8	0xe7	-25
9	0x2f	47
10	0x35	53
11	0x5c	92
12	0x69	105
13	0xbb	-69
14	0x15	21
15	0x07	7
16	0x2a	42
17	0xf9	-7
18	0xe7	-25
19	0xc5	-59
20	0xab	-85
21	0xe5	-27
22	0x57	87
23	0x4f	79
24	0x96	-106
25	0x47	71
26	0x34	52
27	0x6a	106
28	0x0a	10
29	0x4a	74
30	0xa1	-95
31	0x39	57
32	0xb9	-71
33	0xed	-19
34	0xa2	-94
35	0xdd	-35
36	0x73	115
37	0x21	33
38	0x36	54
39	0x46	70
40	0xf8	-8
41	0x67	103
42	0xf0	-16
43	0x45	69
44	0xe7	-25
45	0x43	67
46	0x64	100
47	0x28	40
48	0x08	8
49	0xcf	-49
50	0xb5	-75
51	0xe4	-28
52	0x01	1
53	0x24	36
54	0xd7	-41
55	0xd0	-48
56	0xec	-20
57	0x18	24
58	0x98	-104
59	0xab	-85
60	0x91	-111
61	0x17	23
62	0x6a	106
63	0xbf	-65
64	0x6a	106
65	0xba	-70
66	0xa4	-92
67	0xbb	-69
68	0x25	37
69	0xbd	-67
70	0x54	84
71	0xae	-82
72	0xe1	-31
73	0xed	-19
74	0xdf	-33
75	0x4d	77
76	0xd6	-42
77	0x49	73
78	0x1f	31
79	0x06	6
80	0x5d	93
81	0x0b	11
82	0x70	112
83	0x31	49
84	0x21	33
85	0xed	-19
86	0x13	19
87	0xe4	-28
88	0x4f	79
89	0x01	1
90	0x77	119
91	0x6d	109
92	0xad	-83
93	0xbd	-67
94	0xd6	-42
95	0x2c	44
96	0xb8	-72
97	0x16	22
98	0x33	51
99	0x6b	107
100	0xa7	-89
101	0x96	-106
102	0xe9	-23
103	0xb1	-79
104	0xd9	-39
105	0x65	101
106	0x55	85
107	0x35	53
108	0x0c	12
109	0xaf	-81
110	0xef	-17
111	0xf4	-12
112	0x23	35
113	0x68	104
114	0xba	-70
115	0xf1	-15
116	0x12	18
117	0x26	38
118	0x21	33
119	0xc2	-62
120	0x9c	-100
121	0x5c	92
122	0x3f	63
123	0xc3	-61
124	0x3b	59
125	0xa7	-89
126	0xf9	-7
127	0xee	-18
128	0xd8	-40
129	0x4a	74
130	0x12	18
131	0xda	-38
132	0x2f	47
133	0x41	65
134	0xfd	-3
135	0x29	41
136	0x3b	59
137	0x5b	91
138	0x72	114
139	0xe5	-27
140	0x4d	77
141	0x9c	-100
142	0xe5	-27
143	0x8c	-116
144	0x53	83
145	0x58	88
146	0x6b	107
147	0x28	40
148	0xbc	-68
149	0x54	84
150	0x51	81
151	0xa1	-95
152	0x07	7
153	0x32	50
154	0xb3	-77
155	0x4e	78
156	0x1a	26
157	0x9c	-100
158	0x1d	29
159	0x70	112
160	0x0a	10
161	0xbc	-68
162	0xfa	-6
163	0x4a	74
164	0xd0	-48
165	0x7f	127
166	0x36	54
167	0xb1	-79
168	0x07	7
169	0x49	73
170	0x3e	62
171	0x4a	74
172	0x61	97
173	0x41	65
174	0x0d	13
175	0x43	67
176	0x4f	79
177	0x2e	46
178	0xcf	-49
179	0x26	38
180	0x6f	111
181	0x5e	94
182	0xc7	-57
183	0xb2	-78
184	0x0a	10
185	0xdd	-35
186	0xac	-84
187	0xec	-20
188	0x40	64
189	0x46	70
190	0x36	54
191	0x01	1
192	0x01	1
193	0x07	7
194	0xfa	-6
195	0x20	32
196	0x85	-123
197	0x52	82
198	0x17	23
199	0x53	83
200	0xb2	-78
201	0xa8	-88
202	0xc1	-63
203	0x09	9
204	0xc1	-63
205	0xc7	-57
206	0xb5	-75
207	0x71	113
208	0xaf	-81
209	0xd0	-48
210	0x3e	62
211	0xab	-85
212	0x33	51
213	0x4f	79
214	0x46	70
215	0xcb	-53
216	0x16	22
217	0xdc	-36
218	0x3b	59
219	0x2d	45
220	0xac	-84
221	0xdc	-36
222	0x64	100
223	0xef	-17
224	0xb9	-71
225	0x5a	90
226	0xe1	-31
227	0xa8	-88
228	0x03	3
229	0x45	69
230	0x1f	31
231	0x20	32
232	0xef	-17
233	0x0b	11
234	0xc0	-64
235	0xbf	-65
236	0x38	56
237	0xc3	-61
238	0xbb	-69
239	0x46	70
240	0xed	-19
241	0xb3	-77
242	0x0f	15
243	0x54	84
244	0xb7	-73
245	0xe5	-27
246	0xca	-54
247	0xef	-17
248	0x4b	75
249	0x85	-123
250	0x20	32
251	0xb4	-76
252	0xd3	-45
253	0xc3	-61
254	0x2a	42
255	0xe1	-31

sequential_35/quant_conv2d_177/Conv2D;sequential_35/quant_conv2d_177/LastValueQuant/FakeQuantWithMinMaxVarsPerChannel i1 [64, 2, 2, 64]
0	0x33	51
1	0x0a	10
2	0x4b	75
3	0xad	-83
4	0x8a	-118
5	0x8e	-114
6	0xab	-85
7	0x9a	-102
8	0x5c	92
9	0x4c	76
10	0x16	22
11	0x6e	110
12	0x95	-107
13	0x42	66
14	0xcd	-51
15	0x18	24
16	0x4c	76
17	0x39	57
18	0x3e	62
19	0xfb	-5
20	0x8c	-116
21	0xd5	-43
22	0xf6	-10
23	0x29	41
24	0x71	113
25	0x45	69
26	0x8a	-118
27	0xa2	-94
28	0x19	25
29	0xaf	-81
30	0xc4	-60
31	0x73	115
32	0xdd	-35
33	0xb7	-73
34	0x8a	-118
35	0x32	50
36	0xfe	-2
37	0x3f	63
38	0x6f	111
39	0xf2	-14
40	0x82	-126
41	0x2d	45
42	0x4d	77
43	0xe8	-24
44	0x6e	110
45	0x13	19
46	0x77	119
47	0x38	56
48	0xbe	-66
49	0xb9	-71
50	0xf4	-12
51	0xdd	-35
52	0x7b	123
53	0x3c	60
54	0xec	-20
55	0x2f	47
56	0xe2	-30
57	0xbd	-67
58	0x5e	94
59	0x0d	13
60	0x19	25
61	0x0f	15
62	0x85	-123
63	0x7f	127
64	0xba	-70
65	0x2a	42
66	0x20	32
67	0x92	-110
68	0xb9	-71
69	0xd2	-46
70	0x11	17
71	0x5a	90
72	0x13	19
73	0xc9	-55
74	0xe3	-29
75	0x16	22
76	0xc8	-56
77	0xcf	-49
78	0x04	4
79	0x06	6
80	0xb9	-71
81	0xdb	-37
82	0xb0	-80
83	0x48	72
84	0x41	65
85	0x69	105
86	0x61	97
87	0xf4	-12
88	0xc4	-60
89	0x95	-107
90	0xe2	-30
91	0x41	65
92	0x96	-106
93	0x53	83
94	0xc9	-55
95	0x00	0
96	0x3f	63
97	0xc0	-64
98	0xed	-19
99	0xe4	-28
100	0xbf	-65
101	0x2d	45
102	0x53	83
103	0xcb	-53
104	0x66	102
105	0x65	101
106	0x55	85
107	0x6b	107
108	0xe5	-27
109	0x43	67
110	0x05	5
111	0xd3	-45
112	0x92	-110
113	0x3c	60
114	0x60	96
115	0x3a	58
116	0x05	5
117	0xbe	-66
118	0x41	65
119	0x08	8
120	0x19	25
121	0x32	50
122	0x07	7
123	0x49	73
124	0xef	-17
125	0xf2	-14
126	0xdf	-33
127	0x69	105
128	0x71	113
129	0x47	71
130	0xb9	-71
131	0xc0	-64
132	0x34	52
133	0xb6	-74
134	0x78	120
135	0x16	22
136	0xae	-82
137	0xf5	-11
138	0xc0	-64
139	0x77	119
140	0x13	19
141	0x92	-110
142	0x1b	27
143	0x15	21
144	0x8e	-114
145	0xc2	-62
146	0x9c	-100
147	0x9e	-98
148	0x97	-105
149	0xc8	-56
150	0x17	23
151	0xb9	-71
152	0xe5	-27
153	0xcd	-51
154	0x85	-123
155	0xe1	-31
156	0xfe	-2
157	0x72	114
158	0xc6	-58
159	0x91	-111
160	0x38	56
161	0xf4	-12
162	0x27	39
163	0xbd	-67
164	0x2e	46
165	0x08	8
166	0x02	2
167	0x67	103
168	0xdc	-36
169	0x99	-103
170	0x2b	43
171	0xc2	-62
172	0x6e	110
173	0xe1	-31
174	0xce	-50
175	0x56	86
176	0x31	49
177	0x4b	75
178	0x3a	58
179	0x21	33
180	0x02	2
181	0xba	-70
182	0x6e	110
183	0xb4	-76
184	0x27	39
185	0xaa	-86
186	0xb7	-73
187	0x99	-103
188	0xb8	-72
189	0xf3	-13
190	0xc8	-56
191	0x5c	92
192	0x35	53
193	0x78	120
194	0x15	21
195	0x60	96
196	0x51	81
197	0xe8	-24
198	0x63	99
199	0x1a	26
200	0xab	-85
201	0x44	68
202	0xe5	-27
203	0xaf	-81
204	0x6f	111
205	0xae	-82
206	0xdc	-36
207	0x31	49
208	0xd6	-42
209	0x10	16
210	0x39	57
211	0x19	25
212	0x31	49
213	0x8d	-115
214	0x8e	-114
215	0x3b	59
216	0x63	99
217	0xbc	-68
218	0x41	65
219	0xcb	-53
220	0x70	112
221	0x6f	111
222	0xb3	-77
223	0x59	89
224	0xf2	-14
225	0x7c	124
226	0x6b	107
227	0x68	104
228	0x8e	-114
229	0xac	-84
230	0xf2	-14
231	0x21	33
232	0x56	86
233	0x00	0
234	0xb9	-71
235	0x3b	59
236	0xae	-82
237	0x16	22
238	0x15	21
239	0x73	115
240	0x68	104
241	0x6e	110
242	0xbd	-67
243	0xbe	-66
244	0x7b	123
245	0x08	8
246	0x39	57
247	0xe1	-31
248	0xf1	-15
249	0xed	-19
250	0xbc	-68
251	0xb6	-74
252	0x94	-108
253	0x74	116
254	0x5d	93
255	0xe0	-32

sequential_35/quant_dense_96/MatMul;sequential_35/quant_dense_96/LastValueQuant/FakeQuantWithMinMaxVars i1 [100, 256] scale=0.0011930139 zero_point=0
0	0xd6	-0.05010658
1	0x00	0.0
2	0xdc	-0.0429485
3	0x59	0.10617823
4	0x17	0.027439319
5	0xfb	-0.0059650694
6	0x07	0.008351097
7	0xfe	-0.0023860277
8	0x5f	0.11333632
9	0x63	0.11810837
10	0x29	0.04891357
11	0xe6	-0.03101836
12	0x23	0.041755486
13	0x32	0.059650693
14	0xd2	-0.054878637
15	0x4a	0.088283025
16	0x6e	0.13123153
17	0xdf	-0.039369456
18	0xe1	-0.03698343
19	0xb8	-0.085897
20	0xed	-0.022667263
21	0xb6	-0.088283025
22	0xe8	-0.028632332
23	0xb5	-0.08947604
24	0xe0	-0.038176443
25	0xba	-0.08351097
26	0xfa	-0.007158083
27	0x1d	0.0345974
28	0x62	0.11691536
29	0xd2	-0.054878637
30	0x64	0.119301386
31	0xf5	-0.013123153
32	0x0c	0.014316166
33	0xb2	-0.093055084
34	0x47	0.08470398
35	0x18	0.028632332
36	0x1f	0.03698343
37	0xaa	-0.10259919
38	0x20	0.038176443
39	0x52	0.09782714
40	0xa2	-0.1121433
41	0xe9	-0.027439319
42	0x13	0.022667263
43	0xa3	-0.11095029
44	0x66	0.12168741
45	0x9d	-0.11810837
46	0x37	0.065615766
47	0x4e	0.093055084
48	0x3a	0.0691948
49	0xf4	-0.014316166
50	0xae	-0.09782714
51	0x91	-0.13242453
52	0xa4	-0.109757274
53	0xc5	-0.07038782
54	0xd2	-0.054878637
55	0xda	-0.045334525
56	0x49	0.08709001
57	0x47	0.08470398
58	0xc5	-0.07038782
59	0x0e	0.016702194
60	0x59	0.10617823
61	0xab	-0.10140618
62	0x6d	0.13003851
63	0x45	0.082317956
64	0xf0	-0.019088222
65	0xaf	-0.09663412
66	0x9b	-0.1204944
67	0xe9	-0.027439319
68	0x9a	-0.12168741
69	0x21	0.039369456
70	0xff	-0.0011930139
71	0xa5	-0.10856426
72	0xb7	-0.08709001
73	0x65	0.1204944
74	0xde	-0.04056247
75	0xfe	-0.0023860277
76	0x2c	0.05249261
77	0xac	-0.10021316
78	0x5b	0.10856426
79	0x07	0.008351097
80	0xa1	-0.11333632
81	0x40	0.07635289
82	0xeb	-0.02505329
83	0x1a	0.03101836
84	0xe7	-0.029825347
85	0xde	-0.04056247
86	0x38	0.066808775
87	0xc7	-0.06800179
88	0x9a	-0.12168741
89	0x16	0.026246306
90	0x36	0.06442275
91	0xb8	-0.085897
92	0xa0	-0.11452933
93	0xa0	-0.11452933
94	0x5b	0.10856426
95	0x16	0.026246306
96	0xb1	-0.09424809
97	0xee	-0.02147425
98	0xe1	-0.03698343
99	0xf1	-0.017895209
100	0x47	0.08470398
101	0xec	-0.023860278
102	0xab	-0.10140618
103	0x27	0.046527542
104	0x4a	0.088283025
105	0x17	0.027439319
106	0x38	0.066808775
107	0xbd	-0.07993193
108	0x98	-0.12407344
109	0xbc	-0.08112494
110	0x09	0.010737125
111	0x10	0.019088222
112	0xe5	-0.032211374
113	0x45	0.082317956
114	0xc0	-0.07635289
115	0xb1	-0.09424809
116	0x16	0.026246306
117	0x95	-0.12765248
118	0x59	0.10617823
119	0x16	0.026246306
120	0xc2	-0.07396686
121	0xcb	-0.06322973
122	0x0d	0.01550918
123	0x0f	0.017895209
124	0xd8	-0.047720555
125	0x12	0.02147425
126	0xf6	-0.011930139
127	0xc6	-0.0691948
128	0xc7	-0.06800179
129	0x93	-0.13003851
130	0x2d	0.053685624
131	0xdf	-0.039369456
132	0x4a	0.088283025
133	0x9f	-0.11572234
134	0xfc	-0.0047720554
135	0x25	0.044141512
136	0xc3	-0.072773844
137	0xf1	-0.017895209
138	0x27	0.046527542
139	0x5b	0.10856426
140	0x20	0.038176443
141	0xd8	-0.047720555
142	0x55	0.10140618
143	0x03	0.0035790415
144	0xe1	-0.03698343
145	0x64	0.119301386
146	0xd7	-0.04891357
147	0xde	-0.04056247
148	0x42	0.07873891
149	0xe7	-0.029825347
150	0xc7	-0.06800179
151	0xfe	-0.0023860277
152	0x54	0.10021316
153	0x65	0.1204944
154	0x47	0.08470398
155	0xb1	-0.09424809
156	0xe8	-0.028632332
157	0x1a	0.03101836
158	0xd6	-0.05010658
159	0x2a	0.05010658
160	0x58	0.10498522
161	0x55	0.10140618
162	0xc4	-0.071580835
163	0x3f	0.07515987
164	0x37	0.065615766
165	0x3d	0.072773844
166	0x24	0.0429485
167	0xe7	-0.029825347
168	0x12	0.02147425
169	0xf3	-0.01550918
170	0xcc	-0.06203672
171	0xb8	-0.085897
172	0x43	0.07993193
173	0x0a	0.011930139
174	0xea	-0.026246306
175	0xe5	-0.032211374
176	0x52	0.09782714
177	0x3f	0.07515987
178	0xc6	-0.0691948
179	0x3c	0.071580835
180	0xcd	-0.060843706
181	0x37	0.065615766
182	0x1f	0.03698343
183	0x3c	0.071580835
184	0xba	-0.08351097
185	0x02	0.0023860277
186	0xcf	-0.05845768
187	0x61	0.11572234
188	0xe0	-0.038176443
189	0x0e	0.016702194
190	0x63	0.11810837
191	0x9e	-0.11691536
192	0xac	-0.10021316
193	0xa1	-0.11333632
194	0xfd	-0.0035790415
195	0x16	0.026246306
196	0x60	0.11452933
197	0x97	-0.12526645
198	0x66	0.12168741
199	0xbd	-0.07993193
200	0x0d	0.01550918
201	0x03	0.0035790415
202	0xbf	-0.0775459
203	0x39	0.06800179
204	0x5f	0.11333632
205	0xb0	-0.09544111
206	0x59	0.10617823
207	0xf5	-0.013123153
208	0xe3	-0.0345974
209	0x0d	0.01550918
210	0x64	0.119301386
211	0x1b	0.032211374
212	0x96	-0.12645946
213	0xeb	-0.02505329
214	0xbc	-0.08112494
215	0x37	0.065615766
216	0x4d	0.09186207
217	0xea	-0.026246306
218	0x54	0.10021316
219	0xa6	-0.10737125
220	0xb0	-0.09544111
221	0x10	0.019088222
222	0x62	0.11691536
223	0x02	0.0023860277
224	0x05	0.0059650694
225	0x0c	0.014316166
226	0x13	0.022667263
227	0x15	0.02505329
228	0x9e	-0.11691536
229	0x60	0.11452933
230	0xfd	-0.0035790415
231	0xbb	-0.082317956
232	0x69	0.12526645
233	0xe9	-0.027439319
234	0x00	0.0
235	0x9b	-0.1204944
236	0xb2	-0.093055084
237	0x1c	0.033404388
238	0x99	-0.12288043
239	0x1d	0.0345974
240	0xe6	-0.03101836
241	0x1d	0.0345974
242	0x14	0.023860278
243	0xd2	-0.054878637
244	0x29	0.04891357
245	0x06	0.007158083
246	0xa8	-0.10498522
247	0xc1	-0.07515987
248	0xc4	-0.071580835
249	0x04	0.0047720554
250	0xb3	-0.09186207
251	0x64	0.119301386
252	0x0f	0.017895209
253	0xd5	-0.051299594
254	0xbb	-0.082317956
255	0x69	0.12526645

sequential_35/quant_dense_97/MatMul;sequential_35/quant_dense_97/LastValueQuant/FakeQuantWithMinMaxVars i1 [50, 100] scale=0.0016242228 zero_point=0
0	0xa1	-0.15430117
1	0xbc	-0.11044715
2	0xff	-0.0016242228
3	0xf3	-0.021114897
4	0xf9	-0.01136956
5	0xb5	-0.12181671
6	0x88	-0.19490674
7	0xf5	-0.017866451
8	0x50	0.12993783
9	0x0b	0.017866451
10	0x11	0.027611788
11	0x13	0.030860234
12	0xa7	-0.14455584
13	0x90	-0.18191296
14	0x36	0.08770803
15	0x60	0.1559254
16	0x1d	0.047102463
17	0x4e	0.12668937
18	0xc4	-0.09745337
19	0xc9	-0.08933225
20	0xd5	-0.06984158
21	0x37	0.08933225
22	0x45	0.11207138
23	0x72	0.18516141
24	0x79	0.19653097
25	0xb5	-0.12181671
26	0x08	0.012993783
27	0xc6	-0.094204925
28	0xc4	-0.09745337
29	0x74	0.18840985
30	0x73	0.18678562
31	0x2a	0.06821736
32	0xf1	-0.024363343
33	0x59	0.14455584
34	0xac	-0.13643472
35	0x06	0.009745337
36	0xee	-0.029236011
37	0x33	0.08283536
38	0x98	-0.16891918
39	0xfb	-0.008121114
40	0xdc	-0.058472022
41	0xc8	-0.09095648
42	0x3f	0.102326035
43	0x14	0.032484457
44	0x1a	0.042229794
45	0x6c	0.17541607
46	0x1b	0.043854017
47	0xf9	-0.01136956
48	0x30	0.0779627
49	0x06	0.009745337
50	0xca	-0.08770803
51	0x22	0.055223577
52	0x6c	0.17541607
53	0x51	0.13156205
54	0x22	0.055223577
55	0x8a	-0.19165829
56	0x30	0.0779627
57	0xdd	-0.0568478
58	0x03	0.0048726685
59	0xf5	-0.017866451
60	0xea	-0.035732903
61	0xda	-0.061720468
62	0x25	0.060096245
63	0x4c	0.123440936
64	0xa5	-0.14780428
65	0x90	-0.18191296
66	0xd7	-0.06659314
67	0xd2	-0.07471425
68	0xc4	-0.09745337
69	0x9a	-0.16567072
70	0xfe	-0.0032484457
71	0x5c	0.1494285
72	0x67	0.16729495
73	0xb3	-0.12506516
74	0x15	0.03410868
75	0x8a	-0.19165829
76	0x8c	-0.18840985
77	0x6c	0.17541607
78	0xd0	-0.0779627
79	0x71	0.18353719
80	0xd4	-0.071465805
81	0x9a	-0.16567072
82	0xfa	-0.009745337
83	0x04	0.0064968914
84	0xda	-0.061720468
85	0x02	0.0032484457
86	0xb6	-0.12019249
87	0xb6	-0.12019249
88	0xfe	-0.0032484457
89	0x36	0.08770803
90	0x22	0.055223577
91	0xb2	-0.12668937
92	0x0c	0.019490674
93	0xb2	-0.12668937
94	0x53	0.13481049
95	0xd1	-0.07633847
96	0x1c	0.04547824
97	0x10	0.025987566
98	0x6c	0.17541607
99	0x72	0.18516141
100	0x99	-0.16729495
101	0x24	0.058472022
102	0xf1	-0.024363343
103	0xa7	-0.14455584
104	0x1e	0.048726685
105	0xf7	-0.014618006
106	0x05	0.008121114
107	0x5c	0.1494285
108	0x67	0.16729495
109	0x67	0.16729495
110	0x5e	0.15267694
111	0xf0	-0.025987566
112	0xad	-0.13481049
113	0xd6	-0.06821736
114	0x3f	0.102326035
115	0x38	0.09095648
116	0x42	0.10719871
117	0x9b	-0.16404651
118	0x98	-0.16891918
119	0xbe	-0.10719871
120	0xd3	-0.07309003
121	0x53	0.13481049
122	0x95	-0.17379184
123	0x29	0.06659314
124	0x10	0.025987566
125	0xfe	-0.0032484457
126	0x0e	0.02273912
127	0x27	0.06334469
128	0xbb	-0.11207138
129	0x78	0.19490674
130	0xd2	-0.07471425
131	0x1e	0.048726685
132	0x8c	-0.18840985
133	0x3b	0.095829144
134	0x60	0.1559254
135	0xa8	-0.14293161
136	0x6d	0.1770403
137	0xd1	-0.07633847
138	0x06	0.009745337
139	0x67	0.16729495
140	0x19	0.04060557
141	0xc9	-0.08933225
142	0xed	-0.030860234
143	0xb2	-0.12668937
144	0xc9	-0.08933225
145	0xa2	-0.15267694
146	0xee	-0.029236011
147	0x97	-0.1705434
148	0x92	-0.1786645
149	0x0d	0.021114897
150	0x59	0.14455584
151	0xf8	-0.012993783
152	0xff	-0.0016242228
153	0x92	-0.1786645
154	0x2c	0.071465805
155	0x56	0.13968316
156	0x20	0.05197513
157	0xfe	-0.0032484457
158	0x2d	0.07309003
159	0x48	0.116944045
160	0x5c	0.1494285
161	0xb7	-0.11856827
162	0x65	0.16404651
163	0x32	0.08121114
164	0x3e	0.10070182
165	0x60	0.1559254
166	0xb3	-0.12506516
167	0xad	-0.13481049
168	0x79	0.19653097
169	0x35	0.086083815
170	0x68	0.16891918
171	0xa6	-0.14618006
172	0x5e	0.15267694
173	0x6a	0.17216763
174	0x9f	-0.15754962
175	0x53	0.13481049
176	0x23	0.0568478
177	0x75	0.19003408
178	0x4d	0.12506516
179	0x63	0.16079806
180	0xa6	-0.14618006
181	0x64	0.16242228
182	0x70	0.18191296
183	0xf8	-0.012993783
184	0x46	0.1136956
185	0x19	0.04060557
186	0xfe	-0.0032484457
187	0xd0	-0.0779627
188	0xef	-0.027611788
189	0x9f	-0.15754962
190	0x0b	0.017866451
191	0x13	0.030860234
192	0x1f	0.05035091
193	0x3e	0.10070182
194	0x2d	0.07309003
195	0x60	0.1559254
196	0x35	0.086083815
197	0x25	0.060096245
198	0x3c	0.09745337
199	0xff	-0.0016242228
200	0x5a	0.14618006
201	0x35	0.086083815
202	0x9b	-0.16404651
203	0x72	0.18516141
204	0x20	0.05197513
205	0xa3	-0.15105273
206	0xbf	-0.10557449
207	0x9b	-0.16404651
208	0xfc	-0.0064968914
209	0x04	0.0064968914
210	0x4f	0.1283136
211	0x38	0.09095648
212	0x5e	0.15267694
213	0xd5	-0.06984158
214	0x94	-0.17541607
215	0x94	-0.17541607
216	0x8f	-0.18353719
217	0x0b	0.017866451
218	0x53	0.13481049
219	0xdf	-0.053599354
220	0x9b	-0.16404651
221	0xa0	-0.1559254
222	0x44	0.11044715
223	0x26	0.061720468
224	0xca	-0.08770803
225	0xdb	-0.060096245
226	0x45	0.11207138
227	0xff	-0.0016242228
228	0xd6	-0.06821736
229	0x77	0.19328251
230	0xe7	-0.04060557
231	0x98	-0.16891918
232	0x22	0.055223577
233	0x27	0.06334469
234	0xa0	-0.1559254
235	0xfc	-0.0064968914
236	0xcb	-0.086083815
237	0x1e	0.048726685
238	0xff	-0.0016242228
239	0x73	0.18678562
240	0x34	0.08445959
241	0x1c	0.04547824
242	0xb3	-0.12506516
243	0xc2	-0.10070182
244	0xc7	-0.092580706
245	0x36	0.08770803
246	0xa2	-0.15267694
247	0xc4	-0.09745337
248	0x51	0.13156205
249	0xd9	-0.06334469
250	0x26	0.061720468
251	0xbb	-0.11207138
252	0xfb	-0.008121114
253	0xcf	-0.07958692
254	0x85	-0.1997794
255	0xa0	-0.1559254

sequential_35/quant_dense_98/MatMul;sequential_35/quant_dense_98/LastValueQuant/FakeQuantWithMinMaxVars i1 [10, 50] scale=0.002544243 zero_point=0
0	0x78	0.30530915
1	0x61	0.24679156
2	0xe8	-0.06106183
3	0xe7	-0.06360607
4	0xc8	-0.1424776
5	0xb8	-0.18318549
6	0xe8	-0.06106183
7	0x1d	0.07378304
8	0x2e	0.11703517
9	0xec	-0.050884858
10	0x25	0.09413698
11	0xf1	-0.038163643
12	0x58	0.22389337
13	0xb0	-0.20353943
14	0x07	0.0178097
15	0xa4	-0.23407035
16	0x28	0.101769716
17	0x5d	0.23661458
18	0x41	0.16537578
19	0x23	0.089048505
20	0xe4	-0.0712388
21	0xc4	-0.15265457
22	0xf2	-0.0356194
23	0x61	0.24679156
24	0xb3	-0.1959067
25	0xb8	-0.18318549
26	0xf2	-0.0356194
27	0xc3	-0.15519881
28	0x2f	0.11957942
29	0x73	0.29258794
30	0xd3	-0.114490926
31	0x38	0.1424776
32	0xb1	-0.20099519
33	0xa8	-0.22389337
34	0x46	0.17809701
35	0x65	0.25696853
36	0xae	-0.20862791
37	0xad	-0.21117216
38	0xf3	-0.033075158
39	0x92	-0.27986673
40	0xe0	-0.08141577
41	0x54	0.2137164
42	0x10	0.040707886
43	0xaf	-0.20608367
44	0x91	-0.28241095
45	0x17	0.058517586
46	0x07	0.0178097
47	0x6f	0.28241095
48	0x4a	0.18827397
49	0x8e	-0.29004368
50	0x00	0.0
51	0x67	0.262057
52	0x40	0.16283154
53	0x27	0.09922548
54	0xd8	-0.101769716
55	0xe0	-0.08141577
56	0x78	0.30530915
57	0x27	0.09922548
58	0x2c	0.11194669
59	0x11	0.04325213
60	0x9e	-0.2493358
61	0x70	0.2849552
62	0xc7	-0.14502184
63	0xab	-0.21626064
64	0x17	0.058517586
65	0x47	0.18064125
66	0x99	-0.262057
67	0xf3	-0.033075158
68	0x22	0.08650426
69	0x03	0.0076327287
70	0x68	0.26460126
71	0x0a	0.025442429
72	0xa6	-0.22898185
73	0x9d	-0.25188005
74	0xb1	-0.20099519
75	0xbe	-0.16792002
76	0xad	-0.21117216
77	0xb7	-0.18572973
78	0x49	0.18572973
79	0xd9	-0.09922548
80	0xb4	-0.19336246
81	0xc8	-0.1424776
82	0xe5	-0.06869456
83	0x6f	0.28241095
84	0x0c	0.030530915
85	0xf1	-0.038163643
86	0x47	0.18064125
87	0x75	0.2976764
88	0x8e	-0.29004368
89	0x77	0.3027649
90	0x18	0.06106183
91	0x7a	0.31039762
92	0x2d	0.114490926
93	0xb2	-0.19845095
94	0x25	0.09413698
95	0xb3	-0.1959067
96	0x4d	0.1959067
97	0xaa	-0.2188049
98	0x2e	0.11703517
99	0x9b	-0.25696853
100	0x1e	0.07632729
101	0xca	-0.13738912
102	0x7d	0.31803036
103	0x99	-0.262057
104	0x62	0.2493358
105	0xa5	-0.2315261
106	0x42	0.16792002
107	0x5c	0.23407035
108	0xe8	-0.06106183
109	0xa9	-0.22134914
110	0x3a	0.14756608
111	0x42	0.16792002
112	0x1d	0.07378304
113	0x4a	0.18827397
114	0x0a	0.025442429
115	0x5a	0.22898185
116	0x39	0.14502184
117	0xc0	-0.16283154
118	0x2b	0.10940245
119	0xb7	-0.18572973
120	0xde	-0.08650426
121	0x45	0.17555276
122	0x0d	0.033075158
123	0x1c	0.0712388
124	0x87	-0.3078534
125	0xa9	-0.22134914
126	0xba	-0.17809701
127	0x3c	0.15265457
128	0x64	0.25442427
129	0x17	0.058517586
130	0xda	-0.09668123
131	0x7a	0.31039762
132	0x24	0.091592744
133	0x77	0.3027649
134	0xfc	-0.010176972
135	0x16	0.055973344
136	0x1c	0.0712388
137	0x53	0.21117216
138	0x14	0.050884858
139	0x43	0.17046428
140	0xab	-0.21626064
141	0x11	0.04325213
142	0x61	0.24679156
143	0xb2	-0.19845095
144	0xc1	-0.1602873
145	0xa2	-0.23915884
146	0x94	-0.27477825
147	0x3f	0.1602873
148	0xe7	-0.06360607
149	0x60	0.24424732
150	0xd8	-0.101769716
151	0xa9	-0.22134914
152	0x37	0.13993336
153	0xcc	-0.13230063
154	0xd0	-0.12212366
155	0xeb	-0.0534291
156	0x9f	-0.24679156
157	0x6d	0.27732247
158	0xc2	-0.15774307
159	0x38	0.1424776
160	0xe4	-0.0712388
161	0x47	0.18064125
162	0xc4	-0.15265457
163	0x52	0.20862791
164	0xe6	-0.066150315
165	0x2f	0.11957942
166	0xbb	-0.17555276
167	0x34	0.13230063
168	0x30	0.12212366
169	0xd4	-0.11194669
170	0x0c	0.030530915
171	0xb8	-0.18318549
172	0x24	0.091592744
173	0x5c	0.23407035
174	0x17	0.058517586
175	0xd6	-0.1068582
176	0x85	-0.31294188
177	0x4a	0.18827397
178	0x63	0.25188005
179	0x2f	0.11957942
180	0xa8	-0.22389337
181	0x2a	0.1068582
182	0xc3	-0.15519881
183	0xc5	-0.15011033
184	0x1b	0.06869456
185	0x57	0.22134914
186	0x05	0.012721214
187	0xba	-0.17809701
188	0x67	0.262057
189	0x90	-0.2849552
190	0x6c	0.27477825
191	0x14	0.050884858
192	0xdf	-0.08396001
193	0xc6	-0.14756608
194	0xc6	-0.14756608
195	0x42	0.16792002
196	0xba	-0.17809701
197	0x99	-0.262057
198	0xf3	-0.033075158
199	0x55	0.21626064
200	0xda	-0.09668123
201	0x35	0.13484487
202	0x4f	0.20099519
203	0x8e	-0.29004368
204	0xc5	-0.15011033
205	0x2f	0.11957942
206	0xfb	-0.012721214
207	0xea	-0.055973344
208	0xfb	-0.012721214
209	0x59	0.22643761
210	0xe6	-0.066150315
211	0x4e	0.19845095
212	0x4d	0.1959067
213	0x72	0.29004368
214	0x4b	0.19081822
215	0xda	-0.09668123
216	0x7c	0.31548613
217	0xb2	-0.19845095
218	0xc0	-0.16283154
219	0xed	-0.048340615
220	0x3b	0.15011033
221	0x3b	0.15011033
222	0xa4	-0.23407035
223	0x49	0.18572973
224	0x42	0.16792002
225	0x9c	-0.25442427
226	0x30	0.12212366
227	0xcd	-0.12975639
228	0xe3	-0.07378304
229	0x14	0.050884858
230	0x50	0.20353943
231	0x25	0.09413698
232	0x73	0.29258794
233	0xd0	-0.12212366
234	0xb3	-0.1959067
235	0x3d	0.15519881
236	0x70	0.2849552
237	0x38	0.1424776
238	0xab	-0.21626064
239	0x12	0.045796372
240	0xfc	-0.010176972
241	0xb3	-0.1959067
242	0x95	-0.272234
243	0xd5	-0.10940245
244	0x25	0.09413698
245	0xcd	-0.12975639
246	0x89	-0.3027649
247	0xab	-0.21626064
248	0x32	0.12721214
249	0x07	0.0178097
250	0x73	0.29258794
251	0x99	-0.262057
252	0xcc	-0.13230063
253	0x6c	0.27477825
254	0x18	0.06106183
255	0xf3	-0.033075158

sequential_35/quant_output/MatMul;sequential_35/quant_output/LastValueQuant/FakeQuantWithMinMaxVars i1 [1, 10] scale=0.0049328157 zero_point=0
0	0x51	0.39955807
1	0x28	0.19731262
2	0xf7	-0.044395342
3	0xe3	-0.14305165
4	0x2c	0.21704389
5	0x3a	0.2861033
6	0x6c	0.5327441
7	0x7f	0.6264676
8	0x15	0.10358913
9	0xc3	-0.30090177
