models/opt-160x66x3.tflite (tflite, 234880 bytes, 9 tensors)

sequential_4/quant_conv2d_20/Conv2D;sequential_4/quant_conv2d_20/LastValueQuant/FakeQuantWithMinMaxVarsPerChannel i1 [24, 5, 5, 3]
00000000: 623f bb64 0393 550e 96c3 5c8a d79c ee9c
00000010: 4b67 d4d7 556f 96f7 6e03 114f ec4f 8962
00000020: e9e4 5aa1 fdf4 60d2 0e8b fb65 1db1 abaa
00000030: 4f9f 5e4d 64f2 0cd9 68b4 5431 bf42 c49d
00000040: ce94 88df 8168 c657 5da2 bb42 6f17 fbfe
00000050: cb45 5c02 45d4 2fb4 9557 cb2a f186 11e6
00000060: d54d e4f0 2496 67e5 39ad 16c6 04d1 993a
00000070: 0f35 e7da e09b d794 ccbe b0ff 6e19 4c98
00000080: c969 2f94 d126 2e09 91f5 13e2 fa2f 1ef0
00000090: bee3 8132 27b4 2d70 d820 15eb b635 be53
000000a0: 5818 3cd3 1609 53ba 40ee a35e e45f b7e8
000000b0: 11b2 08f9 c319 e22d 6d66 7050 86d4 fced
000000c0: 5d03 f01b bced 1933 a9e3 2bbd 71b9 e8b4
000000d0: 275d f4d2 1e53 6381 014d a1fe 70bb 69b8
000000e0: 10dd b9fa 1565 e819 545a e612 bea6 ec48
000000f0: c72b a581 e73c 15e0 0cf8 c6e4 3e29 4dcc
98 63 -69 100 3 -109 85 14
-106 -61 92 -118 -41 -100 -18 -100
75 103 -44 -41 85 111 -106 -9
110 3 17 79 -20 79 -119 98
-23 -28 90 -95 -3 -12 96 -46
14 -117 -5 101 29 -79 -85 -86
79 -97 94 77 100 -14 12 -39
104 -76 84 49 -65 66 -60 -99
-50 -108 -120 -33 -127 104 -58 87
93 -94 -69 66 111 23 -5 -2
-53 69 92 2 69 -44 47 -76
-107 87 -53 42 -15 -122 17 -26
-43 77 -28 -16 36 -106 103 -27
57 -83 22 -58 4 -47 -103 58
15 53 -25 -38 -32 -101 -41 -108
-52 -66 -80 -1 110 25 76 -104
-55 105 47 -108 -47 38 46 9
-111 -11 19 -30 -6 47 30 -16
-66 -29 -127 50 39 -76 45 112
-40 32 21 -21 -74 53 -66 83
88 24 60 -45 22 9 83 -70
64 -18 -93 94 -28 95 -73 -24
17 -78 8 -7 -61 25 -30 45
109 102 112 80 -122 -44 -4 -19
93 3 -16 27 -68 -19 25 51
-87 -29 43 -67 113 -71 -24 -76
39 93 -12 -46 30 83 99 -127
1 77 -95 -2 112 -69 105 -72
16 -35 -71 -6 21 101 -24 25
84 90 -26 18 -66 -90 -20 72
-57 43 -91 -127 -25 60 21 -32
12 -8 -58 -28 62 41 77 -52

sequential_4/quant_conv2d_21/Conv2D;sequential_4/quant_conv2d_21/LastValueQuant/FakeQuantWithMinMaxVarsPerChannel i1 [36, 5, 5, 24]
00000000: d846 c149 b3d6 deef eed5 7608 414a f47f
00000010: f1c6 2349 d6c4 341e fecc 0ee4 fd3c 0737
00000020: decc 5314 5d34 15ea ceec 3acb 4f31 2200
00000030: ca3c f4b7 ac07 fa09 440a eb3b 560b 397b
00000040: 2bcf 58fd 00d7 3021 ec45 4402 f9e1 2b18
00000050: 0bf2 50d3 3004 c951 324f d8de c728 e64a
00000060: f82e 133f b30f 48f4 df01 3cb2 e32e 4f60
00000070: 431a e1cb 3201 f2c4 f04e d2f8 0d08 4248
00000080: 0110 15f5 4ae6 3dd1 0e32 5341 f1c6 ba33
00000090: c902 46e5 1143 cc63 2a02 030d 2c0a 1443
000000a0: 350b cc19 1105 16f5 afff b2ba 2afc 1c3c
000000b0: f007 ac04 c526 502e 304c 1a45 4747 bdf5
000000c0: 08e4 b508 24d9 cb59 e4f7 1446 e44b 321f
000000d0: 05fc dbf8 45d2 d4bf c1fc b936 2434 40e8
000000e0: fbfb afae d9f3 17cc d0e4 feba b5ce d4c2
000000f0: e933 4608 d01b edb5 c90d 30f8 ec38 46d7
-40 70 -63 73 -77 -42 -34 -17
-18 -43 118 8 65 74 -12 127
-15 -58 35 73 -42 -60 52 30
-2 -52 14 -28 -3 60 7 55
-34 -52 83 20 93 52 21 -22
-50 -20 58 -53 79 49 34 0
-54 60 -12 -73 -84 7 -6 9
68 10 -21 59 86 11 57 123
43 -49 88 -3 0 -41 48 33
-20 69 68 2 -7 -31 43 24
11 -14 80 -45 48 4 -55 81
50 79 -40 -34 -57 40 -26 74
-8 46 19 63 -77 15 72 -12
-33 1 60 -78 -29 46 79 96
67 26 -31 -53 50 1 -14 -60
-16 78 -46 -8 13 8 66 72
1 16 21 -11 74 -26 61 -47
14 50 83 65 -15 -58 -70 51
-55 2 70 -27 17 67 -52 99
42 2 3 13 44 10 20 67
53 11 -52 25 17 5 22 -11
-81 -1 -78 -70 42 -4 28 60
-16 7 -84 4 -59 38 80 46
48 76 26 69 71 71 -67 -11
8 -28 -75 8 36 -39 -53 89
-28 -9 20 70 -28 75 50 31
5 -4 -37 -8 69 -46 -44 -65
-63 -4 -71 54 36 52 64 -24
-5 -5 -81 -82 -39 -13 23 -52
-48 -28 -2 -70 -75 -50 -44 -62
-23 51 70 8 -48 27 -19 -75
-55 13 48 -8 -20 56 70 -41

sequential_4/quant_conv2d_22/Conv2D;sequential_4/quant_conv2d_22/LastValueQuant/FakeQuantWithMinMaxVarsPerChannel i1 [48, 5, 5, 36]
00000000: bb4b d0ef 6ed1 3f1d 0a63 51a1 ff43 bc0e
00000010: 190c a256 49b8 f2e5 cc1e ddcd 2ef7 e3b8
00000020: e41d 3403 fdbb d146 42b6 ef50 de4a c1bb
00000030: e132 a5d8 1ed9 1428 acfa 24fa f8b5 0519
00000040: fc0a d90d dfd4 41fe 3941 4246 d0b0 d0df
00000050: 3765 2f2d 3a57 f8c0 1c26 ab68 5c0b ea3f
00000060: 4e4a f353 09f7 3dff 16fe 10ea f2c7 3232
00000070: 65e1 e356 3f67 fadf cf0c 20ee 204e 0914
00000080: e2ff c90f c107 161c fded 6904 bee8 2bc4
00000090: cdd4 3a39 0538 e100 2a6d b7b5 054a 5c2e
000000a0: cce6 3fd3 4435 510d bc3e b128 363d 2a62
000000b0: 08fb ddb2 521a fdcf 3014 46cd 44d5 3444
000000c0: f3e4 4339 2c55 a4ce 0be5 f01a 18b2 d6f0
000000d0: f1d6 1657 3f11 1943 5c2a 462c 51f6 1cdd
000000e0: 3601 496c b92f 37d1 b808 c25a 2952 bafb
000000f0: 5543 ded9 c5c2 ede2 3465 4fec b9c1 d507
-69 75 -48 -17 110 -47 63 29
10 99 81 -95 -1 67 -68 14
25 12 -94 86 73 -72 -14 -27
-52 30 -35 -51 46 -9 -29 -72
-28 29 52 3 -3 -69 -47 70
66 -74 -17 80 -34 74 -63 -69
-31 50 -91 -40 30 -39 20 40
-84 -6 36 -6 -8 -75 5 25
-4 10 -39 13 -33 -44 65 -2
57 65 66 70 -48 -80 -48 -33
55 101 47 45 58 87 -8 -64
28 38 -85 104 92 11 -22 63
78 74 -13 83 9 -9 61 -1
22 -2 16 -22 -14 -57 50 50
101 -31 -29 86 63 103 -6 -33
-49 12 32 -18 32 78 9 20
-30 -1 -55 15 -63 7 22 28
-3 -19 105 4 -66 -24 43 -60
-51 -44 58 57 5 56 -31 0
42 109 -73 -75 5 74 92 46
-52 -26 63 -45 68 53 81 13
-68 62 -79 40 54 61 42 98
8 -5 -35 -78 82 26 -3 -49
48 20 70 -51 68 -43 52 68
-13 -28 67 57 44 85 -92 -50
11 -27 -16 26 24 -78 -42 -16
-15 -42 22 87 63 17 25 67
92 42 70 44 81 -10 28 -35
54 1 73 108 -71 47 55 -47
-72 8 -62 90 41 82 -70 -5
85 67 -34 -39 -59 -62 -19 -30
52 101 79 -20 -71 -63 -43 7

sequential_4/quant_conv2d_23/Conv2D;sequential_4/quant_conv2d_23/LastValueQuant/FakeQuantWithMinMaxVarsPerChannel i1 [64, 3, 3, 48]
00000000: 4eed 1ff6 4f1b 580c 3c2c fc03 b32e cb0a
00000010: 53e0 c216 bfa5 092b 0a3e 3438 3b55 7ff8
00000020: 4420 b4bc 4601 26b9 caf3 f2f9 f4b0 cc3c
00000030: 4fdd c54b b2f0 eecf 4f07 b2db 100f 37dc
00000040: d452 0310 deba d949 2ee3 ee1d 2b33 050c
00000050: f9bc d642 c644 c40f f928 d0da 1f3e 3204
00000060: 4105 4f3e e1bf 0946 d80e 0802 2edb b1cf
00000070: ffc2 e7eb ed08 00bf 27c4 e851 ba52 1bcf
00000080: d1de 36c7 3d2f e3f6 4254 eadd 4e2c 4fc2
00000090: 0eb6 373f 5314 efe2 ef33 f4ea 4cdd 38fb
000000a0: c7ab 2448 54f9 4251 c60f 3cb1 d4e4 df3f
000000b0: 2a02 d84a f5d3 f5b1 ce6d 3443 2e45 d6e1
000000c0: fcbc 0ac0 3234 b3c6 211c cd49 13cc c9b7
000000d0: 42b2 f9e5 213b e1f6 3fe5 ce49 f750 faa8
000000e0: 22f1 2ace af02 f312 fa0d 114a e70a c3be
000000f0: c1c5 4116 cfb9 d0f6 ecf1 d212 c4e4 3ee8
78 -19 31 -10 79 27 88 12
60 44 -4 3 -77 46 -53 10
83 -32 -62 22 -65 -91 9 43
10 62 52 56 59 85 127 -8
68 32 -76 -68 70 1 38 -71
-54 -13 -14 -7 -12 -80 -52 60
79 -35 -59 75 -78 -16 -18 -49
79 7 -78 -37 16 15 55 -36
-44 82 3 16 -34 -70 -39 73
46 -29 -18 29 43 51 5 12
-7 -68 -42 66 -58 68 -60 15
-7 40 -48 -38 31 62 50 4
65 5 79 62 -31 -65 9 70
-40 14 8 2 46 -37 -79 -49
-1 -62 -25 -21 -19 8 0 -65
39 -60 -24 81 -70 82 27 -49
-47 -34 54 -57 61 47 -29 -10
66 84 -22 -35 78 44 79 -62
14 -74 55 63 83 20 -17 -30
-17 51 -12 -22 76 -35 56 -5
-57 -85 36 72 84 -7 66 81
-58 15 60 -79 -44 -28 -33 63
42 2 -40 74 -11 -45 -11 -79
-50 109 52 67 46 69 -42 -31
-4 -68 10 -64 50 52 -77 -58
33 28 -51 73 19 -52 -55 -73
66 -78 -7 -27 33 59 -31 -10
63 -27 -50 73 -9 80 -6 -88
34 -15 42 -50 -81 2 -13 18
-6 13 17 74 -25 10 -61 -66
-63 -59 65 22 -49 -71 -48 -10
-20 -15 -46 18 -60 -28 62 -24

sequential_4/quant_conv2d_24/Conv2D;sequential_4/quant_conv2d_24/LastValueQuant/FakeQuantWithMinMaxVarsPerChannel i1 [64, 3, 3, 64]
00000000: 3100 aa52 61d3 b0b9 5766 42e8 06e3 25a8
00000010: c85e 4dc1 b3fa a7b4 bd06 cab9 5712 1798
00000020: 103a fc45 2db9 a2f7 f423 4e2d d839 5d00
00000030: bf4a f616 4006 1206 47ef fe3e 06e3 08b9
00000040: b051 2149 504d 14a7 31de ac5f 46ff f6ef
00000050: 0e28 ed3a ae01 0dfc d4d6 be1c 11c6 dab9
00000060: bccc aaaa 2341 2242 11de 3b19 cf58 64e7
00000070: b40e bee6 a33f 055c 471e b3bb 3027 b6ca
00000080: 18c0 3e4c 1fc0 c1aa 1cae ee68 2a38 55b8
00000090: f11b d022 5e0c 41c9 2dc5 a02b 5021 570e
000000a0: 2b3b e82c fb3d 1247 a8e5 56b3 2012 0f0b
000000b0: 47c6 c294 38bd 364a 27b5 f5f1 1fb2 1bb1
000000c0: a3ad d343 5591 dd06 28e7 d5c1 d712 49ee
000000d0: 1b32 d050 d367 49db bc11 6e57 5adf ecdd
000000e0: 2e0c a056 4147 58aa 43c9 c5fa ea61 fed4
000000f0: 9f11 3daf e9b2 dc0b 08d6 de64 a1e6 a2e7
49 0 -86 82 97 -45 -80 -71
87 102 66 -24 6 -29 37 -88
-56 94 77 -63 -77 -6 -89 -76
-67 6 -54 -71 87 18 23 -104
16 58 -4 69 45 -71 -94 -9
-12 35 78 45 -40 57 93 0
-65 74 -10 22 64 6 18 6
71 -17 -2 62 6 -29 8 -71
-80 81 33 73 80 77 20 -89
49 -34 -84 95 70 -1 -10 -17
14 40 -19 58 -82 1 13 -4
-44 -42 -66 28 17 -58 -38 -71
-68 -52 -86 -86 35 65 34 66
17 -34 59 25 -49 88 100 -25
-76 14 -66 -26 -93 63 5 92
71 30 -77 -69 48 39 -74 -54
24 -64 62 76 31 -64 -63 -86
28 -82 -18 104 42 56 85 -72
-15 27 -48 34 94 12 65 -55
45 -59 -96 43 80 33 87 14
43 59 -24 44 -5 61 18 71
-88 -27 86 -77 32 18 15 11
71 -58 -62 -108 56 -67 54 74
39 -75 -11 -15 31 -78 27 -79
-93 -83 -45 67 85 -111 -35 6
40 -25 -43 -63 -41 18 73 -18
27 50 -48 80 -45 103 73 -37
-68 17 110 87 90 -33 -20 -35
46 12 -96 86 65 71 88 -86
67 -55 -59 -6 -22 97 -2 -44
-97 17 61 -81 -23 -78 -36 11
8 -42 -34 100 -95 -26 -94 -25

sequential_4/quant_dense_12/MatMul;sequential_4/quant_dense_12/LastValueQuant/FakeQuantWithMinMaxVars i1 [100, 832] scale=0.0011048331 zero_point=0
00000000: 24e2 f632 2ab6 0446 4044 0427 08dd ed13
00000010: 3f0d 401c e9d5 3622 0937 d925 cf32 12f5
00000020: 42cf 2ada 1825 e4c1 4906 20ce 13d1 bec8
00000030: fd06 21ca 382f b6fc 38e9 da3a 25fa f0c3
00000040: 213a fd0c c60b c9e9 fb3c cc30 03d2 c6e5
00000050: dc27 e520 3e19 2c0c dbef c70c bde5 45d8
00000060: cd18 3bec d3fe 30ce dbd9 dc29 f520 3c32
00000070: c63b 471c fcf6 bc07 f70c cd38 cdcc 391b
00000080: 223c 131f d5af b70b 2fee 3514 fc04 00f3
00000090: 04bd 27e3 d807 36d3 1519 b9c7 11e6 c7fa
000000a0: 1b0a c23c be25 cf0e 363a 0fc6 0909 2d28
000000b0: 01d5 02ff f51f dbbd b821 fe06 f4ba 0de2
000000c0: ddd7 f3f3 e5b2 08cf b906 f7f3 dc44 e125
000000d0: 1de3 dab7 d9de d5c0 0ff9 baf0 1df5 2c46
000000e0: 3c07 46cc 1c2f e908 b5f1 ea23 f8c5 2ebd
000000f0: 14da bc0a 0c42 0dbb fe1b dcc5 f843 c0e8
0.039773993 -0.03314499 -0.011048331 0.055241656 0.04640299 -0.08175765 0.0044193324 0.077338316
0.07070932 0.07512865 0.0044193324 0.043088492 0.008838665 -0.038669158 -0.020991828 0.020991828
0.069604486 0.014362831 0.07070932 0.030935327 -0.02541116 -0.047507823 0.059660986 0.037564326
0.009943498 0.06076582 -0.043088492 0.040878825 -0.05413682 0.055241656 0.019886997 -0.012153164
0.07291898 -0.05413682 0.04640299 -0.041983657 0.026515994 0.040878825 -0.030935327 -0.069604486
0.08065282 0.0066289986 0.03535466 -0.055241656 0.020991828 -0.051927157 -0.07291898 -0.061870653
-0.0033144993 0.0066289986 0.03645949 -0.059660986 0.061870653 0.051927157 -0.08175765 -0.0044193324
0.061870653 -0.02541116 -0.041983657 0.06408032 0.040878825 -0.0066289986 -0.01767733 -0.067394815
0.03645949 0.06408032 -0.0033144993 0.013257997 -0.06408032 0.012153164 -0.06076582 -0.02541116
-0.0055241655 0.06628998 -0.057451323 0.05303199 0.0033144993 -0.05082232 -0.06408032 -0.029830493
-0.039773993 0.043088492 -0.029830493 0.03535466 0.068499655 0.027620828 0.048612654 0.013257997
-0.040878825 -0.018782163 -0.06297549 0.013257997 -0.07402382 -0.029830493 0.076233484 -0.044193324
-0.056346487 0.026515994 0.06518515 -0.022096662 -0.04971749 -0.0022096662 0.05303199 -0.055241656
-0.040878825 -0.043088492 -0.039773993 0.045298155 -0.012153164 0.03535466 0.06628998 0.055241656
-0.06408032 0.06518515 0.07844315 0.030935327 -0.0044193324 -0.011048331 -0.07512865 0.0077338316
-0.009943498 0.013257997 -0.056346487 0.061870653 -0.056346487 -0.057451323 0.06297549 0.029830493
0.037564326 0.06628998 0.020991828 0.034249827 -0.047507823 -0.08949148 -0.08065282 0.012153164
0.051927157 -0.019886997 0.058556154 0.022096662 -0.0044193324 0.0044193324 0.0 -0.014362831
0.0044193324 -0.07402382 0.043088492 -0.03204016 -0.044193324 0.0077338316 0.059660986 -0.04971749
0.023201495 0.027620828 -0.07844315 -0.06297549 0.018782163 -0.028725661 -0.06297549 -0.0066289986
0.029830493 0.011048331 -0.068499655 0.06628998 -0.07291898 0.040878825 -0.05413682 0.015467663
0.059660986 0.06408032 0.016572496 -0.06408032 0.009943498 0.009943498 0.04971749 0.044193324
0.0011048331 -0.047507823 0.0022096662 -0.0011048331 -0.012153164 0.034249827 -0.040878825 -0.07402382
-0.07954799 0.03645949 -0.0022096662 0.0066289986 -0.013257997 -0.077338316 0.014362831 -0.03314499
-0.038669158 -0.045298155 -0.014362831 -0.014362831 -0.029830493 -0.086176984 0.008838665 -0.05413682
-0.07844315 0.0066289986 -0.009943498 -0.014362831 -0.039773993 0.07512865 -0.034249827 0.040878825
0.03204016 -0.03204016 -0.041983657 -0.08065282 -0.043088492 -0.037564326 -0.047507823 -0.07070932
0.016572496 -0.0077338316 -0.077338316 -0.01767733 0.03204016 -0.012153164 0.048612654 0.077338316
0.06628998 0.0077338316 0.077338316 -0.057451323 0.030935327 0.051927157 -0.02541116 0.008838665
-0.08286248 -0.016572496 -0.024306327 0.038669158 -0.008838665 -0.06518515 0.05082232 -0.07402382
0.022096662 -0.041983657 -0.07512865 0.011048331 0.013257997 0.07291898 0.014362831 -0.076233484
-0.0022096662 0.029830493 -0.039773993 -0.06518515 -0.008838665 0.07402382 -0.07070932 -0.026515994

sequential_4/quant_dense_13/MatMul;sequential_4/quant_dense_13/LastValueQuant/FakeQuantWithMinMaxVars i1 [50, 100] scale=0.0020087361 zero_point=0
00000000: 30a3 52f2 4323 5ee0 53b6 2323 2bf6 0725
00000010: eccb 1baf d62b 311e c7ff d847 bee7 b056
00000020: 4046 2c45 f2ea b3a4 b853 1aae ba3a f1b9
00000030: 4d15 5761 485c c9dd ec10 5acb b24b 10f9
00000040: be4c 333a d0e8 5839 012e b02f 42a6 16ea
00000050: b8d4 091a c7cf 451a 0048 e1f8 4b58 20cb
00000060: c34f 4e39 d41c b44f c125 db58 6322 e1ac
00000070: da01 085f 2dd7 13c7 3b28 b0b9 c428 20b3
00000080: bca4 e6eb 4826 09a8 2d99 2ddd 485b 06b3
00000090: a039 47c7 4230 f4eb c19c 3a19 15b1 f2e5
000000a0: e7a1 3336 57eb 54fc 53c6 435c dcbd 5fed
000000b0: a5b2 c1df e8d0 0515 d11c d409 f12b e151
000000c0: aeff 46b1 a033 5e32 1749 e0c8 abab d31b
000000d0: 3a4c 5052 beea 242d 5e52 ad12 544d c723
000000e0: dabb 34cd 51bd 2ec2 53f5 3cd1 d147 2eaa
000000f0: c1a9 d949 4a08 e314 cb58 d443 21a9 bedd
0.096419334 -0.18681246 0.16471636 -0.028122306 0.13458532 0.070305765 0.1888212 -0.064279556
0.1667251 -0.14864647 0.070305765 0.070305765 0.086375654 -0.020087361 0.014061153 0.07432324
-0.040174723 -0.106463015 0.054235876 -0.16270763 -0.08436692 0.086375654 0.09842807 0.060262084
-0.11449796 -0.0020087361 -0.080349445 0.14262027 -0.13257658 -0.050218403 -0.16069889 0.17275131
0.12855911 0.14061153 0.08838439 0.1386028 -0.028122306 -0.044192195 -0.15467268 -0.18480372
-0.144629 0.1667251 0.05222714 -0.16471636 -0.14061153 0.116506696 -0.030131042 -0.14262027
0.15467268 0.04218346 0.17476004 0.1948474 0.144629 0.18480372 -0.11048049 -0.070305765
-0.040174723 0.032139778 0.18078625 -0.106463015 -0.15668142 0.15065521 0.032139778 -0.014061153
-0.13257658 0.15266395 0.10244554 0.116506696 -0.096419334 -0.048209667 0.17676878 0.11449796
0.0020087361 0.09240186 -0.16069889 0.0944106 0.13257658 -0.18078625 0.044192195 -0.044192195
-0.144629 -0.08838439 0.018078625 0.05222714 -0.11449796 -0.09842807 0.1386028 0.05222714
0.0 0.144629 -0.06227082 -0.016069889 0.15065521 0.17676878 0.064279556 -0.106463015
-0.122532904 0.15869015 0.15668142 0.11449796 -0.08838439 0.05624461 -0.15266395 0.15869015
-0.12655038 0.07432324 -0.07432324 0.17676878 0.19886488 0.06829703 -0.06227082 -0.16873384
-0.07633197 0.0020087361 0.016069889 0.19082993 0.090393126 -0.08235818 0.038165987 -0.11449796
0.11851543 0.080349445 -0.16069889 -0.14262027 -0.12052417 0.080349445 0.064279556 -0.15467268
-0.13659406 -0.18480372 -0.05222714 -0.04218346 0.144629 0.07633197 0.018078625 -0.17676878
0.090393126 -0.20689982 0.090393126 -0.070305765 0.144629 0.18279499 0.012052417 -0.15467268
-0.19283867 0.11449796 0.14262027 -0.11449796 0.13257658 0.096419334 -0.024104834 -0.04218346
-0.12655038 -0.20087361 0.116506696 0.050218403 0.04218346 -0.15869015 -0.028122306 -0.054235876
-0.050218403 -0.19082993 0.10244554 0.10847175 0.17476004 -0.04218346 0.16873384 -0.0080349445
0.1667251 -0.116506696 0.13458532 0.18480372 -0.0723145 -0.13458532 0.19082993 -0.038165987
-0.18279499 -0.15668142 -0.12655038 -0.06628829 -0.048209667 -0.096419334 0.010043681 0.04218346
-0.0944106 0.05624461 -0.08838439 0.018078625 -0.030131042 0.086375654 -0.06227082 0.16270763
-0.16471636 -0.0020087361 0.14061153 -0.15869015 -0.19283867 0.10244554 0.1888212 0.10043681
0.04620093 0.14663774 -0.064279556 -0.11248922 -0.17074257 -0.17074257 -0.090393126 0.054235876
0.116506696 0.15266395 0.16069889 0.16471636 -0.13257658 -0.044192195 0.0723145 0.090393126
0.1888212 0.16471636 -0.1667251 0.03615725 0.16873384 0.15467268 -0.11449796 0.070305765
-0.07633197 -0.1386028 0.10445428 -0.10244554 0.16270763 -0.13458532 0.09240186 -0.12454164
0.1667251 -0.022096097 0.12052417 -0.0944106 -0.0944106 0.14262027 0.09240186 -0.17275131
-0.12655038 -0.17476004 -0.07834071 0.14663774 0.14864647 0.016069889 -0.058253348 0.040174723
-0.106463015 0.17676878 -0.08838439 0.13458532 0.06628829 -0.17476004 -0.13257658 -0.070305765

sequential_4/quant_dense_14/MatMul;sequential_4/quant_dense_14/LastValueQuant/FakeQuantWithMinMaxVars i1 [10, 50] scale=0.0025567426 zero_point=0
00000000: 0fcb fdc1 7691 4af9 231e 3616 24ee 7aa2
00000010: 8f98 9725 e0d6 ceea efae fd46 10bb 6645
00000020: c82d 95bb eb04 23a4 c17d a5d0 66b2 eba4
00000030: f1a4 9dc0 2823 4a75 5764 c3c0 cb32 5cbf
00000040: 1173 9f82 143e d060 1a61 222e ed2b cbf5
00000050: 246f d2ef 1b75 2d87 004c 0627 d261 6f63
00000060: 9050 0896 1bc2 b18f a2c9 f94f 5fc2 d090
00000070: 3d03 14b9 33a9 6725 0ff9 baf3 20b4 912f
00000080: 67de 9fcb bf31 3a32 272c 2702 2acb 79ca
00000090: 116e 42a2 02c4 b635 c0ea 637c 0207 d400
000000a0: 0a8f b828 03a2 2e61 e7d1 18a7 c4f5 fb0c
000000b0: a415 c704 cfe5 b0d0 a396 4658 2151 ad55
000000c0: 8d87 93be 74af b3fa f50d 0459 f29c 482d
000000d0: 18ff 687c ddf1 2833 932c 20d4 dd60 be41
000000e0: 02e3 6bca 765f 2b98 316e 3bb5 d733 e537
000000f0: c9f4 8e0a ae37 bcc7 e242 0ec5 a3e7 befe
0.03835114 -0.13550736 -0.007670228 -0.16107479 0.30169564 -0.28379843 0.18919896 -0.017897198
0.089485995 0.07670228 0.1380641 0.056248337 0.09204274 -0.04602137 0.3119226 -0.24033381
-0.2889119 -0.26590124 -0.26845798 0.09459948 -0.081815764 -0.10738319 -0.12783714 -0.056248337
-0.043464623 -0.2096529 -0.007670228 0.17897199 0.040907882 -0.17641523 0.26078776 0.17641523
-0.14317758 0.115053415 -0.27357146 -0.17641523 -0.053691596 0.010226971 0.089485995 -0.23522033
-0.16107479 0.31959283 -0.23266359 -0.12272365 0.26078776 -0.19942592 -0.053691596 -0.23522033
-0.03835114 -0.23522033 -0.25311753 -0.16363153 0.10226971 0.089485995 0.18919896 0.29913887
0.2224366 0.25567427 -0.1559613 -0.16363153 -0.13550736 0.12783714 0.23522033 -0.16618827
0.043464623 0.2940254 -0.24800403 -0.32214957 0.051134855 0.15851805 -0.12272365 0.2454473
0.06647531 0.24800403 0.08692925 0.117610164 -0.04857811 0.10993993 -0.13550736 -0.028124169
0.09204274 0.28379843 -0.117610164 -0.043464623 0.06903205 0.29913887 0.115053415 -0.30936587
0.0 0.19431244 0.015340456 0.09971296 -0.117610164 0.24800403 0.28379843 0.25311753
-0.28635517 0.20453942 0.020453941 -0.27101472 0.06903205 -0.15851805 -0.20198266 -0.2889119
-0.24033381 -0.14062084 -0.017897198 0.20198266 0.24289055 -0.15851805 -0.12272365 -0.28635517
0.1559613 0.007670228 0.051134855 -0.18152873 0.13039388 -0.2224366 0.2633445 0.09459948
0.03835114 -0.017897198 -0.17897199 -0.033237655 0.081815764 -0.19431244 -0.28379843 0.120166905
0.2633445 -0.08692925 -0.24800403 -0.13550736 -0.16618827 0.1252804 0.14829107 0.12783714
0.09971296 0.112496674 0.09971296 0.0051134853 0.10738319 -0.13550736 0.30936587 -0.1380641
0.043464623 0.2812417 0.16874501 -0.24033381 0.0051134853 -0.15340456 -0.18919896 0.13550736
-0.16363153 -0.056248337 0.25311753 0.3170361 0.0051134853 0.017897198 -0.112496674 0.0
0.025567427 -0.2889119 -0.18408547 0.10226971 0.007670228 -0.24033381 0.117610164 0.24800403
-0.06391857 -0.120166905 0.061361823 -0.22755009 -0.15340456 -0.028124169 -0.012783714 0.030680912
-0.23522033 0.053691596 -0.14573433 0.010226971 -0.1252804 -0.06903205 -0.20453942 -0.12272365
-0.23777707 -0.27101472 0.17897199 0.22499335 0.084372506 0.20709616 -0.21220964 0.21732312
-0.2940254 -0.30936587 -0.27868494 -0.16874501 0.29658213 -0.20709616 -0.19686918 -0.015340456
-0.028124169 0.033237655 0.010226971 0.22755009 -0.035794396 -0.25567427 0.18408547 0.115053415
0.061361823 -0.0025567426 0.26590124 0.3170361 -0.089485995 -0.03835114 0.10226971 0.13039388
-0.27868494 0.112496674 0.081815764 -0.112496674 -0.089485995 0.2454473 -0.16874501 0.16618827
0.0051134853 -0.07414553 0.27357146 -0.1380641 0.30169564 0.24289055 0.10993993 -0.26590124
0.1252804 0.2812417 0.15084782 -0.1917557 -0.10482645 0.13039388 -0.06903205 0.14062084
-0.14062084 -0.030680912 -0.29146865 0.025567427 -0.2096529 0.14062084 -0.1738585 -0.14573433
-0.07670228 0.16874501 0.035794396 -0.15084782 -0.23777707 -0.06391857 -0.16874501 -0.0051134853

sequential_4/quant_output/MatMul;sequential_4/quant_output/LastValueQuant/FakeQuantWithMinMaxVars i1 [1, 10] scale=0.005470146 zero_point=0
00000000: 81b8 fbc5 abf8 e96c 1499
-0.6947085 -0.3938505 -0.02735073 -0.32273862 -0.4649624 -0.043761168 -0.12581335 0.5907758
0.10940292 -0.563425
