models/opt-96x96x3.tflite (tflite, 311776 bytes, 9 tensors)

sequential_1/quant_conv2d_5/Conv2D;sequential_1/quant_conv2d_5/LastValueQuant/FakeQuantWithMinMaxVarsPerChannel i1 [24, 5, 5, 3]
0	0x30	48
1	0x4f	79
2	0xa0	-96
3	0x97	-105
4	0xee	-18
5	0xdb	-37
6	0xfb	-5
7	0xba	-70
8	0xea	-22
9	0xf1	-15
10	0xa8	-88
11	0x5e	94
12	0x81	-127
13	0xc1	-63
14	0x57	87
15	0xe3	-29
16	0xab	-85
17	0x02	2
18	0xd2	-46
19	0x04	4
20	0x08	8
21	0x89	-119
22	0xdf	-33
23	0xf9	-7
24	0x9c	-100
25	0xa4	-92
26	0xa7	-89
27	0xf2	-14
28	0x17	23
29	0x01	1
30	0xd5	-43
31	0x69	105
32	0xc6	-58
33	0x47	71
34	0xfd	-3
35	0x45	69
36	0x5d	93
37	0x79	121
38	0x77	119
39	0xe1	-31
40	0xa2	-94
41	0x75	117
42	0xa3	-93
43	0xe3	-29
44	0xd9	-39
45	0x36	54
46	0xdd	-35
47	0x38	56
48	0x78	120
49	0x6d	109
50	0x5d	93
51	0x0c	12
52	0x62	98
53	0x79	121
54	0x11	17
55	0xce	-50
56	0xe9	-23
57	0x17	23
58	0x2b	43
59	0x8f	-113
60	0x77	119
61	0xb9	-71
62	0x52	82
63	0x18	24
64	0x36	54
65	0xbd	-67
66	0x46	70
67	0xfe	-2
68	0x57	87
69	0xc9	-55
70	0xb1	-79
71	0xda	-38
72	0xad	-83
73	0x53	83
74	0x95	-107
75	0xee	-18
76	0x4b	75
77	0xc2	-62
78	0x89	-119
79	0x9b	-101
80	0xb7	-73
81	0x0d	13
82	0x41	65
83	0xbf	-65
84	0x81	-127
85	0xdf	-33
86	0x70	112
87	0x82	-126
88	0x93	-109
89	0x54	84
90	0x81	-127
91	0xf4	-12
92	0x42	66
93	0x8c	-116
94	0x3a	58
95	0xfc	-4
96	0xc6	-58
97	0xf7	-9
98	0x48	72
99	0xfb	-5
100	0x55	85
101	0x33	51
102	0xfd	-3
103	0x4b	75
104	0xde	-34
105	0x0e	14
106	0xd2	-46
107	0xd7	-41
108	0x92	-110
109	0x3d	61
110	0x6b	107
111	0x25	37
112	0x3c	60
113	0x6f	111
114	0xe8	-24
115	0xe5	-27
116	0x52	82
117	0x3a	58
118	0xe2	-30
119	0x0c	12
120	0x3c	60
121	0xb0	-80
122	0x14	20
123	0x56	86
124	0xa8	-88
125	0x70	112
126	0xb0	-80
127	0xfd	-3
128	0x5e	94
129	0x98	-104
130	0xaa	-86
131	0x9e	-98
132	0xc3	-61
133	0x06	6
134	0xa4	-92
135	0xc1	-63
136	0x97	-105
137	0x3a	58
138	0x3c	60
139	0x73	115
140	0x33	51
141	0x9d	-99
142	0x2f	47
143	0x6c	108
144	0x0f	15
145	0xeb	-21
146	0x56	86
147	0xe2	-30
148	0x41	65
149	0x7e	126
150	0xaa	-86
151	0x42	66
152	0xa7	-89
153	0x90	-112
154	0x99	-103
155	0xfc	-4
156	0xa9	-87
157	0x82	-126
158	0xef	-17
159	0x58	88
160	0xc5	-59
161	0x0e	14
162	0xc1	-63
163	0x89	-119
164	0x1e	30
165	0xde	-34
166	0xa4	-92
167	0x9c	-100
168	0xac	-84
169	0xf5	-11
170	0xa2	-94
171	0x53	83
172	0x27	39
173	0x38	56
174	0x98	-104
175	0xd4	-44
176	0xd7	-41
177	0x6b	107
178	0x1f	31
179	0xa6	-90
180	0x41	65
181	0xc9	-55
182	0x22	34
183	0x64	100
184	0xbf	-65
185	0x06	6
186	0x28	40
187	0xce	-50
188	0x25	37
189	0xeb	-21
190	0xfe	-2
191	0xdc	-36
192	0x00	0
193	0x6e	110
194	0xfb	-5
195	0x17	23
196	0x17	23
197	0xbc	-68
198	0xf7	-9
199	0x2e	46
200	0x47	71
201	0x7f	127
202	0x79	121
203	0x6d	109
204	0x12	18
205	0x4f	79
206	0x3a	58
207	0x54	84
208	0x15	21
209	0xaf	-81
210	0x7b	123
211	0x76	118
212	0x56	86
213	0xc3	-61
214	0xa0	-96
215	0x1c	28
216	0xac	-84
217	0x52	82
218	0x31	49
219	0x36	54
220	0xe2	-30
221	0x20	32
222	0xf2	-14
223	0x34	52
224	0x30	48
225	0xc9	-55
226	0xeb	-21
227	0x17	23
228	0xdb	-37
229	0x64	100
230	0x0f	15
231	0x12	18
232	0x61	97
233	0xef	-17
234	0x8b	-117
235	0x82	-126
236	0x48	72
237	0x3b	59
238	0x89	-119
239	0xf9	-7
240	0x73	115
241	0x94	-108
242	0xbd	-67
243	0x6f	111
244	0x26	38
245	0x4e	78
246	0xbc	-68
247	0x6c	108
248	0x61	97
249	0xbf	-65
250	0x1c	28
251	0x93	-109
252	0xb2	-78
253	0xe5	-27
254	0x64	100
255	0x89	-119

sequential_1/quant_conv2d_6/Conv2D;sequential_1/quant_conv2d_6/LastValueQuant/FakeQuantWithMinMaxVarsPerChannel i1 [36, 5, 5, 24]
0	0x26	38
1	0xde	-34
2	0xef	-17
3	0x02	2
4	0xd8	-40
5	0x3e	62
6	0xef	-17
7	0x21	33
8	0xe3	-29
9	0xcf	-49
10	0x0a	10
11	0xff	-1
12	0x17	23
13	0x2a	42
14	0xeb	-21
15	0x07	7
16	0x29	41
17	0xfa	-6
18	0xe2	-30
19	0x13	19
20	0xbd	-67
21	0xf9	-7
22	0x2d	45
23	0x10	16
24	0xeb	-21
25	0xf0	-16
26	0xda	-38
27	0xec	-20
28	0x38	56
29	0x31	49
30	0xeb	-21
31	0x50	80
32	0x2f	47
33	0xf4	-12
34	0xc6	-58
35	0xd7	-41
36	0xf0	-16
37	0x33	51
38	0x0f	15
39	0xea	-22
40	0x2d	45
41	0xeb	-21
42	0x41	65
43	0x18	24
44	0xce	-50
45	0x1f	31
46	0xea	-22
47	0xc0	-64
48	0xf3	-13
49	0xbd	-67
50	0xf8	-8
51	0xd8	-40
52	0x02	2
53	0xee	-18
54	0xb1	-79
55	0x12	18
56	0x24	36
57	0x1b	27
58	0xc7	-57
59	0xd0	-48
60	0x29	41
61	0xeb	-21
62	0xe8	-24
63	0x03	3
64	0x14	20
65	0x2c	44
66	0x0c	12
67	0xd6	-42
68	0x22	34
69	0xf1	-15
70	0xf8	-8
71	0xee	-18
72	0xd3	-45
73	0x23	35
74	0x06	6
75	0x0a	10
76	0x28	40
77	0x08	8
78	0x81	-127
79	0x18	24
80	0xc5	-59
81	0xbf	-65
82	0x28	40
83	0xc5	-59
84	0x32	50
85	0xdc	-36
86	0x42	66
87	0xd8	-40
88	0xe4	-28
89	0x23	35
90	0x1e	30
91	0xcd	-51
92	0x1f	31
93	0x1f	31
94	0xcb	-53
95	0xd2	-46
96	0xc7	-57
97	0xbb	-69
98	0xda	-38
99	0xe2	-30
100	0xc8	-56
101	0x24	36
102	0xc6	-58
103	0x26	38
104	0x29	41
105	0xec	-20
106	0x26	38
107	0xdf	-33
108	0xcb	-53
109	0x0a	10
110	0xda	-38
111	0xf5	-11
112	0x36	54
113	0x35	53
114	0x06	6
115	0xca	-54
116	0xf9	-7
117	0x52	82
118	0xc7	-57
119	0xcd	-51
120	0xc8	-56
121	0x14	20
122	0xbc	-68
123	0xfc	-4
124	0x31	49
125	0xdf	-33
126	0xc4	-60
127	0x10	16
128	0x2e	46
129	0xd4	-44
130	0x35	53
131	0xec	-20
132	0x11	17
133	0xf2	-14
134	0xe8	-24
135	0xba	-70
136	0xf2	-14
137	0xe9	-23
138	0x27	39
139	0xbf	-65
140	0x3a	58
141	0x06	6
142	0x0e	14
143	0xd0	-48
144	0xef	-17
145	0xfc	-4
146	0x0b	11
147	0x31	49
148	0xe3	-29
149	0xd0	-48
150	0xd7	-41
151	0x36	54
152	0x08	8
153	0xf8	-8
154	0x25	37
155	0x11	17
156	0xcf	-49
157	0x2c	44
158	0xcb	-53
159	0xb2	-78
160	0xed	-19
161	0xec	-20
162	0xfe	-2
163	0xdc	-36
164	0xdd	-35
165	0x18	24
166	0x23	35
167	0xe1	-31
168	0x04	4
169	0x17	23
170	0x28	40
171	0xe0	-32
172	0x22	34
173	0x20	32
174	0x40	64
175	0x1a	26
176	0xf7	-9
177	0xf5	-11
178	0x0d	13
179	0xcf	-49
180	0xc2	-62
181	0xe2	-30
182	0x04	4
183	0x18	24
184	0xd3	-45
185	0x2e	46
186	0x3f	63
187	0x36	54
188	0xe4	-28
189	0xcc	-52
190	0xd6	-42
191	0xe5	-27
192	0x04	4
193	0xef	-17
194	0xce	-50
195	0x03	3
196	0x2d	45
197	0x1c	28
198	0x2e	46
199	0xec	-20
200	0xf7	-9
201	0x1e	30
202	0xe1	-31
203	0xef	-17
204	0x00	0
205	0x4e	78
206	0xd3	-45
207	0x16	22
208	0x14	20
209	0xc4	-60
210	0x33	51
211	0xf1	-15
212	0x23	35
213	0xc8	-56
214	0xcb	-53
215	0x03	3
216	0xe9	-23
217	0xf6	-10
218	0x2a	42
219	0x27	39
220	0x1e	30
221	0x3c	60
222	0x2c	44
223	0x47	71
224	0xb6	-74
225	0xd0	-48
226	0xcd	-51
227	0xdc	-36
228	0x0d	13
229	0xfa	-6
230	0x06	6
231	0x3e	62
232	0x01	1
233	0x1f	31
234	0xea	-22
235	0xd9	-39
236	0x16	22
237	0x13	19
238	0x1d	29
239	0x02	2
240	0xbb	-69
241	0xd4	-44
242	0x0d	13
243	0x17	23
244	0x0d	13
245	0x20	32
246	0xeb	-21
247	0xe8	-24
248	0x0a	10
249	0x0c	12
250	0x25	37
251	0xe2	-30
252	0x0d	13
253	0x10	16
254	0x08	8
255	0xd6	-42

sequential_1/quant_conv2d_7/Conv2D;sequential_1/quant_conv2d_7/LastValueQuant/FakeQuantWithMinMaxVarsPerChannel i1 [48, 5, 5, 36]
0	0x22	34
1	0x56	86
2	0xd5	-43
3	0xff	-1
4	0x2a	42
5	0x0d	13
6	0x04	4
7	0x12	18
8	0x0f	15
9	0x17	23
10	0x0d	13
11	0xdf	-33
12	0x19	25
13	0x0f	15
14	0xf8	-8
15	0x33	51
16	0x58	88
17	0xe1	-31
18	0xfc	-4
19	0x25	37
20	0x18	24
21	0x42	66
22	0xcc	-52
23	0xbf	-65
24	0xef	-17
25	0x1a	26
26	0xf8	-8
27	0xd2	-46
28	0x27	39
29	0x2a	42
30	0x02	2
31	0x23	35
32	0x22	34
33	0x2b	43
34	0x7f	127
35	0x04	4
36	0x23	35
37	0x16	22
38	0xc3	-61
39	0xfe	-2
40	0xe2	-30
41	0xcd	-51
42	0xf4	-12
43	0x09	9
44	0xf3	-13
45	0xf6	-10
46	0xd2	-46
47	0x02	2
48	0x11	17
49	0xed	-19
50	0xfd	-3
51	0x3a	58
52	0x38	56
53	0xeb	-21
54	0xfc	-4
55	0xdd	-35
56	0x2f	47
57	0x31	49
58	0xc9	-55
59	0x0b	11
60	0x2d	45
61	0x25	37
62	0x15	21
63	0xc0	-64
64	0x1f	31
65	0xe2	-30
66	0xea	-22
67	0x0a	10
68	0x0b	11
69	0xf0	-16
70	0x35	53
71	0xec	-20
72	0xde	-34
73	0x46	70
74	0xb6	-74
75	0x0f	15
76	0x21	33
77	0x04	4
78	0xe0	-32
79	0x07	7
80	0x25	37
81	0x0e	14
82	0x0c	12
83	0xf8	-8
84	0xfb	-5
85	0x20	32
86	0xef	-17
87	0xe9	-23
88	0x20	32
89	0xc9	-55
90	0x26	38
91	0x1d	29
92	0x34	52
93	0x23	35
94	0xb0	-80
95	0xd1	-47
96	0x29	41
97	0xdf	-33
98	0x27	39
99	0x28	40
100	0x1c	28
101	0xf9	-7
102	0xf1	-15
103	0x0f	15
104	0x42	66
105	0xfa	-6
106	0x5f	95
107	0x0f	15
108	0x1b	27
109	0x43	67
110	0xe8	-24
111	0x1c	28
112	0x00	0
113	0x37	55
114	0xb9	-71
115	0x37	55
116	0x10	16
117	0xfe	-2
118	0xcc	-52
119	0x07	7
120	0x38	56
121	0xf3	-13
122	0xf9	-7
123	0xf4	-12
124	0x35	53
125	0xfc	-4
126	0x0b	11
127	0xdd	-35
128	0x2f	47
129	0xfb	-5
130	0xf6	-10
131	0x09	9
132	0xf8	-8
133	0xeb	-21
134	0x19	25
135	0x0f	15
136	0xd5	-43
137	0xeb	-21
138	0xde	-34
139	0x2b	43
140	0xfd	-3
141	0x96	-106
142	0x09	9
143	0x0e	14
144	0x2a	42
145	0x22	34
146	0xb4	-76
147	0x2d	45
148	0x26	38
149	0x29	41
150	0xe1	-31
151	0x23	35
152	0x22	34
153	0x12	18
154	0xd9	-39
155	0xef	-17
156	0xf5	-11
157	0xc0	-64
158	0xef	-17
159	0xbc	-68
160	0x10	16
161	0x04	4
162	0xf4	-12
163	0xe2	-30
164	0x06	6
165	0x23	35
166	0x21	33
167	0xdc	-36
168	0x28	40
169	0x31	49
170	0xe0	-32
171	0xec	-20
172	0xe3	-29
173	0x13	19
174	0xfd	-3
175	0xe7	-25
176	0x38	56
177	0x25	37
178	0x6a	106
179	0xc3	-61
180	0xd5	-43
181	0x0a	10
182	0xdb	-37
183	0xe0	-32
184	0x1c	28
185	0x04	4
186	0xde	-34
187	0x1f	31
188	0x18	24
189	0xef	-17
190	0xf8	-8
191	0xef	-17
192	0xfe	-2
193	0x1f	31
194	0x41	65
195	0x1f	31
196	0x04	4
197	0x1e	30
198	0xe0	-32
199	0xc8	-56
200	0x22	34
201	0x4b	75
202	0xca	-54
203	0x13	19
204	0x11	17
205	0x02	2
206	0x0e	14
207	0x07	7
208	0x09	9
209	0x0b	11
210	0xf1	-15
211	0xe9	-23
212	0xda	-38
213	0x2b	43
214	0x11	17
215	0xfb	-5
216	0xc4	-60
217	0xff	-1
218	0xca	-54
219	0xda	-38
220	0x2c	44
221	0x17	23
222	0x08	8
223	0xd3	-45
224	0x10	16
225	0xfd	-3
226	0xf0	-16
227	0xf3	-13
228	0x17	23
229	0xf0	-16
230	0x24	36
231	0x12	18
232	0x1a	26
233	0x19	25
234	0x04	4
235	0xe9	-23
236	0x27	39
237	0x1d	29
238	0xdd	-35
239	0x05	5
240	0x01	1
241	0xf6	-10
242	0x2e	46
243	0xf3	-13
244	0xff	-1
245	0x03	3
246	0xf7	-9
247	0x15	21
248	0xda	-38
249	0xff	-1
250	0xca	-54
251	0x00	0
252	0xe8	-24
253	0xdb	-37
254	0xb3	-77
255	0x10	16

sequential_1/quant_conv2d_8/Conv2D;sequential_1/quant_conv2d_8/LastValueQuant/FakeQuantWithMinMaxVarsPerChannel i1 [64, 3, 3, 48]
0	0xfe	-2
1	0x24	36
2	0xb3	-77
3	0x3e	62
4	0xc1	-63
5	0xba	-70
6	0x46	70
7	0x1f	31
8	0xd5	-43
9	0xce	-50
10	0xf8	-8
11	0x09	9
12	0x15	21
13	0xf7	-9
14	0x10	16
15	0x37	55
16	0x33	51
17	0x1c	28
18	0x1b	27
19	0xdc	-36
20	0x5c	92
21	0xdc	-36
22	0x34	52
23	0x10	16
24	0x16	22
25	0x18	24
26	0x27	39
27	0xe5	-27
28	0x11	17
29	0xc4	-60
30	0xdc	-36
31	0x2a	42
32	0x57	87
33	0xd2	-46
34	0xfb	-5
35	0xa3	-93
36	0x67	103
37	0x02	2
38	0x28	40
39	0x1c	28
40	0xf1	-15
41	0x0e	14
42	0xce	-50
43	0x52	82
44	0x4c	76
45	0x1f	31
46	0x2d	45
47	0x19	25
48	0xc6	-58
49	0x3e	62
50	0x2a	42
51	0x13	19
52	0xf8	-8
53	0x32	50
54	0xc7	-57
55	0xc6	-58
56	0x0a	10
57	0xfc	-4
58	0xd3	-45
59	0xdd	-35
60	0x3b	59
61	0x1b	27
62	0xe4	-28
63	0xd1	-47
64	0x46	70
65	0x26	38
66	0xd3	-45
67	0x15	21
68	0x96	-106
69	0xae	-82
70	0xdc	-36
71	0xca	-54
72	0x46	70
73	0xcb	-53
74	0x50	80
75	0xf8	-8
76	0xff	-1
77	0xe5	-27
78	0x30	48
79	0xe1	-31
80	0x57	87
81	0xe8	-24
82	0x0c	12
83	0xfd	-3
84	0xe3	-29
85	0xa4	-92
86	0xf5	-11
87	0xc2	-62
88	0xf1	-15
89	0xf8	-8
90	0xef	-17
91	0x06	6
92	0xdc	-36
93	0x26	38
94	0x4a	74
95	0xe4	-28
96	0x94	-108
97	0x4a	74
98	0x4d	77
99	0xbd	-67
100	0x22	34
101	0x2b	43
102	0x1c	28
103	0x49	73
104	0x10	16
105	0x55	85
106	0xbd	-67
107	0x59	89
108	0xfd	-3
109	0x3b	59
110	0x02	2
111	0xfd	-3
112	0xac	-84
113	0x3d	61
114	0xf2	-14
115	0x4e	78
116	0xe4	-28
117	0xe7	-25
118	0xeb	-21
119	0x2f	47
120	0xc9	-55
121	0xa4	-92
122	0xbe	-66
123	0xcb	-53
124	0x4a	74
125	0x1c	28
126	0x3c	60
127	0x00	0
128	0x54	84
129	0xe2	-30
130	0xb0	-80
131	0xd7	-41
132	0xc8	-56
133	0x0f	15
134	0x53	83
135	0xfb	-5
136	0xfc	-4
137	0xbf	-65
138	0x3e	62
139	0xe6	-26
140	0x0b	11
141	0xcf	-49
142	0xf2	-14
143	0x29	41
144	0xa8	-88
145	0x12	18
146	0x0b	11
147	0xfc	-4
148	0x48	72
149	0xc3	-61
150	0xf1	-15
151	0xcf	-49
152	0x54	84
153	0xfa	-6
154	0x4a	74
155	0xb5	-75
156	0xe0	-32
157	0x56	86
158	0x0f	15
159	0xe2	-30
160	0x33	51
161	0xd3	-45
162	0x0b	11
163	0xee	-18
164	0xd8	-40
165	0xd1	-47
166	0x46	70
167	0xd8	-40
168	0xf0	-16
169	0xf7	-9
170	0x4e	78
171	0x24	36
172	0xcc	-52
173	0xb4	-76
174	0xf3	-13
175	0xff	-1
176	0x49	73
177	0x38	56
178	0x30	48
179	0x08	8
180	0xca	-54
181	0x1b	27
182	0x59	89
183	0x34	52
184	0x2c	44
185	0x27	39
186	0xe1	-31
187	0x1e	30
188	0xaa	-86
189	0xd9	-39
190	0xf9	-7
191	0x34	52
192	0xab	-85
193	0xdc	-36
194	0xf2	-14
195	0xd0	-48
196	0x2f	47
197	0x3c	60
198	0x0b	11
199	0x05	5
200	0xb6	-74
201	0x39	57
202	0x05	5
203	0xaf	-81
204	0x68	104
205	0x44	68
206	0x12	18
207	0x3f	63
208	0x24	36
209	0xff	-1
210	0xd9	-39
211	0xa1	-95
212	0x0f	15
213	0xbd	-67
214	0x12	18
215	0x44	68
216	0xe5	-27
217	0x53	83
218	0x14	20
219	0x3a	58
220	0xae	-82
221	0x0b	11
222	0xdd	-35
223	0xff	-1
224	0xb3	-77
225	0x1c	28
226	0xe5	-27
227	0x11	17
228	0x30	48
229	0x4c	76
230	0xec	-20
231	0x0a	10
232	0xf1	-15
233	0x00	0
234	0x3e	62
235	0x43	67
236	0xca	-54
237	0xc2	-62
238	0xad	-83
239	0x9e	-98
240	0x65	101
241	0xec	-20
242	0xd3	-45
243	0x44	68
244	0xe0	-32
245	0xb1	-79
246	0x41	65
247	0xd0	-48
248	0xce	-50
249	0x1e	30
250	0xce	-50
251	0x1a	26
252	0x70	112
253	0x69	105
254	0xfe	-2
255	0x42	66

sequential_1/quant_conv2d_9/Conv2D;sequential_1/quant_conv2d_9/LastValueQuant/FakeQuantWithMinMaxVarsPerChannel i1 [64, 3, 3, 64]
0	0xad	-83
1	0x2c	44
2	0xea	-22
3	0xe0	-32
4	0x05	5
5	0xbf	-65
6	0xb9	-71
7	0x3d	61
8	0xc6	-58
9	0x28	40
10	0x27	39
11	0xbc	-68
12	0xc5	-59
13	0x57	87
14	0x39	57
15	0x2a	42
16	0x16	22
17	0xca	-54
18	0xed	-19
19	0x02	2
20	0xf3	-13
21	0xd9	-39
22	0xd9	-39
23	0x0d	13
24	0xe5	-27
25	0x0e	14
26	0xde	-34
27	0x21	33
28	0x0c	12
29	0xd9	-39
30	0x0d	13
31	0x14	20
32	0xf7	-9
33	0xcb	-53
34	0xb2	-78
35	0xcc	-52
36	0x2c	44
37	0x36	54
38	0xcd	-51
39	0x2e	46
40	0xb0	-80
41	0xd9	-39
42	0xf7	-9
43	0xbf	-65
44	0xef	-17
45	0xd1	-47
46	0xc1	-63
47	0x47	71
48	0x25	37
49	0x24	36
50	0x35	53
51	0x05	5
52	0xe4	-28
53	0xcb	-53
54	0x36	54
55	0xb8	-72
56	0x23	35
57	0x2b	43
58	0x58	88
59	0x7f	127
60	0x21	33
61	0x22	34
62	0xcd	-51
63	0xda	-38
64	0x1a	26
65	0xc4	-60
66	0xc4	-60
67	0xc9	-55
68	0xb1	-79
69	0xff	-1
70	0xd9	-39
71	0x4b	75
72	0x05	5
73	0xe9	-23
74	0x4a	74
75	0xb0	-80
76	0x18	24
77	0xdd	-35
78	0xc3	-61
79	0xf1	-15
80	0x07	7
81	0x1d	29
82	0xfe	-2
83	0xf1	-15
84	0xfc	-4
85	0x21	33
86	0xf7	-9
87	0x30	48
88	0xec	-20
89	0xfb	-5
90	0x2b	43
91	0x2c	44
92	0xca	-54
93	0x04	4
94	0xfe	-2
95	0x45	69
96	0x19	25
97	0x1e	30
98	0xf4	-12
99	0x21	33
100	0x1d	29
101	0x09	9
102	0x24	36
103	0x0f	15
104	0xfd	-3
105	0x03	3
106	0x1a	26
107	0x12	18
108	0x0a	10
109	0xd1	-47
110	0xdf	-33
111	0x7d	125
112	0x2c	44
113	0xff	-1
114	0x15	21
115	0x15	21
116	0xb7	-73
117	0xea	-22
118	0xd9	-39
119	0x08	8
120	0x2d	45
121	0xf0	-16
122	0x57	87
123	0xf8	-8
124	0x27	39
125	0xd4	-44
126	0x0b	11
127	0x25	37
128	0xb9	-71
129	0xd8	-40
130	0xf1	-15
131	0x17	23
132	0x17	23
133	0x27	39
134	0xcf	-49
135	0x33	51
136	0xe4	-28
137	0x11	17
138	0xd6	-42
139	0xdd	-35
140	0x27	39
141	0xd8	-40
142	0xfa	-6
143	0xdd	-35
144	0x18	24
145	0xb8	-72
146	0xdb	-37
147	0x22	34
148	0x11	17
149	0x3e	62
150	0x29	41
151	0x21	33
152	0x23	35
153	0xe3	-29
154	0xc0	-64
155	0xff	-1
156	0xfa	-6
157	0x00	0
158	0xd7	-41
159	0x1f	31
160	0x15	21
161	0x05	5
162	0x23	35
163	0xc1	-63
164	0x1d	29
165	0xb8	-72
166	0xec	-20
167	0x37	55
168	0xe6	-26
169	0x16	22
170	0xde	-34
171	0x2d	45
172	0xe3	-29
173	0x2e	46
174	0xf3	-13
175	0x0d	13
176	0xf8	-8
177	0x1a	26
178	0x05	5
179	0xcf	-49
180	0x1e	30
181	0x1c	28
182	0xc8	-56
183	0xcd	-51
184	0xbd	-67
185	0x14	20
186	0xe5	-27
187	0xe5	-27
188	0x32	50
189	0xef	-17
190	0xe8	-24
191	0xc6	-58
192	0x37	55
193	0x28	40
194	0xb0	-80
195	0x2d	45
196	0xe6	-26
197	0xf4	-12
198	0xcf	-49
199	0xeb	-21
200	0xee	-18
201	0xb4	-76
202	0xce	-50
203	0xf3	-13
204	0xd3	-45
205	0x07	7
206	0xef	-17
207	0xea	-22
208	0x06	6
209	0xe2	-30
210	0x16	22
211	0x12	18
212	0xe7	-25
213	0x11	17
214	0xd0	-48
215	0x0f	15
216	0x12	18
217	0x02	2
218	0x19	25
219	0xef	-17
220	0x27	39
221	0xc0	-64
222	0xe3	-29
223	0x28	40
224	0xdb	-37
225	0x22	34
226	0x03	3
227	0x0d	13
228	0xd2	-46
229	0x2b	43
230	0x54	84
231	0xee	-18
232	0xc2	-62
233	0x06	6
234	0x1f	31
235	0x13	19
236	0x0c	12
237	0x00	0
238	0x15	21
239	0x05	5
240	0xd8	-40
241	0xf6	-10
242	0x19	25
243	0xc3	-61
244	0x1a	26
245	0x31	49
246	0x34	52
247	0xda	-38
248	0xde	-34
249	0x11	17
250	0x16	22
251	0xfc	-4
252	0xb4	-76
253	0xdf	-33
254	0x17	23
255	0xed	-19

sequential_1/quant_dense_3/MatMul;sequential_1/quant_dense_3/LastValueQuant/FakeQuantWithMinMaxVars i1 [100, 1600] scale=0.0012337519 zero_point=0
0	0x1e	0.037012555
1	0xf6	-0.012337519
2	0x0c	0.014805023
3	0xe1	-0.038246308
4	0xcf	-0.060453843
5	0xef	-0.020973783
6	0x10	0.01974003
7	0x1a	0.03207755
8	0x19	0.030843798
9	0xff	-0.0012337519
10	0xe3	-0.035778806
11	0x35	0.06538885
12	0x32	0.061687596
13	0xd9	-0.048116323
14	0xe1	-0.038246308
15	0xf9	-0.008636263
16	0x45	0.08512888
17	0x23	0.043181315
18	0x00	0.0
19	0xfb	-0.0061687594
20	0x16	0.027142541
21	0x2b	0.05305133
22	0x28	0.049350075
23	0xc2	-0.076492615
24	0xdd	-0.043181315
25	0x10	0.01974003
26	0x05	0.0061687594
27	0x16	0.027142541
28	0x01	0.0012337519
29	0x2b	0.05305133
30	0xfa	-0.0074025113
31	0x0d	0.016038775
32	0x16	0.027142541
33	0x13	0.023441285
34	0x1e	0.037012555
35	0xd3	-0.055518836
36	0xe2	-0.037012555
37	0xf9	-0.008636263
38	0xe6	-0.03207755
39	0xf9	-0.008636263
40	0x24	0.044415068
41	0x05	0.0061687594
42	0xda	-0.04688257
43	0x18	0.029610045
44	0x0a	0.012337519
45	0x36	0.0666226
46	0x0e	0.017272526
47	0xda	-0.04688257
48	0x22	0.041947566
49	0x14	0.024675038
50	0x11	0.020973783
51	0x1a	0.03207755
52	0x16	0.027142541
53	0xf1	-0.018506277
54	0xe0	-0.03948006
55	0xfa	-0.0074025113
56	0xe9	-0.028376292
57	0x08	0.009870015
58	0xf5	-0.013571271
59	0x07	0.008636263
60	0xf9	-0.008636263
61	0x0c	0.014805023
62	0x2c	0.054285083
63	0x30	0.05922009
64	0x1e	0.037012555
65	0x1e	0.037012555
66	0x1f	0.038246308
67	0xe1	-0.038246308
68	0xcf	-0.060453843
69	0xf4	-0.014805023
70	0x31	0.060453843
71	0x1c	0.034545053
72	0x28	0.049350075
73	0x08	0.009870015
74	0x31	0.060453843
75	0x24	0.044415068
76	0x1c	0.034545053
77	0x0a	0.012337519
78	0x1a	0.03207755
79	0x1e	0.037012555
80	0x1b	0.0333113
81	0xf5	-0.013571271
82	0x01	0.0012337519
83	0xfb	-0.0061687594
84	0xff	-0.0012337519
85	0xd6	-0.05181758
86	0x17	0.028376292
87	0xd4	-0.054285083
88	0x2a	0.05181758
89	0xf1	-0.018506277
90	0x19	0.030843798
91	0xec	-0.024675038
92	0x1f	0.038246308
93	0x1a	0.03207755
94	0x20	0.03948006
95	0x25	0.04564882
96	0xf8	-0.009870015
97	0x19	0.030843798
98	0x07	0.008636263
99	0xf5	-0.013571271
100	0x21	0.040713813
101	0x1f	0.038246308
102	0x19	0.030843798
103	0xf5	-0.013571271
104	0xff	-0.0012337519
105	0x11	0.020973783
106	0x06	0.0074025113
107	0x06	0.0074025113
108	0x1b	0.0333113
109	0x1b	0.0333113
110	0x0e	0.017272526
111	0x06	0.0074025113
112	0xff	-0.0012337519
113	0xec	-0.024675038
114	0x39	0.070323855
115	0xec	-0.024675038
116	0x24	0.044415068
117	0xfa	-0.0074025113
118	0x1e	0.037012555
119	0x0e	0.017272526
120	0x17	0.028376292
121	0xe6	-0.03207755
122	0xfa	-0.0074025113
123	0xed	-0.023441285
124	0x0e	0.017272526
125	0x16	0.027142541
126	0xf8	-0.009870015
127	0xf2	-0.017272526
128	0xec	-0.024675038
129	0x05	0.0061687594
130	0xf8	-0.009870015
131	0x02	0.0024675038
132	0xfc	-0.0049350075
133	0x1e	0.037012555
134	0xe9	-0.028376292
135	0x2e	0.056752585
136	0xf3	-0.016038775
137	0xe9	-0.028376292
138	0xda	-0.04688257
139	0x02	0.0024675038
140	0x14	0.024675038
141	0x29	0.05058383
142	0xe2	-0.037012555
143	0xda	-0.04688257
144	0x06	0.0074025113
145	0x0f	0.018506277
146	0x12	0.022207534
147	0x2f	0.057986338
148	0xdb	-0.04564882
149	0xd9	-0.048116323
150	0xf7	-0.011103767
151	0xde	-0.041947566
152	0xe7	-0.030843798
153	0xda	-0.04688257
154	0x1b	0.0333113
155	0xf9	-0.008636263
156	0x10	0.01974003
157	0x2e	0.056752585
158	0x16	0.027142541
159	0xe0	-0.03948006
160	0xfc	-0.0049350075
161	0xe4	-0.034545053
162	0x04	0.0049350075
163	0x11	0.020973783
164	0x29	0.05058383
165	0x47	0.08759639
166	0x19	0.030843798
167	0xfb	-0.0061687594
168	0xf0	-0.01974003
169	0xf3	-0.016038775
170	0x30	0.05922009
171	0xd2	-0.056752585
172	0xd5	-0.05305133
173	0xdf	-0.040713813
174	0x28	0.049350075
175	0xf4	-0.014805023
176	0xfb	-0.0061687594
177	0xec	-0.024675038
178	0xfa	-0.0074025113
179	0xdb	-0.04564882
180	0x32	0.061687596
181	0xe4	-0.034545053
182	0xd1	-0.057986338
183	0xfa	-0.0074025113
184	0x38	0.069090106
185	0x05	0.0061687594
186	0x1f	0.038246308
187	0x23	0.043181315
188	0x2a	0.05181758
189	0x29	0.05058383
190	0x02	0.0024675038
191	0xf9	-0.008636263
192	0x05	0.0061687594
193	0x2b	0.05305133
194	0x14	0.024675038
195	0x22	0.041947566
196	0x0c	0.014805023
197	0x0c	0.014805023
198	0xe8	-0.029610045
199	0xf1	-0.018506277
200	0xe3	-0.035778806
201	0xd0	-0.05922009
202	0x19	0.030843798
203	0xe5	-0.0333113
204	0x27	0.048116323
205	0x1b	0.0333113
206	0xd4	-0.054285083
207	0xd9	-0.048116323
208	0x11	0.020973783
209	0x20	0.03948006
210	0x14	0.024675038
211	0xdf	-0.040713813
212	0xed	-0.023441285
213	0xe8	-0.029610045
214	0x35	0.06538885
215	0xf2	-0.017272526
216	0xd2	-0.056752585
217	0xf6	-0.012337519
218	0xd9	-0.048116323
219	0x19	0.030843798
220	0x27	0.048116323
221	0x24	0.044415068
222	0x25	0.04564882
223	0xfc	-0.0049350075
224	0xcd	-0.062921345
225	0xf8	-0.009870015
226	0xe3	-0.035778806
227	0x25	0.04564882
228	0xe2	-0.037012555
229	0xed	-0.023441285
230	0x13	0.023441285
231	0xda	-0.04688257
232	0xd9	-0.048116323
233	0xe7	-0.030843798
234	0x03	0.0037012557
235	0x0b	0.013571271
236	0xd6	-0.05181758
237	0x1f	0.038246308
238	0x27	0.048116323
239	0xed	-0.023441285
240	0xe4	-0.034545053
241	0x20	0.03948006
242	0xed	-0.023441285
243	0x00	0.0
244	0x13	0.023441285
245	0xef	-0.020973783
246	0x26	0.04688257
247	0xf6	-0.012337519
248	0x0b	0.013571271
249	0xe3	-0.035778806
250	0x2a	0.05181758
251	0xd7	-0.05058383
252	0xf7	-0.011103767
253	0xdb	-0.04564882
254	0x05	0.0061687594
255	0xed	-0.023441285

sequential_1/quant_dense_4/MatMul;sequential_1/quant_dense_4/LastValueQuant/FakeQuantWithMinMaxVars i1 [50, 100] scale=0.0018295739 zero_point=0
0	0x4d	0.14087719
1	0x18	0.043909773
2	0x4b	0.13721804
3	0x99	-0.1884461
4	0x1d	0.05305764
5	0xa4	-0.1683208
6	0x08	0.014636591
7	0xce	-0.09147869
8	0xfa	-0.010977443
9	0xf1	-0.027443608
10	0xa1	-0.17380951
11	0x9c	-0.18295738
12	0xe8	-0.043909773
13	0xe5	-0.049398497
14	0x24	0.06586466
15	0x1e	0.054887217
16	0x07	0.012807017
17	0xa9	-0.15917292
18	0xe9	-0.0420802
19	0xac	-0.1536842
20	0x5e	0.17197995
21	0x05	0.009147869
22	0x71	0.20674185
23	0xc8	-0.10245614
24	0x12	0.03293233
25	0xad	-0.15185463
26	0xd4	-0.08050125
27	0x55	0.15551378
28	0x4e	0.14270677
29	0x00	0.0
30	0x63	0.18112782
31	0xb1	-0.14453633
32	0xb1	-0.14453633
33	0x44	0.124411024
34	0x74	0.21223056
35	0x58	0.1610025
36	0x4b	0.13721804
37	0x18	0.043909773
38	0xb1	-0.14453633
39	0xbc	-0.124411024
40	0xd5	-0.07867168
41	0xe7	-0.045739345
42	0x46	0.12807018
43	0x01	0.0018295739
44	0xfd	-0.0054887217
45	0x3f	0.11526316
46	0x00	0.0
47	0xd9	-0.07135338
48	0xa3	-0.17015037
49	0x64	0.18295738
50	0x55	0.15551378
51	0x05	0.009147869
52	0x55	0.15551378
53	0xd2	-0.0841604
54	0xff	-0.0018295739
55	0xab	-0.15551378
56	0xf5	-0.020125313
57	0xf0	-0.029273182
58	0xa5	-0.16649123
59	0xf2	-0.025614034
60	0x6a	0.19393483
61	0x1d	0.05305764
62	0xc9	-0.100626566
63	0x2a	0.0768421
64	0x1c	0.05122807
65	0x92	-0.20125313
66	0xa3	-0.17015037
67	0x0e	0.025614034
68	0xa7	-0.16283208
69	0x98	-0.19027568
70	0x3a	0.10611528
71	0x39	0.10428571
72	0xeb	-0.03842105
73	0x9f	-0.17746867
74	0x57	0.15917292
75	0xd5	-0.07867168
76	0x96	-0.19393483
77	0x0e	0.025614034
78	0xa0	-0.1756391
79	0xe5	-0.049398497
80	0xda	-0.06952381
81	0xab	-0.15551378
82	0x98	-0.19027568
83	0x98	-0.19027568
84	0xbd	-0.12258145
85	0xfb	-0.009147869
86	0xbf	-0.1189223
87	0xd2	-0.0841604
88	0x27	0.07135338
89	0xc2	-0.113433585
90	0x59	0.16283208
91	0xed	-0.034761906
92	0x24	0.06586466
93	0x13	0.034761906
94	0x2e	0.0841604
95	0x69	0.19210526
96	0xfe	-0.0036591478
97	0x53	0.15185463
98	0x31	0.08964912
99	0xde	-0.062205512
100	0x14	0.036591478
101	0xee	-0.03293233
102	0xb2	-0.14270677
103	0xfc	-0.0073182955
104	0x2b	0.07867168
105	0x1a	0.04756892
106	0xd2	-0.0841604
107	0x4e	0.14270677
108	0xc9	-0.100626566
109	0xc8	-0.10245614
110	0x65	0.18478696
111	0x65	0.18478696
112	0xc4	-0.10977443
113	0x01	0.0018295739
114	0x99	-0.1884461
115	0xd2	-0.0841604
116	0xc7	-0.10428571
117	0xbd	-0.12258145
118	0x1d	0.05305764
119	0x9a	-0.18661654
120	0x11	0.031102756
121	0xce	-0.09147869
122	0xc3	-0.111604005
123	0xd6	-0.0768421
124	0x3d	0.111604005
125	0xca	-0.09879699
126	0x32	0.09147869
127	0x3d	0.111604005
128	0x07	0.012807017
129	0xe2	-0.054887217
130	0x24	0.06586466
131	0xa0	-0.1756391
132	0xd7	-0.07501253
133	0x1f	0.056716792
134	0x04	0.0073182955
135	0x5a	0.16466165
136	0x24	0.06586466
137	0xf0	-0.029273182
138	0x42	0.12075187
139	0xde	-0.062205512
140	0xbf	-0.1189223
141	0xa1	-0.17380951
142	0x98	-0.19027568
143	0xdb	-0.06769423
144	0x18	0.043909773
145	0xa5	-0.16649123
146	0xe5	-0.049398497
147	0x08	0.014636591
148	0x41	0.1189223
149	0x03	0.0054887217
150	0x64	0.18295738
151	0x2e	0.0841604
152	0xe6	-0.04756892
153	0x0e	0.025614034
154	0xbe	-0.12075187
155	0x61	0.17746867
156	0x0a	0.018295739
157	0x2d	0.08233082
158	0xb7	-0.1335589
159	0x19	0.045739345
160	0x04	0.0073182955
161	0x31	0.08964912
162	0xfc	-0.0073182955
163	0xd6	-0.0768421
164	0x2c	0.08050125
165	0x4d	0.14087719
166	0x27	0.07135338
167	0xed	-0.034761906
168	0x35	0.096967414
169	0xf0	-0.029273182
170	0x2a	0.0768421
171	0xa3	-0.17015037
172	0x19	0.045739345
173	0x33	0.09330827
174	0xb5	-0.13721804
175	0xae	-0.15002505
176	0xaf	-0.14819549
177	0x14	0.036591478
178	0x27	0.07135338
179	0x66	0.18661654
180	0x9b	-0.18478696
181	0x31	0.08964912
182	0x9c	-0.18295738
183	0x9a	-0.18661654
184	0x94	-0.19759399
185	0x58	0.1610025
186	0x1d	0.05305764
187	0x38	0.10245614
188	0xbc	-0.124411024
189	0xad	-0.15185463
190	0xde	-0.062205512
191	0xc8	-0.10245614
192	0xd8	-0.073182955
193	0x9e	-0.17929824
194	0x19	0.045739345
195	0xc5	-0.10794486
196	0xa8	-0.1610025
197	0x10	0.029273182
198	0xc5	-0.10794486
199	0xfd	-0.0054887217
200	0x2b	0.07867168
201	0xd9	-0.07135338
202	0xab	-0.15551378
203	0x5f	0.17380951
204	0xa8	-0.1610025
205	0x4a	0.13538846
206	0xcd	-0.09330827
207	0xf9	-0.012807017
208	0x52	0.15002505
209	0xa6	-0.16466165
210	0xd0	-0.08781955
211	0xf4	-0.021954887
212	0xaf	-0.14819549
213	0xc8	-0.10245614
214	0x1a	0.04756892
215	0x2b	0.07867168
216	0xc6	-0.10611528
217	0xdb	-0.06769423
218	0xf9	-0.012807017
219	0x28	0.073182955
220	0xe1	-0.056716792
221	0x3d	0.111604005
222	0x07	0.012807017
223	0x9a	-0.18661654
224	0xb3	-0.14087719
225	0x11	0.031102756
226	0x99	-0.1884461
227	0xd0	-0.08781955
228	0xd0	-0.08781955
229	0x2c	0.08050125
230	0xde	-0.062205512
231	0xb4	-0.13904762
232	0x39	0.10428571
233	0x1f	0.056716792
234	0x3c	0.10977443
235	0x4c	0.13904762
236	0xf0	-0.029273182
237	0xa2	-0.17197995
238	0x20	0.058546364
239	0xe4	-0.05122807
240	0xcc	-0.09513784
241	0xbc	-0.124411024
242	0x3c	0.10977443
243	0xb2	-0.14270677
244	0xa5	-0.16649123
245	0x1a	0.04756892
246	0xde	-0.062205512
247	0xea	-0.040250625
248	0xfa	-0.010977443
249	0xf2	-0.025614034
250	0x54	0.1536842
251	0xf9	-0.012807017
252	0x3c	0.10977443
253	0x9c	-0.18295738
254	0x31	0.08964912
255	0xd3	-0.08233082

sequential_1/quant_dense_5/MatMul;sequential_1/quant_dense_5/LastValueQuant/FakeQuantWithMinMaxVars i1 [10, 50] scale=0.002746267 zero_point=0
0	0xc1	-0.17301482
1	0x40	0.17576109
2	0x59	0.24441776
3	0x5b	0.2499103
4	0x4d	0.21146256
5	0x41	0.17850736
6	0xd6	-0.11534321
7	0xa6	-0.24716403
8	0xb3	-0.21146256
9	0xda	-0.104358144
10	0x8b	-0.32131323
11	0x0c	0.032955203
12	0xb3	-0.21146256
13	0xd4	-0.12083575
14	0x74	0.31856698
15	0x70	0.3075819
16	0x0c	0.032955203
17	0xde	-0.093373075
18	0x44	0.18674615
19	0x6a	0.29110432
20	0x1d	0.079641744
21	0xbe	-0.18125363
22	0x66	0.28011924
23	0x99	-0.2828655
24	0x08	0.021970136
25	0x4c	0.20871629
26	0x3b	0.16202976
27	0xff	-0.002746267
28	0x3f	0.17301482
29	0xc9	-0.15104468
30	0xed	-0.052179072
31	0xb2	-0.21420883
32	0x76	0.32405952
33	0x2e	0.12632829
34	0x39	0.15653722
35	0xb8	-0.19773123
36	0x1e	0.08238801
37	0x56	0.23617896
38	0x13	0.052179072
39	0x4a	0.20322376
40	0x26	0.104358144
41	0xe3	-0.079641744
42	0x6f	0.30483565
43	0x27	0.10710441
44	0x50	0.21970136
45	0x36	0.14829841
46	0x00	0.0
47	0x4b	0.20597002
48	0xa7	-0.24441776
49	0x15	0.057671607
50	0xe5	-0.07414921
51	0x5a	0.24716403
52	0x2f	0.12907454
53	0xcc	-0.14280589
54	0x3d	0.16752228
55	0xbe	-0.18125363
56	0xb7	-0.2004775
57	0x41	0.17850736
58	0x5c	0.25265658
59	0xac	-0.23068643
60	0xb4	-0.20871629
61	0x91	-0.30483565
62	0xb9	-0.19498496
63	0xab	-0.2334327
64	0x5b	0.2499103
65	0xcb	-0.14555216
66	0x0d	0.035701472
67	0xb6	-0.20322376
68	0x61	0.2663879
69	0x11	0.046686538
70	0x59	0.24441776
71	0xc1	-0.17301482
72	0xf2	-0.038447738
73	0x43	0.1839999
74	0x01	0.002746267
75	0xa9	-0.23892523
76	0x9a	-0.28011924
77	0x43	0.1839999
78	0xe2	-0.08238801
79	0x11	0.046686538
80	0x2f	0.12907454
81	0xe0	-0.087880544
82	0xa6	-0.24716403
83	0x66	0.28011924
84	0x3b	0.16202976
85	0xc5	-0.16202976
86	0x2b	0.11808948
87	0xf3	-0.035701472
88	0x0d	0.035701472
89	0x76	0.32405952
90	0xfc	-0.010985068
91	0x19	0.068656676
92	0x33	0.14005962
93	0xf2	-0.038447738
94	0x3a	0.15928349
95	0xf8	-0.021970136
96	0x17	0.063164145
97	0xc3	-0.16752228
98	0x0b	0.030208938
99	0x0b	0.030208938
100	0x2e	0.12632829
101	0xb6	-0.20322376
102	0xc1	-0.17301482
103	0x65	0.27737296
104	0x3f	0.17301482
105	0xb5	-0.20597002
106	0x50	0.21970136
107	0xc7	-0.15653722
108	0xf7	-0.024716403
109	0x5c	0.25265658
110	0xac	-0.23068643
111	0xed	-0.052179072
112	0x21	0.09062681
113	0xcf	-0.13456708
114	0x0b	0.030208938
115	0xfb	-0.013731335
116	0x34	0.14280589
117	0xd8	-0.10985068
118	0xaf	-0.22244763
119	0x3e	0.17026855
120	0xd0	-0.13182081
121	0x45	0.18949242
122	0x8e	-0.31307444
123	0xa7	-0.24441776
124	0x50	0.21970136
125	0xab	-0.2334327
126	0xec	-0.05492534
127	0xef	-0.046686538
128	0x02	0.005492534
129	0xb4	-0.20871629
130	0xab	-0.2334327
131	0x6d	0.2993431
132	0x23	0.096119344
133	0x21	0.09062681
134	0x0d	0.035701472
135	0x1f	0.085134275
136	0x0e	0.038447738
137	0x00	0.0
138	0x2f	0.12907454
139	0xd5	-0.11808948
140	0x58	0.2416715
141	0x9a	-0.28011924
142	0x05	0.013731335
143	0x3b	0.16202976
144	0x58	0.2416715
145	0x52	0.22519389
146	0xa8	-0.2416715
147	0x37	0.15104468
148	0xdb	-0.10161188
149	0xf1	-0.041194007
150	0x1d	0.079641744
151	0xe8	-0.06591041
152	0x01	0.002746267
153	0x20	0.087880544
154	0x92	-0.30208936
155	0x11	0.046686538
156	0x22	0.093373075
157	0xc2	-0.17026855
158	0xa7	-0.24441776
159	0x44	0.18674615
160	0x3a	0.15928349
161	0x65	0.27737296
162	0x88	-0.32955205
163	0x5c	0.25265658
164	0x4c	0.20871629
165	0x0e	0.038447738
166	0x05	0.013731335
167	0x02	0.005492534
168	0x90	-0.3075819
169	0xac	-0.23068643
170	0xfc	-0.010985068
171	0xbf	-0.17850736
172	0xbd	-0.1839999
173	0xbd	-0.1839999
174	0x94	-0.29659683
175	0x03	0.008238801
176	0x1c	0.076895475
177	0x28	0.10985068
178	0x00	0.0
179	0x54	0.23068643
180	0x93	-0.2993431
181	0x73	0.3158207
182	0x99	-0.2828655
183	0xcc	-0.14280589
184	0xfe	-0.005492534
185	0x0f	0.041194007
186	0xe2	-0.08238801
187	0x91	-0.30483565
188	0x54	0.23068643
189	0xfa	-0.016477602
190	0x6f	0.30483565
191	0x59	0.24441776
192	0xc6	-0.15928349
193	0x13	0.052179072
194	0xb6	-0.20322376
195	0x63	0.27188045
196	0x3d	0.16752228
197	0x37	0.15104468
198	0xc6	-0.15928349
199	0x66	0.28011924
200	0xdc	-0.09886561
201	0x15	0.057671607
202	0xb5	-0.20597002
203	0xaf	-0.22244763
204	0xe8	-0.06591041
205	0x97	-0.28835803
206	0x3a	0.15928349
207	0x43	0.1839999
208	0xff	-0.002746267
209	0xab	-0.2334327
210	0x40	0.17576109
211	0xc0	-0.17576109
212	0x8b	-0.32131323
213	0x58	0.2416715
214	0x0c	0.032955203
215	0x30	0.13182081
216	0x76	0.32405952
217	0x8d	-0.3158207
218	0xb6	-0.20322376
219	0xfc	-0.010985068
220	0x2f	0.12907454
221	0xe6	-0.071402945
222	0x2d	0.12358201
223	0x2d	0.12358201
224	0x65	0.27737296
225	0x53	0.22794016
226	0x98	-0.28561178
227	0x93	-0.2993431
228	0xd9	-0.10710441
229	0x1c	0.076895475
230	0xf8	-0.021970136
231	0x6c	0.29659683
232	0x6c	0.29659683
233	0xc1	-0.17301482
234	0x15	0.057671607
235	0xc9	-0.15104468
236	0xbd	-0.1839999
237	0x06	0.016477602
238	0xd7	-0.112596944
239	0x98	-0.28561178
240	0xb3	-0.21146256
241	0xb0	-0.21970136
242	0x0e	0.038447738
243	0xfb	-0.013731335
244	0x96	-0.29110432
245	0xdd	-0.096119344
246	0xb8	-0.19773123
247	0x74	0.31856698
248	0xa0	-0.26364163
249	0xbd	-0.1839999
250	0x26	0.104358144
251	0x3f	0.17301482
252	0x35	0.14555216
253	0x37	0.15104468
254	0x4e	0.21420883
255	0x12	0.049432807

sequential_1/quant_output/MatMul;sequential_1/quant_output/LastValueQuant/FakeQuantWithMinMaxVars i1 [1, 10] scale=0.0054987366 zero_point=0
0	0x4b	0.41240525
1	0x12	0.09897726
2	0xb4	-0.417904
3	0x62	0.5388762
4	0xb2	-0.42890146
5	0xf0	-0.087979786
6	0xdf	-0.18145831
7	0xc9	-0.3024305
8	0x81	-0.6983396
9	0x17	0.12647094
