models/opt-80x60x3.tflite (tflite, 156808 bytes, 9 tensors)

sequential_31/quant_conv2d_155/Conv2D;sequential_31/quant_conv2d_155/LastValueQuant/FakeQuantWithMinMaxVarsPerChannel i1 [24, 5, 5, 3]
0	0xf2	-14
1	0xb3	-77
2	0x50	80
3	0x61	97
4	0xb2	-78
5	0x7c	124
6	0x63	99
7	0x7f	127
8	0x70	112
9	0x35	53
10	0xa5	-91
11	0x09	9
12	0x87	-121
13	0xb5	-75
14	0x04	4
15	0x5c	92
16	0x69	105
17	0xe3	-29
18	0x9f	-97
19	0x67	103
20	0x73	115
21	0xbd	-67
22	0xce	-50
23	0x02	2
24	0xca	-54
25	0xf1	-15
26	0x6b	107
27	0x18	24
28	0x8e	-114
29	0x2e	46
30	0x30	48
31	0x57	87
32	0xd7	-41
33	0xb1	-79
34	0x5c	92
35	0x9b	-101
36	0x8c	-116
37	0xbb	-69
38	0xf0	-16
39	0x1c	28
40	0x69	105
41	0x67	103
42	0x45	69
43	0x84	-124
44	0x27	39
45	0x85	-123
46	0xfb	-5
47	0x26	38
48	0xf0	-16
49	0x20	32
50	0x1d	29
51	0xd0	-48
52	0x43	67
53	0xf9	-7
54	0xa1	-95
55	0x17	23
56	0xc7	-57
57	0xb4	-76
58	0xd7	-41
59	0xf9	-7
60	0x05	5
61	0x87	-121
62	0xfc	-4
63	0x42	66
64	0x88	-120
65	0x99	-103
66	0xf1	-15
67	0xca	-54
68	0xde	-34
69	0x69	105
70	0xd7	-41
71	0x95	-107
72	0x19	25
73	0x9f	-97
74	0x48	72
75	0xe3	-29
76	0x38	56
77	0x74	116
78	0xbd	-67
79	0x73	115
80	0x21	33
81	0xe6	-26
82	0xb0	-80
83	0xe9	-23
84	0xe0	-32
85	0x29	41
86	0x4e	78
87	0x94	-108
88	0x63	99
89	0xa8	-88
90	0x22	34
91	0x68	104
92	0x5b	91
93	0x9e	-98
94	0x51	81
95	0x5e	94
96	0x4b	75
97	0x57	87
98	0xe6	-26
99	0x39	57
100	0x5a	90
101	0x33	51
102	0x9b	-101
103	0xd0	-48
104	0x54	84
105	0xb9	-71
106	0xea	-22
107	0x62	98
108	0x99	-103
109	0xfa	-6
110	0x21	33
111	0xf6	-10
112	0x73	115
113	0x5c	92
114	0x4d	77
115	0xe0	-32
116	0x6b	107
117	0x04	4
118	0x9b	-101
119	0x0e	14
120	0xc8	-56
121	0x48	72
122	0x81	-127
123	0x6b	107
124	0xcf	-49
125	0x73	115
126	0xca	-54
127	0x6a	106
128	0x1e	30
129	0x6a	106
130	0x82	-126
131	0xad	-83
132	0x92	-110
133	0x49	73
134	0x8f	-113
135	0x45	69
136	0x72	114
137	0xcc	-52
138	0xa8	-88
139	0xc5	-59
140	0x29	41
141	0x28	40
142	0x3b	59
143	0x2a	42
144	0xac	-84
145	0xfa	-6
146	0xb8	-72
147	0xb0	-80
148	0x03	3
149	0xee	-18
150	0xce	-50
151	0xe8	-24
152	0xa6	-90
153	0x6b	107
154	0xfe	-2
155	0x54	84
156	0xb7	-73
157	0x6a	106
158	0xe0	-32
159	0xb1	-79
160	0x40	64
161	0x39	57
162	0x0b	11
163	0xec	-20
164	0x79	121
165	0xc8	-56
166	0xdf	-33
167	0xa4	-92
168	0x5d	93
169	0x00	0
170	0x27	39
171	0xbf	-65
172	0x94	-108
173	0xde	-34
174	0x48	72
175	0x8e	-114
176	0xab	-85
177	0x55	85
178	0x5e	94
179	0x6c	108
180	0x89	-119
181	0xd8	-40
182	0x20	32
183	0x28	40
184	0x20	32
185	0xae	-82
186	0xb0	-80
187	0x8c	-116
188	0xb7	-73
189	0x3b	59
190	0x00	0
191	0xe2	-30
192	0xc9	-55
193	0x16	22
194	0x49	73
195	0xd0	-48
196	0x66	102
197	0xd9	-39
198	0x41	65
199	0x16	22
200	0x4b	75
201	0x4a	74
202	0x05	5
203	0xd1	-47
204	0x13	19
205	0x17	23
206	0x3b	59
207	0x84	-124
208	0x06	6
209	0xaf	-81
210	0x81	-127
211	0xa4	-92
212	0x23	35
213	0xde	-34
214	0xf8	-8
215	0x5d	93
216	0xa2	-94
217	0x24	36
218	0x49	73
219	0xca	-54
220	0xfb	-5
221	0x07	7
222	0x9d	-99
223	0x5e	94
224	0x2d	45
225	0xab	-85
226	0x08	8
227	0x1b	27
228	0xd6	-42
229	0xd3	-45
230	0x52	82
231	0xe1	-31
232	0xf1	-15
233	0xf1	-15
234	0xc5	-59
235	0xb4	-76
236	0xe4	-28
237	0xb7	-73
238	0x92	-110
239	0xc9	-55
240	0xbb	-69
241	0xed	-19
242	0x7f	127
243	0xdc	-36
244	0xfe	-2
245	0x2e	46
246	0xad	-83
247	0x65	101
248	0x7f	127
249	0xd3	-45
250	0x7b	123
251	0x47	71
252	0xf8	-8
253	0x6b	107
254	0x12	18
255	0xe4	-28

sequential_31/quant_conv2d_156/Conv2D;sequential_31/quant_conv2d_156/LastValueQuant/FakeQuantWithMinMaxVarsPerChannel i1 [36, 5, 5, 24]
0	0x38	56
1	0x8e	-114
2	0xce	-50
3	0xdb	-37
4	0x60	96
5	0x27	39
6	0x8c	-116
7	0xc1	-63
8	0xe8	-24
9	0xdf	-33
10	0x43	67
11	0xde	-34
12	0x1c	28
13	0x9d	-99
14	0x1c	28
15	0xf8	-8
16	0x9e	-98
17	0x3c	60
18	0x41	65
19	0x38	56
20	0xb1	-79
21	0xac	-84
22	0x06	6
23	0x23	35
24	0x6e	110
25	0x13	19
26	0x2b	43
27	0x29	41
28	0xdf	-33
29	0x26	38
30	0xec	-20
31	0x0f	15
32	0xd7	-41
33	0x02	2
34	0xde	-34
35	0xe4	-28
36	0xc2	-62
37	0x97	-105
38	0x04	4
39	0xc2	-62
40	0xa5	-91
41	0xc2	-62
42	0x2a	42
43	0x0b	11
44	0x05	5
45	0xce	-50
46	0x5d	93
47	0x38	56
48	0xd3	-45
49	0xdc	-36
50	0x58	88
51	0xaf	-81
52	0x28	40
53	0x97	-105
54	0xfd	-3
55	0xf5	-11
56	0xd6	-42
57	0x04	4
58	0xb4	-76
59	0xa6	-90
60	0xc4	-60
61	0xfb	-5
62	0x0d	13
63	0x1f	31
64	0xad	-83
65	0x07	7
66	0xba	-70
67	0x18	24
68	0x9e	-98
69	0xc8	-56
70	0xf4	-12
71	0x63	99
72	0x28	40
73	0xc6	-58
74	0x34	52
75	0x10	16
76	0xfd	-3
77	0xaa	-86
78	0x00	0
79	0x1d	29
80	0x05	5
81	0xee	-18
82	0xc5	-59
83	0xd0	-48
84	0xe7	-25
85	0x26	38
86	0x28	40
87	0xc4	-60
88	0xc4	-60
89	0x21	33
90	0xed	-19
91	0x54	84
92	0xd1	-47
93	0xd8	-40
94	0x06	6
95	0x5e	94
96	0x63	99
97	0xe7	-25
98	0x51	81
99	0xa8	-88
100	0xd2	-46
101	0x2a	42
102	0xc6	-58
103	0x3e	62
104	0x53	83
105	0xe0	-32
106	0xa9	-87
107	0x17	23
108	0x21	33
109	0xbc	-68
110	0x11	17
111	0x99	-103
112	0xf3	-13
113	0xf6	-10
114	0xf8	-8
115	0x6a	106
116	0x19	25
117	0x09	9
118	0xfe	-2
119	0xf8	-8
120	0x6f	111
121	0xeb	-21
122	0xf5	-11
123	0x60	96
124	0x49	73
125	0xb9	-71
126	0xdf	-33
127	0x0c	12
128	0x62	98
129	0xf8	-8
130	0x46	70
131	0xb4	-76
132	0xa8	-88
133	0xf6	-10
134	0xb2	-78
135	0xac	-84
136	0x2e	46
137	0x26	38
138	0x46	70
139	0x15	21
140	0x55	85
141	0xb9	-71
142	0x2a	42
143	0x09	9
144	0xfe	-2
145	0x9e	-98
146	0xed	-19
147	0x2d	45
148	0xe4	-28
149	0xb6	-74
150	0x4f	79
151	0xe5	-27
152	0xf6	-10
153	0x3f	63
154	0xc4	-60
155	0xdc	-36
156	0x2b	43
157	0x48	72
158	0xdb	-37
159	0x2e	46
160	0x0c	12
161	0xd3	-45
162	0x19	25
163	0xb7	-73
164	0xf9	-7
165	0x3f	63
166	0x72	114
167	0xa0	-96
168	0x27	39
169	0xc3	-61
170	0x6b	107
171	0x2b	43
172	0xe0	-32
173	0x97	-105
174	0xcb	-53
175	0xb2	-78
176	0xfe	-2
177	0x11	17
178	0x52	82
179	0xe8	-24
180	0xcb	-53
181	0xe6	-26
182	0x0d	13
183	0x19	25
184	0xf4	-12
185	0x4c	76
186	0xc6	-58
187	0xce	-50
188	0x99	-103
189	0xd5	-43
190	0x47	71
191	0xad	-83
192	0x2e	46
193	0x02	2
194	0x19	25
195	0xc6	-58
196	0xfd	-3
197	0xfc	-4
198	0x5b	91
199	0x18	24
200	0xd1	-47
201	0xd3	-45
202	0x35	53
203	0xc3	-61
204	0xd5	-43
205	0x5f	95
206	0x8e	-114
207	0xbb	-69
208	0xbe	-66
209	0xd8	-40
210	0xf4	-12
211	0xdf	-33
212	0x10	16
213	0xd7	-41
214	0xb6	-74
215	0xd2	-46
216	0x95	-107
217	0xd9	-39
218	0xf1	-15
219	0xc2	-62
220	0xb7	-73
221	0xbc	-68
222	0xa6	-90
223	0x36	54
224	0xb1	-79
225	0x19	25
226	0xd4	-44
227	0xed	-19
228	0x90	-112
229	0xf6	-10
230	0xcd	-51
231	0x9f	-97
232	0x4e	78
233	0x3f	63
234	0xb0	-80
235	0x0c	12
236	0x2d	45
237	0xfe	-2
238	0x63	99
239	0x1b	27
240	0x3d	61
241	0x45	69
242	0xc3	-61
243	0xcc	-52
244	0xad	-83
245	0x10	16
246	0xf9	-7
247	0x0f	15
248	0x40	64
249	0x1d	29
250	0xab	-85
251	0xb6	-74
252	0xa6	-90
253	0x43	67
254	0xaf	-81
255	0x04	4

sequential_31/quant_conv2d_157/Conv2D;sequential_31/quant_conv2d_157/LastValueQuant/FakeQuantWithMinMaxVarsPerChannel i1 [48, 5, 5, 36]
0	0xb6	-74
1	0x0f	15
2	0xe6	-26
3	0xb6	-74
4	0x38	56
5	0x33	51
6	0x06	6
7	0xae	-82
8	0xdd	-35
9	0xb6	-74
10	0xe6	-26
11	0x23	35
12	0x01	1
13	0x43	67
14	0x1a	26
15	0xcb	-53
16	0x56	86
17	0xe0	-32
18	0xd3	-45
19	0x56	86
20	0xdd	-35
21	0xc0	-64
22	0xa2	-94
23	0xe7	-25
24	0x05	5
25	0x49	73
26	0xb9	-71
27	0xed	-19
28	0xba	-70
29	0x32	50
30	0x32	50
31	0xc0	-64
32	0xa0	-96
33	0xb6	-74
34	0xed	-19
35	0xd4	-44
36	0xc2	-62
37	0xd9	-39
38	0x46	70
39	0x32	50
40	0x44	68
41	0x94	-108
42	0xac	-84
43	0x23	35
44	0x33	51
45	0x1f	31
46	0x35	53
47	0x1d	29
48	0x9c	-100
49	0xcc	-52
50	0x47	71
51	0xa1	-95
52	0xa4	-92
53	0xfb	-5
54	0xa4	-92
55	0xf4	-12
56	0x2a	42
57	0x41	65
58	0xb9	-71
59	0x23	35
60	0xa8	-88
61	0x16	22
62	0x7f	127
63	0xd1	-47
64	0x13	19
65	0xeb	-21
66	0xe0	-32
67	0x3e	62
68	0xdb	-37
69	0x46	70
70	0x4a	74
71	0xa4	-92
72	0xcd	-51
73	0xd4	-44
74	0x69	105
75	0xa4	-92
76	0x9c	-100
77	0xb7	-73
78	0xdc	-36
79	0xb0	-80
80	0x02	2
81	0xe0	-32
82	0x38	56
83	0xde	-34
84	0x16	22
85	0xde	-34
86	0xad	-83
87	0x49	73
88	0xbc	-68
89	0x27	39
90	0xda	-38
91	0xcb	-53
92	0x91	-111
93	0x16	22
94	0x12	18
95	0x3e	62
96	0xa9	-87
97	0xfc	-4
98	0x32	50
99	0xc6	-58
100	0xa1	-95
101	0x22	34
102	0x33	51
103	0xda	-38
104	0xf3	-13
105	0xcd	-51
106	0x0c	12
107	0x12	18
108	0xe0	-32
109	0x6a	106
110	0x59	89
111	0xd4	-44
112	0xe6	-26
113	0xbc	-68
114	0xec	-20
115	0x30	48
116	0xfb	-5
117	0x17	23
118	0xf0	-16
119	0xaf	-81
120	0xdb	-37
121	0x00	0
122	0x1b	27
123	0x0d	13
124	0xcd	-51
125	0x03	3
126	0x1d	29
127	0x0f	15
128	0x35	53
129	0xbf	-65
130	0x50	80
131	0xc0	-64
132	0x15	21
133	0xe5	-27
134	0x00	0
135	0x36	54
136	0xde	-34
137	0x04	4
138	0x20	32
139	0x2b	43
140	0xf7	-9
141	0xc0	-64
142	0xa7	-89
143	0xf3	-13
144	0xdc	-36
145	0xcf	-49
146	0x71	113
147	0xcf	-49
148	0x1d	29
149	0xe3	-29
150	0x4e	78
151	0xdf	-33
152	0x41	65
153	0x19	25
154	0xb0	-80
155	0x1a	26
156	0xf9	-7
157	0xee	-18
158	0x27	39
159	0x5f	95
160	0x10	16
161	0xfb	-5
162	0x08	8
163	0xaf	-81
164	0xee	-18
165	0xe4	-28
166	0x2a	42
167	0x32	50
168	0x93	-109
169	0xbd	-67
170	0xfb	-5
171	0xa8	-88
172	0x1f	31
173	0x5d	93
174	0x8e	-114
175	0x13	19
176	0x3d	61
177	0x23	35
178	0x29	41
179	0x2d	45
180	0x2d	45
181	0xbf	-65
182	0xd5	-43
183	0x9a	-102
184	0x5d	93
185	0x0f	15
186	0xe2	-30
187	0x21	33
188	0xd4	-44
189	0x53	83
190	0xc8	-56
191	0xe3	-29
192	0xbf	-65
193	0xc0	-64
194	0xdf	-33
195	0x44	68
196	0xce	-50
197	0x16	22
198	0xda	-38
199	0xc5	-59
200	0xc9	-55
201	0xd4	-44
202	0xed	-19
203	0xfd	-3
204	0x63	99
205	0x14	20
206	0x3d	61
207	0x23	35
208	0xcf	-49
209	0x31	49
210	0xdc	-36
211	0x0a	10
212	0x34	52
213	0x6a	106
214	0xef	-17
215	0xef	-17
216	0xb2	-78
217	0x01	1
218	0xdc	-36
219	0xe2	-30
220	0xb7	-73
221	0x37	55
222	0xfe	-2
223	0x30	48
224	0x1e	30
225	0xfa	-6
226	0x06	6
227	0xdd	-35
228	0xaf	-81
229	0x32	50
230	0x54	84
231	0x8c	-116
232	0x1c	28
233	0x39	57
234	0x49	73
235	0xaa	-86
236	0xf4	-12
237	0xe2	-30
238	0xaa	-86
239	0x3a	58
240	0x35	53
241	0x0a	10
242	0xdc	-36
243	0xeb	-21
244	0x18	24
245	0xbf	-65
246	0xe2	-30
247	0x26	38
248	0x1f	31
249	0x24	36
250	0xe4	-28
251	0x57	87
252	0x1d	29
253	0x09	9
254	0xc1	-63
255	0x4d	77

sequential_31/quant_conv2d_158/Conv2D;sequential_31/quant_conv2d_158/LastValueQuant/FakeQuantWithMinMaxVarsPerChannel i1 [64, 3, 3, 48]
0	0xdb	-37
1	0x76	118
2	0x50	80
3	0xba	-70
4	0x29	41
5	0x4d	77
6	0xcc	-52
7	0xe4	-28
8	0x31	49
9	0x9c	-100
10	0x32	50
11	0xb0	-80
12	0x0d	13
13	0xe5	-27
14	0xcb	-53
15	0xfb	-5
16	0x0a	10
17	0x03	3
18	0x1d	29
19	0xbd	-67
20	0xbe	-66
21	0xe8	-24
22	0xdb	-37
23	0xe3	-29
24	0x72	114
25	0xb5	-75
26	0xdd	-35
27	0xcc	-52
28	0xa5	-91
29	0x3b	59
30	0xf0	-16
31	0xe2	-30
32	0x28	40
33	0x2c	44
34	0xa5	-91
35	0x99	-103
36	0xf0	-16
37	0x3f	63
38	0xbc	-68
39	0xdf	-33
40	0x10	16
41	0xc0	-64
42	0xf6	-10
43	0x26	38
44	0xd9	-39
45	0xbf	-65
46	0xfc	-4
47	0x2e	46
48	0x9a	-102
49	0x31	49
50	0xa6	-90
51	0x0e	14
52	0x4a	74
53	0x48	72
54	0xe5	-27
55	0x48	72
56	0x10	16
57	0x3e	62
58	0xd8	-40
59	0x58	88
60	0x2c	44
61	0x23	35
62	0x35	53
63	0xc3	-61
64	0xa9	-87
65	0x2f	47
66	0xc3	-61
67	0xea	-22
68	0x1a	26
69	0x6a	106
70	0x9f	-97
71	0xd0	-48
72	0x1c	28
73	0xbf	-65
74	0xf6	-10
75	0xfd	-3
76	0xe2	-30
77	0xf4	-12
78	0xb4	-76
79	0x5b	91
80	0x9d	-99
81	0xd4	-44
82	0xd6	-42
83	0xcd	-51
84	0x11	17
85	0xc0	-64
86	0x50	80
87	0xaa	-86
88	0xb9	-71
89	0xac	-84
90	0x37	55
91	0xe3	-29
92	0x5c	92
93	0x1f	31
94	0x56	86
95	0x19	25
96	0xd5	-43
97	0x4e	78
98	0x1b	27
99	0x0c	12
100	0xcc	-52
101	0xd4	-44
102	0x0d	13
103	0xb2	-78
104	0x31	49
105	0xdc	-36
106	0xb2	-78
107	0x04	4
108	0xaf	-81
109	0xe1	-31
110	0x59	89
111	0xd0	-48
112	0xf2	-14
113	0xe0	-32
114	0xbc	-68
115	0xdb	-37
116	0xe9	-23
117	0x60	96
118	0xe7	-25
119	0x19	25
120	0xd2	-46
121	0x45	69
122	0x07	7
123	0x30	48
124	0x0a	10
125	0xfb	-5
126	0x40	64
127	0xa5	-91
128	0x6e	110
129	0x44	68
130	0xf5	-11
131	0x1f	31
132	0x29	41
133	0xb9	-71
134	0x1a	26
135	0xcb	-53
136	0x23	35
137	0x3a	58
138	0x09	9
139	0x0e	14
140	0x12	18
141	0xbc	-68
142	0x22	34
143	0x15	21
144	0xaf	-81
145	0x6c	108
146	0xf5	-11
147	0x4a	74
148	0xe3	-29
149	0x94	-108
150	0xaf	-81
151	0x48	72
152	0xc7	-57
153	0x39	57
154	0x33	51
155	0xe5	-27
156	0xf2	-14
157	0x47	71
158	0xdf	-33
159	0x62	98
160	0xe8	-24
161	0xd3	-45
162	0xa8	-88
163	0x4f	79
164	0x31	49
165	0xf7	-9
166	0xcd	-51
167	0xc7	-57
168	0x16	22
169	0xe6	-26
170	0x4f	79
171	0x38	56
172	0x27	39
173	0x59	89
174	0xa6	-90
175	0xf9	-7
176	0x36	54
177	0x29	41
178	0x35	53
179	0xe7	-25
180	0x08	8
181	0xe5	-27
182	0xe6	-26
183	0x24	36
184	0xe1	-31
185	0x9f	-97
186	0x1e	30
187	0x09	9
188	0x4d	77
189	0xdc	-36
190	0x2f	47
191	0x26	38
192	0x48	72
193	0xdd	-35
194	0x63	99
195	0xc3	-61
196	0xb8	-72
197	0x22	34
198	0xcc	-52
199	0x9b	-101
200	0xd1	-47
201	0xea	-22
202	0xe0	-32
203	0x3c	60
204	0x3f	63
205	0xe0	-32
206	0x5b	91
207	0x08	8
208	0xca	-54
209	0xd7	-41
210	0xfe	-2
211	0xe1	-31
212	0xf2	-14
213	0x39	57
214	0xc4	-60
215	0xfb	-5
216	0x02	2
217	0x11	17
218	0xeb	-21
219	0x43	67
220	0x13	19
221	0xc5	-59
222	0xb6	-74
223	0x43	67
224	0x1d	29
225	0x59	89
226	0xaa	-86
227	0xbf	-65
228	0xcb	-53
229	0x20	32
230	0xc3	-61
231	0xc4	-60
232	0xb5	-75
233	0x22	34
234	0xc8	-56
235	0xbe	-66
236	0x01	1
237	0x03	3
238	0x0c	12
239	0x22	34
240	0xd6	-42
241	0x17	23
242	0x06	6
243	0x4c	76
244	0xad	-83
245	0x63	99
246	0xb0	-80
247	0xd9	-39
248	0x23	35
249	0x4d	77
250	0xf3	-13
251	0x57	87
252	0x1f	31
253	0xf1	-15
254	0x30	48
255	0x18	24

sequential_31/quant_conv2d_159/Conv2D;sequential_31/quant_conv2d_159/LastValueQuant/FakeQuantWithMinMaxVarsPerChannel i1 [64, 2, 2, 64]
0	0xa0	-96
1	0x9f	-97
2	0x3e	62
3	0xe6	-26
4	0x9b	-101
5	0x58	88
6	0x1d	29
7	0xe0	-32
8	0xa1	-95
9	0xfb	-5
10	0xdc	-36
11	0x51	81
12	0xa4	-92
13	0xdc	-36
14	0xd6	-42
15	0xdf	-33
16	0xff	-1
17	0x21	33
18	0x3c	60
19	0x0e	14
20	0x52	82
21	0x2c	44
22	0x4e	78
23	0x50	80
24	0x2c	44
25	0x46	70
26	0x02	2
27	0xc2	-62
28	0xdb	-37
29	0xe5	-27
30	0x4b	75
31	0x4e	78
32	0xfd	-3
33	0xc3	-61
34	0xfa	-6
35	0xfe	-2
36	0xb3	-77
37	0x1e	30
38	0x15	21
39	0x5f	95
40	0xd2	-46
41	0xd1	-47
42	0x63	99
43	0x0c	12
44	0x0f	15
45	0x0b	11
46	0x51	81
47	0x55	85
48	0x79	121
49	0xf1	-15
50	0xf2	-14
51	0xc9	-55
52	0x0b	11
53	0xfc	-4
54	0xef	-17
55	0x4c	76
56	0x27	39
57	0xbd	-67
58	0x5d	93
59	0x39	57
60	0xab	-85
61	0x1f	31
62	0x97	-105
63	0x56	86
64	0x61	97
65	0xfd	-3
66	0xcc	-52
67	0x34	52
68	0xa1	-95
69	0x4d	77
70	0x2d	45
71	0x5c	92
72	0x2e	46
73	0xa3	-93
74	0x28	40
75	0x2f	47
76	0xc4	-60
77	0x8d	-115
78	0x20	32
79	0x5a	90
80	0x62	98
81	0x22	34
82	0x05	5
83	0xa2	-94
84	0xf0	-16
85	0xa3	-93
86	0x2a	42
87	0x69	105
88	0xcc	-52
89	0x2b	43
90	0x38	56
91	0x20	32
92	0x40	64
93	0x95	-107
94	0xc4	-60
95	0xf2	-14
96	0x56	86
97	0x0a	10
98	0xb7	-73
99	0xd0	-48
100	0xe8	-24
101	0xd4	-44
102	0x81	-127
103	0x5e	94
104	0x22	34
105	0xf1	-15
106	0xfb	-5
107	0x5c	92
108	0x22	34
109	0xb2	-78
110	0x45	69
111	0xc2	-62
112	0x17	23
113	0x54	84
114	0x3f	63
115	0xf1	-15
116	0xd3	-45
117	0xd6	-42
118	0xd7	-41
119	0xb9	-71
120	0x11	17
121	0x6f	111
122	0xef	-17
123	0xb1	-79
124	0x9f	-97
125	0x03	3
126	0x1e	30
127	0xd8	-40
128	0x02	2
129	0x07	7
130	0xa9	-87
131	0xfb	-5
132	0xc1	-63
133	0x58	88
134	0x08	8
135	0x1c	28
136	0xde	-34
137	0x24	36
138	0x1f	31
139	0x5c	92
140	0x2b	43
141	0x21	33
142	0xae	-82
143	0x22	34
144	0x21	33
145	0xfd	-3
146	0xe9	-23
147	0x0e	14
148	0xe9	-23
149	0x9b	-101
150	0xad	-83
151	0x13	19
152	0x26	38
153	0x23	35
154	0x4a	74
155	0x0c	12
156	0x2f	47
157	0x06	6
158	0xd5	-43
159	0xb4	-76
160	0x23	35
161	0x09	9
162	0x3a	58
163	0x35	53
164	0x01	1
165	0xb1	-79
166	0x07	7
167	0x39	57
168	0x9e	-98
169	0x62	98
170	0xd9	-39
171	0xed	-19
172	0x01	1
173	0xfa	-6
174	0x2f	47
175	0x44	68
176	0x26	38
177	0x14	20
178	0xbb	-69
179	0x1f	31
180	0xf6	-10
181	0x5d	93
182	0x39	57
183	0xa9	-87
184	0xeb	-21
185	0xf7	-9
186	0xa7	-89
187	0xdb	-37
188	0xd8	-40
189	0xe9	-23
190	0xd7	-41
191	0xc9	-55
192	0x2c	44
193	0xf3	-13
194	0x19	25
195	0x62	98
196	0xf6	-10
197	0xdb	-37
198	0x52	82
199	0xce	-50
200	0xef	-17
201	0xf8	-8
202	0xbd	-67
203	0xd3	-45
204	0xb2	-78
205	0x41	65
206	0x5b	91
207	0x66	102
208	0xfa	-6
209	0xf7	-9
210	0x41	65
211	0x0d	13
212	0xd5	-43
213	0xe8	-24
214	0x3e	62
215	0xed	-19
216	0xba	-70
217	0x5e	94
218	0x23	35
219	0xaf	-81
220	0xd3	-45
221	0xa0	-96
222	0x25	37
223	0x35	53
224	0x45	69
225	0xf8	-8
226	0xf4	-12
227	0xe4	-28
228	0xde	-34
229	0x61	97
230	0x1e	30
231	0xaa	-86
232	0x14	20
233	0xb1	-79
234	0x8e	-114
235	0x61	97
236	0xc7	-57
237	0x13	19
238	0x5c	92
239	0x49	73
240	0x3c	60
241	0x45	69
242	0x40	64
243	0x05	5
244	0xc3	-61
245	0x5d	93
246	0xf3	-13
247	0x96	-106
248	0x36	54
249	0xf6	-10
250	0xad	-83
251	0x49	73
252	0x53	83
253	0x1a	26
254	0x47	71
255	0xad	-83

sequential_31/quant_dense_93/MatMul;sequential_31/quant_dense_93/LastValueQuant/FakeQuantWithMinMaxVars i1 [100, 256] scale=0.0014004522 zero_point=0
0	0xf9	-0.009803166
1	0x61	0.13584387
2	0x1e	0.042013567
3	0x12	0.02520814
4	0x59	0.12464025
5	0x37	0.07702487
6	0xb5	-0.10503392
7	0x43	0.0938303
8	0xc8	-0.078425325
9	0x5b	0.12744115
10	0x55	0.11903844
11	0xab	-0.11903844
12	0xe3	-0.040613115
13	0x5c	0.12884161
14	0xff	-0.0014004522
15	0x30	0.06722171
16	0xc6	-0.08122623
17	0x59	0.12464025
18	0xe2	-0.042013567
19	0xd8	-0.056018088
20	0x50	0.112036176
21	0x31	0.06862216
22	0x1a	0.03641176
23	0x4c	0.10643437
24	0xe2	-0.042013567
25	0xa8	-0.12323979
26	0xfe	-0.0028009044
27	0x36	0.07562442
28	0x4a	0.10363346
29	0x05	0.007002261
30	0xa7	-0.12464025
31	0x22	0.047615375
32	0x9f	-0.13584387
33	0x4f	0.11063573
34	0xde	-0.047615375
35	0x52	0.11483708
36	0xa4	-0.12884161
37	0x75	0.16385292
38	0xe7	-0.035011306
39	0x5f	0.13304296
40	0x0f	0.021006783
41	0xd6	-0.058818992
42	0x14	0.028009044
43	0x49	0.102233015
44	0xf0	-0.022407236
45	0xc2	-0.08682804
46	0x3e	0.08682804
47	0xc3	-0.08542758
48	0xf2	-0.019606331
49	0xfa	-0.008402714
50	0xc4	-0.084027134
51	0xf0	-0.022407236
52	0xda	-0.053217184
53	0x0b	0.015404974
54	0xa1	-0.13304296
55	0x3b	0.08262668
56	0x35	0.074223965
57	0x2d	0.06302035
58	0x4c	0.10643437
59	0x63	0.13864477
60	0x24	0.05041628
61	0x54	0.117637984
62	0x4c	0.10643437
63	0x34	0.07282352
64	0x18	0.033610854
65	0xcc	-0.07282352
66	0xf5	-0.015404974
67	0x27	0.054617636
68	0x4d	0.10783482
69	0x44	0.09523075
70	0xb0	-0.112036176
71	0x5c	0.12884161
72	0xcd	-0.07142306
73	0x3a	0.08122623
74	0xeb	-0.029409496
75	0x58	0.12323979
76	0x3c	0.084027134
77	0x48	0.10083256
78	0xcf	-0.06862216
79	0x2c	0.061619896
80	0x4d	0.10783482
81	0x17	0.032210402
82	0x29	0.05741854
83	0xd2	-0.064420804
84	0xee	-0.02520814
85	0x3a	0.08122623
86	0x28	0.056018088
87	0x15	0.029409496
88	0x32	0.07002261
89	0xa7	-0.12464025
90	0x1e	0.042013567
91	0x0a	0.014004522
92	0xd1	-0.06582125
93	0x34	0.07282352
94	0xd8	-0.056018088
95	0xfd	-0.004201357
96	0xd9	-0.054617636
97	0x1d	0.040613115
98	0x0d	0.01820588
99	0xe3	-0.040613115
100	0x19	0.035011306
101	0x49	0.102233015
102	0xaa	-0.12043889
103	0x5a	0.1260407
104	0x10	0.022407236
105	0xe1	-0.04341402
106	0x31	0.06862216
107	0x57	0.121839345
108	0x2d	0.06302035
109	0x03	0.004201357
110	0x3c	0.084027134
111	0x11	0.023807688
112	0x3a	0.08122623
113	0x0c	0.016805427
114	0xb8	-0.10083256
115	0x1b	0.03781221
116	0xb6	-0.10363346
117	0x2a	0.058818992
118	0x32	0.07002261
119	0x31	0.06862216
120	0x28	0.056018088
121	0x40	0.08962894
122	0x01	0.0014004522
123	0x3a	0.08122623
124	0x0d	0.01820588
125	0xdb	-0.05181673
126	0x4c	0.10643437
127	0xe6	-0.03641176
128	0xd0	-0.06722171
129	0xca	-0.07562442
130	0xdd	-0.049015827
131	0x2b	0.060219444
132	0x50	0.112036176
133	0xca	-0.07562442
134	0xec	-0.028009044
135	0xb4	-0.10643437
136	0x7b	0.17225562
137	0x12	0.02520814
138	0xbe	-0.09242985
139	0x52	0.11483708
140	0x10	0.022407236
141	0x13	0.026608592
142	0xe7	-0.035011306
143	0xb3	-0.10783482
144	0x03	0.004201357
145	0x1d	0.040613115
146	0xd3	-0.06302035
147	0xea	-0.030809948
148	0xd0	-0.06722171
149	0x63	0.13864477
150	0xbd	-0.0938303
151	0xe9	-0.032210402
152	0x08	0.011203618
153	0xc6	-0.08122623
154	0xb2	-0.10923527
155	0x52	0.11483708
156	0xc3	-0.08542758
157	0xe6	-0.03641176
158	0xa7	-0.12464025
159	0xc8	-0.078425325
160	0xd6	-0.058818992
161	0xf5	-0.015404974
162	0xbd	-0.0938303
163	0x6f	0.1554502
164	0xfd	-0.004201357
165	0x2a	0.058818992
166	0xdd	-0.049015827
167	0x5c	0.12884161
168	0x0d	0.01820588
169	0x07	0.009803166
170	0x34	0.07282352
171	0x22	0.047615375
172	0x13	0.026608592
173	0xc9	-0.07702487
174	0x20	0.04481447
175	0xac	-0.117637984
176	0x2a	0.058818992
177	0xb2	-0.10923527
178	0xb0	-0.112036176
179	0x4f	0.11063573
180	0xd9	-0.054617636
181	0x3b	0.08262668
182	0xb5	-0.10503392
183	0xc5	-0.08262668
184	0xd8	-0.056018088
185	0xb0	-0.112036176
186	0x3b	0.08262668
187	0x50	0.112036176
188	0x20	0.04481447
189	0x29	0.05741854
190	0x05	0.007002261
191	0x36	0.07562442
192	0x51	0.11343663
193	0xa5	-0.12744115
194	0xc0	-0.08962894
195	0xe3	-0.040613115
196	0x5a	0.1260407
197	0xa9	-0.121839345
198	0x47	0.09943211
199	0x2a	0.058818992
200	0x08	0.011203618
201	0xf0	-0.022407236
202	0x46	0.098031655
203	0xd3	-0.06302035
204	0x21	0.046214923
205	0xda	-0.053217184
206	0xf5	-0.015404974
207	0xc8	-0.078425325
208	0x17	0.032210402
209	0x4d	0.10783482
210	0xcd	-0.07142306
211	0xc3	-0.08542758
212	0xc2	-0.08682804
213	0x41	0.0910294
214	0xf4	-0.016805427
215	0x12	0.02520814
216	0x2b	0.060219444
217	0xf0	-0.022407236
218	0x3c	0.084027134
219	0x0c	0.016805427
220	0x31	0.06862216
221	0x48	0.10083256
222	0xd1	-0.06582125
223	0x2e	0.064420804
224	0xaf	-0.11343663
225	0x04	0.005601809
226	0x33	0.07142306
227	0x43	0.0938303
228	0xde	-0.047615375
229	0x03	0.004201357
230	0x2e	0.064420804
231	0x03	0.004201357
232	0xcf	-0.06862216
233	0x56	0.12043889
234	0x21	0.046214923
235	0x04	0.005601809
236	0xed	-0.026608592
237	0xe9	-0.032210402
238	0xf2	-0.019606331
239	0x50	0.112036176
240	0xb6	-0.10363346
241	0x4f	0.11063573
242	0xf5	-0.015404974
243	0x21	0.046214923
244	0x0b	0.015404974
245	0x73	0.161052
246	0xde	-0.047615375
247	0x0c	0.016805427
248	0x12	0.02520814
249	0xe1	-0.04341402
250	0x33	0.07142306
251	0x05	0.007002261
252	0xd2	-0.064420804
253	0x42	0.09242985
254	0x4c	0.10643437
255	0x02	0.0028009044

sequential_31/quant_dense_94/MatMul;sequential_31/quant_dense_94/LastValueQuant/FakeQuantWithMinMaxVars i1 [50, 100] scale=0.0019189685 zero_point=0
0	0xed	-0.036460403
1	0xee	-0.03454143
2	0xba	-0.1343278
3	0xc3	-0.11705708
4	0xc3	-0.11705708
5	0x3f	0.12089501
6	0xc5	-0.11321914
7	0xc7	-0.10938121
8	0xe8	-0.046055242
9	0x31	0.09402946
10	0xb7	-0.1400847
11	0x2b	0.08251565
12	0xa4	-0.1765451
13	0xba	-0.1343278
14	0x27	0.07483977
15	0xae	-0.15735541
16	0x21	0.063325964
17	0x9e	-0.18805891
18	0x9c	-0.19189686
19	0xf0	-0.030703496
20	0xb2	-0.14967954
21	0x5a	0.17270717
22	0xbb	-0.13240883
23	0x09	0.017270716
24	0x30	0.092110485
25	0x5b	0.17462614
26	0x0d	0.02494659
27	0x54	0.16119336
28	0xa4	-0.1765451
29	0xad	-0.15927438
30	0x01	0.0019189685
31	0x0e	0.026865559
32	0x11	0.032622464
33	0xd5	-0.08251565
34	0xbe	-0.12665193
35	0xc2	-0.11897605
36	0xe8	-0.046055242
37	0xbe	-0.12665193
38	0x49	0.1400847
39	0xbd	-0.12857088
40	0xf4	-0.023027621
41	0xe9	-0.044136275
42	0xe2	-0.057569057
43	0x39	0.10938121
44	0x2e	0.08827255
45	0xdd	-0.0671639
46	0x07	0.013432779
47	0x1d	0.055650085
48	0xb1	-0.15159851
49	0xad	-0.15927438
50	0x53	0.15927438
51	0x24	0.06908286
52	0xe0	-0.061406992
53	0xed	-0.036460403
54	0x39	0.10938121
55	0xfa	-0.011513811
56	0xa1	-0.18230201
57	0x96	-0.20341066
58	0x0a	0.019189686
59	0xab	-0.16311233
60	0x07	0.013432779
61	0xe9	-0.044136275
62	0x5c	0.1765451
63	0xc1	-0.12089501
64	0xdc	-0.06908286
65	0x35	0.10170533
66	0xde	-0.06524493
67	0xdc	-0.06908286
68	0xa3	-0.17846407
69	0xe8	-0.046055242
70	0xb6	-0.14200367
71	0x90	-0.21492447
72	0x00	0.0
73	0xc2	-0.11897605
74	0x5d	0.17846407
75	0xc5	-0.11321914
76	0xc8	-0.107462235
77	0x2d	0.086353585
78	0x3b	0.11321914
79	0x3c	0.11513811
80	0x32	0.09594843
81	0x53	0.15927438
82	0xf4	-0.023027621
83	0xae	-0.15735541
84	0x29	0.07867771
85	0x29	0.07867771
86	0xa7	-0.1707882
87	0x3d	0.11705708
88	0x1c	0.053731117
89	0xc3	-0.11705708
90	0xb7	-0.1400847
91	0xef	-0.032622464
92	0xc0	-0.122813985
93	0x44	0.13048986
94	0xdf	-0.063325964
95	0xd2	-0.08827255
96	0xe3	-0.055650085
97	0xf9	-0.013432779
98	0xfc	-0.007675874
99	0x27	0.07483977
100	0xda	-0.07292081
101	0x64	0.19189686
102	0x3b	0.11321914
103	0xcc	-0.09978636
104	0x4e	0.14967954
105	0x3b	0.11321914
106	0x12	0.03454143
107	0x35	0.10170533
108	0x05	0.009594843
109	0x0c	0.023027621
110	0xb4	-0.14584161
111	0x56	0.1650313
112	0x16	0.042217307
113	0xd5	-0.08251565
114	0xce	-0.09594843
115	0xd0	-0.092110485
116	0x62	0.18805891
117	0x5c	0.1765451
118	0xf7	-0.017270716
119	0xf6	-0.019189686
120	0x35	0.10170533
121	0xb0	-0.15351748
122	0x40	0.122813985
123	0x9f	-0.18613994
124	0x46	0.1343278
125	0x4a	0.14200367
126	0x4e	0.14967954
127	0x3c	0.11513811
128	0x41	0.12473296
129	0x98	-0.19957273
130	0xb9	-0.13624677
131	0xc9	-0.10554327
132	0xf9	-0.013432779
133	0x34	0.09978636
134	0x04	0.007675874
135	0x2e	0.08827255
136	0x09	0.017270716
137	0xa1	-0.18230201
138	0xae	-0.15735541
139	0x99	-0.19765376
140	0x23	0.0671639
141	0x56	0.1650313
142	0xd7	-0.07867771
143	0x43	0.12857088
144	0x66	0.19573478
145	0x44	0.13048986
146	0xd7	-0.07867771
147	0xf0	-0.030703496
148	0xc1	-0.12089501
149	0xc2	-0.11897605
150	0xe3	-0.055650085
151	0x16	0.042217307
152	0xfc	-0.007675874
153	0xb7	-0.1400847
154	0x40	0.122813985
155	0x34	0.09978636
156	0x34	0.09978636
157	0xb5	-0.14392264
158	0xb5	-0.14392264
159	0x09	0.017270716
160	0xbd	-0.12857088
161	0x2b	0.08251565
162	0x60	0.18422097
163	0xb7	-0.1400847
164	0x61	0.18613994
165	0xa0	-0.18422097
166	0xa2	-0.18038304
167	0xf1	-0.028784528
168	0xde	-0.06524493
169	0xf6	-0.019189686
170	0x23	0.0671639
171	0x22	0.06524493
172	0x2f	0.09019152
173	0x34	0.09978636
174	0x18	0.046055242
175	0x1a	0.04989318
176	0x07	0.013432779
177	0x18	0.046055242
178	0xe8	-0.046055242
179	0xc5	-0.11321914
180	0xe5	-0.05181215
181	0xb7	-0.1400847
182	0x32	0.09594843
183	0x18	0.046055242
184	0xa4	-0.1765451
185	0x34	0.09978636
186	0xa2	-0.18038304
187	0x52	0.15735541
188	0x2e	0.08827255
189	0xc9	-0.10554327
190	0xb7	-0.1400847
191	0x23	0.0671639
192	0x22	0.06524493
193	0x0a	0.019189686
194	0x0b	0.021108653
195	0xb1	-0.15159851
196	0x0a	0.019189686
197	0xac	-0.16119336
198	0xe6	-0.04989318
199	0x1f	0.059488025
200	0x1f	0.059488025
201	0xee	-0.03454143
202	0x52	0.15735541
203	0xf9	-0.013432779
204	0xe4	-0.053731117
205	0x2b	0.08251565
206	0xb6	-0.14200367
207	0x48	0.13816573
208	0xb0	-0.15351748
209	0x17	0.044136275
210	0xb4	-0.14584161
211	0x09	0.017270716
212	0xdd	-0.0671639
213	0xf5	-0.021108653
214	0xe2	-0.057569057
215	0x28	0.07675874
216	0xab	-0.16311233
217	0x35	0.10170533
218	0x5f	0.18230201
219	0xeb	-0.04029834
220	0x03	0.0057569053
221	0xbb	-0.13240883
222	0xc6	-0.11130017
223	0x2e	0.08827255
224	0xbc	-0.13048986
225	0x2c	0.08443461
226	0xa5	-0.17462614
227	0xfe	-0.003837937
228	0xf5	-0.021108653
229	0xfc	-0.007675874
230	0xab	-0.16311233
231	0x5b	0.17462614
232	0x4a	0.14200367
233	0xa2	-0.18038304
234	0x4d	0.14776057
235	0x08	0.015351748
236	0x5c	0.1765451
237	0x57	0.16695026
238	0xaa	-0.1650313
239	0xa5	-0.17462614
240	0x0a	0.019189686
241	0x4d	0.14776057
242	0x9e	-0.18805891
243	0x37	0.10554327
244	0xc4	-0.11513811
245	0x05	0.009594843
246	0x3a	0.11130017
247	0x3b	0.11321914
248	0x14	0.03837937
249	0x01	0.0019189685
250	0x30	0.092110485
251	0xab	-0.16311233
252	0xdf	-0.063325964
253	0xf7	-0.017270716
254	0x28	0.07675874
255	0x24	0.06908286

sequential_31/quant_dense_95/MatMul;sequential_31/quant_dense_95/LastValueQuant/FakeQuantWithMinMaxVars i1 [10, 50] scale=0.0032792652 zero_point=0
0	0xf7	-0.029513387
1	0x19	0.08198163
2	0xeb	-0.06886457
3	0xb0	-0.26234123
4	0xa8	-0.28857535
5	0xeb	-0.06886457
6	0x1f	0.10165722
7	0x43	0.21971077
8	0x31	0.160684
9	0xc5	-0.19347665
10	0x09	0.029513387
11	0x23	0.11477429
12	0xd8	-0.13117062
13	0x44	0.22299004
14	0xaf	-0.2656205
15	0x60	0.31480947
16	0xaf	-0.2656205
17	0x0b	0.03607192
18	0xe4	-0.09181943
19	0xd9	-0.12789135
20	0xca	-0.17708032
21	0xd3	-0.14756693
22	0xec	-0.06558531
23	0x5f	0.3115302
24	0x39	0.18691812
25	0x56	0.2820168
26	0xf9	-0.022954857
27	0x09	0.029513387
28	0x0b	0.03607192
29	0x34	0.1705218
30	0x47	0.23282783
31	0xf7	-0.029513387
32	0x2a	0.13772914
33	0x46	0.22954857
34	0x20	0.10493649
35	0xdc	-0.11805355
36	0xc5	-0.19347665
37	0x05	0.016396327
38	0xa2	-0.30825093
39	0xa7	-0.29185462
40	0xcd	-0.16724253
41	0x12	0.059026774
42	0xd3	-0.14756693
43	0xcc	-0.1705218
44	0xe5	-0.08854016
45	0x08	0.026234122
46	0xe0	-0.10493649
47	0x40	0.20987298
48	0xd3	-0.14756693
49	0xdb	-0.12133282
50	0x0d	0.04263045
51	0x09	0.029513387
52	0xb0	-0.26234123
53	0x17	0.0754231
54	0xe4	-0.09181943
55	0xc5	-0.19347665
56	0xe0	-0.10493649
57	0x53	0.272179
58	0x50	0.26234123
59	0xb8	-0.2361071
60	0x1d	0.09509869
61	0xa7	-0.29185462
62	0xc8	-0.18363886
63	0xb8	-0.2361071
64	0x4f	0.25906196
65	0xbb	-0.2262693
66	0x06	0.019675592
67	0x1b	0.08854016
68	0x49	0.23938636
69	0x13	0.06230604
70	0x38	0.18363886
71	0xed	-0.06230604
72	0x56	0.2820168
73	0x3d	0.20003518
74	0x32	0.16396326
75	0xa9	-0.28529608
76	0x2b	0.1410084
77	0x0a	0.032792654
78	0x55	0.27873755
79	0xe2	-0.09837796
80	0x3f	0.2065937
81	0xf3	-0.04263045
82	0x0a	0.032792654
83	0x15	0.06886457
84	0x4a	0.24266563
85	0xcd	-0.16724253
86	0x0e	0.045909714
87	0xb6	-0.24266563
88	0xfa	-0.019675592
89	0x3f	0.2065937
90	0xf7	-0.029513387
91	0xfc	-0.013117061
92	0xe2	-0.09837796
93	0x33	0.16724253
94	0x1a	0.0852609
95	0x31	0.160684
96	0xc8	-0.18363886
97	0xd2	-0.1508462
98	0x48	0.2361071
99	0x42	0.21643151
100	0x2f	0.15412547
101	0x21	0.10821576
102	0xa9	-0.28529608
103	0xbe	-0.21643151
104	0x17	0.0754231
105	0xb5	-0.24594489
106	0xcc	-0.1705218
107	0x20	0.10493649
108	0x0f	0.04918898
109	0xce	-0.16396326
110	0xf3	-0.04263045
111	0x0d	0.04263045
112	0x21	0.10821576
113	0xfc	-0.013117061
114	0x11	0.05574751
115	0xcb	-0.17380106
116	0xae	-0.26889974
117	0xec	-0.06558531
118	0x31	0.160684
119	0xb5	-0.24594489
120	0x29	0.13444987
121	0x59	0.29185462
122	0xbf	-0.21315224
123	0xfc	-0.013117061
124	0xef	-0.05574751
125	0xee	-0.059026774
126	0xa8	-0.28857535
127	0xe9	-0.0754231
128	0xd5	-0.1410084
129	0x47	0.23282783
130	0x0d	0.04263045
131	0xc4	-0.19675592
132	0x2f	0.15412547
133	0xe7	-0.08198163
134	0x64	0.32792652
135	0x4a	0.24266563
136	0xc6	-0.19019738
137	0xad	-0.272179
138	0x27	0.12789135
139	0x0a	0.032792654
140	0x43	0.21971077
141	0x43	0.21971077
142	0x2f	0.15412547
143	0xcb	-0.17380106
144	0x01	0.0032792652
145	0xea	-0.07214384
146	0x2f	0.15412547
147	0xf3	-0.04263045
148	0xdc	-0.11805355
149	0x13	0.06230604
150	0xe5	-0.08854016
151	0x44	0.22299004
152	0x32	0.16396326
153	0x49	0.23938636
154	0xbf	-0.21315224
155	0xff	-0.0032792652
156	0x47	0.23282783
157	0x11	0.05574751
158	0x01	0.0032792652
159	0x01	0.0032792652
160	0xd6	-0.13772914
161	0x0b	0.03607192
162	0xc1	-0.2065937
163	0xf4	-0.039351184
164	0x0a	0.032792654
165	0xa8	-0.28857535
166	0xbf	-0.21315224
167	0x3a	0.19019738
168	0xe6	-0.0852609
169	0x28	0.13117062
170	0xa9	-0.28529608
171	0x3f	0.2065937
172	0xe7	-0.08198163
173	0xcd	-0.16724253
174	0x14	0.06558531
175	0xd8	-0.13117062
176	0x57	0.28529608
177	0x0f	0.04918898
178	0x50	0.26234123
179	0xf0	-0.052468244
180	0xfe	-0.0065585305
181	0xe3	-0.09509869
182	0xe4	-0.09181943
183	0x21	0.10821576
184	0xba	-0.22954857
185	0xb6	-0.24266563
186	0xf4	-0.039351184
187	0x23	0.11477429
188	0x50	0.26234123
189	0x37	0.18035959
190	0x56	0.2820168
191	0x13	0.06230604
192	0x49	0.23938636
193	0xe0	-0.10493649
194	0xca	-0.17708032
195	0x0f	0.04918898
196	0x2b	0.1410084
197	0x3e	0.20331444
198	0x36	0.17708032
199	0x41	0.21315224
200	0xb2	-0.2557827
201	0xa3	-0.30497167
202	0x4d	0.25250342
203	0x39	0.18691812
204	0xa5	-0.29841313
205	0xc1	-0.2065937
206	0xd0	-0.15740474
207	0xf5	-0.03607192
208	0x1c	0.09181943
209	0x32	0.16396326
210	0x21	0.10821576
211	0xe8	-0.07870237
212	0x4e	0.2557827
213	0x59	0.29185462
214	0x51	0.2656205
215	0x5c	0.3016924
216	0x39	0.18691812
217	0x40	0.20987298
218	0x18	0.07870237
219	0xfa	-0.019675592
220	0x04	0.013117061
221	0x05	0.016396327
222	0xc7	-0.18691812
223	0x20	0.10493649
224	0x56	0.2820168
225	0xdb	-0.12133282
226	0xa7	-0.29185462
227	0xfd	-0.009837796
228	0x60	0.31480947
229	0x13	0.06230604
230	0xfc	-0.013117061
231	0x26	0.12461208
232	0x56	0.2820168
233	0x3c	0.19675592
234	0xd1	-0.15412547
235	0x67	0.33776432
236	0x2f	0.15412547
237	0xa2	-0.30825093
238	0xac	-0.27545828
239	0x56	0.2820168
240	0x1b	0.08854016
241	0xb9	-0.23282783
242	0x42	0.21643151
243	0xfb	-0.016396327
244	0x05	0.016396327
245	0xc9	-0.18035959
246	0xc8	-0.18363886
247	0x31	0.160684
248	0x4e	0.2557827
249	0xaa	-0.2820168
250	0x3f	0.2065937
251	0x02	0.0065585305
252	0xec	-0.06558531
253	0x2e	0.1508462
254	0xec	-0.06558531
255	0xd1	-0.15412547

sequential_31/quant_output/MatMul;sequential_31/quant_output/LastValueQuant/FakeQuantWithMinMaxVars i1 [1, 10] scale=0.00515144 zero_point=0
0	0x4a	0.38120654
1	0x7f	0.65423286
2	0x21	0.16999751
3	0x90	-0.5769613
4	0x1a	0.13393743
5	0x22	0.17514896
6	0xd4	-0.22666335
7	0x64	0.515144
8	0xdd	-0.1803004
9	0x21	0.16999751
