models/opt-k2-160x120x3-T1.tflite (tflite, 816488 bytes, 9 tensors)

sequential_10/quant_conv2d_35/Conv2D;sequential_10/quant_conv2d_35/LastValueQuant/FakeQuantWithMinMaxVarsPerChannel i1 [24, 5, 5, 3]
0	0x58	88
1	0xc1	-63
2	0x65	101
3	0x24	36
4	0x4a	74
5	0x9d	-99
6	0x05	5
7	0x0b	11
8	0xb3	-77
9	0xf2	-14
10	0xde	-34
11	0x13	19
12	0xf5	-11
13	0xa9	-87
14	0x45	69
15	0xdf	-33
16	0xbf	-65
17	0x57	87
18	0x98	-104
19	0x00	0
20	0xe7	-25
21	0xff	-1
22	0x86	-122
23	0x6a	106
24	0xb4	-76
25	0x1d	29
26	0xb0	-80
27	0xa0	-96
28	0x25	37
29	0xe0	-32
30	0x4b	75
31	0x7f	127
32	0x24	36
33	0xce	-50
34	0x78	120
35	0xa3	-93
36	0x67	103
37	0x22	34
38	0xb8	-72
39	0x12	18
40	0x67	103
41	0x52	82
42	0xab	-85
43	0xae	-82
44	0xba	-70
45	0xe9	-23
46	0xb2	-78
47	0x00	0
48	0x29	41
49	0xf3	-13
50	0xbd	-67
51	0x6e	110
52	0x09	9
53	0x3a	58
54	0x58	88
55	0x20	32
56	0xb8	-72
57	0x44	68
58	0x10	16
59	0xbd	-67
60	0x85	-123
61	0xe1	-31
62	0x2d	45
63	0x04	4
64	0x34	52
65	0xed	-19
66	0xeb	-21
67	0x9b	-101
68	0xfe	-2
69	0x47	71
70	0x4a	74
71	0x2c	44
72	0xef	-17
73	0x00	0
74	0x29	41
75	0x4d	77
76	0x5b	91
77	0x63	99
78	0x4c	76
79	0xc5	-59
80	0x4e	78
81	0xfc	-4
82	0x65	101
83	0x99	-103
84	0x20	32
85	0x54	84
86	0x02	2
87	0xc3	-61
88	0xc0	-64
89	0x6b	107
90	0x7f	127
91	0x05	5
92	0x1d	29
93	0x59	89
94	0x01	1
95	0xfd	-3
96	0xf6	-10
97	0x22	34
98	0x62	98
99	0x26	38
100	0xb7	-73
101	0x3d	61
102	0x3e	62
103	0xfc	-4
104	0xfb	-5
105	0xee	-18
106	0xc9	-55
107	0xd7	-41
108	0x07	7
109	0x46	70
110	0x17	23
111	0x02	2
112	0xde	-34
113	0xcc	-52
114	0x13	19
115	0xc0	-64
116	0x04	4
117	0x67	103
118	0x9e	-98
119	0x69	105
120	0xe4	-28
121	0xc1	-63
122	0x01	1
123	0x30	48
124	0x06	6
125	0x00	0
126	0x9c	-100
127	0x97	-105
128	0x92	-110
129	0xa9	-87
130	0x11	17
131	0x33	51
132	0x1b	27
133	0xc3	-61
134	0x53	83
135	0xae	-82
136	0xf3	-13
137	0x06	6
138	0xab	-85
139	0x5a	90
140	0xe2	-30
141	0x8d	-115
142	0xb2	-78
143	0xb2	-78
144	0xae	-82
145	0xb0	-80
146	0xd6	-42
147	0x33	51
148	0x36	54
149	0x4d	77
150	0x18	24
151	0x96	-106
152	0x22	34
153	0x1a	26
154	0x2f	47
155	0x9d	-99
156	0xd3	-45
157	0xd6	-42
158	0x40	64
159	0x00	0
160	0x40	64
161	0x36	54
162	0x92	-110
163	0x86	-122
164	0x81	-127
165	0xda	-38
166	0x90	-112
167	0xb4	-76
168	0x32	50
169	0xfc	-4
170	0x50	80
171	0x32	50
172	0x66	102
173	0xa1	-95
174	0x87	-121
175	0x44	68
176	0x2d	45
177	0x29	41
178	0x57	87
179	0x4a	74
180	0x49	73
181	0xbe	-66
182	0xc8	-56
183	0xd8	-40
184	0x9c	-100
185	0x58	88
186	0x0f	15
187	0x0b	11
188	0x3b	59
189	0x95	-107
190	0xd8	-40
191	0xec	-20
192	0xb3	-77
193	0x27	39
194	0x24	36
195	0x02	2
196	0x38	56
197	0xa2	-94
198	0x6d	109
199	0x50	80
200	0x56	86
201	0x2d	45
202	0xfd	-3
203	0x6f	111
204	0x4d	77
205	0x64	100
206	0x7e	126
207	0x85	-123
208	0x36	54
209	0x7d	125
210	0x11	17
211	0x25	37
212	0xc3	-61
213	0x1d	29
214	0x28	40
215	0xfb	-5
216	0xd4	-44
217	0x67	103
218	0xe3	-29
219	0xcf	-49
220	0x13	19
221	0x60	96
222	0x1d	29
223	0x8f	-113
224	0x54	84
225	0xc7	-57
226	0x40	64
227	0xd3	-45
228	0xf9	-7
229	0xf7	-9
230	0x10	16
231	0xf6	-10
232	0xb0	-80
233	0xc5	-59
234	0xe2	-30
235	0x9b	-101
236	0x0d	13
237	0xf4	-12
238	0x06	6
239	0x17	23
240	0xe8	-24
241	0xc4	-60
242	0x04	4
243	0xc7	-57
244	0x81	-127
245	0xae	-82
246	0x5b	91
247	0x44	68
248	0x2b	43
249	0x38	56
250	0xc2	-62
251	0xb7	-73
252	0x68	104
253	0xa8	-88
254	0x0e	14
255	0x3c	60

sequential_10/quant_conv2d_36/Conv2D;sequential_10/quant_conv2d_36/LastValueQuant/FakeQuantWithMinMaxVarsPerChannel i1 [36, 5, 5, 24]
0	0xd5	-43
1	0x64	100
2	0x1a	26
3	0xca	-54
4	0x9d	-99
5	0xc3	-61
6	0x1b	27
7	0x30	48
8	0x45	69
9	0xf5	-11
10	0x55	85
11	0x1a	26
12	0x0a	10
13	0xcd	-51
14	0x42	66
15	0xb1	-79
16	0x19	25
17	0x9f	-97
18	0x2e	46
19	0x47	71
20	0x4a	74
21	0x0b	11
22	0xf2	-14
23	0x15	21
24	0xed	-19
25	0xa0	-96
26	0xca	-54
27	0x2f	47
28	0xcb	-53
29	0x09	9
30	0x06	6
31	0x37	55
32	0xe6	-26
33	0xdb	-37
34	0x12	18
35	0xbe	-66
36	0x28	40
37	0xf4	-12
38	0xdc	-36
39	0xcb	-53
40	0x1d	29
41	0x25	37
42	0xdc	-36
43	0x26	38
44	0x13	19
45	0x02	2
46	0x45	69
47	0x06	6
48	0xfb	-5
49	0xbe	-66
50	0xae	-82
51	0xd1	-47
52	0x3d	61
53	0xb2	-78
54	0xc1	-63
55	0x13	19
56	0xb9	-71
57	0x35	53
58	0x0c	12
59	0x04	4
60	0x1c	28
61	0xf1	-15
62	0x26	38
63	0x96	-106
64	0x4b	75
65	0x1a	26
66	0xa1	-95
67	0xef	-17
68	0x0c	12
69	0x03	3
70	0x26	38
71	0xaf	-81
72	0x05	5
73	0x07	7
74	0x44	68
75	0xaf	-81
76	0xd8	-40
77	0xa5	-91
78	0x19	25
79	0x3f	63
80	0xd4	-44
81	0x1d	29
82	0xe5	-27
83	0x13	19
84	0xd8	-40
85	0xe3	-29
86	0x11	17
87	0x46	70
88	0x34	52
89	0x46	70
90	0x06	6
91	0x49	73
92	0xf0	-16
93	0xea	-22
94	0xe5	-27
95	0xb1	-79
96	0x3f	63
97	0xe1	-31
98	0x50	80
99	0xa6	-90
100	0xc2	-62
101	0x8b	-117
102	0xe0	-32
103	0xa6	-90
104	0x38	56
105	0x64	100
106	0x9c	-100
107	0x2f	47
108	0x52	82
109	0x37	55
110	0xca	-54
111	0x4d	77
112	0xe5	-27
113	0xf2	-14
114	0xe8	-24
115	0x62	98
116	0xf4	-12
117	0xb0	-80
118	0x61	97
119	0xf6	-10
120	0xa4	-92
121	0x16	22
122	0xdf	-33
123	0x01	1
124	0x42	66
125	0xcd	-51
126	0xb8	-72
127	0x13	19
128	0xa8	-88
129	0x05	5
130	0xaf	-81
131	0x2d	45
132	0xe8	-24
133	0xdd	-35
134	0xf8	-8
135	0x1f	31
136	0xc6	-58
137	0x2c	44
138	0x15	21
139	0xc9	-55
140	0x8b	-117
141	0x4c	76
142	0xe5	-27
143	0x1b	27
144	0x12	18
145	0xd0	-48
146	0x51	81
147	0x55	85
148	0xdb	-37
149	0xbb	-69
150	0xaa	-86
151	0xa1	-95
152	0xb4	-76
153	0xe5	-27
154	0x3b	59
155	0xd7	-41
156	0xc4	-60
157	0x25	37
158	0x48	72
159	0xd7	-41
160	0x08	8
161	0x35	53
162	0xb2	-78
163	0x23	35
164	0xc1	-63
165	0xcb	-53
166	0xda	-38
167	0xb4	-76
168	0xbe	-66
169	0x33	51
170	0x1c	28
171	0x10	16
172	0xad	-83
173	0xb2	-78
174	0x48	72
175	0x37	55
176	0x1a	26
177	0x61	97
178	0x27	39
179	0x03	3
180	0xcc	-52
181	0x11	17
182	0x50	80
183	0xb1	-79
184	0x59	89
185	0x39	57
186	0x59	89
187	0xf5	-11
188	0x2b	43
189	0xf5	-11
190	0xd9	-39
191	0xdd	-35
192	0x21	33
193	0xda	-38
194	0x05	5
195	0xc0	-64
196	0x40	64
197	0x4a	74
198	0xe7	-25
199	0x90	-112
200	0x21	33
201	0x50	80
202	0xad	-83
203	0x5c	92
204	0x2f	47
205	0xfc	-4
206	0xb1	-79
207	0xc2	-62
208	0x28	40
209	0x29	41
210	0x85	-123
211	0x66	102
212	0x8a	-118
213	0xc4	-60
214	0x5b	91
215	0x3e	62
216	0xb4	-76
217	0x21	33
218	0x49	73
219	0xc8	-56
220	0xa5	-91
221	0xab	-85
222	0xc0	-64
223	0x2f	47
224	0xc1	-63
225	0x10	16
226	0x3c	60
227	0x6c	108
228	0xa3	-93
229	0x66	102
230	0xe9	-23
231	0x4c	76
232	0x2f	47
233	0x11	17
234	0xaf	-81
235	0x58	88
236	0xa9	-87
237	0xcf	-49
238	0x56	86
239	0xd0	-48
240	0x67	103
241	0xe7	-25
242	0x0c	12
243	0x0a	10
244	0xbe	-66
245	0xe5	-27
246	0xde	-34
247	0x21	33
248	0x05	5
249	0x0e	14
250	0xc7	-57
251	0x01	1
252	0x00	0
253	0x29	41
254	0x25	37
255	0xb9	-71

sequential_10/quant_conv2d_37/Conv2D;sequential_10/quant_conv2d_37/LastValueQuant/FakeQuantWithMinMaxVarsPerChannel i1 [48, 5, 5, 36]
0	0xe5	-27
1	0xde	-34
2	0x3b	59
3	0xd5	-43
4	0x19	25
5	0xcb	-53
6	0x19	25
7	0xe3	-29
8	0x45	69
9	0xcd	-51
10	0x37	55
11	0x0c	12
12	0x02	2
13	0x0d	13
14	0xd8	-40
15	0x46	70
16	0x28	40
17	0x02	2
18	0xe0	-32
19	0xcd	-51
20	0x0d	13
21	0xe1	-31
22	0x09	9
23	0x09	9
24	0x00	0
25	0xfd	-3
26	0xea	-22
27	0xdc	-36
28	0xbd	-67
29	0x02	2
30	0xe8	-24
31	0x0d	13
32	0xcd	-51
33	0x55	85
34	0x25	37
35	0x00	0
36	0xf8	-8
37	0x0a	10
38	0x30	48
39	0xc6	-58
40	0x3f	63
41	0xc9	-55
42	0xd9	-39
43	0x00	0
44	0x22	34
45	0x2e	46
46	0xef	-17
47	0xe6	-26
48	0x2d	45
49	0xf8	-8
50	0xd0	-48
51	0xef	-17
52	0xc9	-55
53	0xbd	-67
54	0x06	6
55	0xde	-34
56	0x0d	13
57	0x19	25
58	0xcc	-52
59	0xf3	-13
60	0x18	24
61	0x38	56
62	0x04	4
63	0x39	57
64	0xef	-17
65	0xb9	-71
66	0xea	-22
67	0xdc	-36
68	0xd6	-42
69	0x38	56
70	0xdd	-35
71	0x04	4
72	0x1a	26
73	0x2d	45
74	0xfa	-6
75	0xfc	-4
76	0x16	22
77	0x32	50
78	0xff	-1
79	0xd4	-44
80	0xed	-19
81	0x32	50
82	0xe5	-27
83	0x18	24
84	0xd4	-44
85	0x03	3
86	0x3e	62
87	0x3e	62
88	0xdf	-33
89	0x0d	13
90	0x39	57
91	0x01	1
92	0xf7	-9
93	0xec	-20
94	0xf2	-14
95	0x06	6
96	0xf7	-9
97	0x00	0
98	0x2d	45
99	0xce	-50
100	0xfa	-6
101	0xed	-19
102	0x0b	11
103	0x11	17
104	0x1d	29
105	0x12	18
106	0x05	5
107	0xf3	-13
108	0x21	33
109	0xbd	-67
110	0x07	7
111	0xed	-19
112	0x1e	30
113	0xb5	-75
114	0x16	22
115	0xfb	-5
116	0xc1	-63
117	0xce	-50
118	0xf0	-16
119	0xc6	-58
120	0x24	36
121	0x31	49
122	0xe8	-24
123	0x0b	11
124	0x36	54
125	0x12	18
126	0xe5	-27
127	0x14	20
128	0xe4	-28
129	0xc2	-62
130	0x3c	60
131	0xfb	-5
132	0xb2	-78
133	0x3d	61
134	0x19	25
135	0xf9	-7
136	0xb5	-75
137	0x24	36
138	0x1c	28
139	0x07	7
140	0xf6	-10
141	0x7f	127
142	0x1d	29
143	0x15	21
144	0x00	0
145	0x20	32
146	0x47	71
147	0x0b	11
148	0x1d	29
149	0x06	6
150	0xe8	-24
151	0x10	16
152	0xc3	-61
153	0xdd	-35
154	0x0e	14
155	0x2b	43
156	0x25	37
157	0xda	-38
158	0x2a	42
159	0x34	52
160	0x2b	43
161	0xdc	-36
162	0x11	17
163	0xdb	-37
164	0xf7	-9
165	0x10	16
166	0x20	32
167	0xf1	-15
168	0x13	19
169	0x36	54
170	0xc0	-64
171	0x2a	42
172	0x19	25
173	0xe7	-25
174	0xc3	-61
175	0xc6	-58
176	0xd1	-47
177	0x34	52
178	0xe4	-28
179	0xf5	-11
180	0xe0	-32
181	0xd6	-42
182	0xc4	-60
183	0x42	66
184	0x3a	58
185	0x21	33
186	0x09	9
187	0x0f	15
188	0x0e	14
189	0xd7	-41
190	0x07	7
191	0x29	41
192	0x1b	27
193	0xe2	-30
194	0x17	23
195	0x30	48
196	0x30	48
197	0x10	16
198	0xcb	-53
199	0x09	9
200	0x1e	30
201	0xe9	-23
202	0x04	4
203	0xe8	-24
204	0x3d	61
205	0xc0	-64
206	0xd2	-46
207	0xee	-18
208	0xd1	-47
209	0x38	56
210	0xdd	-35
211	0x01	1
212	0x1e	30
213	0xbe	-66
214	0xf5	-11
215	0xd9	-39
216	0xed	-19
217	0xda	-38
218	0x0d	13
219	0x32	50
220	0xcd	-51
221	0x2a	42
222	0xcd	-51
223	0xca	-54
224	0xcb	-53
225	0xee	-18
226	0x1c	28
227	0x14	20
228	0xbc	-68
229	0xd1	-47
230	0xf0	-16
231	0xee	-18
232	0x15	21
233	0x11	17
234	0x1c	28
235	0x4c	76
236	0x42	66
237	0x40	64
238	0x30	48
239	0xfc	-4
240	0xcc	-52
241	0x1f	31
242	0x1b	27
243	0x22	34
244	0x39	57
245	0xd8	-40
246	0xcf	-49
247	0x0c	12
248	0x00	0
249	0x28	40
250	0xd4	-44
251	0xc2	-62
252	0x13	19
253	0xeb	-21
254	0xba	-70
255	0x06	6

sequential_10/quant_conv2d_38/Conv2D;sequential_10/quant_conv2d_38/LastValueQuant/FakeQuantWithMinMaxVarsPerChannel i1 [64, 3, 3, 48]
0	0x21	33
1	0x29	41
2	0x94	-108
3	0x0c	12
4	0x52	82
5	0xa6	-90
6	0x1a	26
7	0x18	24
8	0x9e	-98
9	0xa2	-94
10	0x3e	62
11	0xd8	-40
12	0x10	16
13	0x15	21
14	0xc2	-62
15	0x58	88
16	0xf1	-15
17	0xfe	-2
18	0xa0	-96
19	0x3c	60
20	0xe2	-30
21	0x1f	31
22	0x0a	10
23	0xa8	-88
24	0xbf	-65
25	0x1c	28
26	0x37	55
27	0x36	54
28	0xe3	-29
29	0xa6	-90
30	0x15	21
31	0x2a	42
32	0x18	24
33	0xcc	-52
34	0x1f	31
35	0x11	17
36	0xc7	-57
37	0x47	71
38	0x16	22
39	0x47	71
40	0xfc	-4
41	0x42	66
42	0x01	1
43	0x55	85
44	0x62	98
45	0x1a	26
46	0xfd	-3
47	0x49	73
48	0xfc	-4
49	0x0c	12
50	0xc7	-57
51	0xae	-82
52	0xef	-17
53	0x95	-107
54	0x35	53
55	0x38	56
56	0x3f	63
57	0xed	-19
58	0x4f	79
59	0xdb	-37
60	0x5d	93
61	0xf5	-11
62	0xab	-85
63	0x94	-108
64	0x37	55
65	0xdd	-35
66	0xb6	-74
67	0xe1	-31
68	0x31	49
69	0x0b	11
70	0x39	57
71	0x14	20
72	0xd8	-40
73	0xa0	-96
74	0xf2	-14
75	0xfb	-5
76	0xc1	-63
77	0x16	22
78	0x25	37
79	0xfe	-2
80	0x17	23
81	0x38	56
82	0xf0	-16
83	0xa3	-93
84	0x3f	63
85	0xc5	-59
86	0x58	88
87	0xad	-83
88	0xcf	-49
89	0x47	71
90	0x08	8
91	0x9f	-97
92	0xb6	-74
93	0x2a	42
94	0x3e	62
95	0x67	103
96	0x20	32
97	0xee	-18
98	0xb1	-79
99	0x64	100
100	0xeb	-21
101	0xbd	-67
102	0x22	34
103	0xb6	-74
104	0x22	34
105	0xc5	-59
106	0x3c	60
107	0x3e	62
108	0xd0	-48
109	0xc6	-58
110	0x60	96
111	0x02	2
112	0x58	88
113	0x05	5
114	0x5d	93
115	0xef	-17
116	0xa4	-92
117	0x32	50
118	0x1e	30
119	0xd4	-44
120	0x21	33
121	0x40	64
122	0x4b	75
123	0xb3	-77
124	0xce	-50
125	0xc7	-57
126	0xde	-34
127	0x45	69
128	0x55	85
129	0x1b	27
130	0xb6	-74
131	0xfa	-6
132	0xa4	-92
133	0xe8	-24
134	0x00	0
135	0xdf	-33
136	0xcd	-51
137	0xfd	-3
138	0x79	121
139	0x0f	15
140	0x24	36
141	0xec	-20
142	0xfb	-5
143	0x3b	59
144	0x36	54
145	0xb0	-80
146	0xac	-84
147	0x53	83
148	0x68	104
149	0x0f	15
150	0xc5	-59
151	0x0c	12
152	0x3f	63
153	0x47	71
154	0xde	-34
155	0x6b	107
156	0xee	-18
157	0x02	2
158	0x07	7
159	0xcf	-49
160	0x25	37
161	0x13	19
162	0x1d	29
163	0xfa	-6
164	0x60	96
165	0xdf	-33
166	0xab	-85
167	0x4b	75
168	0x87	-121
169	0xef	-17
170	0x54	84
171	0xaf	-81
172	0xa6	-90
173	0xe4	-28
174	0x36	54
175	0xa0	-96
176	0x1a	26
177	0x9a	-102
178	0xbd	-67
179	0xa9	-87
180	0xe0	-32
181	0xba	-70
182	0x52	82
183	0xce	-50
184	0x29	41
185	0xfe	-2
186	0xbb	-69
187	0x39	57
188	0x26	38
189	0xf6	-10
190	0xab	-85
191	0x03	3
192	0x20	32
193	0xa3	-93
194	0xe3	-29
195	0xb2	-78
196	0x1a	26
197	0x91	-111
198	0xba	-70
199	0xe3	-29
200	0x61	97
201	0xba	-70
202	0x17	23
203	0x12	18
204	0xbc	-68
205	0xba	-70
206	0xbb	-69
207	0x14	20
208	0x9f	-97
209	0xfd	-3
210	0xb6	-74
211	0xf5	-11
212	0xa0	-96
213	0xdc	-36
214	0xbb	-69
215	0x08	8
216	0xda	-38
217	0x69	105
218	0x1f	31
219	0x62	98
220	0xea	-22
221	0xeb	-21
222	0xfd	-3
223	0x28	40
224	0x29	41
225	0x5c	92
226	0xe2	-30
227	0x38	56
228	0xad	-83
229	0xc6	-58
230	0x1b	27
231	0xb5	-75
232	0xfd	-3
233	0x87	-121
234	0x50	80
235	0xee	-18
236	0xff	-1
237	0xa8	-88
238	0x31	49
239	0xc9	-55
240	0x07	7
241	0xc8	-56
242	0x2d	45
243	0xe4	-28
244	0xd5	-43
245	0x36	54
246	0xf1	-15
247	0x19	25
248	0xb3	-77
249	0x2c	44
250	0x21	33
251	0x97	-105
252	0xde	-34
253	0x18	24
254	0x3f	63
255	0x4b	75

sequential_10/quant_conv2d_39/Conv2D;sequential_10/quant_conv2d_39/LastValueQuant/FakeQuantWithMinMaxVarsPerChannel i1 [64, 3, 3, 64]
0	0xd3	-45
1	0x3a	58
2	0x3a	58
3	0x4a	74
4	0x08	8
5	0xcf	-49
6	0xd4	-44
7	0x3d	61
8	0xb1	-79
9	0x0b	11
10	0xea	-22
11	0xac	-84
12	0x08	8
13	0x05	5
14	0xb1	-79
15	0xdd	-35
16	0x13	19
17	0x1a	26
18	0x05	5
19	0xfd	-3
20	0x02	2
21	0x36	54
22	0x2f	47
23	0xde	-34
24	0x1d	29
25	0xf5	-11
26	0xc6	-58
27	0x26	38
28	0x74	116
29	0x1f	31
30	0xfe	-2
31	0xea	-22
32	0x08	8
33	0x89	-119
34	0x01	1
35	0xee	-18
36	0xaa	-86
37	0x47	71
38	0x2b	43
39	0xb3	-77
40	0x72	114
41	0xf1	-15
42	0xcb	-53
43	0x2a	42
44	0x01	1
45	0x60	96
46	0x21	33
47	0x5f	95
48	0xaa	-86
49	0x38	56
50	0xcf	-49
51	0xae	-82
52	0xea	-22
53	0xe3	-29
54	0xbd	-67
55	0xd0	-48
56	0xae	-82
57	0xa8	-88
58	0x51	81
59	0xfd	-3
60	0xce	-50
61	0x06	6
62	0x3f	63
63	0x2b	43
64	0xfa	-6
65	0x0f	15
66	0x54	84
67	0xe1	-31
68	0xc5	-59
69	0xab	-85
70	0x16	22
71	0xfa	-6
72	0xe9	-23
73	0xe8	-24
74	0x33	51
75	0x09	9
76	0x06	6
77	0x1f	31
78	0xfc	-4
79	0xbb	-69
80	0xef	-17
81	0x2b	43
82	0xb3	-77
83	0xd4	-44
84	0xe3	-29
85	0x7e	126
86	0xbf	-65
87	0xd0	-48
88	0xb3	-77
89	0xad	-83
90	0xdb	-37
91	0xca	-54
92	0x14	20
93	0x14	20
94	0x4c	76
95	0x1a	26
96	0x33	51
97	0x00	0
98	0x10	16
99	0xb0	-80
100	0xa2	-94
101	0x9d	-99
102	0xd9	-39
103	0xcf	-49
104	0xfe	-2
105	0x00	0
106	0x0e	14
107	0x09	9
108	0xce	-50
109	0xe2	-30
110	0x20	32
111	0x1a	26
112	0x53	83
113	0x47	71
114	0xe3	-29
115	0x31	49
116	0xed	-19
117	0xab	-85
118	0x1b	27
119	0x9f	-97
120	0xfc	-4
121	0xca	-54
122	0x4e	78
123	0xfd	-3
124	0xb6	-74
125	0x4f	79
126	0x4c	76
127	0x09	9
128	0x19	25
129	0x25	37
130	0x26	38
131	0x2c	44
132	0x28	40
133	0x5b	91
134	0xb2	-78
135	0xa4	-92
136	0x38	56
137	0xfc	-4
138	0x31	49
139	0xd3	-45
140	0x2b	43
141	0xc7	-57
142	0x08	8
143	0xd3	-45
144	0xc6	-58
145	0x90	-112
146	0x20	32
147	0xdc	-36
148	0x53	83
149	0xad	-83
150	0x12	18
151	0x8e	-114
152	0xbc	-68
153	0x13	19
154	0x5d	93
155	0x58	88
156	0x28	40
157	0x26	38
158	0x3c	60
159	0x3d	61
160	0xbd	-67
161	0x1e	30
162	0x52	82
163	0xe6	-26
164	0xfb	-5
165	0xbe	-66
166	0x29	41
167	0xce	-50
168	0x50	80
169	0x9a	-102
170	0xd9	-39
171	0xd5	-43
172	0xe2	-30
173	0xeb	-21
174	0x03	3
175	0xf1	-15
176	0x2f	47
177	0x00	0
178	0x0c	12
179	0x52	82
180	0x3b	59
181	0xd2	-46
182	0xd1	-47
183	0xc3	-61
184	0xad	-83
185	0x4b	75
186	0x10	16
187	0xe5	-27
188	0x57	87
189	0x3e	62
190	0x45	69
191	0xf5	-11
192	0x2e	46
193	0x22	34
194	0xf1	-15
195	0xa9	-87
196	0x32	50
197	0xbc	-68
198	0x4f	79
199	0xe2	-30
200	0xfe	-2
201	0x47	71
202	0x44	68
203	0x23	35
204	0x2b	43
205	0xd9	-39
206	0xd2	-46
207	0xb8	-72
208	0x10	16
209	0x12	18
210	0x1c	28
211	0x45	69
212	0xe2	-30
213	0x4c	76
214	0xec	-20
215	0x58	88
216	0x45	69
217	0xb9	-71
218	0xd5	-43
219	0x0d	13
220	0x07	7
221	0xc4	-60
222	0xbf	-65
223	0xd2	-46
224	0x08	8
225	0x0c	12
226	0x5e	94
227	0x42	66
228	0xae	-82
229	0x08	8
230	0x3f	63
231	0xbf	-65
232	0xde	-34
233	0xcb	-53
234	0x48	72
235	0xc9	-55
236	0x52	82
237	0xaa	-86
238	0x3c	60
239	0x0c	12
240	0xd1	-47
241	0x01	1
242	0x2f	47
243	0x34	52
244	0xdc	-36
245	0x44	68
246	0xcb	-53
247	0xb3	-77
248	0x37	55
249	0x91	-111
250	0x1f	31
251	0x8d	-115
252	0x4d	77
253	0x38	56
254	0x47	71
255	0xd7	-41

sequential_10/quant_dense_21/MatMul;sequential_10/quant_dense_21/LastValueQuant/FakeQuantWithMinMaxVars i1 [100, 6656] scale=0.0008558045 zero_point=0
0	0xda	-0.03252057
1	0xea	-0.0188277
2	0xea	-0.0188277
3	0x1e	0.025674134
4	0x17	0.019683503
5	0xb2	-0.06675275
6	0xfe	-0.001711609
7	0x1a	0.022250917
8	0xf1	-0.012837067
9	0xda	-0.03252057
10	0xf4	-0.010269654
11	0xe4	-0.023962526
12	0xf5	-0.00941385
13	0xd9	-0.033376373
14	0x19	0.021395111
15	0xe8	-0.020539308
16	0x00	0.0
17	0xf3	-0.011125458
18	0x2e	0.039367005
19	0x08	0.006846436
20	0x07	0.0059906314
21	0xdb	-0.031664766
22	0xfb	-0.0042790226
23	0x13	0.016260285
24	0xe2	-0.025674134
25	0xea	-0.0188277
26	0xec	-0.01711609
27	0xfb	-0.0042790226
28	0xd6	-0.035943788
29	0xdd	-0.029953158
30	0xfb	-0.0042790226
31	0x17	0.019683503
32	0xe6	-0.022250917
33	0xe0	-0.027385743
34	0xee	-0.0154044805
35	0xff	-0.0008558045
36	0x04	0.003423218
37	0x0b	0.00941385
38	0x07	0.0059906314
39	0x1f	0.026529938
40	0xeb	-0.017971894
41	0xec	-0.01711609
42	0xf7	-0.0077022403
43	0x1c	0.023962526
44	0xd5	-0.03679959
45	0xdb	-0.031664766
46	0xe7	-0.021395111
47	0xe8	-0.020539308
48	0xe3	-0.02481833
49	0xf6	-0.008558045
50	0xe3	-0.02481833
51	0xf6	-0.008558045
52	0x00	0.0
53	0xe9	-0.019683503
54	0x01	0.0008558045
55	0xfc	-0.003423218
56	0xdb	-0.031664766
57	0xec	-0.01711609
58	0xed	-0.016260285
59	0x15	0.017971894
60	0x09	0.0077022403
61	0xf8	-0.006846436
62	0xeb	-0.017971894
63	0xf5	-0.00941385
64	0xeb	-0.017971894
65	0xe9	-0.019683503
66	0xdb	-0.031664766
67	0x19	0.021395111
68	0xfa	-0.005134827
69	0xdc	-0.030808961
70	0xdf	-0.028241549
71	0x15	0.017971894
72	0xec	-0.01711609
73	0xfd	-0.0025674135
74	0xfd	-0.0025674135
75	0xef	-0.014548676
76	0x25	0.031664766
77	0xfe	-0.001711609
78	0x17	0.019683503
79	0xcf	-0.04193442
80	0xf6	-0.008558045
81	0x02	0.001711609
82	0x10	0.013692872
83	0xf9	-0.0059906314
84	0x16	0.0188277
85	0xf2	-0.011981263
86	0xd1	-0.04022281
87	0xd2	-0.039367005
88	0xeb	-0.017971894
89	0xfe	-0.001711609
90	0xe1	-0.026529938
91	0xe2	-0.025674134
92	0xee	-0.0154044805
93	0x0d	0.011125458
94	0xfc	-0.003423218
95	0xd2	-0.039367005
96	0x0c	0.010269654
97	0xe5	-0.02310672
98	0xee	-0.0154044805
99	0xe2	-0.025674134
100	0x15	0.017971894
101	0xe1	-0.026529938
102	0xee	-0.0154044805
103	0x02	0.001711609
104	0x01	0.0008558045
105	0xe9	-0.019683503
106	0xca	-0.04621344
107	0xf7	-0.0077022403
108	0xdf	-0.028241549
109	0xff	-0.0008558045
110	0xfb	-0.0042790226
111	0x1e	0.025674134
112	0x2f	0.04022281
113	0x19	0.021395111
114	0xdc	-0.030808961
115	0xe4	-0.023962526
116	0xe3	-0.02481833
117	0x26	0.03252057
118	0xf0	-0.013692872
119	0xfd	-0.0025674135
120	0xe5	-0.02310672
121	0x06	0.005134827
122	0xfa	-0.005134827
123	0xeb	-0.017971894
124	0xe8	-0.020539308
125	0x23	0.029953158
126	0x20	0.027385743
127	0xe2	-0.025674134
128	0xf6	-0.008558045
129	0xfd	-0.0025674135
130	0xed	-0.016260285
131	0xf4	-0.010269654
132	0xf7	-0.0077022403
133	0xdf	-0.028241549
134	0xe8	-0.020539308
135	0x05	0.0042790226
136	0xfe	-0.001711609
137	0x06	0.005134827
138	0xf6	-0.008558045
139	0xea	-0.0188277
140	0xf3	-0.011125458
141	0xed	-0.016260285
142	0x04	0.003423218
143	0x16	0.0188277
144	0x19	0.021395111
145	0xec	-0.01711609
146	0x1b	0.02310672
147	0x15	0.017971894
148	0xe5	-0.02310672
149	0xe5	-0.02310672
150	0xf3	-0.011125458
151	0xfb	-0.0042790226
152	0x00	0.0
153	0x0e	0.011981263
154	0xf0	-0.013692872
155	0x06	0.005134827
156	0xf2	-0.011981263
157	0xd8	-0.03423218
158	0xe9	-0.019683503
159	0xfc	-0.003423218
160	0xe3	-0.02481833
161	0x04	0.003423218
162	0xf3	-0.011125458
163	0x0c	0.010269654
164	0x08	0.006846436
165	0x02	0.001711609
166	0x07	0.0059906314
167	0x14	0.01711609
168	0x04	0.003423218
169	0x0e	0.011981263
170	0x12	0.0154044805
171	0xd6	-0.035943788
172	0xf6	-0.008558045
173	0x06	0.005134827
174	0xf9	-0.0059906314
175	0x29	0.035087984
176	0x00	0.0
177	0x21	0.028241549
178	0x32	0.042790223
179	0x1b	0.02310672
180	0xdc	-0.030808961
181	0xec	-0.01711609
182	0xf7	-0.0077022403
183	0xff	-0.0008558045
184	0xfe	-0.001711609
185	0x13	0.016260285
186	0xfa	-0.005134827
187	0x0e	0.011981263
188	0xe6	-0.022250917
189	0xe5	-0.02310672
190	0x0b	0.00941385
191	0xfc	-0.003423218
192	0xe1	-0.026529938
193	0xe8	-0.020539308
194	0x02	0.001711609
195	0x27	0.033376373
196	0xf3	-0.011125458
197	0xd7	-0.035087984
198	0x12	0.0154044805
199	0xda	-0.03252057
200	0x0c	0.010269654
201	0x04	0.003423218
202	0x09	0.0077022403
203	0x1c	0.023962526
204	0xdf	-0.028241549
205	0xf7	-0.0077022403
206	0x0c	0.010269654
207	0xf7	-0.0077022403
208	0xed	-0.016260285
209	0x00	0.0
210	0xfe	-0.001711609
211	0x00	0.0
212	0x1d	0.02481833
213	0xf7	-0.0077022403
214	0x05	0.0042790226
215	0x07	0.0059906314
216	0x11	0.014548676
217	0x12	0.0154044805
218	0x14	0.01711609
219	0xdb	-0.031664766
220	0x04	0.003423218
221	0xe5	-0.02310672
222	0xe6	-0.022250917
223	0x06	0.005134827
224	0x11	0.014548676
225	0x15	0.017971894
226	0x08	0.006846436
227	0x20	0.027385743
228	0x05	0.0042790226
229	0xdb	-0.031664766
230	0xe2	-0.025674134
231	0x1b	0.02310672
232	0x01	0.0008558045
233	0xfb	-0.0042790226
234	0xec	-0.01711609
235	0x08	0.006846436
236	0xdf	-0.028241549
237	0xdf	-0.028241549
238	0xf2	-0.011981263
239	0x34	0.044501834
240	0xee	-0.0154044805
241	0xfa	-0.005134827
242	0xde	-0.029097352
243	0x1b	0.02310672
244	0x19	0.021395111
245	0x23	0.029953158
246	0x14	0.01711609
247	0xcc	-0.044501834
248	0xf8	-0.006846436
249	0x13	0.016260285
250	0xf2	-0.011981263
251	0x08	0.006846436
252	0xfa	-0.005134827
253	0x1f	0.026529938
254	0xce	-0.042790223
255	0xe8	-0.020539308

sequential_10/quant_dense_22/MatMul;sequential_10/quant_dense_22/LastValueQuant/FakeQuantWithMinMaxVars i1 [50, 100] scale=0.001902893 zero_point=0
0	0xa9	-0.16555169
1	0xa4	-0.17506616
2	0x27	0.07421283
3	0xa5	-0.17316326
4	0x55	0.1617459
5	0x44	0.12939672
6	0x4e	0.14842565
7	0xf3	-0.024737608
8	0xa4	-0.17506616
9	0x26	0.07230993
10	0xa7	-0.16935748
11	0x1a	0.049475215
12	0xcd	-0.09704754
13	0x32	0.095144644
14	0xe2	-0.057086788
15	0x60	0.18267772
16	0x52	0.15603723
17	0x1c	0.053281
18	0x62	0.1864835
19	0x09	0.017126037
20	0x37	0.10465911
21	0x17	0.04376654
22	0xd3	-0.085630186
23	0xee	-0.034252074
24	0x01	0.001902893
25	0x0a	0.01902893
26	0x5f	0.18077484
27	0xcb	-0.100853324
28	0xf8	-0.015223144
29	0xeb	-0.039960753
30	0xd0	-0.09133886
31	0xf7	-0.017126037
32	0x45	0.13129961
33	0xb6	-0.14081408
34	0x1d	0.055183895
35	0xd9	-0.07421283
36	0xf9	-0.01332025
37	0xd4	-0.08372729
38	0xc4	-0.114173576
39	0x34	0.09895043
40	0x28	0.07611572
41	0x48	0.1370083
42	0x3e	0.11797936
43	0x4e	0.14842565
44	0x36	0.10275622
45	0x23	0.066601254
46	0xf7	-0.017126037
47	0x41	0.12368804
48	0xad	-0.15794012
49	0xeb	-0.039960753
50	0xdc	-0.06850415
51	0xb8	-0.1370083
52	0x0a	0.01902893
53	0x0f	0.028543394
54	0xe9	-0.04376654
55	0xf3	-0.024737608
56	0xbd	-0.12749383
57	0xa9	-0.16555169
58	0xab	-0.1617459
59	0x11	0.03234918
60	0x8a	-0.22454137
61	0x55	0.1617459
62	0x60	0.18267772
63	0x95	-0.20360954
64	0xd4	-0.08372729
65	0x42	0.12559094
66	0x55	0.1617459
67	0xce	-0.095144644
68	0xab	-0.1617459
69	0xb6	-0.14081408
70	0x64	0.19028929
71	0x26	0.07230993
72	0x2a	0.07992151
73	0x36	0.10275622
74	0xac	-0.15984301
75	0xb8	-0.1370083
76	0xd5	-0.0818244
77	0x21	0.06279547
78	0x9f	-0.18458061
79	0x7f	0.2416674
80	0x59	0.16935748
81	0x38	0.106562
82	0xed	-0.036154967
83	0x05	0.009514465
84	0x1b	0.05137811
85	0xbd	-0.12749383
86	0xf1	-0.028543394
87	0xde	-0.06469836
88	0x9b	-0.19219218
89	0xde	-0.06469836
90	0x13	0.036154967
91	0x1f	0.05898968
92	0xa4	-0.17506616
93	0xaf	-0.15413433
94	0x10	0.030446287
95	0xc7	-0.1084649
96	0x45	0.13129961
97	0x51	0.15413433
98	0x66	0.19409508
99	0x09	0.017126037
100	0xb6	-0.14081408
101	0xda	-0.07230993
102	0xba	-0.13320251
103	0xda	-0.07230993
104	0xf9	-0.01332025
105	0x9d	-0.1883864
106	0x98	-0.19790086
107	0x2b	0.0818244
108	0x40	0.12178515
109	0x00	0.0
110	0x9d	-0.1883864
111	0x34	0.09895043
112	0xdf	-0.06279547
113	0xf7	-0.017126037
114	0x9a	-0.19409508
115	0xbc	-0.12939672
116	0x68	0.19790086
117	0x95	-0.20360954
118	0xeb	-0.039960753
119	0x2b	0.0818244
120	0xc4	-0.114173576
121	0x2a	0.07992151
122	0xaf	-0.15413433
123	0xc1	-0.119882256
124	0x38	0.106562
125	0x41	0.12368804
126	0xe2	-0.057086788
127	0xcb	-0.100853324
128	0xbf	-0.12368804
129	0xb7	-0.13891119
130	0x42	0.12559094
131	0xf9	-0.01332025
132	0x6a	0.20170665
133	0x2d	0.085630186
134	0x3a	0.11036779
135	0xda	-0.07230993
136	0x13	0.036154967
137	0xd2	-0.08753308
138	0x0f	0.028543394
139	0xaf	-0.15413433
140	0xe2	-0.057086788
141	0x50	0.15223144
142	0x23	0.066601254
143	0xcb	-0.100853324
144	0xe2	-0.057086788
145	0x34	0.09895043
146	0xc0	-0.12178515
147	0xd7	-0.07801861
148	0xd9	-0.07421283
149	0x65	0.19219218
150	0xb2	-0.14842565
151	0xa0	-0.18267772
152	0x57	0.16555169
153	0xa1	-0.18077484
154	0x3d	0.11607647
155	0xa8	-0.16745459
156	0xd8	-0.07611572
157	0xa3	-0.17696905
158	0xce	-0.095144644
159	0x0b	0.020931823
160	0x1a	0.049475215
161	0x0a	0.01902893
162	0x34	0.09895043
163	0x42	0.12559094
164	0x07	0.01332025
165	0xe8	-0.04566943
166	0xe8	-0.04566943
167	0x17	0.04376654
168	0xe6	-0.049475215
169	0x1e	0.057086788
170	0x36	0.10275622
171	0x2e	0.08753308
172	0xf0	-0.030446287
173	0x68	0.19790086
174	0x39	0.1084649
175	0xd5	-0.0818244
176	0xc9	-0.10465911
177	0x3b	0.11227068
178	0xcc	-0.09895043
179	0x69	0.19980375
180	0xa3	-0.17696905
181	0xa7	-0.16935748
182	0x9e	-0.1864835
183	0xb0	-0.15223144
184	0x1d	0.055183895
185	0x9f	-0.18458061
186	0x9c	-0.19028929
187	0xa7	-0.16935748
188	0xce	-0.095144644
189	0xd6	-0.07992151
190	0x5c	0.17506616
191	0x5a	0.17126037
192	0xf6	-0.01902893
193	0x9d	-0.1883864
194	0xef	-0.03234918
195	0x65	0.19219218
196	0x60	0.18267772
197	0xd2	-0.08753308
198	0xc2	-0.11797936
199	0xa1	-0.18077484
200	0xfe	-0.003805786
201	0x17	0.04376654
202	0xda	-0.07230993
203	0x32	0.095144644
204	0xcc	-0.09895043
205	0x6b	0.20360954
206	0xd1	-0.08943597
207	0x3a	0.11036779
208	0x2a	0.07992151
209	0xe1	-0.05898968
210	0xc7	-0.1084649
211	0xed	-0.036154967
212	0xcb	-0.100853324
213	0x35	0.100853324
214	0x30	0.09133886
215	0xbd	-0.12749383
216	0x28	0.07611572
217	0xb7	-0.13891119
218	0xcf	-0.09324175
219	0x38	0.106562
220	0x68	0.19790086
221	0x30	0.09133886
222	0x4e	0.14842565
223	0xd5	-0.0818244
224	0x5d	0.17696905
225	0xbc	-0.12939672
226	0xb3	-0.14652276
227	0x26	0.07230993
228	0xc3	-0.11607647
229	0x64	0.19028929
230	0xb4	-0.14461987
231	0x02	0.003805786
232	0xe4	-0.053281
233	0xc7	-0.1084649
234	0xce	-0.095144644
235	0x5f	0.18077484
236	0xb1	-0.15032855
237	0xd1	-0.08943597
238	0x98	-0.19790086
239	0xb6	-0.14081408
240	0x68	0.19790086
241	0xba	-0.13320251
242	0xc4	-0.114173576
243	0x4f	0.15032855
244	0x2a	0.07992151
245	0x0f	0.028543394
246	0xba	-0.13320251
247	0xa3	-0.17696905
248	0xd4	-0.08372729
249	0xaa	-0.1636488
250	0x0d	0.024737608
251	0xee	-0.034252074
252	0xa3	-0.17696905
253	0xa1	-0.18077484
254	0xac	-0.15984301
255	0xb7	-0.13891119

sequential_10/quant_dense_23/MatMul;sequential_10/quant_dense_23/LastValueQuant/FakeQuantWithMinMaxVars i1 [10, 50] scale=0.002980241 zero_point=0
0	0xa1	-0.2831229
1	0x51	0.24139953
2	0xe1	-0.092387475
3	0xdb	-0.11026892
4	0xdc	-0.10728868
5	0x9c	-0.29802412
6	0x06	0.017881446
7	0x3e	0.18477495
8	0x99	-0.30696484
9	0xfe	-0.005960482
10	0x02	0.005960482
11	0x51	0.24139953
12	0xcb	-0.15795277
13	0x43	0.19967616
14	0xa3	-0.27716243
15	0xca	-0.16093302
16	0xaf	-0.24139953
17	0xf8	-0.023841929
18	0x6f	0.33080676
19	0x4f	0.23543905
20	0x37	0.16391326
21	0x1f	0.092387475
22	0x41	0.19371568
23	0xac	-0.25034025
24	0xc2	-0.18477495
25	0xb3	-0.22947857
26	0x10	0.047683857
27	0xff	-0.002980241
28	0x3a	0.17285398
29	0xed	-0.05662458
30	0x58	0.2622612
31	0xcd	-0.15199229
32	0xad	-0.24736
33	0x2d	0.13411085
34	0x3e	0.18477495
35	0x42	0.19669591
36	0x51	0.24139953
37	0xd2	-0.13709109
38	0x60	0.28610313
39	0x06	0.017881446
40	0xb3	-0.22947857
41	0x08	0.023841929
42	0x0f	0.044703618
43	0x59	0.26524144
44	0x4b	0.22351809
45	0x2a	0.12517013
46	0xa4	-0.27418217
47	0x15	0.06258506
48	0xfc	-0.011920964
49	0x40	0.19073543
50	0xed	-0.05662458
51	0xdb	-0.11026892
52	0x5d	0.27716243
53	0xda	-0.11324916
54	0xb7	-0.2175576
55	0xb3	-0.22947857
56	0xfe	-0.005960482
57	0xa4	-0.27418217
58	0xb6	-0.22053784
59	0xc1	-0.18775518
60	0x43	0.19967616
61	0xe6	-0.07748627
62	0x54	0.25034025
63	0x16	0.0655653
64	0x35	0.15795277
65	0x5f	0.2831229
66	0xbb	-0.20563664
67	0xcd	-0.15199229
68	0xfb	-0.014901206
69	0xff	-0.002980241
70	0x41	0.19371568
71	0x66	0.30398458
72	0x04	0.011920964
73	0xfd	-0.008940723
74	0x19	0.07450603
75	0x12	0.05364434
76	0xc3	-0.1817947
77	0xa5	-0.27120194
78	0xb3	-0.22947857
79	0xca	-0.16093302
80	0x2e	0.13709109
81	0x11	0.050664097
82	0x13	0.05662458
83	0x1b	0.08046651
84	0xb5	-0.22351809
85	0x43	0.19967616
86	0x5a	0.2682217
87	0xe6	-0.07748627
88	0xc2	-0.18477495
89	0x16	0.0655653
90	0xab	-0.2533205
91	0xd6	-0.12517013
92	0x0f	0.044703618
93	0x50	0.2384193
94	0x21	0.098347954
95	0x1a	0.07748627
96	0xf3	-0.038743135
97	0x43	0.19967616
98	0xd1	-0.14007133
99	0x99	-0.30696484
100	0x44	0.20265639
101	0xb0	-0.2384193
102	0xeb	-0.06258506
103	0x3a	0.17285398
104	0xf9	-0.020861687
105	0x9d	-0.29504386
106	0x58	0.2622612
107	0x53	0.24736
108	0x9c	-0.29802412
109	0x34	0.15497254
110	0xfa	-0.017881446
111	0x5b	0.27120194
112	0xb9	-0.21159711
113	0x69	0.3129253
114	0xd5	-0.12815037
115	0x3a	0.17285398
116	0x9a	-0.30398458
117	0x1b	0.08046651
118	0xec	-0.059604824
119	0xb0	-0.2384193
120	0xec	-0.059604824
121	0x4f	0.23543905
122	0x19	0.07450603
123	0xac	-0.25034025
124	0x53	0.24736
125	0x43	0.19967616
126	0x54	0.25034025
127	0x61	0.2890834
128	0x1b	0.08046651
129	0x31	0.14603181
130	0xc2	-0.18477495
131	0x58	0.2622612
132	0x26	0.11324916
133	0xde	-0.101328194
134	0xec	-0.059604824
135	0xcc	-0.15497254
136	0x28	0.11920965
137	0x11	0.050664097
138	0x3a	0.17285398
139	0xd7	-0.12218989
140	0x6f	0.33080676
141	0x30	0.14305156
142	0xcc	-0.15497254
143	0xcd	-0.15199229
144	0xae	-0.24437977
145	0x22	0.101328194
146	0xf5	-0.03278265
147	0x27	0.1162294
148	0xaa	-0.25630075
149	0x02	0.005960482
150	0x19	0.07450603
151	0xb2	-0.2324588
152	0xf7	-0.02682217
153	0x60	0.28610313
154	0x29	0.12218989
155	0xf2	-0.041723374
156	0x9a	-0.30398458
157	0x59	0.26524144
158	0x08	0.023841929
159	0xfb	-0.014901206
160	0xbd	-0.19967616
161	0xab	-0.2533205
162	0xb2	-0.2324588
163	0x07	0.020861687
164	0x02	0.005960482
165	0xd9	-0.1162294
166	0xdd	-0.10430844
167	0xab	-0.2533205
168	0x61	0.2890834
169	0xcf	-0.14603181
170	0xec	-0.059604824
171	0xf0	-0.047683857
172	0xa8	-0.2622612
173	0xf4	-0.03576289
174	0xfc	-0.011920964
175	0xc1	-0.18775518
176	0xc0	-0.19073543
177	0x40	0.19073543
178	0xdd	-0.10430844
179	0xae	-0.24437977
180	0xa8	-0.2622612
181	0x4e	0.2324588
182	0xbc	-0.20265639
183	0xbd	-0.19967616
184	0x19	0.07450603
185	0x2e	0.13709109
186	0x59	0.26524144
187	0xc8	-0.1668935
188	0x46	0.20861688
189	0xaf	-0.24139953
190	0x38	0.1668935
191	0xd6	-0.12517013
192	0x2d	0.13411085
193	0xb3	-0.22947857
194	0x51	0.24139953
195	0x9c	-0.29802412
196	0xac	-0.25034025
197	0xe0	-0.095367715
198	0xfb	-0.014901206
199	0x19	0.07450603
200	0x06	0.017881446
201	0xf4	-0.03576289
202	0xfe	-0.005960482
203	0xd6	-0.12517013
204	0x65	0.30100435
205	0x17	0.06854554
206	0xed	-0.05662458
207	0x2a	0.12517013
208	0x08	0.023841929
209	0x45	0.20563664
210	0x06	0.017881446
211	0xd4	-0.1311306
212	0x08	0.023841929
213	0x51	0.24139953
214	0xf7	-0.02682217
215	0xda	-0.11324916
216	0xe0	-0.095367715
217	0xa5	-0.27120194
218	0x15	0.06258506
219	0x4e	0.2324588
220	0x38	0.1668935
221	0xed	-0.05662458
222	0xd0	-0.14305156
223	0x30	0.14305156
224	0x38	0.1668935
225	0xa4	-0.27418217
226	0xd7	-0.12218989
227	0x2f	0.14007133
228	0x12	0.05364434
229	0xf6	-0.029802412
230	0xbb	-0.20563664
231	0xba	-0.20861688
232	0xe6	-0.07748627
233	0x52	0.24437977
234	0x40	0.19073543
235	0x94	-0.32186604
236	0xff	-0.002980241
237	0x10	0.047683857
238	0xf0	-0.047683857
239	0xa2	-0.28014266
240	0xe0	-0.095367715
241	0x4f	0.23543905
242	0x31	0.14603181
243	0xdb	-0.11026892
244	0xac	-0.25034025
245	0x24	0.10728868
246	0xa3	-0.27716243
247	0x4b	0.22351809
248	0xf5	-0.03278265
249	0xec	-0.059604824
250	0x02	0.005960482
251	0x31	0.14603181
252	0x4c	0.22649832
253	0x55	0.2533205
254	0x31	0.14603181
255	0xb2	-0.2324588

sequential_10/quant_output/MatMul;sequential_10/quant_output/LastValueQuant/FakeQuantWithMinMaxVars i1 [1, 10] scale=0.005393598 zero_point=0
0	0x38	0.3020415
1	0x3d	0.3290095
2	0x1f	0.16720155
3	0x7f	0.68498695
4	0xb0	-0.43148786
5	0x20	0.17259514
6	0xda	-0.20495674
7	0x1e	0.16180795
8	0x0b	0.05932958
9	0x2e	0.24810553
