models/opt-160x66x3.tflite (tflite, 234872 bytes, 9 tensors)

sequential_9/quant_conv2d_45/Conv2D;sequential_9/quant_conv2d_45/LastValueQuant/FakeQuantWithMinMaxVarsPerChannel i1 [24, 5, 5, 3]
00000000: 32db 8df8 9466 2ac6 f2d6 145a 2597 b541
00000010: 968f cab9 c7f6 e433 9d64 d79a e3c7 53fa
00000020: 7ffc 5721 ce16 d6e5 6be5 59f4 a9d9 0d55
00000030: 5c46 07c2 f423 b50b d3bb 4ded 7f09 ce3f
00000040: 2b70 a9fc 5d0e fe30 bec4 604d 8aa7 e989
00000050: 459f ba19 2f3e fa45 39ea 5cbc 1654 2b3f
00000060: 0b37 5f29 3d53 7712 8245 c858 5c2e d734
00000070: 2cac e81c 4d9e 8de1 05e1 2019 e60b 32bb
00000080: f120 4e13 7f8f 0ce9 4388 5fc1 9c1c 64b7
00000090: a2ac cb66 4397 293a f85d f9d1 4cce 2142
000000a0: e42b fc6b 0cf3 54c5 5f98 b7c0 2ec0 599e
000000b0: 54ec 3a32 2cc5 e4c9 a4fa 740c f733 492f
000000c0: 2bf8 c87f dc24 782f 5ded 4cf8 a69b 9632
000000d0: c1fc 72a4 b9a9 cefe f31a 8cfa f1c2 53c8
000000e0: dc73 67ac b203 fb81 91bc 6ae6 714f 8726
000000f0: a6eb ed0a 0054 3375 2ede 729f 8c50 f154
50 -37 -115 -8 -108 102 42 -58
-14 -42 20 90 37 -105 -75 65
-106 -113 -54 -71 -57 -10 -28 51
-99 100 -41 -102 -29 -57 83 -6
127 -4 87 33 -50 22 -42 -27
107 -27 89 -12 -87 -39 13 85
92 70 7 -62 -12 35 -75 11
-45 -69 77 -19 127 9 -50 63
43 112 -87 -4 93 14 -2 48
-66 -60 96 77 -118 -89 -23 -119
69 -97 -70 25 47 62 -6 69
57 -22 92 -68 22 84 43 63
11 55 95 41 61 83 119 18
-126 69 -56 88 92 46 -41 52
44 -84 -24 28 77 -98 -115 -31
5 -31 32 25 -26 11 50 -69
-15 32 78 19 127 -113 12 -23
67 -120 95 -63 -100 28 100 -73
-94 -84 -53 102 67 -105 41 58
-8 93 -7 -47 76 -50 33 66
-28 43 -4 107 12 -13 84 -59
95 -104 -73 -64 46 -64 89 -98
84 -20 58 50 44 -59 -28 -55
-92 -6 116 12 -9 51 73 47
43 -8 -56 127 -36 36 120 47
93 -19 76 -8 -90 -101 -106 50
-63 -4 114 -92 -71 -87 -50 -2
-13 26 -116 -6 -15 -62 83 -56
-36 115 103 -84 -78 3 -5 -127
-111 -68 106 -26 113 79 -121 38
-90 -21 -19 10 0 84 51 117
46 -34 114 -97 -116 80 -15 84

sequential_9/quant_conv2d_46/Conv2D;sequential_9/quant_conv2d_46/LastValueQuant/FakeQuantWithMinMaxVarsPerChannel i1 [36, 5, 5, 24]
00000000: e821 1b10 171f d02d cd9c 4cff cf1b cc2b
00000010: c1b9 23d7 d642 4f24 c7f0 30d8 dfcb 8edd
00000020: 2eb1 f2be f12e 1e21 1520 b5eb 1125 ecf9
00000030: 29cd c1cb ece6 0534 cac9 bc3a 45e0 ebad
00000040: 0cc9 f33d 2cfc cd33 3236 3d08 dcdd 1fbf
00000050: 0725 1048 c619 0cf8 00b0 1848 fa5b 2c52
00000060: bd25 303b 1b3c dc3f b7a7 0812 c2da ee43
00000070: c0f8 1bfe 1c0e db3c b84e 29c8 57ef 0fc4
00000080: f10b f2ef 1622 fdfb 3c21 e4dc 01dd 0336
00000090: 164f eee2 23f0 120a d61b f7b5 47ef dc09
000000a0: 0e47 0414 cbf6 16e0 4c57 e2b4 e2d1 c2ea
000000b0: d418 e933 f6f9 b6cb 4f0b b523 c02d c93a
000000c0: f732 dedc 4c01 ef49 2ed4 04d2 dbf6 ec00
000000d0: 2f41 3453 bff4 f5f1 4015 4129 e0c6 2149
000000e0: b929 35e5 cc19 0fdc 5ff0 c54c c54f cc37
000000f0: bac5 18f8 fbff f7fd e2b4 320d 0ac7 da29
-24 33 27 16 23 31 -48 45
-51 -100 76 -1 -49 27 -52 43
-63 -71 35 -41 -42 66 79 36
-57 -16 48 -40 -33 -53 -114 -35
46 -79 -14 -66 -15 46 30 33
21 32 -75 -21 17 37 -20 -7
41 -51 -63 -53 -20 -26 5 52
-54 -55 -68 58 69 -32 -21 -83
12 -55 -13 61 44 -4 -51 51
50 54 61 8 -36 -35 31 -65
7 37 16 72 -58 25 12 -8
0 -80 24 72 -6 91 44 82
-67 37 48 59 27 60 -36 63
-73 -89 8 18 -62 -38 -18 67
-64 -8 27 -2 28 14 -37 60
-72 78 41 -56 87 -17 15 -60
-15 11 -14 -17 22 34 -3 -5
60 33 -28 -36 1 -35 3 54
22 79 -18 -30 35 -16 18 10
-42 27 -9 -75 71 -17 -36 9
14 71 4 20 -53 -10 22 -32
76 87 -30 -76 -30 -47 -62 -22
-44 24 -23 51 -10 -7 -74 -53
79 11 -75 35 -64 45 -55 58
-9 50 -34 -36 76 1 -17 73
46 -44 4 -46 -37 -10 -20 0
47 65 52 83 -65 -12 -11 -15
64 21 65 41 -32 -58 33 73
-71 41 53 -27 -52 25 15 -36
95 -16 -59 76 -59 79 -52 55
-70 -59 24 -8 -5 -1 -9 -3
-30 -76 50 13 10 -57 -38 41

sequential_9/quant_conv2d_47/Conv2D;sequential_9/quant_conv2d_47/LastValueQuant/FakeQuantWithMinMaxVarsPerChannel i1 [48, 5, 5, 36]
00000000: cd54 4e3c 33c7 2ac1 55ac fa2e 600f 1051
00000010: ab08 abcc 5209 b32c c230 f8a0 4207 42ec
00000020: f9bd e90c 5bae 3f0f af0f e718 acfb f9d4
00000030: 1ef4 b8a8 1aec 26de b61b 04d3 fd5f 58ae
00000040: a7b0 0661 c661 d4c8 e9a9 2326 de02 abeb
00000050: a61d c930 1aff d1cc 961e cfa2 4034 3540
00000060: 2fa5 4c33 2e11 cd5a 08d3 30d2 a0c1 080b
00000070: debc a7fa 1737 ffee f5fe a2a8 12d0 c2d4
00000080: b957 07a7 b251 cedd 13c2 cceb 2705 0e47
00000090: bcc0 14f9 a3e7 0bf0 b8ef c2a8 d137 fede
000000a0: 0a0d 9ae3 1ec0 bdd7 e259 0f20 4039 b2f5
000000b0: 56d8 0425 18d1 baaf f7b5 a0ac 34b5 df14
000000c0: 3b21 bbf3 9a38 17f1 efd7 ddce 1c7e 9f3f
000000d0: d7e0 0c35 42ba dfd4 00ad fd5a 1615 10cf
000000e0: f940 dd31 0131 4419 bde3 b7f4 1413 1e0d
000000f0: f202 460f 29b4 d7d0 0da8 fd46 494b f5c3
-51 84 78 60 51 -57 42 -63
85 -84 -6 46 96 15 16 81
-85 8 -85 -52 82 9 -77 44
-62 48 -8 -96 66 7 66 -20
-7 -67 -23 12 91 -82 63 15
-81 15 -25 24 -84 -5 -7 -44
30 -12 -72 -88 26 -20 38 -34
-74 27 4 -45 -3 95 88 -82
-89 -80 6 97 -58 97 -44 -56
-23 -87 35 38 -34 2 -85 -21
-90 29 -55 48 26 -1 -47 -52
-106 30 -49 -94 64 52 53 64
47 -91 76 51 46 17 -51 90
8 -45 48 -46 -96 -63 8 11
-34 -68 -89 -6 23 55 -1 -18
-11 -2 -94 -88 18 -48 -62 -44
-71 87 7 -89 -78 81 -50 -35
19 -62 -52 -21 39 5 14 71
-68 -64 20 -7 -93 -25 11 -16
-72 -17 -62 -88 -47 55 -2 -34
10 13 -102 -29 30 -64 -67 -41
-30 89 15 32 64 57 -78 -11
86 -40 4 37 24 -47 -70 -81
-9 -75 -96 -84 52 -75 -33 20
59 33 -69 -13 -102 56 23 -15
-17 -41 -35 -50 28 126 -97 63
-41 -32 12 53 66 -70 -33 -44
0 -83 -3 90 22 21 16 -49
-7 64 -35 49 1 49 68 25
-67 -29 -73 -12 20 19 30 13
-14 2 70 15 41 -76 -41 -48
13 -88 -3 70 73 75 -11 -61

sequential_9/quant_conv2d_48/Conv2D;sequential_9/quant_conv2d_48/LastValueQuant/FakeQuantWithMinMaxVarsPerChannel i1 [64, 3, 3, 48]
00000000: fc03 196a d0cb d328 d2b5 67b6 63c1 d166
00000010: edcb 09ad 32f7 191b 9e67 cb29 cf00 5f0f
00000020: cb00 bd55 d7df a8ef fccd 1431 efd8 5222
00000030: fe35 ea06 caa9 fbe2 38a9 ecfd b20b aaa4
00000040: c717 edd2 c71c 04ee 38b4 4eda a4a8 d1bd
00000050: b2d0 b454 ef00 3353 4a1d eb08 b2dc b220
00000060: 4fc9 d301 039e 5442 9952 17a2 5b13 34c5
00000070: ebef b356 b942 d7f3 0f1f 4ee1 d619 d9ed
00000080: cbd1 af17 f3c0 d2f2 ea58 293d 1506 4083
00000090: 4325 48d7 3b12 38bf 40de bfc7 cdf8 ed0b
000000a0: 4002 55d8 ee5a c317 aa2d b72b 2eb8 3c27
000000b0: 4d5b d8ed bda8 3036 1f2f c955 2736 fd39
000000c0: c12f 321f d0cb c1f7 d806 afda 36f1 f3f6
000000d0: c7f7 5a0f fdad 4110 4147 c522 4316 b7e9
000000e0: 4bea e455 c243 0849 aadf ffbe 25b0 c858
000000f0: c7d7 00ca aee2 44da 4a4e 6bc7 3a9c 1ced
-4 3 25 106 -48 -53 -45 40
-46 -75 103 -74 99 -63 -47 102
-19 -53 9 -83 50 -9 25 27
-98 103 -53 41 -49 0 95 15
-53 0 -67 85 -41 -33 -88 -17
-4 -51 20 49 -17 -40 82 34
-2 53 -22 6 -54 -87 -5 -30
56 -87 -20 -3 -78 11 -86 -92
-57 23 -19 -46 -57 28 4 -18
56 -76 78 -38 -92 -88 -47 -67
-78 -48 -76 84 -17 0 51 83
74 29 -21 8 -78 -36 -78 32
79 -55 -45 1 3 -98 84 66
-103 82 23 -94 91 19 52 -59
-21 -17 -77 86 -71 66 -41 -13
15 31 78 -31 -42 25 -39 -19
-53 -47 -81 23 -13 -64 -46 -14
-22 88 41 61 21 6 64 -125
67 37 72 -41 59 18 56 -65
64 -34 -65 -57 -51 -8 -19 11
64 2 85 -40 -18 90 -61 23
-86 45 -73 43 46 -72 60 39
77 91 -40 -19 -67 -88 48 54
31 47 -55 85 39 54 -3 57
-63 47 50 31 -48 -53 -63 -9
-40 6 -81 -38 54 -15 -13 -10
-57 -9 90 15 -3 -83 65 16
65 71 -59 34 67 22 -73 -23
75 -22 -28 85 -62 67 8 73
-86 -33 -1 -66 37 -80 -56 88
-57 -41 0 -54 -82 -30 68 -38
74 78 107 -57 58 -100 28 -19

sequential_9/quant_conv2d_49/Conv2D;sequential_9/quant_conv2d_49/LastValueQuant/FakeQuantWithMinMaxVarsPerChannel i1 [64, 3, 3, 64]
00000000: f802 2153 4f00 57a0 18e8 4c4e c999 322a
00000010: b6b1 3354 d4f2 ef5e 403d 281c 1035 e7a2
00000020: 11d2 5922 28bc 2f3e 1916 0814 a4bd e4bf
00000030: e643 b826 2a40 5145 9df9 31e2 f7ba e30f
00000040: eb61 ce0d fb6d ed23 fedf 46d3 9acb f6df
00000050: e724 0cad 9b9b d4cb b49c fea1 d632 58a1
00000060: 24de c1fb b321 9ee3 4a64 fb98 e743 cfdc
00000070: 20fd 5815 f712 6905 e6c5 9962 5bed d40f
00000080: 2d24 9e96 69d9 e0b4 1520 3354 e39c 16b6
00000090: d5bf 3599 8e6b c209 e235 3abe ce21 a3b3
000000a0: b46b 151a 3ed7 eef1 d0a6 0a20 30e9 de21
000000b0: d4f3 2306 454a 1dc0 3617 27fb d866 5e0b
000000c0: 620f f162 d034 276b 4cf7 5e04 dbb0 e160
000000d0: 49cd ee0c b7be 682d 3001 c061 03e4 4a14
000000e0: ac40 a239 1ef0 34d2 d706 b564 c499 ce6b
000000f0: 95f9 4f55 6452 b0b1 0de6 3f44 f2db ebe4
-8 2 33 83 79 0 87 -96
24 -24 76 78 -55 -103 50 42
-74 -79 51 84 -44 -14 -17 94
64 61 40 28 16 53 -25 -94
17 -46 89 34 40 -68 47 62
25 22 8 20 -92 -67 -28 -65
-26 67 -72 38 42 64 81 69
-99 -7 49 -30 -9 -70 -29 15
-21 97 -50 13 -5 109 -19 35
-2 -33 70 -45 -102 -53 -10 -33
-25 36 12 -83 -101 -101 -44 -53
-76 -100 -2 -95 -42 50 88 -95
36 -34 -63 -5 -77 33 -98 -29
74 100 -5 -104 -25 67 -49 -36
32 -3 88 21 -9 18 105 5
-26 -59 -103 98 91 -19 -44 15
45 36 -98 -106 105 -39 -32 -76
21 32 51 84 -29 -100 22 -74
-43 -65 53 -103 -114 107 -62 9
-30 53 58 -66 -50 33 -93 -77
-76 107 21 26 62 -41 -18 -15
-48 -90 10 32 48 -23 -34 33
-44 -13 35 6 69 74 29 -64
54 23 39 -5 -40 102 94 11
98 15 -15 98 -48 52 39 107
76 -9 94 4 -37 -80 -31 96
73 -51 -18 12 -73 -66 104 45
48 1 -64 97 3 -28 74 20
-84 64 -94 57 30 -16 52 -46
-41 6 -75 100 -60 -103 -50 107
-107 -7 79 85 100 82 -80 -79
13 -26 63 68 -14 -37 -21 -28

sequential_9/quant_dense_27/MatMul;sequential_9/quant_dense_27/LastValueQuant/FakeQuantWithMinMaxVars i1 [100, 832] scale=0.00097013114 zero_point=0
00000000: 4e17 2b1a 17ba 3749 f2c5 0137 e7fc e204
00000010: d0f1 b51e 311c e751 06c4 12f0 0e4e 370f
00000020: d0b2 0f3d ddf0 463a 034f 084c 163e db05
00000030: e536 c9af 0121 f710 cb18 27e2 dfcf e211
00000040: 46f2 442c aa01 d229 e51c b4d2 0bda cb3b
00000050: 3931 1e55 05e4 ef44 c3dd da44 e3dd b844
00000060: 4215 1cb7 bec4 d51c 0fc9 04f6 49c7 ffdc
00000070: ba16 d3ce 1b08 12df 24dc 4c38 c310 e412
00000080: 4d35 d241 322d ebd3 b1cf c9ed 56c4 3ce6
00000090: eeea 2a3c 0f11 f50c b623 f9cc 2fd3 1632
000000a0: ecfa adc8 b726 f51b 1122 4f1c 1736 4c31
000000b0: eefd 51bf 52af df2c 0420 0707 3fea 310b
000000c0: 280f e1dd 0d0c 0a56 d1d4 1438 dcd1 e70b
000000d0: 40f4 cef3 ade8 f8fe 0ade 551a 03c3 3a4c
000000e0: e016 3c50 524b ba23 010d cada f8ed 453d
000000f0: 094e 1829 fc06 0406 02c9 361a bbec 07f8
0.07567023 0.022313016 0.04171564 0.02522341 0.022313016 -0.06790918 0.053357214 0.07081957
-0.013581836 -0.057237737 0.00097013114 0.053357214 -0.024253279 -0.0038805245 -0.029103935 0.0038805245
-0.046566293 -0.014551967 -0.07275984 0.029103935 0.047536425 0.027163671 -0.024253279 0.078580625
0.0058207866 -0.05820787 0.01746236 -0.015522098 0.013581836 0.07567023 0.053357214 0.014551967
-0.046566293 -0.07567023 0.014551967 0.059178 -0.03395459 -0.015522098 0.06790918 0.056267604
0.0029103933 0.07664036 0.007761049 0.07372997 0.021342885 0.06014813 -0.035894852 0.004850656
-0.02619354 0.05238708 -0.053357214 -0.078580625 0.00097013114 0.03201433 -0.00873118 0.015522098
-0.05141695 0.023283146 0.037835114 -0.029103935 -0.03201433 -0.047536425 -0.029103935 0.016492229
0.06790918 -0.013581836 0.065968916 0.04268577 -0.08343128 0.00097013114 -0.04462603 0.039775375
-0.02619354 0.027163671 -0.07372997 -0.04462603 0.010671442 -0.036864985 -0.05141695 0.057237737
0.055297475 0.047536425 0.029103935 0.08246115 0.004850656 -0.027163671 -0.016492229 0.065968916
-0.059178 -0.03395459 -0.036864985 0.065968916 -0.028133802 -0.03395459 -0.06984944 0.065968916
0.06402866 0.020372754 0.027163671 -0.07081957 -0.06402866 -0.05820787 -0.04171564 0.027163671
0.014551967 -0.053357214 0.0038805245 -0.009701312 0.07081957 -0.055297475 -0.00097013114 -0.03492472
-0.06790918 0.021342885 -0.043655902 -0.048506558 0.02619354 0.007761049 0.01746236 -0.03201433
0.03492472 -0.03492472 0.07372997 0.054327343 -0.059178 0.015522098 -0.027163671 0.01746236
0.074700095 0.05141695 -0.04462603 0.063058525 0.048506558 0.043655902 -0.020372754 -0.043655902
-0.07664036 -0.047536425 -0.053357214 -0.018432492 0.08343128 -0.05820787 0.05820787 -0.02522341
-0.01746236 -0.021342885 0.040745508 0.05820787 0.014551967 0.016492229 -0.010671442 0.011641573
-0.071789704 0.03395459 -0.006790918 -0.05044682 0.045596164 -0.043655902 0.021342885 0.048506558
-0.019402623 -0.0058207866 -0.08052088 -0.054327343 -0.07081957 0.036864985 -0.010671442 0.02619354
0.016492229 0.032984458 0.07664036 0.027163671 0.022313016 0.05238708 0.07372997 0.047536425
-0.01746236 -0.0029103933 0.078580625 -0.063058525 0.07955075 -0.078580625 -0.03201433 0.04268577
0.0038805245 0.031044196 0.006790918 0.006790918 0.06111826 -0.021342885 0.047536425 0.010671442
0.038805246 0.014551967 -0.030074066 -0.03395459 0.012611705 0.011641573 0.009701312 0.08343128
-0.045596164 -0.04268577 0.019402623 0.054327343 -0.03492472 -0.045596164 -0.024253279 0.010671442
0.062088393 -0.011641573 -0.048506558 -0.012611705 -0.08052088 -0.023283146 -0.007761049 -0.0019402623
0.009701312 -0.032984458 0.08246115 0.02522341 0.0029103933 -0.059178 0.056267604 0.07372997
-0.031044196 0.021342885 0.05820787 0.07761049 0.07955075 0.07275984 -0.06790918 0.03395459
0.00097013114 0.012611705 -0.05238708 -0.036864985 -0.007761049 -0.018432492 0.06693905 0.059178
0.00873118 0.07567023 0.023283146 0.039775375 -0.0038805245 0.0058207866 0.0038805245 0.0058207866
0.0019402623 -0.053357214 0.05238708 0.02522341 -0.06693905 -0.019402623 0.006790918 -0.007761049

sequential_9/quant_dense_28/MatMul;sequential_9/quant_dense_28/LastValueQuant/FakeQuantWithMinMaxVars i1 [50, 100] scale=0.0018292101 zero_point=0
00000000: 2213 c62f 95b7 05fb 4da9 d513 b92f 0164
00000010: 58cc 6068 49d6 fa5b 2459 de5f ae01 5421
00000020: f200 04be c653 d3c5 3d27 95e0 454f e402
00000030: 2dc9 f1fb 4fc7 faef c33a b0cd d44d 3d2f
00000040: 13aa 116c 59bc 416c 1c0b 39b0 dcef 9f9a
00000050: 38a1 c863 fca0 5747 a495 5b47 eb16 f62b
00000060: f8b1 4fee 5749 624b 0aa4 9de0 105c 11e5
00000070: 3392 c41e a7be 5fd6 176c 02da e845 4f15
00000080: d81c c2a9 1c5d d91d 31a0 d4de 5fcb c912
00000090: 09de 54ad db48 599c feac ba32 08c4 2ded
000000a0: 2ca3 44aa 6456 e560 631b 0523 3c07 e903
000000b0: ed31 3a94 0fca 29ea 3dc1 4bbc 91fa 35d9
000000c0: 38c5 2986 ede6 5502 c6f0 079a be2f d5c4
000000d0: f1b8 17de 2bff 21dc 98d3 e007 e739 350a
000000e0: 3e93 00c8 e7ca e3af 6a1b 58f5 0cad ec65
000000f0: a533 aca4 9261 a49b 109c 2c48 1bcf 5d1e
0.062193144 0.03475499 -0.10609418 0.085972875 -0.19572549 -0.13353233 0.009146051 -0.009146051
0.14084917 -0.15914127 -0.07865603 0.03475499 -0.12987392 0.085972875 0.0018292101 0.182921
0.1609705 -0.095118925 0.17560416 0.19023785 0.13353233 -0.076826826 -0.01097526 0.16645811
0.06585156 0.1627997 -0.062193144 0.17377496 -0.14999522 0.0018292101 0.15365365 0.060363933
-0.025608942 0.0 0.0073168403 -0.12072787 -0.10609418 0.15182444 -0.082314454 -0.107923396
0.11158182 0.07133919 -0.19572549 -0.058534723 0.1262155 0.1445076 -0.051217884 0.0036584202
0.082314454 -0.10060655 -0.02743815 -0.009146051 0.1445076 -0.104264975 -0.01097526 -0.031096572
-0.11158182 0.10609418 -0.14633681 -0.09328972 -0.08048525 0.14084917 0.11158182 0.085972875
0.03475499 -0.15731207 0.031096572 0.1975547 0.1627997 -0.12438629 0.11889865 0.1975547
0.051217884 0.020121312 0.104264975 -0.14633681 -0.06585156 -0.031096572 -0.17743337 -0.18657944
0.10243577 -0.17377496 -0.10243577 0.1810918 -0.0073168403 -0.17560416 0.15914127 0.12987392
-0.16828732 -0.19572549 0.16645811 0.12987392 -0.038413413 0.040242624 -0.018292101 0.07865603
-0.014633681 -0.1445076 0.1445076 -0.03292578 0.15914127 0.13353233 0.1792626 0.13719076
0.018292101 -0.16828732 -0.1810918 -0.058534723 0.029267361 0.16828732 0.031096572 -0.049388673
0.09328972 -0.2012131 -0.1097526 0.0548763 -0.1627997 -0.12072787 0.17377496 -0.076826826
0.04207183 0.1975547 0.0036584202 -0.06950998 -0.04390104 0.1262155 0.1445076 0.038413413
-0.073168404 0.051217884 -0.113411024 -0.15914127 0.051217884 0.17011654 -0.07133919 0.05304709
0.0896313 -0.17560416 -0.08048525 -0.062193144 0.17377496 -0.09694813 -0.10060655 0.03292578
0.01646289 -0.062193144 0.15365365 -0.15182444 -0.067680776 0.13170312 0.1627997 -0.182921
-0.0036584202 -0.15365365 -0.12804471 0.0914605 0.014633681 -0.1097526 0.082314454 -0.03475499
0.08048525 -0.17011654 0.12438629 -0.15731207 0.182921 0.15731207 -0.049388673 0.17560416
0.1810918 0.049388673 0.009146051 0.064022355 0.1097526 0.012804471 -0.04207183 0.00548763
-0.03475499 0.0896313 0.10609418 -0.1975547 0.02743815 -0.09877735 0.07499761 -0.040242624
0.11158182 -0.11524024 0.13719076 -0.12438629 -0.20304231 -0.01097526 0.09694813 -0.07133919
0.10243577 -0.107923396 0.07499761 -0.22316363 -0.03475499 -0.047559462 0.15548286 0.0036584202
-0.10609418 -0.029267361 0.012804471 -0.18657944 -0.12072787 0.085972875 -0.07865603 -0.1097526
-0.02743815 -0.13170312 0.04207183 -0.062193144 0.07865603 -0.0018292101 0.060363933 -0.06585156
-0.19023785 -0.082314454 -0.058534723 0.012804471 -0.04573025 0.104264975 0.09694813 0.018292101
0.113411024 -0.1993839 0.0 -0.10243577 -0.04573025 -0.09877735 -0.05304709 -0.14816602
0.19389626 0.049388673 0.1609705 -0.020121312 0.02195052 -0.15182444 -0.036584202 0.18475021
-0.16645811 0.09328972 -0.15365365 -0.16828732 -0.2012131 0.17743337 -0.16828732 -0.18475021
0.029267361 -0.182921 0.08048525 0.13170312 0.049388673 -0.0896313 0.17011654 0.0548763

sequential_9/quant_dense_29/MatMul;sequential_9/quant_dense_29/LastValueQuant/FakeQuantWithMinMaxVars i1 [10, 50] scale=0.0027317791 zero_point=0
00000000: 6e70 9b03 52fe aca8 eac3 d04c 35c8 d6ba
00000010: 0474 f430 9c10 4e11 1590 0f66 1f46 10ec
00000020: fc54 12fa a822 fcc2 90c3 e25f fb73 53c0
00000030: ddc9 dd9f 13aa 4d68 6dcb 1926 e0fd e904
00000040: 8ee0 2d22 b666 0f8f af67 abb8 4b11 c8bd
00000050: d3d7 4ce5 c98a ed45 23a2 5b55 eb05 a84e
00000060: 6396 39b7 69ab 552a 62c3 4f2c 1d52 f336
00000070: 3591 dcd4 b2b3 f938 9d24 2490 19a1 39a4
00000080: c2f7 243f d0c4 3506 494b ea31 c09d 352d
00000090: 5fec 7501 81c6 dbf0 971a 6a72 9556 b6ea
000000a0: 2bfa c114 b02a f814 2806 b4dc ca17 8db7
000000b0: cf37 1339 fc25 bae7 29fa 72c8 9d3e 8f27
000000c0: f2e3 61a8 d69d 5361 fe0a fbe5 2c5c cd6e
000000d0: 500c 5f45 4563 1301 4bdb 9859 b800 0f4b
000000e0: 6004 f436 92f3 e140 fea7 c137 02c9 15a3
000000f0: 42c3 dee9 a8c4 dbd7 1411 650a 8f57 edd4
0.3004957 0.30595925 -0.2759097 0.008195337 0.2240059 -0.0054635582 -0.22946945 -0.24039656
-0.06009914 -0.16663852 -0.13112539 0.20761521 0.14478429 -0.15297963 -0.114734724 -0.19122455
0.0109271165 0.31688637 -0.032781348 0.13112539 -0.27317792 0.043708466 0.21307877 0.046440244
0.057367362 -0.30595925 0.04097669 0.27864146 0.084685154 0.19122455 0.043708466 -0.054635584
-0.0109271165 0.22946945 0.049172025 -0.016390674 -0.24039656 0.09288049 -0.0109271165 -0.16937031
-0.30595925 -0.16663852 -0.08195338 0.259519 -0.013658896 0.3141546 0.22673766 -0.17483386
-0.09561227 -0.15024786 -0.09561227 -0.26498258 0.051903803 -0.234933 0.210347 0.28410503
0.2977639 -0.14478429 0.06829448 0.103807606 -0.08741693 -0.008195337 -0.06283092 0.0109271165
-0.31142282 -0.08741693 0.12293006 0.09288049 -0.20215166 0.27864146 0.04097669 -0.30869105
-0.22127411 0.28137326 -0.23220122 -0.1966881 0.20488344 0.046440244 -0.15297963 -0.1830292
-0.12293006 -0.11200295 0.20761521 -0.073758036 -0.15024786 -0.32234994 -0.051903803 0.18849276
0.09561227 -0.25678724 0.2485919 0.23220122 -0.057367362 0.013658896 -0.24039656 0.21307877
0.27044612 -0.28956857 0.15571141 -0.19941987 0.2868368 -0.23220122 0.23220122 0.114734724
0.26771435 -0.16663852 0.21581055 0.12019828 0.07922159 0.2240059 -0.03551313 0.14751607
0.14478429 -0.30322748 -0.09834405 -0.12019828 -0.21307877 -0.210347 -0.019122453 0.15297963
-0.27044612 0.09834405 0.09834405 -0.30595925 0.06829448 -0.259519 0.15571141 -0.25132367
-0.16937031 -0.024586013 0.09834405 0.17210208 -0.13112539 -0.16390675 0.14478429 0.016390674
0.19941987 0.20488344 -0.06009914 0.13385718 -0.17483386 -0.27044612 0.14478429 0.12293006
0.259519 -0.054635584 0.31961817 0.0027317791 -0.34693596 -0.15844318 -0.10107583 -0.043708466
-0.2868368 0.07102626 0.28956857 0.31142282 -0.29230037 0.234933 -0.20215166 -0.06009914
0.1174665 -0.016390674 -0.17210208 0.054635584 -0.21854234 0.114734724 -0.021854233 0.054635584
0.10927117 0.016390674 -0.20761521 -0.09834405 -0.14751607 0.06283092 -0.3141546 -0.19941987
-0.13385718 0.15024786 0.051903803 0.15571141 -0.0109271165 0.10107583 -0.19122455 -0.06829448
0.11200295 -0.016390674 0.31142282 -0.15297963 -0.27044612 0.16937031 -0.30869105 0.10653938
-0.038244907 -0.07922159 0.26498258 -0.24039656 -0.114734724 -0.27044612 0.22673766 0.26498258
-0.0054635582 0.027317792 -0.013658896 -0.073758036 0.12019828 0.25132367 -0.13932073 0.3004957
0.21854234 0.032781348 0.259519 0.18849276 0.18849276 0.27044612 0.051903803 0.0027317791
0.20488344 -0.10107583 -0.28410503 0.24312834 -0.1966881 0.0 0.04097669 0.20488344
0.26225078 0.0109271165 -0.032781348 0.14751607 -0.3004957 -0.03551313 -0.084685154 0.17483386
-0.0054635582 -0.24312834 -0.17210208 0.15024786 0.0054635582 -0.15024786 0.057367362 -0.25405547
0.18029742 -0.16663852 -0.09288049 -0.06283092 -0.24039656 -0.16390675 -0.10107583 -0.11200295
0.054635584 0.046440244 0.2759097 0.027317792 -0.30869105 0.23766479 -0.051903803 -0.12019828

sequential_9/quant_output/MatMul;sequential_9/quant_output/LastValueQuant/FakeQuantWithMinMaxVars i1 [1, 10] scale=0.005697712 zero_point=0
00000000: e594 7f67 c913 6294 9b37
-0.15383822 -0.61535287 0.7236094 0.5868643 -0.31337416 0.10825653 0.5583758 -0.61535287
-0.5754689 0.31337416
