models/opt-160x120x3.tflite (tflite, 817248 bytes, 9 tensors)

sequential_14/quant_conv2d_70/Conv2D;sequential_14/quant_conv2d_70/LastValueQuant/FakeQuantWithMinMaxVarsPerChannel i1 [24, 5, 5, 3]
00000000: 52f6 86ba 54d8 4726 7913 7d15 4667 9581
00000010: a78c d356 ad15 24de c251 e78c 48ff 326e
00000020: 3648 baa5 7903 bdd3 c88a a901 c74c 4483
00000030: a868 851a 9656 50f9 c8c0 0844 c764 dff1
00000040: 0170 1f75 701e 4b26 08ca cd4a a110 cbed
00000050: f988 a6f9 6aa1 39ff 3732 4d01 3830 a281
00000060: 4e86 ce4a b298 d85e 9bbd d358 2922 a005
00000070: 83c1 ac91 d53a c45e 5ebf 208c 5f63 aac6
00000080: 1cdd e59a 8919 4a02 d79d 176b fa63 ea30
00000090: fc6f c28b d4cf 036b 6e71 6fcc f5b1 60c0
000000a0: 3f10 c297 8f17 63ed 034d c850 dab8 fe40
000000b0: 35e5 e9f7 a773 2c20 11e9 e94d c5bf 76cd
000000c0: 55d2 04c1 76fe 64e7 adec 0237 9b1b c3b4
000000d0: 765a bd7f f14a 7f60 1858 3a6d c9ee 5ae7
000000e0: 56a5 39a8 a2fa 8c15 2458 da57 c525 814d
000000f0: f336 0789 d7e1 293f 2805 dbe7 c775 f3c0
82 -10 -122 -70 84 -40 71 38
121 19 125 21 70 103 -107 -127
-89 -116 -45 86 -83 21 36 -34
-62 81 -25 -116 72 -1 50 110
54 72 -70 -91 121 3 -67 -45
-56 -118 -87 1 -57 76 68 -125
-88 104 -123 26 -106 86 80 -7
-56 -64 8 68 -57 100 -33 -15
1 112 31 117 112 30 75 38
8 -54 -51 74 -95 16 -53 -19
-7 -120 -90 -7 106 -95 57 -1
55 50 77 1 56 48 -94 -127
78 -122 -50 74 -78 -104 -40 94
-101 -67 -45 88 41 34 -96 5
-125 -63 -84 -111 -43 58 -60 94
94 -65 32 -116 95 99 -86 -58
28 -35 -27 -102 -119 25 74 2
-41 -99 23 107 -6 99 -22 48
-4 111 -62 -117 -44 -49 3 107
110 113 111 -52 -11 -79 96 -64
63 16 -62 -105 -113 23 99 -19
3 77 -56 80 -38 -72 -2 64
53 -27 -23 -9 -89 115 44 32
17 -23 -23 77 -59 -65 118 -51
85 -46 4 -63 118 -2 100 -25
-83 -20 2 55 -101 27 -61 -76
118 90 -67 127 -15 74 127 96
24 88 58 109 -55 -18 90 -25
86 -91 57 -88 -94 -6 -116 21
36 88 -38 87 -59 37 -127 77
-13 54 7 -119 -41 -31 41 63
40 5 -37 -25 -57 117 -13 -64

sequential_14/quant_conv2d_71/Conv2D;sequential_14/quant_conv2d_71/LastValueQuant/FakeQuantWithMinMaxVarsPerChannel i1 [36, 5, 5, 24]
00000000: 22fb 01ad f8f7 0911 fbd1 41a2 05a4 df58
00000010: 38a0 0a2d 57d6 ffd7 5cde 67bd 4ee8 d5c9
00000020: 2e02 635f 3d00 d722 3a61 d914 4b9f b20e
00000030: e90c e7dd 3298 a922 3e45 f0e6 2ef6 a562
00000040: 4731 04a0 f4dc b1f8 9eb7 ba0a c0ea ce34
00000050: c0c5 ab4e 3f10 e05e 3944 fd95 c516 59ad
00000060: 06a3 3014 5aca 9ed2 e006 e32b f4e6 54ea
00000070: 2f52 c181 efe3 b34d 265a f1f4 e922 4636
00000080: 17b6 38be 3a11 a91f d409 07c8 47aa 3123
00000090: 6717 36b3 48d2 04c6 57d3 c755 ca03 1aa3
000000a0: e70f eb46 023e dfaf e8dc e6e4 54c5 c4d0
000000b0: c826 e3d5 30c2 07da 4f52 0c49 e8da f5a1
000000c0: 12a6 f84c 5bc2 c52e cce0 522e 2f3e 5440
000000d0: ff53 a235 e806 a7a5 4c3c 99da c4bd 4fe3
000000e0: acca 8ee2 961a e51f 09a6 a4c5 13f8 a79f
000000f0: b129 aa48 ebea 41d7 43e3 240a d930 ed54
34 -5 1 -83 -8 -9 9 17
-5 -47 65 -94 5 -92 -33 88
56 -96 10 45 87 -42 -1 -41
92 -34 103 -67 78 -24 -43 -55
46 2 99 95 61 0 -41 34
58 97 -39 20 75 -97 -78 14
-23 12 -25 -35 50 -104 -87 34
62 69 -16 -26 46 -10 -91 98
71 49 4 -96 -12 -36 -79 -8
-98 -73 -70 10 -64 -22 -50 52
-64 -59 -85 78 63 16 -32 94
57 68 -3 -107 -59 22 89 -83
6 -93 48 20 90 -54 -98 -46
-32 6 -29 43 -12 -26 84 -22
47 82 -63 -127 -17 -29 -77 77
38 90 -15 -12 -23 34 70 54
23 -74 56 -66 58 17 -87 31
-44 9 7 -56 71 -86 49 35
103 23 54 -77 72 -46 4 -58
87 -45 -57 85 -54 3 26 -93
-25 15 -21 70 2 62 -33 -81
-24 -36 -26 -28 84 -59 -60 -48
-56 38 -29 -43 48 -62 7 -38
79 82 12 73 -24 -38 -11 -95
18 -90 -8 76 91 -62 -59 46
-52 -32 82 46 47 62 84 64
-1 83 -94 53 -24 6 -89 -91
76 60 -103 -38 -60 -67 79 -29
-84 -54 -114 -30 -106 26 -27 31
9 -90 -92 -59 19 -8 -89 -97
-79 41 -86 72 -21 -22 65 -41
67 -29 36 10 -39 48 -19 84

sequential_14/quant_conv2d_72/Conv2D;sequential_14/quant_conv2d_72/LastValueQuant/FakeQuantWithMinMaxVarsPerChannel i1 [48, 5, 5, 36]
00000000: d368 9640 490f c149 998c f2cb cb3c f712
00000010: d21e 6596 d630 a355 a3fd 14e2 07b0 3b4d
00000020: bc41 edc7 d7a6 0bc0 1d4a fce5 f100 efae
00000030: cae8 c4b3 28e0 c8f1 fef1 0831 4df5 13b3
00000040: 3e34 c1ad 0535 a0a2 3ab8 430a c742 b1c8
00000050: 0d92 a1dd d6dc ee9b 1aee 364a 55c7 2a91
00000060: 4043 0cba cef4 dd09 57ba 4ef2 c005 4111
00000070: a535 2045 23de 4469 f7df 06a2 3c4e 544e
00000080: f790 976e a29d c917 d9f0 33b2 3ddd 41ff
00000090: 980c b196 70e8 5006 c117 3d47 fa94 5e4d
000000a0: cc52 3bbd 64e8 b8e6 2161 bf4f 5954 4fae
000000b0: bafa 04ee d904 c9f0 9942 53e1 d70d c09c
000000c0: 5433 e2ef a79a b7e3 5f30 0e39 e820 a109
000000d0: e534 1aee 4bca f5c3 bd5b 61e8 29e9 192f
000000e0: f3a7 00ee 60b7 a11b e6af 9a3d f5df 5611
000000f0: d8dc 389e 5e4d b364 be11 aebd 02c5 1003
-45 104 -106 64 73 15 -63 73
-103 -116 -14 -53 -53 60 -9 18
-46 30 101 -106 -42 48 -93 85
-93 -3 20 -30 7 -80 59 77
-68 65 -19 -57 -41 -90 11 -64
29 74 -4 -27 -15 0 -17 -82
-54 -24 -60 -77 40 -32 -56 -15
-2 -15 8 49 77 -11 19 -77
62 52 -63 -83 5 53 -96 -94
58 -72 67 10 -57 66 -79 -56
13 -110 -95 -35 -42 -36 -18 -101
26 -18 54 74 85 -57 42 -111
64 67 12 -70 -50 -12 -35 9
87 -70 78 -14 -64 5 65 17
-91 53 32 69 35 -34 68 105
-9 -33 6 -94 60 78 84 78
-9 -112 -105 110 -94 -99 -55 23
-39 -16 51 -78 61 -35 65 -1
-104 12 -79 -106 112 -24 80 6
-63 23 61 71 -6 -108 94 77
-52 82 59 -67 100 -24 -72 -26
33 97 -65 79 89 84 79 -82
-70 -6 4 -18 -39 4 -55 -16
-103 66 83 -31 -41 13 -64 -100
84 51 -30 -17 -89 -102 -73 -29
95 48 14 57 -24 32 -95 9
-27 52 26 -18 75 -54 -11 -61
-67 91 97 -24 41 -23 25 47
-13 -89 0 -18 96 -73 -95 27
-26 -81 -102 61 -11 -33 86 17
-40 -36 56 -98 94 77 -77 100
-66 17 -82 -67 2 -59 16 3

sequential_14/quant_conv2d_73/Conv2D;sequential_14/quant_conv2d_73/LastValueQuant/FakeQuantWithMinMaxVarsPerChannel i1 [64, 3, 3, 48]
00000000: 87e0 b2b0 3906 9115 c2d5 e9de 540a 0c5d
00000010: 3b37 55da 05f5 7053 2ab8 3e3e 6b08 249c
00000020: 1abe c6da 859a ef00 07e8 8799 14f2 d234
00000030: a6ba 10d3 cbd8 bdfd c03e bb72 2e86 3e3e
00000040: 2df4 306e 434e 9e90 bb34 d24d 6865 0def
00000050: a203 0d65 d8ac e834 08fd d94c 3160 f196
00000060: eb07 135c 0e87 a7b7 c6be 2ed5 d352 61a2
00000070: 0acf 98a4 63c9 d8e0 e8e5 28bf ed41 a90e
00000080: ccc7 3f19 2d0d a634 c106 9666 a434 afb4
00000090: 35f3 0058 edb1 0cc3 3bd7 1f3c 0919 cc2b
000000a0: e463 f21e 38e2 1eb5 0970 f69f fb25 d5b4
000000b0: 242f 4eed 2533 1169 9268 4994 aaa3 2539
000000c0: f093 d9a4 ae3a 27b3 0cf3 62ef abf0 09fb
000000d0: d23d da14 39b0 ed9d a344 50f4 20ee adce
000000e0: e2b5 4191 9c9b ab45 f402 8dc6 6b48 b631
000000f0: cbd3 572a 5f37 caef 060a d970 1bd4 06ab
-121 -32 -78 -80 57 6 -111 21
-62 -43 -23 -34 84 10 12 93
59 55 85 -38 5 -11 112 83
42 -72 62 62 107 8 36 -100
26 -66 -58 -38 -123 -102 -17 0
7 -24 -121 -103 20 -14 -46 52
-90 -70 16 -45 -53 -40 -67 -3
-64 62 -69 114 46 -122 62 62
45 -12 48 110 67 78 -98 -112
-69 52 -46 77 104 101 13 -17
-94 3 13 101 -40 -84 -24 52
8 -3 -39 76 49 96 -15 -106
-21 7 19 92 14 -121 -89 -73
-58 -66 46 -43 -45 82 97 -94
10 -49 -104 -92 99 -55 -40 -32
-24 -27 40 -65 -19 65 -87 14
-52 -57 63 25 45 13 -90 52
-63 6 -106 102 -92 52 -81 -76
53 -13 0 88 -19 -79 12 -61
59 -41 31 60 9 25 -52 43
-28 99 -14 30 56 -30 30 -75
9 112 -10 -97 -5 37 -43 -76
36 47 78 -19 37 51 17 105
-110 104 73 -108 -86 -93 37 57
-16 -109 -39 -92 -82 58 39 -77
12 -13 98 -17 -85 -16 9 -5
-46 61 -38 20 57 -80 -19 -99
-93 68 80 -12 32 -18 -83 -50
-30 -75 65 -111 -100 -101 -85 69
-12 2 -115 -58 107 72 -74 49
-53 -45 87 42 95 55 -54 -17
6 10 -39 112 27 -44 6 -85

sequential_14/quant_conv2d_74/Conv2D;sequential_14/quant_conv2d_74/LastValueQuant/FakeQuantWithMinMaxVarsPerChannel i1 [64, 3, 3, 64]
00000000: 7712 57d2 b675 5460 c4cd a65e 060b 9b42
00000010: 5631 dfe7 1bfc 2110 e78c c41a 9c15 1fb2
00000020: ed6e a4e5 ee87 6844 190b 141b caae 124a
00000030: e411 d958 0313 e52a 67ee 5054 b532 6665
00000040: f145 2218 06aa 6ac2 b85a b0ce 69b7 f68a
00000050: b075 5230 1a83 72b4 c5ea ad1a f68b b3a7
00000060: 5df3 d3fd eca9 d2e7 d1ff d7cc 5f71 5ba5
00000070: c6e9 4d30 890e 05f0 d006 4f85 504a 9025
00000080: af6c f657 732d 1ae0 9e17 d5b1 ec41 9af7
00000090: e05f df2b 0519 9297 545b 0397 5794 4d76
000000a0: 833a f574 a1ff 8a27 2c3d bf81 0c8a b741
000000b0: cbf4 fd01 d5e8 16b7 4704 da8a 972a ecab
000000c0: d8e2 efac 978a 1c11 581e 2623 c892 6ba1
000000d0: df65 9398 af50 fd0c 9e97 7452 2fb9 53df
000000e0: 9f3e 3c2e 46e9 d5ea c463 4ac6 bae5 f714
000000f0: 405d 4700 9034 f5e5 b3b4 a049 f4e2 0d4a
119 18 87 -46 -74 117 84 96
-60 -51 -90 94 6 11 -101 66
86 49 -33 -25 27 -4 33 16
-25 -116 -60 26 -100 21 31 -78
-19 110 -92 -27 -18 -121 104 68
25 11 20 27 -54 -82 18 74
-28 17 -39 88 3 19 -27 42
103 -18 80 84 -75 50 102 101
-15 69 34 24 6 -86 106 -62
-72 90 -80 -50 105 -73 -10 -118
-80 117 82 48 26 -125 114 -76
-59 -22 -83 26 -10 -117 -77 -89
93 -13 -45 -3 -20 -87 -46 -25
-47 -1 -41 -52 95 113 91 -91
-58 -23 77 48 -119 14 5 -16
-48 6 79 -123 80 74 -112 37
-81 108 -10 87 115 45 26 -32
-98 23 -43 -79 -20 65 -102 -9
-32 95 -33 43 5 25 -110 -105
84 91 3 -105 87 -108 77 118
-125 58 -11 116 -95 -1 -118 39
44 61 -65 -127 12 -118 -73 65
-53 -12 -3 1 -43 -24 22 -73
71 4 -38 -118 -105 42 -20 -85
-40 -30 -17 -84 -105 -118 28 17
88 30 38 35 -56 -110 107 -95
-33 101 -109 -104 -81 80 -3 12
-98 -105 116 82 47 -71 83 -33
-97 62 60 46 70 -23 -43 -22
-60 99 74 -58 -70 -27 -9 20
64 93 71 0 -112 52 -11 -27
-77 -76 -96 73 -12 -30 13 74

sequential_14/quant_dense_42/MatMul;sequential_14/quant_dense_42/LastValueQuant/FakeQuantWithMinMaxVars i1 [100, 6656] scale=0.0004564539 zero_point=0
00000000: fe07 0134 e21e ff1d 13d2 2a1c e631 d4ff
00000010: 32f3 19c6 e9db 0548 1cde f6d8 d12a cefe
00000020: 3d11 3cfe f0c2 d922 2113 081e ddd1 00f7
00000030: da02 2be8 f0d9 19c3 fd1a f428 ebc4 0cef
00000040: fff6 cb42 f027 ead7 d92d d825 e4d2 37cb
00000050: 24ea 14e7 f801 32cc 1dc8 400e d8da df09
00000060: f2ea d30a 1fed c429 063e 3510 21e7 06cc
00000070: 4617 162f 4416 dd2f 1229 d92e fefb 21d1
00000080: db3f e82b 2529 aece 1938 dada f132 4604
00000090: 1b1f f41d 2101 f10c 1d17 c5f8 de32 45bd
000000a0: 1910 3216 2d08 3cfc f6ce 0fc1 ebfe 2839
000000b0: d33f f9c8 cbff 3ce3 f22d 29ed 01d9 3b15
000000c0: 02c9 031b 1f09 1cf0 2421 c414 02fb 3414
000000d0: f527 eb08 c500 1921 09c4 0c2d c4eb df1a
000000e0: 19f8 c515 1bd8 363f 1231 e12f 29f2 1ecf
000000f0: 2e11 ce41 db30 e2f5 eb1c ddd8 d8f5 c6c5
-0.0009129078 0.0031951773 0.0004564539 0.023735603 -0.013693618 0.013693618 -0.0004564539 0.013237163
0.008672624 -0.02099688 0.019171065 0.012780709 -0.011867802 0.022366242 -0.020083971 -0.0004564539
0.022822695 -0.005933901 0.011411347 -0.026474327 -0.01049844 -0.016888795 0.0022822695 0.032864682
0.012780709 -0.015519433 -0.004564539 -0.018258156 -0.021453334 0.019171065 -0.022822695 -0.0009129078
0.02784369 0.0077597164 0.027387235 -0.0009129078 -0.0073032626 -0.028300142 -0.017801702 0.015519433
0.015062979 0.008672624 0.0036516313 0.013693618 -0.015975887 -0.021453334 0.0 -0.0041080853
-0.017345248 0.0009129078 0.019627519 -0.010954894 -0.0073032626 -0.017801702 0.011411347 -0.02784369
-0.0013693618 0.011867802 -0.005477447 0.018258156 -0.009585532 -0.027387235 0.005477447 -0.0077597164
-0.0004564539 -0.004564539 -0.024192058 0.030125959 -0.0073032626 0.017801702 -0.010041986 -0.01871461
-0.017801702 0.020540426 -0.018258156 0.016888795 -0.012780709 -0.02099688 0.025104966 -0.024192058
0.016432341 -0.010041986 0.009129078 -0.011411347 -0.0036516313 0.0004564539 0.022822695 -0.023735603
0.013237163 -0.025561418 0.02921305 0.0063903546 -0.018258156 -0.017345248 -0.015062979 0.0041080853
-0.0063903546 -0.010041986 -0.020540426 0.004564539 0.014150071 -0.008672624 -0.027387235 0.01871461
0.0027387235 0.028300142 0.024192058 0.0073032626 0.015062979 -0.011411347 0.0027387235 -0.023735603
0.031951774 0.01049844 0.010041986 0.021453334 0.031038865 0.010041986 -0.015975887 0.021453334
0.008216171 0.01871461 -0.017801702 0.02099688 -0.0009129078 -0.0022822695 0.015062979 -0.021453334
-0.016888795 0.028756596 -0.010954894 0.019627519 0.016888795 0.01871461 -0.03742922 -0.022822695
0.011411347 0.025561418 -0.017345248 -0.017345248 -0.006846809 0.022822695 0.031951774 0.0018258156
0.012324256 0.014150071 -0.005477447 0.013237163 0.015062979 0.0004564539 -0.006846809 0.005477447
0.013237163 0.01049844 -0.026930781 -0.0036516313 -0.015519433 0.022822695 0.03149532 -0.030582411
0.011411347 0.0073032626 0.022822695 0.010041986 0.020540426 0.0036516313 0.027387235 -0.0018258156
-0.004564539 -0.022822695 0.006846809 -0.028756596 -0.009585532 -0.0009129078 0.018258156 0.026017873
-0.020540426 0.028756596 -0.0031951773 -0.025561418 -0.024192058 -0.0004564539 0.027387235 -0.013237163
-0.0063903546 0.020540426 0.01871461 -0.008672624 0.0004564539 -0.017801702 0.026930781 0.009585532
0.0009129078 -0.025104966 0.0013693618 0.012324256 0.014150071 0.0041080853 0.012780709 -0.0073032626
0.016432341 0.015062979 -0.027387235 0.009129078 0.0009129078 -0.0022822695 0.023735603 0.009129078
-0.005020993 0.017801702 -0.009585532 0.0036516313 -0.026930781 0.0 0.011411347 0.015062979
0.0041080853 -0.027387235 0.005477447 0.020540426 -0.027387235 -0.009585532 -0.015062979 0.011867802
0.011411347 -0.0036516313 -0.026930781 0.009585532 0.012324256 -0.018258156 0.024648512 0.028756596
0.008216171 0.022366242 -0.014150071 0.021453334 0.01871461 -0.0063903546 0.013693618 -0.022366242
0.02099688 0.0077597164 -0.022822695 0.029669505 -0.016888795 0.021909788 -0.013693618 -0.005020993
-0.009585532 0.012780709 -0.015975887 -0.018258156 -0.018258156 -0.005020993 -0.026474327 -0.026930781

sequential_14/quant_dense_43/MatMul;sequential_14/quant_dense_43/LastValueQuant/FakeQuantWithMinMaxVars i1 [50, 100] scale=0.0016095936 zero_point=0
00000000: cfc6 ca47 ba83 d0c8 2d8c 6028 f96a 1e67
00000010: ac2f 3817 0403 0ce7 8fed 42b8 fee4 dde2
00000020: ae11 cf2f 1842 d5ae 4857 2d67 f02e 9eba
00000030: ef04 fc6c 4f1b 7114 255f 9e72 70a3 3ddf
00000040: a226 cbcc a8a1 0daa 25c3 ff03 7a51 6bdf
00000050: 1495 5ff2 a16f 47e8 cda8 049f 59d5 c6d4
00000060: 3f1c b8e8 e8f0 b4fb 9cac bf6d 153b 15db
00000070: f293 1ddb e548 73ad 5842 b2d1 b1fd 95d6
00000080: 6275 483c a888 daae 1b54 e8c0 5731 b12f
00000090: 1664 492b 3fd6 c837 f8cd ef88 2773 3468
000000a0: 021e d4df 3022 a8e4 9cfe a19e 4ea2 b9e1
000000b0: ddd2 6bdc 5f66 a5ab 06df fa88 45c5 df5d
000000c0: e1bf 68f0 29f7 ccc0 6fe7 6adf 3fdb c933
000000d0: 8b76 642c 95b8 c62b 0ad0 2253 8f8b 6e37
000000e0: 413d b6f8 0be6 496b 29f6 1827 3002 7cf4
000000f0: 2d6c 43f8 a0cd d70c 1636 54f8 c80b ca79
-0.07887009 -0.09335643 -0.086918056 0.11428115 -0.112671554 -0.2011992 -0.077260494 -0.09013724
0.07243171 -0.18671286 0.15452099 0.064383745 -0.011267155 0.17061692 0.04828781 0.16578814
-0.13520586 0.0756509 0.09013724 0.037020653 0.0064383745 0.004828781 0.019315124 -0.04023984
-0.18188408 -0.030582279 0.10623318 -0.11589074 -0.0032191873 -0.04506862 -0.056335777 -0.04828781
-0.13198668 0.027363092 -0.07887009 0.0756509 0.038630247 0.10623318 -0.069212526 -0.13198668
0.11589074 0.14003465 0.07243171 0.16578814 -0.025753498 0.07404131 -0.15774018 -0.112671554
-0.027363092 0.0064383745 -0.0064383745 0.17383611 0.1271579 0.043459028 0.18188408 0.032191873
0.059554964 0.1529114 -0.15774018 0.18349367 0.18027449 -0.14969221 0.09818521 -0.05311659
-0.1513018 0.061164558 -0.08530846 -0.08369887 -0.14164424 -0.1529114 0.020924717 -0.13842505
0.059554964 -0.09818521 -0.0016095936 0.004828781 0.19637042 0.13037708 0.17222652 -0.05311659
0.032191873 -0.17222652 0.1529114 -0.02253431 -0.1529114 0.1786649 0.11428115 -0.038630247
-0.082089275 -0.14164424 0.0064383745 -0.15613058 0.14325383 -0.069212526 -0.09335643 -0.07082212
0.1014044 0.04506862 -0.11589074 -0.038630247 -0.038630247 -0.025753498 -0.122329116 -0.008047968
-0.16095936 -0.13520586 -0.104623586 0.1754457 0.033801466 0.094966024 0.033801466 -0.059554964
-0.02253431 -0.1754457 0.046678215 -0.059554964 -0.043459028 0.11589074 0.18510327 -0.13359627
0.14164424 0.10623318 -0.1255483 -0.0756509 -0.1271579 -0.004828781 -0.17222652 -0.06760293
0.15774018 0.18832245 0.11589074 0.09657562 -0.14164424 -0.19315124 -0.061164558 -0.13198668
0.043459028 0.13520586 -0.038630247 -0.10301399 0.14003465 0.07887009 -0.1271579 0.0756509
0.03541106 0.16095936 0.117500335 0.069212526 0.1014044 -0.06760293 -0.09013724 0.08852765
-0.012876749 -0.082089275 -0.027363092 -0.19315124 0.06277415 0.18510327 0.08369887 0.16739774
0.0032191873 0.04828781 -0.07082212 -0.05311659 0.077260494 0.054726183 -0.14164424 -0.04506862
-0.16095936 -0.0032191873 -0.1529114 -0.15774018 0.1255483 -0.1513018 -0.11428115 -0.049897403
-0.056335777 -0.07404131 0.17222652 -0.05794537 0.1529114 0.16417855 -0.14647302 -0.13681546
0.009657562 -0.05311659 -0.009657562 -0.19315124 0.11106196 -0.094966024 -0.05311659 0.14969221
-0.049897403 -0.104623586 0.16739774 -0.025753498 0.06599334 -0.014486343 -0.08369887 -0.10301399
0.1786649 -0.04023984 0.17061692 -0.05311659 0.1014044 -0.059554964 -0.08852765 0.082089275
-0.18832245 0.18993205 0.16095936 0.07082212 -0.17222652 -0.11589074 -0.09335643 0.069212526
0.016095936 -0.077260494 0.054726183 0.13359627 -0.18188408 -0.18832245 0.1770553 0.08852765
0.104623586 0.09818521 -0.11910993 -0.012876749 0.01770553 -0.041849434 0.117500335 0.17222652
0.06599334 -0.016095936 0.038630247 0.06277415 0.077260494 0.0032191873 0.19958961 -0.019315124
0.07243171 0.17383611 0.10784277 -0.012876749 -0.15452099 -0.082089275 -0.06599334 0.019315124
0.03541106 0.086918056 0.13520586 -0.012876749 -0.09013724 0.01770553 -0.086918056 0.19476083

sequential_14/quant_dense_44/MatMul;sequential_14/quant_dense_44/LastValueQuant/FakeQuantWithMinMaxVars i1 [10, 50] scale=0.0024860804 zero_point=0
00000000: 29b0 4683 662a ac57 ff3a 3302 2151 b83e
00000010: 05de ddb1 fb71 082a 7734 6ae2 85f4 a976
00000020: 9294 7b34 acc6 ad3e e627 d675 9962 6e3e
00000030: 89cf c259 a768 63c7 7285 c839 f9a4 7c75
00000040: 99a1 ec38 4fec c691 0348 c39f 5988 5924
00000050: ab91 b6a0 221e 4944 5c56 d7cc e7b7 e18f
00000060: a426 6742 f467 2a87 2dd1 d39b a501 6fe4
00000070: 96de c827 7a51 b6d7 3a0b 4e0a 8a3e ee95
00000080: 076f 874b dcdc be9d d005 b4bf 12e8 7697
00000090: 7daa a239 919f cd56 cdf1 7127 fb89 85d5
000000a0: 4819 51e4 664e 6102 109b 20ce f659 162f
000000b0: d6a4 b594 de75 e3e4 8d7e dbab 0ffc fe94
000000c0: 7312 9f42 0558 00af 4644 48f4 eadf ba07
000000d0: 6350 5dae 3b2b e242 2a18 9cea c8b3 a3a3
000000e0: f795 ec6a bb70 dd13 c82f ab28 a636 f5af
000000f0: 19dc 7f2d 2c0c 853e f3e0 0ba4 ec2b 9c9e
0.1019293 -0.19888642 0.17402562 -0.31076005 0.2535802 0.10441538 -0.20883076 0.216289
-0.0024860804 0.14419267 0.1267901 0.004972161 0.08204065 0.20137252 -0.17899778 0.15413699
0.0124304015 -0.08452673 -0.08701281 -0.19640034 -0.0124304015 0.2809271 0.019888643 0.10441538
0.29584357 0.12927619 0.26352453 -0.07458241 -0.3057879 -0.029832965 -0.216289 0.2933575
-0.27346885 -0.2684967 0.3057879 0.12927619 -0.20883076 -0.14419267 -0.20634468 0.15413699
-0.06463809 0.09695713 -0.10441538 0.2908714 -0.2560663 0.24363588 0.27346885 0.15413699
-0.29584357 -0.12181794 -0.15413699 0.22126116 -0.22126116 0.25855237 0.24612196 -0.14170659
0.28341317 -0.3057879 -0.1392205 0.14170659 -0.017402563 -0.2287194 0.30827397 0.2908714
-0.2560663 -0.23617764 -0.049721606 0.1392205 0.19640034 -0.049721606 -0.14419267 -0.27595493
0.007458241 0.17899778 -0.1516509 -0.2411498 0.22126116 -0.29832965 0.22126116 0.08949889
-0.21131684 -0.27595493 -0.18396994 -0.23866372 0.08452673 0.07458241 0.18148386 0.16905347
0.2287194 0.21380292 -0.1019293 -0.12927619 -0.06215201 -0.18148386 -0.07706849 -0.2809271
-0.2287194 0.09447105 0.2560663 0.1640813 -0.029832965 0.2560663 0.10441538 -0.30081573
0.11187362 -0.11684578 -0.11187362 -0.25109413 -0.22623332 0.0024860804 0.27595493 -0.06961025
-0.26352453 -0.08452673 -0.1392205 0.09695713 0.3033018 0.20137252 -0.18396994 -0.1019293
0.14419267 0.027346885 0.19391426 0.024860803 -0.2933575 0.15413699 -0.044749446 -0.2660106
0.017402563 0.27595493 -0.30081573 0.18645602 -0.08949889 -0.08949889 -0.1640813 -0.24612196
-0.11933186 0.0124304015 -0.1889421 -0.16159523 0.044749446 -0.05966593 0.2933575 -0.26103845
0.31076005 -0.21380292 -0.23369156 0.14170659 -0.27595493 -0.2411498 -0.1267901 0.21380292
-0.1267901 -0.037291206 0.2809271 0.09695713 -0.0124304015 -0.29584357 -0.3057879 -0.10690146
0.17899778 0.06215201 0.20137252 -0.06961025 0.2535802 0.19391426 0.2411498 0.004972161
0.039777286 -0.25109413 0.07955457 -0.12430402 -0.024860803 0.22126116 0.05469377 0.11684578
-0.10441538 -0.2287194 -0.18645602 -0.2684967 -0.08452673 0.2908714 -0.07209633 -0.06961025
-0.28589925 0.31324613 -0.09198497 -0.21131684 0.037291206 -0.009944322 -0.004972161 -0.2684967
0.28589925 0.044749446 -0.2411498 0.1640813 0.0124304015 0.21877508 0.0 -0.20137252
0.17402562 0.16905347 0.17899778 -0.029832965 -0.05469377 -0.08204065 -0.17402562 0.017402563
0.24612196 0.19888642 0.23120548 -0.2038586 0.14667875 0.10690146 -0.07458241 0.1640813
0.10441538 0.05966593 -0.24860804 -0.05469377 -0.1392205 -0.19142818 -0.23120548 -0.23120548
-0.022374723 -0.2660106 -0.049721606 0.26352453 -0.17153955 0.278441 -0.08701281 0.047235526
-0.1392205 0.11684578 -0.21131684 0.09944321 -0.22374724 0.13424835 -0.027346885 -0.20137252
0.06215201 -0.08949889 0.3157322 0.11187362 0.10938754 0.029832965 -0.3057879 0.15413699
-0.032319047 -0.07955457 0.027346885 -0.2287194 -0.049721606 0.10690146 -0.24860804 -0.24363588

sequential_14/quant_output/MatMul;sequential_14/quant_output/LastValueQuant/FakeQuantWithMinMaxVars i1 [1, 10] scale=0.005338061 zero_point=0
00000000: 511e 6626 a037 59fd e981
0.43238294 0.16014184 0.54448223 0.20284632 -0.51245385 0.29359338 0.47508743 -0.016014183
-0.122775406 -0.67793375
