models/opt-160x66x3.tflite (tflite, 234632 bytes, 9 tensors)

sequential/quant_conv2d/Conv2D;sequential/quant_conv2d/LastValueQuant/FakeQuantWithMinMaxVarsPerChannel i1 [24, 5, 5, 3]
000000 6e bb a7 46 34 99 a9 0a e1 fa a1 c7 a3 58 53 eb
       110 -69 -89 70 52 -103 -87 10 -31 -6 -95 -57 -93 88 83 -21
000010 1f e3 c9 ec 00 4b 4e eb c3 b7 3a 25 bf 38 57 9e
       31 -29 -55 -20 0 75 78 -21 -61 -73 58 37 -65 56 87 -98
000020 fa 7b d1 b8 6a 4a d8 4d 8f 58 b9 49 99 19 21 47
       -6 123 -47 -72 106 74 -40 77 -113 88 -71 73 -103 25 33 71
000030 02 e3 2c 25 4d 81 0a ff a1 09 f9 9d 79 43 9d 7f
       2 -29 44 37 77 -127 10 -1 -95 9 -7 -99 121 67 -99 127
000040 ba 60 57 69 12 43 39 ba 49 25 69 c2 e2 0e a0 bf
       -70 96 87 105 18 67 57 -70 73 37 105 -62 -30 14 -96 -65
000050 0d 86 b8 04 b7 22 56 8e 4a e4 7d c2 8b c0 2d 7e
       13 -122 -72 4 -73 34 86 -114 74 -28 125 -62 -117 -64 45 126
000060 87 47 57 ff c0 7f d1 4c ab b8 13 08 9a a9 35 e0
       -121 71 87 -1 -64 127 -47 76 -85 -72 19 8 -102 -87 53 -32
000070 ab 04 84 d3 fd c4 0f af 9c 9e 49 45 cc cd 45 db
       -85 4 -124 -45 -3 -60 15 -81 -100 -98 73 69 -52 -51 69 -37
000080 53 8e 3f 10 77 1e 44 b4 52 66 fc ce cb 3a ff 8a
       83 -114 63 16 119 30 68 -76 82 102 -4 -50 -53 58 -1 -118
000090 aa 17 db 3d a6 34 cd 9e ad 4f d2 c3 3f 1c 0b f1
       -86 23 -37 61 -90 52 -51 -98 -83 79 -46 -61 63 28 11 -15
0000a0 cc 6f 8f fa bc c6 ec ec 42 ef 67 18 44 79 96 3c
       -52 111 -113 -6 -68 -58 -20 -20 66 -17 103 24 68 121 -106 60
0000b0 cf d5 fb c0 a3 67 60 a8 22 cb 39 23 87 af 4e 2f
       -49 -43 -5 -64 -93 103 96 -88 34 -53 57 35 -121 -81 78 47
0000c0 84 49 81 1c c8 2c da bb 8d 55 2f 8e 6d 05 65 1b
       -124 73 -127 28 -56 44 -38 -69 -115 85 47 -114 109 5 101 27
0000d0 36 3b b7 ad d4 8f 5f aa 1e ff 10 20 13 da fa c2
       54 59 -73 -83 -44 -113 95 -86 30 -1 16 32 19 -38 -6 -62
0000e0 65 90 38 bf 58 51 f4 bf 0b e9 e9 4d 60 91 74 46
       101 -112 56 -65 88 81 -12 -65 11 -23 -23 77 96 -111 116 70
0000f0 33 ff 3b 2a 2b ba 08 5b db 33 ef 4d be 73 58 9a
       51 -1 59 42 43 -70 8 91 -37 51 -17 77 -66 115 88 -102

sequential/quant_conv2d_1/Conv2D;sequential/quant_conv2d_1/LastValueQuant/FakeQuantWithMinMaxVarsPerChannel i1 [36, 5, 5, 24]
000000 c6 b5 45 62 a1 0c 51 d6 53 9e a3 2b a7 a7 f1 e9
       -58 -75 69 98 -95 12 81 -42 83 -98 -93 43 -89 -89 -15 -23
000010 36 09 21 5b 3a 0f ee f7 58 4f b1 1c fb b3 98 15
       54 9 33 91 58 15 -18 -9 88 79 -79 28 -5 -77 -104 21
000020 c0 3b d8 36 b5 f7 53 fa 18 e6 17 fb ab a9 ea a7
       -64 59 -40 54 -75 -9 83 -6 24 -26 23 -5 -85 -87 -22 -89
000030 4a 10 4a 66 24 f3 b7 41 f4 c8 8b f7 ee c3 06 fb
       74 16 74 102 36 -13 -73 65 -12 -56 -117 -9 -18 -61 6 -5
000040 93 2f 1d e2 2b de 2e 3a 26 b5 4d dd e6 28 02 07
       -109 47 29 -30 43 -34 46 58 38 -75 77 -35 -26 40 2 7
000050 b4 cd 0f ae 9e 0a d8 ce c2 fd ab dd 1d b0 4b 42
       -76 -51 15 -82 -98 10 -40 -50 -62 -3 -85 -35 29 -80 75 66
000060 a6 f1 d1 09 32 1c 43 37 f6 23 aa ef fb da f4 53
       -90 -15 -47 9 50 28 67 55 -10 35 -86 -17 -5 -38 -12 83
000070 a8 c4 b0 bc 2c 81 e7 54 b2 29 d7 53 3c f2 18 d1
       -88 -60 -80 -68 44 -127 -25 84 -78 41 -41 83 60 -14 24 -47
000080 d9 e8 a3 e5 d7 54 ae 2f e8 3a 39 e1 b3 c5 ad 51
       -39 -24 -93 -27 -41 84 -82 47 -24 58 57 -31 -77 -59 -83 81
000090 e2 1c 4b 1e 03 32 fb 26 24 94 e2 3c 0a f1 e8 ea
       -30 28 75 30 3 50 -5 38 36 -108 -30 60 10 -15 -24 -22
0000a0 0b e8 58 d2 ec 9a 53 29 de 37 cc 69 4b ef ed a1
       11 -24 88 -46 -20 -102 83 41 -34 55 -52 105 75 -17 -19 -95
0000b0 cf 1e f1 ae 3d e5 31 a9 1a 34 cb 57 04 35 ce fd
       -49 30 -15 -82 61 -27 49 -87 26 52 -53 87 4 53 -50 -3
0000c0 46 05 25 01 2f 39 1b 20 ea c2 cf b7 c1 0a fd ff
       70 5 37 1 47 57 27 32 -22 -62 -49 -73 -63 10 -3 -1
0000d0 42 4a 4d 49 0c dc f1 1a 13 3b ce fa cf 29 d8 17
       66 74 77 73 12 -36 -15 26 19 59 -50 -6 -49 41 -40 23
0000e0 22 ef b4 ad b4 eb d6 fd af a4 be 2a 01 0a fe a8
       34 -17 -76 -83 -76 -21 -42 -3 -81 -92 -66 42 1 10 -2 -88
0000f0 4e 1b a6 b9 37 52 a6 fd 4e 9e e1 dd cb 12 d9 00
       78 27 -90 -71 55 82 -90 -3 78 -98 -31 -35 -53 18 -39 0

sequential/quant_conv2d_2/Conv2D;sequential/quant_conv2d_2/LastValueQuant/FakeQuantWithMinMaxVarsPerChannel i1 [48, 5, 5, 36]
000000 b0 0c 24 37 4c 9c cb d9 f9 d8 5b ed d7 d6 3c e2
       -80 12 36 55 76 -100 -53 -39 -7 -40 91 -19 -41 -42 60 -30
000010 de 18 12 b3 13 1f 4a a2 dc b7 4b ae 05 fc 0a ec
       -34 24 18 -77 19 31 74 -94 -36 -73 75 -82 5 -4 10 -20
000020 3d 1b d5 0d 17 95 11 d6 51 ba ef b6 0a 94 0f 66
       61 27 -43 13 23 -107 17 -42 81 -70 -17 -74 10 -108 15 102
000030 fb 3d 9f ef ef e0 f3 a4 53 98 c7 54 0d 2b 48 30
       -5 61 -97 -17 -17 -32 -13 -92 83 -104 -57 84 13 43 72 48
000040 1f d0 f1 ec bb de 5d 41 2e 25 4e ec 15 15 5b fa
       31 -48 -15 -20 -69 -34 93 65 46 37 78 -20 21 21 91 -6
000050 3f 5c 17 55 c4 f7 24 4d 0f db 97 99 53 c1 24 3d
       63 92 23 85 -60 -9 36 77 15 -37 -105 -103 83 -63 36 61
000060 34 8a 3a a4 f0 46 23 b1 4f c8 4b 21 af f5 ed ee
       52 -118 58 -92 -16 70 35 -79 79 -56 75 33 -81 -11 -19 -18
000070 65 9a 2b d1 f6 5c 90 f5 5b 5d 66 d7 32 12 d7 b8
       101 -102 43 -47 -10 92 -112 -11 91 93 102 -41 50 18 -41 -72
000080 52 69 00 43 1a f5 18 0a 00 29 e2 a2 98 d9 00 eb
       82 105 0 67 26 -11 24 10 0 41 -30 -94 -104 -39 0 -21
000090 21 5d d3 cc 04 29 d6 54 04 d1 54 55 43 2c b8 4f
       33 93 -45 -52 4 41 -42 84 4 -47 84 85 67 44 -72 79
0000a0 4e dd 56 60 aa 24 1a 9c b4 10 ad e6 5f d7 4f f3
       78 -35 86 96 -86 36 26 -100 -76 16 -83 -26 95 -41 79 -13
0000b0 f9 f7 a3 b7 9a f3 0c 25 65 cc bc 6b 0b 1c 26 43
       -7 -9 -93 -73 -102 -13 12 37 101 -52 -68 107 11 28 38 67
0000c0 fe 14 28 1a e6 ac 5b 26 9a 55 38 09 ae eb 23 41
       -2 20 40 26 -26 -84 91 38 -102 85 56 9 -82 -21 35 65
0000d0 3c 1e 2c ea f5 1b c0 22 99 c9 3e 24 46 17 f3 f0
       60 30 44 -22 -11 27 -64 34 -103 -55 62 36 70 23 -13 -16
0000e0 eb 1a 59 c5 14 0d 45 9a fe 92 e8 b3 fd aa ae 06
       -21 26 89 -59 20 13 69 -102 -2 -110 -24 -77 -3 -86 -82 6
0000f0 fc 91 54 2a 0e f5 51 b4 15 61 16 16 f2 b4 cf 12
       -4 -111 84 42 14 -11 81 -76 21 97 22 22 -14 -76 -49 18

sequential/quant_conv2d_3/Conv2D;sequential/quant_conv2d_3/LastValueQuant/FakeQuantWithMinMaxVarsPerChannel i1 [64, 3, 3, 48]
000000 03 51 0f ae 38 f3 99 e5 94 5a 17 d1 fb 53 2c 4a
       3 81 15 -82 56 -13 -103 -27 -108 90 23 -47 -5 83 44 74
000010 6c b6 5c c7 c7 61 39 f9 fb da 92 da e7 e4 04 01
       108 -74 92 -57 -57 97 57 -7 -5 -38 -110 -38 -25 -28 4 1
000020 6a 4e ed 67 51 0d b8 b4 a4 a8 00 a2 30 de 57 6b
       106 78 -19 103 81 13 -72 -76 -92 -88 0 -94 48 -34 87 107
000030 fb 38 e4 36 de 3b 9f a7 f8 3d 12 18 e6 2f 51 04
       -5 56 -28 54 -34 59 -97 -89 -8 61 18 24 -26 47 81 4
000040 ab da 19 fd 8f 5c a2 ef 51 6a 39 ee 18 d5 c8 57
       -85 -38 25 -3 -113 92 -94 -17 81 106 57 -18 24 -43 -56 87
000050 29 cc 07 dc a5 51 3e 52 94 28 da 01 ef 68 30 30
       41 -52 7 -36 -91 81 62 82 -108 40 -38 1 -17 104 48 48
000060 e9 d3 c4 c2 fe 65 32 ea 30 26 fe a4 03 ac 05 33
       -23 -45 -60 -62 -2 101 50 -22 48 38 -2 -92 3 -84 5 51
000070 e5 9b 94 63 ab 5f 0e 01 8f 88 eb c3 1f 08 c9 e1
       -27 -101 -108 99 -85 95 14 1 -113 -120 -21 -61 31 8 -55 -31
000080 97 5a 20 5c e7 3e 1f 61 30 48 63 d6 4a 2d 52 fc
       -105 90 32 92 -25 62 31 97 48 72 99 -42 74 45 82 -4
000090 1f 4a b1 03 de 54 69 0b a2 fc 04 1e b7 39 50 54
       31 74 -79 3 -34 84 105 11 -94 -4 4 30 -73 57 80 84
0000a0 ee ae 6d 5c 29 32 95 f1 d8 cf 1e 33 3c 46 2a ce
       -18 -82 109 92 41 50 -107 -15 -40 -49 30 51 60 70 42 -50
0000b0 ee 45 81 2c 29 53 b8 15 50 e2 2c 96 a1 07 db 21
       -18 69 -127 44 41 83 -72 21 80 -30 44 -106 -95 7 -37 33
0000c0 33 d7 39 08 99 29 56 bc e2 3c 9f ba a3 40 0d ea
       51 -41 57 8 -103 41 86 -68 -30 60 -97 -70 -93 64 13 -22
0000d0 f0 35 3e f4 d8 1e 48 d4 c6 99 3a ab 37 20 b5 d4
       -16 53 62 -12 -40 30 72 -44 -58 -103 58 -85 55 32 -75 -44
0000e0 4c 6b b7 54 68 0f b5 a3 aa d3 b2 1a bb da 9b fd
       76 107 -73 84 104 15 -75 -93 -86 -45 -78 26 -69 -38 -101 -3
0000f0 09 af ef ba 9d d9 af 15 62 c4 11 a2 b8 10 99 59
       9 -81 -17 -70 -99 -39 -81 21 98 -60 17 -94 -72 16 -103 89

sequential/quant_conv2d_4/Conv2D;sequential/quant_conv2d_4/LastValueQuant/FakeQuantWithMinMaxVarsPerChannel i1 [64, 3, 3, 64]
000000 4a 40 4a c2 e4 b9 a3 0d ea 0f f4 2d 16 98 ce 62
       74 64 74 -62 -28 -71 -93 13 -22 15 -12 45 22 -104 -50 98
000010 c8 ba 5a 0f a5 67 60 45 ac be e6 d0 5e 11 d4 6d
       -56 -70 90 15 -91 103 96 69 -84 -66 -26 -48 94 17 -44 109
000020 c4 b2 32 dc ea d4 8b 14 cc 44 a5 c5 05 26 27 e5
       -60 -78 50 -36 -22 -44 -117 20 -52 68 -91 -59 5 38 39 -27
000030 41 35 59 bd 2d c2 a2 07 b2 e3 df 0d 5e 1b 5a 64
       65 53 89 -67 45 -62 -94 7 -78 -29 -33 13 94 27 90 100
000040 d8 ab 64 2a a9 c9 c2 51 61 b6 ee f4 5c 81 b5 cf
       -40 -85 100 42 -87 -55 -62 81 97 -74 -18 -12 92 -127 -75 -49
000050 b0 ea cb c8 3b cb 9d 37 30 09 ec cf 9f 56 f1 25
       -80 -22 -53 -56 59 -53 -99 55 48 9 -20 -49 -97 86 -15 37
000060 07 be 03 23 12 bc 37 b4 04 4d 5c 24 df fc b8 0e
       7 -66 3 35 18 -68 55 -76 4 77 92 36 -33 -4 -72 14
000070 23 bb fc ce 53 13 3a b2 33 d7 2b b1 fa 38 f2 64
       35 -69 -4 -50 83 19 58 -78 51 -41 43 -79 -6 56 -14 100
000080 27 9d 4e 5a cc ff af 36 1d c9 b8 1c 2a 07 53 b3
       39 -99 78 90 -52 -1 -81 54 29 -55 -72 28 42 7 83 -77
000090 21 a1 04 c3 8c 26 2d e9 9e 3a b2 ad 1d 2f 18 fb
       33 -95 4 -61 -116 38 45 -23 -98 58 -78 -83 29 47 24 -5
0000a0 39 55 57 35 ab e6 f2 fd ca 22 63 39 a5 c7 da 4d
       57 85 87 53 -85 -26 -14 -3 -54 34 99 57 -91 -57 -38 77
0000b0 ce 18 22 c3 b2 4c 0f b0 98 a8 d1 e3 b4 4f 9e 04
       -50 24 34 -61 -78 76 15 -80 -104 -88 -47 -29 -76 79 -98 4
0000c0 44 f0 4f d2 ba cd 19 f5 c1 49 50 3b 19 bb ec b1
       68 -16 79 -46 -70 -51 25 -11 -63 73 80 59 25 -69 -20 -79
0000d0 25 d8 03 f5 2a b5 ab b3 3e ed 52 57 61 a2 bd 03
       37 -40 3 -11 42 -75 -85 -77 62 -19 82 87 97 -94 -67 3
0000e0 13 de c6 f5 cb 05 d8 9f 0a 9a 08 31 29 ac 35 cb
       19 -34 -58 -11 -53 5 -40 -97 10 -102 8 49 41 -84 53 -53
0000f0 50 c6 17 43 e5 04 14 29 52 45 32 06 d9 a4 53 f6
       80 -58 23 67 -27 4 20 41 82 69 50 6 -39 -92 83 -10

sequential/quant_dense/MatMul;sequential/quant_dense/LastValueQuant/FakeQuantWithMinMaxVars i1 [100, 832] scale=0.0010558363 zero_point=0
000000 db df 35 c6 06 b2 2d 18 32 eb 27 c5 18 e9 c9 12
       -0.039065946 -0.0348426 0.055959325 -0.06123851 0.006335018 -0.08235523 0.047512636 0.025340073 0.052791815 -0.022172563 0.041177616 -0.06229434 0.025340073 -0.024284236 -0.058071 0.019005055
000010 2b d2 ef b5 dd 3a 27 d9 c1 1f cd ea 2e 21 f0 d3
       0.045400962 -0.048568472 -0.017949218 -0.07918772 -0.036954273 0.06123851 0.041177616 -0.041177616 -0.06651769 0.032730926 -0.053847652 -0.0232284 0.048568472 0.0348426 -0.016893381 -0.047512636
000020 22 2a df bb df d5 0c 18 ce 1d d1 c5 bf ce eb ec
       0.035898436 0.044345126 -0.0348426 -0.07285271 -0.0348426 -0.045400962 0.012670036 0.025340073 -0.052791815 0.030619254 -0.04962431 -0.06229434 -0.06862936 -0.052791815 -0.022172563 -0.021116726
000030 ce 0d 21 14 3d 4b bf 33 b1 e3 bc bf 36 3c c1 27
       -0.052791815 0.013725872 0.0348426 0.021116726 0.064406015 0.07918772 -0.06862936 0.053847652 -0.08341107 -0.030619254 -0.07179687 -0.06862936 0.057015162 0.06335018 -0.06651769 0.041177616
000040 d1 1c b8 de 3a 0b eb 18 0f ce 02 e8 1e ed b9 06
       -0.04962431 0.029563418 -0.07602022 -0.035898436 0.06123851 0.0116142 -0.022172563 0.025340073 0.015837545 -0.052791815 0.0021116727 -0.025340073 0.03167509 -0.02006089 -0.07496438 0.006335018
000050 cd 06 ca ef 12 fc 21 fc 29 33 01 df 3e c1 16 36
       -0.053847652 0.006335018 -0.057015162 -0.017949218 0.019005055 -0.0042233453 0.0348426 -0.0042233453 0.04328929 0.053847652 0.0010558363 -0.0348426 0.06546185 -0.06651769 0.0232284 0.057015162
000060 f9 0b 3c 24 2b b6 05 e3 0c d0 1f 08 16 0d 15 f7
       -0.0073908544 0.0116142 0.06335018 0.03801011 0.045400962 -0.07813189 0.0052791815 -0.030619254 0.012670036 -0.050680146 0.032730926 0.008446691 0.0232284 0.013725872 0.022172563 -0.009502527
000070 ed da c0 07 45 11 16 eb 19 48 dd fe c8 f2 02 39
       -0.02006089 -0.04012178 -0.067573525 0.0073908544 0.07285271 0.017949218 0.0232284 -0.022172563 0.026395908 0.07602022 -0.036954273 -0.0021116727 -0.059126835 -0.014781709 0.0021116727 0.060182672
000080 13 da 03 39 f9 bf 1a 28 f1 e7 21 04 da 3e b9 20
       0.02006089 -0.04012178 0.003167509 0.060182672 -0.0073908544 -0.06862936 0.027451744 0.042233452 -0.015837545 -0.026395908 0.0348426 0.0042233453 -0.04012178 0.06546185 -0.07496438 0.033786763
000090 09 0b 03 da c4 3a f0 ef b9 e4 11 d4 fc 0d b8 46
       0.009502527 0.0116142 0.003167509 -0.04012178 -0.06335018 0.06123851 -0.016893381 -0.017949218 -0.07496438 -0.029563418 0.017949218 -0.0464568 -0.0042233453 0.013725872 -0.07602022 0.073908545
0000a0 03 d6 d4 0c fb 1b b0 d0 14 0c f3 2b e3 30 2c e4
       0.003167509 -0.044345126 -0.0464568 0.012670036 -0.0052791815 0.028507581 -0.084466904 -0.050680146 0.021116726 0.012670036 -0.013725872 0.045400962 -0.030619254 0.050680146 0.0464568 -0.029563418
0000b0 b4 be d6 24 da c4 22 c0 09 43 13 33 bd fb 1d 0f
       -0.08024356 -0.0696852 -0.044345126 0.03801011 -0.04012178 -0.06335018 0.035898436 -0.067573525 0.009502527 0.070741035 0.02006089 0.053847652 -0.070741035 -0.0052791815 0.030619254 0.015837545
0000c0 f4 17 2c 3a 28 18 16 b6 fd e5 fc 1e fe 1b 1f 33
       -0.012670036 0.024284236 0.0464568 0.06123851 0.042233452 0.025340073 0.0232284 -0.07813189 -0.003167509 -0.028507581 -0.0042233453 0.03167509 -0.0021116727 0.028507581 0.032730926 0.053847652
0000d0 f4 12 fc 2d 39 16 14 e3 ec b8 bc e9 b8 fe f9 b4
       -0.012670036 0.019005055 -0.0042233453 0.047512636 0.060182672 0.0232284 0.021116726 -0.030619254 -0.021116726 -0.07602022 -0.07179687 -0.024284236 -0.07602022 -0.0021116727 -0.0073908544 -0.08024356
0000e0 b7 c2 b6 e4 e0 0c 41 41 b7 e3 f3 13 47 29 46 cd
       -0.077076055 -0.06546185 -0.07813189 -0.029563418 -0.033786763 0.012670036 0.06862936 0.06862936 -0.077076055 -0.030619254 -0.013725872 0.02006089 0.07496438 0.04328929 0.073908545 -0.053847652
0000f0 02 ba 16 2b 3d d4 c7 13 28 41 42 bd c9 f4 0e 36
       0.0021116727 -0.073908545 0.0232284 0.045400962 0.064406015 -0.0464568 -0.060182672 0.02006089 0.042233452 0.06862936 0.0696852 -0.070741035 -0.058071 -0.012670036 0.014781709 0.057015162

sequential/quant_dense_1/MatMul;sequential/quant_dense_1/LastValueQuant/FakeQuantWithMinMaxVars i1 [50, 100] scale=0.0018059968 zero_point=0
000000 c7 59 e9 4c 1d 48 a5 24 24 9e 41 d5 c0 33 96 44
       -0.10294182 0.16073371 -0.041537926 0.13725576 0.052373905 0.13003176 -0.16434571 0.06501588 0.06501588 -0.17698768 0.11738979 -0.07765786 -0.11558379 0.092105836 -0.19143565 0.12280778
000010 d8 d3 25 3b bc e0 b6 04 35 b9 27 98 ce 23 29 ba
       -0.07223987 -0.08126985 0.06682188 0.10655381 -0.12280778 -0.057791896 -0.13364376 0.007223987 0.095717825 -0.12822577 0.07043387 -0.18782367 -0.09029984 0.063209884 0.07404587 -0.12641977
000020 55 b5 23 36 38 20 19 4f 2f 40 9e 60 59 20 6c ea
       0.15350972 -0.13544975 0.063209884 0.09752382 0.10113582 0.057791896 0.04514992 0.14267375 0.08488185 0.11558379 -0.17698768 0.1733757 0.16073371 0.057791896 0.19504765 -0.039731927
000030 63 2a 0c 14 47 32 51 3b f7 5e c9 a1 45 fe f1 58
       0.17879368 0.075851865 0.021671962 0.036119934 0.12822577 0.09029984 0.14628574 0.10655381 -0.01625397 0.1697637 -0.09932982 -0.17156969 0.12461378 -0.0036119935 -0.027089952 0.15892771
000040 0b 16 ba fd 68 9f ed 1b af bd f9 20 cf 2b b4 65
       0.019865964 0.039731927 -0.12641977 -0.0054179905 0.18782367 -0.17518169 -0.03431394 0.04876191 -0.14628574 -0.12100178 -0.0126419775 0.057791896 -0.08849384 0.07765786 -0.13725576 0.18240567
000050 ce ae ce 91 f8 48 f3 28 c5 4d db 2a b5 c2 0d fb
       -0.09029984 -0.14809173 -0.09029984 -0.20046563 -0.014447974 0.13003176 -0.023477959 0.07223987 -0.10655381 0.13906175 -0.06682188 0.075851865 -0.13544975 -0.111971796 0.023477959 -0.009029984
000060 60 ae 66 d7 14 50 aa 37 cc 27 3f ac d8 2e e4 2e
       0.1733757 -0.14809173 0.18421167 -0.07404587 0.036119934 0.14447974 -0.15531573 0.09932982 -0.093911834 0.07043387 0.113777794 -0.15170373 -0.07223987 0.08307585 -0.05056791 0.08307585
000070 14 fb 29 dc 95 d0 e0 97 30 f2 8e e2 fe 9c 56 26
       0.036119934 -0.009029984 0.07404587 -0.06501588 -0.19324166 -0.08668785 -0.057791896 -0.18962966 0.08668785 -0.025283955 -0.20588364 -0.054179903 -0.0036119935 -0.18059967 0.15531573 0.06862788
000080 a7 f8 a4 08 a7 4b c7 96 4e 61 61 d9 14 97 3f 4d
       -0.16073371 -0.014447974 -0.1661517 0.014447974 -0.16073371 0.13544975 -0.10294182 -0.19143565 0.14086774 0.17518169 0.17518169 -0.07043387 0.036119934 -0.18962966 0.113777794 0.13906175
000090 db ff 5b bf 3f c7 cf e1 54 6e 5f 56 6f a5 10 f3
       -0.06682188 -0.0018059968 0.16434571 -0.11738979 0.113777794 -0.10294182 -0.08849384 -0.055985898 0.15170373 0.19865964 0.17156969 0.15531573 0.20046563 -0.16434571 0.028895948 -0.023477959
0000a0 92 5f f3 f8 bf 58 a6 9a 3d 36 2f 96 57 58 28 95
       -0.19865964 0.17156969 -0.023477959 -0.014447974 -0.11738979 0.15892771 -0.1625397 -0.18421167 0.110165805 0.09752382 0.08488185 -0.19143565 0.15712172 0.15892771 0.07223987 -0.19324166
0000b0 50 c0 e1 50 0a 54 ee 02 99 3f 98 3a d5 e7 cf 9a
       0.14447974 -0.11558379 -0.055985898 0.14447974 0.018059967 0.15170373 -0.03250794 0.0036119935 -0.18601766 0.113777794 -0.18782367 0.10474781 -0.07765786 -0.04514992 -0.08849384 -0.18421167
0000c0 34 8b fc c7 f3 04 f2 b3 c0 a0 42 c0 c1 06 04 1d
       0.093911834 -0.21130162 -0.007223987 -0.10294182 -0.023477959 0.007223987 -0.025283955 -0.13906175 -0.11558379 -0.1733757 0.11919579 -0.11558379 -0.113777794 0.010835981 0.007223987 0.052373905
0000d0 f8 19 bc 1f f8 4e f3 b6 59 c4 24 05 e6 db a2 20
       -0.014447974 0.04514992 -0.12280778 0.055985898 -0.014447974 0.14086774 -0.023477959 -0.13364376 0.16073371 -0.108359806 0.06501588 0.009029984 -0.046955917 -0.06682188 -0.1697637 0.057791896
0000e0 ea ad bc 47 95 11 0b fd 2c 1f bc d1 20 01 08 c1
       -0.039731927 -0.14989772 -0.12280778 0.12822577 -0.19324166 0.030701945 0.019865964 -0.0054179905 0.079463854 0.055985898 -0.12280778 -0.08488185 0.057791896 0.0018059968 0.014447974 -0.113777794
0000f0 d8 d6 ce 19 5a eb dc f8 c5 a0 fa cc 6e ac cd fe
       -0.07223987 -0.075851865 -0.09029984 0.04514992 0.1625397 -0.037925933 -0.06501588 -0.014447974 -0.10655381 -0.1733757 -0.010835981 -0.093911834 0.19865964 -0.15170373 -0.092105836 -0.0036119935

sequential/quant_dense_2/MatMul;sequential/quant_dense_2/LastValueQuant/FakeQuantWithMinMaxVars i1 [10, 50] scale=0.0025712794 zero_point=0
000000 53 37 1c 0f bf de c5 d3 1a 01 95 c3 ba 8f d1 d6
       0.21341619 0.14142036 0.071995825 0.03856919 -0.16713317 -0.0874235 -0.15170549 -0.11570758 0.06685326 0.0025712794 -0.2751269 -0.15684804 -0.17998956 -0.29055458 -0.12085013 -0.10799374
000010 b7 aa dd 19 b2 01 65 5c a0 ff 19 0f b5 0f b7 00
       -0.1877034 -0.22113003 -0.08999478 0.064281985 -0.2005598 0.0025712794 0.25969923 0.2365577 -0.24684283 -0.0025712794 0.064281985 0.03856919 -0.19284596 0.03856919 -0.1877034 0.0
000020 9f d3 89 64 d5 69 e1 45 c6 c6 0e 65 87 dd b2 41
       -0.2494141 -0.11570758 -0.30598226 0.25712794 -0.110565014 0.26998433 -0.079709664 0.17741828 -0.1491342 -0.1491342 0.035997912 0.25969923 -0.3111248 -0.08999478 -0.2005598 0.16713317
000030 b6 43 bf 6a 51 b1 b8 76 41 9b 6f 32 32 4b ca b0
       -0.19027467 0.17227572 -0.16713317 0.27255562 0.20827363 -0.20313108 -0.18513212 0.30341098 0.16713317 -0.25969923 0.285412 0.12856397 0.12856397 0.19284596 -0.1388491 -0.20570235
000040 20 a9 44 a1 cf d8 6f c8 4f d7 56 0a 18 38 2e c8
       0.08228094 -0.22370131 0.174847 -0.24427155 -0.12599269 -0.102851175 0.285412 -0.14399165 0.20313108 -0.10542246 0.22113003 0.025712794 0.061710708 0.14399165 0.11827885 -0.14399165
000050 d6 af 89 a9 5e 64 a7 c5 a9 da ef fa 1e e8 e8 cd
       -0.10799374 -0.20827363 -0.30598226 -0.22370131 0.24170026 0.25712794 -0.22884387 -0.15170549 -0.22370131 -0.09770862 -0.04371175 -0.015427677 0.07713838 -0.061710708 -0.061710708 -0.13113526
000060 bb b4 e0 63 d5 b9 e2 fc ef 1e 41 61 78 e3 6e 58
       -0.17741828 -0.19541724 -0.08228094 0.25455666 -0.110565014 -0.18256083 -0.07713838 -0.010285118 -0.04371175 0.07713838 0.16713317 0.2494141 0.30855352 -0.0745671 0.28284073 0.22627258
000070 6c 96 b6 4e 70 65 a8 51 e0 a7 f9 25 77 cf 18 2a
       0.2776982 -0.27255562 -0.19027467 0.2005598 0.2879833 0.25969923 -0.22627258 0.20827363 -0.08228094 -0.22884387 -0.017998956 0.095137335 0.30598226 -0.12599269 0.061710708 0.10799374
000080 a5 c3 43 5b 3e 20 9a f8 ea 5d dc d2 09 cb 31 3b
       -0.23398642 -0.15684804 0.17227572 0.23398642 0.15941933 0.08228094 -0.2622705 -0.020570235 -0.056568146 0.23912899 -0.09256606 -0.11827885 0.023141515 -0.13627781 0.12599269 0.15170549
000090 bd b7 5f a7 34 40 c9 3c b1 9d f0 f3 30 65 44 00
       -0.17227572 -0.1877034 0.24427155 -0.22884387 0.13370652 0.16456188 -0.14142036 0.15427676 -0.20313108 -0.25455666 -0.04114047 -0.03342663 0.123421416 0.25969923 0.174847 0.0
0000a0 19 c4 51 a3 a4 8a cc b5 2e f6 4e 2f 95 65 d7 f6
       0.064281985 -0.15427676 0.20827363 -0.23912899 -0.2365577 -0.30341098 -0.13370652 -0.19284596 0.11827885 -0.025712794 0.2005598 0.12085013 -0.2751269 0.25969923 -0.10542246 -0.025712794
0000b0 02 ca 4d 03 6a 69 0c 4e 68 06 61 aa 27 d4 21 5b
       0.005142559 -0.1388491 0.19798851 0.0077138385 0.27255562 0.26998433 0.030855354 0.2005598 0.26741305 0.015427677 0.2494141 -0.22113003 0.1002799 -0.11313629 0.08485222 0.23398642
0000c0 2e d3 f4 27 ad a6 2d 47 f1 00 49 13 ad 76 07 c6
       0.11827885 -0.11570758 -0.030855354 0.1002799 -0.21341619 -0.23141515 0.11570758 0.18256083 -0.03856919 0.0 0.1877034 0.04885431 -0.21341619 0.30341098 0.017998956 -0.1491342
0000d0 91 43 36 c5 87 73 43 f9 c5 18 7b 12 31 c9 7c 53
       -0.285412 0.17227572 0.1388491 -0.15170549 -0.3111248 0.29569712 0.17227572 -0.017998956 -0.15170549 0.061710708 0.31626737 0.04628303 0.12599269 -0.14142036 0.31883866 0.21341619
0000e0 66 07 f4 06 54 5c 28 0a 33 c1 05 46 ba be 27 91
       0.2622705 0.017998956 -0.030855354 0.015427677 0.21598747 0.2365577 0.102851175 0.025712794 0.13113526 -0.1619906 0.012856397 0.17998956 -0.17998956 -0.16970444 0.1002799 -0.285412
0000f0 fa 20 89 39 7a cf 3e d5 17 5f 97 39 53 e0 8b 2a
       -0.015427677 0.08228094 -0.30598226 0.14656293 0.3136961 -0.12599269 0.15941933 -0.110565014 0.059139427 0.24427155 -0.26998433 0.14656293 0.21341619 -0.08228094 -0.3008397 0.10799374

sequential/quant_output/MatMul;sequential/quant_output/LastValueQuant/FakeQuantWithMinMaxVars i1 [1, 10] scale=0.005453407 zero_point=0
000000 4d 0c 5f b6 96 0d 3d 98 7f 5c
       0.41991234 0.06544088 0.5180737 -0.40355211 -0.5780611 0.070894286 0.3326578 -0.5671543 0.69258267 0.50171345
