models/opt-80x60x3.tflite (tflite, 156808 bytes, 9 tensors)

sequential_40/quant_conv2d_198/Conv2D;sequential_40/quant_conv2d_198/LastValueQuant/FakeQuantWithMinMaxVarsPerChannel i1 [24, 5, 5, 3]
92 37 68 11 81 -8 32 30
73 -14 66 105 -9 52 58 -70
81 43 75 -63 79 63 -51 -3
-10 105 67 11 -47 59 -26 109
121 42 -23 99 73 101 99 -23
114 -5 78 30 54 62 -22 108
-44 120 21 -33 -4 127 -62 85
115 -49 40 82 -78 115 -61 79
3 38 -32 -50 101 97 68 73
82 -45 40 -91 16 -58 -59 -1
-28 -40 -52 -75 -68 -35 13 -96
56 32 -103 -33 -102 -98 -41 -8
76 -1 56 -102 103 -88 5 -64
12 -119 -41 -44 -22 -91 -106 -6
54 -7 -82 -75 -108 60 -62 41
-76 -82 79 7 -57 -105 -76 19
-14 -55 7 -36 7 38 77 -127
-72 -96 -101 -52 92 -123 -2 -21
-111 -8 17 -28 -101 -114 66 127
92 -22 71 21 58 -47 -82 68
-14 112 -94 37 -6 -24 39 -6
-26 120 -65 -21 -69 64 -50 66
118 88 -5 104 87 -60 110 33
66 -16 -30 83 80 44 124 14
94 -38 96 58 -72 -41 -31 -13
22 -4 27 -60 -37 87 -65 87
122 7 56 122 -32 1 54 100
-73 40 -25 -59 7 -22 62 76
49 -7 -74 -108 -119 55 119 81
-14 63 95 -65 0 -53 -82 -60
51 10 -9 -73 34 -55 -91 -87
103 -111 -27 12 -32 -23 -3 38
00000000: 5c25 440b 51f8 201e 49f2 4269 f734 3aba
00000010: 512b 4bc1 4f3f cdfd f669 430b d13b e66d
00000020: 792a e963 4965 63e9 72fb 4e1e 363e ea6c
00000030: d478 15df fc7f c255 73cf 2852 b273 c34f
00000040: 0326 e0ce 6561 4449 52d3 28a5 10c6 c5ff
00000050: e4d8 ccb5 bcdd 0da0 3820 99df 9a9e d7f8
00000060: 4cff 389a 67a8 05c0 0c89 d7d4 eaa5 96fa
00000070: 36f9 aeb5 943c c229 b4ae 4f07 c797 b413
00000080: f2c9 07dc 0726 4d81 b8a0 9bcc 5c85 feeb
00000090: 91f8 11e4 9b8e 427f 5cea 4715 3ad1 ae44
000000a0: f270 a225 fae8 27fa e678 bfeb bb40 ce42
000000b0: 7658 fb68 57c4 6e21 42f0 e253 502c 7c0e
000000c0: 5eda 603a b8d7 e1f3 16fc 1bc4 db57 bf57
000000d0: 7a07 387a e001 3664 b728 e7c5 07ea 3e4c
000000e0: 31f9 b694 8937 7751 f23f 5fbf 00cb aec4
000000f0: 330a f7b7 22c9 a5a9 6791 e50c e0e9 fd26

sequential_40/quant_conv2d_199/Conv2D;sequential_40/quant_conv2d_199/LastValueQuant/FakeQuantWithMinMaxVarsPerChannel i1 [36, 5, 5, 24]
64 49 -113 35 -36 97 67 79
-62 78 47 -105 71 -66 -95 -23
-106 -108 -93 -59 -50 -34 24 -14
-101 5 13 59 -9 -34 29 -27
-87 -22 -29 -6 42 76 27 -45
-24 5 6 -121 -88 35 -24 -93
74 -33 -71 118 -59 47 -14 -50
-1 -39 57 18 63 43 83 73
-16 -74 -17 -74 -10 99 -65 70
79 4 112 36 -60 -12 -91 -70
-111 -28 -71 -28 86 -74 -53 76
22 0 -8 6 57 -80 71 -20
63 50 33 37 81 68 81 67
-17 -83 -76 -35 53 -1 4 -29
-9 -17 -19 61 118 32 45 -99
-111 -64 1 -50 -16 113 -17 65
-1 53 -59 6 -86 103 -67 122
-94 103 -92 -13 37 41 -69 52
58 -91 84 -38 11 55 -66 62
93 99 -125 83 17 106 20 -19
-49 -88 -64 -46 89 -85 -71 75
-28 -51 75 -18 -8 76 -77 -41
44 93 -97 53 -77 113 51 -99
-64 -11 10 -50 -91 -6 118 96
83 -8 -34 -74 30 -39 -79 16
-69 111 -2 -110 -66 -9 4 -32
79 0 -70 38 -107 -69 40 -95
-46 62 -23 66 65 -60 -52 -96
79 85 27 47 -59 53 -86 -6
25 114 91 -69 -91 -83 101 64
-101 51 -49 -85 2 83 -61 101
104 61 7 -55 30 -78 71 72
00000000: 4031 8f23 dc61 434f c24e 2f97 47be a1e9
00000010: 9694 a3c5 cede 18f2 9b05 0d3b f7de 1de5
00000020: a9ea e3fa 2a4c 1bd3 e805 0687 a823 e8a3
00000030: 4adf b976 c52f f2ce ffd9 3912 3f2b 5349
00000040: f0b6 efb6 f663 bf46 4f04 7024 c4f4 a5ba
00000050: 91e4 b9e4 56b6 cb4c 1600 f806 39b0 47ec
00000060: 3f32 2125 5144 5143 efad b4dd 35ff 04e3
00000070: f7ef ed3d 7620 2d9d 91c0 01ce f071 ef41
00000080: ff35 c506 aa67 bd7a a267 a4f3 2529 bb34
00000090: 3aa5 54da 0b37 be3e 5d63 8353 116a 14ed
000000a0: cfa8 c0d2 59ab b94b e4cd 4bee f84c b3d7
000000b0: 2c5d 9f35 b371 339d c0f5 0ace a5fa 7660
000000c0: 53f8 deb6 1ed9 b110 bb6f fe92 bef7 04e0
000000d0: 4f00 ba26 95bb 28a1 d23e e942 41c4 cca0
000000e0: 4f55 1b2f c535 aafa 1972 5bbb a5ad 6540
000000f0: 9b33 cfab 0253 c365 683d 07c9 1eb2 4748

sequential_40/quant_conv2d_200/Conv2D;sequential_40/quant_conv2d_200/LastValueQuant/FakeQuantWithMinMaxVarsPerChannel i1 [48, 5, 5, 36]
-42 101 -16 -40 -21 -90 85 51
-66 59 57 -58 81 -50 -52 58
105 52 -56 -99 -53 67 -109 -16
53 -123 91 35 -14 81 -105 -69
55 59 101 -87 -35 -67 104 -60
-51 -95 12 31 -104 -116 77 -12
84 63 -112 61 -73 -17 44 103
88 97 -69 -94 16 -103 -80 -107
-31 -39 -80 45 -52 -28 -97 73
-13 -47 -55 -7 35 -66 -111 -23
19 -108 -112 8 72 106 -71 108
74 -41 24 -89 73 78 -40 66
-79 -102 -62 100 -96 -80 -7 -7
18 -97 -49 -43 -58 -95 7 -42
-70 51 42 -117 93 92 5 50
-86 55 -3 -102 -107 44 66 -69
-7 61 -23 -57 -71 -44 78 -51
46 10 104 -82 59 4 45 28
-92 -105 44 38 98 14 54 41
-109 -81 -33 12 6 73 58 21
76 93 4 -3 5 -39 -5 81
24 -54 67 -89 -67 -90 62 -49
-9 -14 45 -30 71 -113 107 -22
-98 8 94 106 23 42 -26 10
-71 -30 -19 59 -116 100 64 38
-28 -21 6 -35 -53 -72 -85 64
-14 95 -93 -41 -101 91 -72 9
24 -85 84 102 106 14 -42 75
-46 -49 -106 32 83 -43 20 -42
-47 -102 -20 -61 12 -40 38 -27
32 10 19 -35 -119 -44 -74 -76
-30 -106 6 -44 -59 -40 -91 -11
00000000: d665 f0d8 eba6 5533 be3b 39c6 51ce cc3a
00000010: 6934 c89d cb43 93f0 3585 5b23 f251 97bb
00000020: 373b 65a9 ddbd 68c4 cda1 0c1f 988c 4df4
00000030: 543f 903d b7ef 2c67 5861 bba2 1099 b095
00000040: e1d9 b02d cce4 9f49 f3d1 c9f9 23be 91e9
00000050: 1394 9008 486a b96c 4ad7 18a7 494e d842
00000060: b19a c264 a0b0 f9f9 129f cfd5 c6a1 07d6
00000070: ba33 2a8b 5d5c 0532 aa37 fd9a 952c 42bb
00000080: f93d e9c7 b9d4 4ecd 2e0a 68ae 3b04 2d1c
00000090: a497 2c26 620e 3629 93af df0c 0649 3a15
000000a0: 4c5d 04fd 05d9 fb51 18ca 43a7 bda6 3ecf
000000b0: f7f2 2de2 478f 6bea 9e08 5e6a 172a e60a
000000c0: b9e2 ed3b 8c64 4026 e4eb 06dd cbb8 ab40
000000d0: f25f a3d7 9b5b b809 18ab 5466 6a0e d64b
000000e0: d2cf 9620 53d5 14d6 d19a ecc3 0cd8 26e5
000000f0: 200a 13dd 89d4 b6b4 e296 06d4 c5d8 a5f5

sequential_40/quant_conv2d_201/Conv2D;sequential_40/quant_conv2d_201/LastValueQuant/FakeQuantWithMinMaxVarsPerChannel i1 [64, 3, 3, 48]
22 -62 71 75 47 -2 -112 -96
-22 95 -121 17 -33 -95 1 120
-43 52 -46 -102 -50 -29 -119 -118
-111 -104 -13 -100 55 60 89 -73
23 14 30 -82 -127 62 -116 110
-85 119 86 -54 59 14 68 75
-36 31 53 27 5 93 -25 -67
99 -81 -123 -1 -88 -38 -85 -44
83 -101 44 30 -17 49 -22 -127
81 21 -122 59 -83 60 -103 10
57 -102 -80 -96 2 -63 -56 66
101 6 -14 -35 -4 -47 -82 -104
110 -104 -40 -78 2 59 -23 64
-61 -65 41 -103 -62 85 92 82
15 -76 52 -39 28 100 -37 93
-7 -20 91 10 -56 117 106 -49
-37 -41 31 91 -100 -84 -102 13
26 20 -78 2 -56 47 6 -109
82 -27 -62 95 109 -119 14 65
-110 112 70 -59 -123 4 78 18
42 94 44 -55 -114 64 -31 66
-64 79 102 116 -8 -8 81 33
61 -83 -57 -13 70 72 76 -29
26 56 -107 -107 27 44 -111 19
-1 -107 -42 26 9 44 0 -107
75 16 15 -118 99 14 40 -16
61 -22 85 3 53 -93 -39 -121
18 23 103 48 112 -105 82 -46
92 -85 -76 58 10 11 31 -127
14 66 36 -35 -17 -81 78 -122
-3 -4 19 -116 42 51 73 -64
2 2 64 -14 -88 -96 -27 -13
00000000: 16c2 474b 2ffe 90a0 ea5f 8711 dfa1 0178
00000010: d534 d29a cee3 898a 9198 f39c 373c 59b7
00000020: 170e 1eae 813e 8c6e ab77 56ca 3b0e 444b
00000030: dc1f 351b 055d e7bd 63af 85ff a8da abd4
00000040: 539b 2c1e ef31 ea81 5115 863b ad3c 990a
00000050: 399a b0a0 02c1 c842 6506 f2dd fcd1 ae98
00000060: 6e98 d8b2 023b e940 c3bf 2999 c255 5c52
00000070: 0fb4 34d9 1c64 db5d f9ec 5b0a c875 6acf
00000080: dbd7 1f5b 9cac 9a0d 1a14 b202 c82f 0693
00000090: 52e5 c25f 6d89 0e41 9270 46c5 8504 4e12
000000a0: 2a5e 2cc9 8e40 e142 c04f 6674 f8f8 5121
000000b0: 3dad c7f3 4648 4ce3 1a38 9595 1b2c 9113
000000c0: ff95 d61a 092c 0095 4b10 0f8a 630e 28f0
000000d0: 3dea 5503 35a3 d987 1217 6730 7097 52d2
000000e0: 5cab b43a 0a0b 1f81 0e42 24dd efaf 4e86
000000f0: fdfc 138c 2a33 49c0 0202 40f2 a8a0 e5f3

sequential_40/quant_conv2d_202/Conv2D;sequential_40/quant_conv2d_202/LastValueQuant/FakeQuantWithMinMaxVarsPerChannel i1 [64, 2, 2, 64]
-47 109 117 92 -82 117 33 93
1 -34 -30 -88 -13 -16 69 -86
-3 -21 84 121 -26 98 -32 111
26 69 49 60 -102 15 -60 -3
27 47 39 -82 33 -1 -28 9
-72 -12 -86 49 -20 -100 48 99
88 53 62 -56 32 -71 -115 -18
69 -62 76 43 -2 -59 -85 -103
-40 -39 114 -7 -7 102 -11 105
-102 -96 -64 55 -53 -17 -29 -114
47 29 -97 -120 -46 20 115 63
-13 -83 -52 0 -96 -9 -73 -47
14 -84 -66 -53 5 -82 -79 75
-115 -21 73 -109 -27 -85 -118 -72
-44 28 -50 44 -27 57 -106 117
10 94 91 -126 81 120 -114 -116
20 56 37 -55 110 -77 35 40
75 -117 114 -76 -15 -23 37 -124
-55 -79 -15 -46 -74 -54 -51 49
-124 -52 -6 -42 118 -63 -127 89
-116 30 -60 -103 39 -99 88 -36
-113 -76 111 40 89 -90 25 43
-33 -5 -88 -31 68 37 -73 40
-26 33 49 -54 75 101 -13 -99
24 103 -36 38 21 58 28 -15
100 -71 -64 22 32 -47 -95 72
-31 -23 20 -6 48 104 -124 -15
-52 -15 -10 -4 -64 -50 78 -86
-32 18 47 -27 110 -99 3 -53
52 26 -104 -38 -28 -38 -45 117
-7 -69 57 42 117 94 -111 -48
-82 -103 63 60 13 98 -35 56
00000000: d16d 755c ae75 215d 01de e2a8 f3f0 45aa
00000010: fdeb 5479 e662 e06f 1a45 313c 9a0f c4fd
00000020: 1b2f 27ae 21ff e409 b8f4 aa31 ec9c 3063
00000030: 5835 3ec8 20b9 8dee 45c2 4c2b fec5 ab99
00000040: d8d9 72f9 f966 f569 9aa0 c037 cbef e38e
00000050: 2f1d 9f88 d214 733f f3ad cc00 a0f7 b7d1
00000060: 0eac becb 05ae b14b 8deb 4993 e5ab 8ab8
00000070: d41c ce2c e539 9675 0a5e 5b82 5178 8e8c
00000080: 1438 25c9 6eb3 2328 4b8b 72b4 f1e9 2584
00000090: c9b1 f1d2 b6ca cd31 84cc fad6 76c1 8159
000000a0: 8c1e c499 279d 58dc 8fb4 6f28 59a6 192b
000000b0: dffb a8e1 4425 b728 e621 31ca 4b65 f39d
000000c0: 1867 dc26 153a 1cf1 64b9 c016 20d1 a148
000000d0: e1e9 14fa 3068 84f1 ccf1 f6fc c0ce 4eaa
000000e0: e012 2fe5 6e9d 03cb 341a 98da e4da d375
000000f0: f9bb 392a 755e 91d0 ae99 3f3c 0d62 dd38

sequential_40/quant_dense_111/MatMul;sequential_40/quant_dense_111/LastValueQuant/FakeQuantWithMinMaxVars i1 [100, 256] scale=0.0011741357 zero_point=0
-0.02465685 0.062229194 -0.06340333 -0.023482714 -0.010567222 0.00821895 -0.021134444 0.12563252
-0.036398206 -0.019960307 -0.11389116 0.0493137 0.1350256 0.07984123 -0.075144686 0.034049936
-0.070448145 0.04109475 -0.11741357 -0.08101536 -0.1150653 -0.07866709 -0.028179258 -0.09745327
0.051661972 -0.022308579 0.02465685 -0.00821895 -0.06457747 -0.046965428 0.00821895 -0.036398206
-0.11036876 0.014089629 0.07984123 0.019960307 0.11976184 -0.11389116 0.06340333 0.062229194
0.09040845 -0.11389116 0.031701665 0.09980153 -0.05753265 -0.0164379 0.11976184 0.09510499
0.05283611 -0.11389116 0.021134444 -0.0657516 0.04109475 0.08336364 0.07749296 -0.0493137
-0.0986274 -0.05753265 0.07749296 0.06340333 0.023482714 -0.09275672 -0.09627913 -0.08688604
-0.05518438 0.13267733 0.027005121 0.085711904 -0.031701665 -0.004696543 0.08688604 0.039920613
-0.061055057 -0.12093598 -0.07397055 0.13267733 0.048139565 0.014089629 -0.027005121 0.010567222
-0.045791294 -0.07162228 0.062229194 -0.10684635 0.06340333 0.08101536 -0.03874648 0.04109475
-0.0986274 0.021134444 -0.10214981 -0.061055057 0.010567222 -0.07866709 -0.09158259 -0.07162228
-0.084537774 0.09627913 0.030527528 0.018786171 0.034049936 -0.0070448145 -0.0493137 0.045791294
0.0035224073 -0.0986274 -0.085711904 -0.11036876 -0.044617157 -0.017612036 0.0986274 -0.0058706785
0.084537774 0.05988092 -0.019960307 -0.07749296 0.10097567 -0.08101536 0.12680666 -0.085711904
0.035224073 0.09745327 -0.11036876 0.06927401 -0.028179258 0.11271703 0.070448145 0.03874648
0.051661972 -0.108020484 -0.04344302 -0.062229194 -0.06927401 -0.13267733 -0.12680666 -0.12563252
-0.10449808 -0.00821895 -0.062229194 0.037572343 -0.06809987 -0.025830986 0.0328758 -0.09745327
0.09275672 0.0493137 -0.056358516 -0.07866709 -0.0011741357 -0.0328758 -0.062229194 0.09627913
-0.09040845 0.015263764 -0.0493137 0.011741357 -0.009393086 -0.062229194 -0.027005121 0.025830986
0.050487835 0.015263764 -0.05283611 -0.09510499 -0.014089629 -0.07279641 0.0493137 -0.089234315
-0.062229194 0.13032906 -0.023482714 -0.04109475 -0.054010242 0.0023482714 -0.048139565 0.06340333
0.045791294 -0.12915494 0.12445839 0.025830986 -0.0058706785 0.12680666 -0.07631882 -0.012915493
0.11389116 -0.0986274 0.021134444 -0.09040845 0.046965428 0.12328425 -0.06457747 0.089234315
0.07162228 0.012915493 -0.030527528 0.11976184 -0.009393086 0.09158259 0.061055057 0.0986274
-0.10097567 -0.12328425 -0.036398206 -0.09627913 0.0 0.09158259 0.085711904 -0.0011741357
0.13267733 -0.07866709 0.046965428 0.054010242 -0.12093598 -0.05753265 -0.04109475 0.061055057
-0.05283611 0.0011741357 0.054010242 0.012915493 -0.070448145 0.062229194 -0.093930855 0.08806018
-0.09627913 0.045791294 -0.03874648 -0.061055057 0.1150653 0.0986274 0.015263764 -0.10449808
0.12211011 0.034049936 0.09275672 -0.035224073 0.06927401 -0.054010242 0.010567222 0.046965428
-0.034049936 0.0164379 -0.070448145 0.116239436 0.116239436 -0.10919462 0.0011741357 0.029353393
-0.07279641 0.06457747 -0.09627913 0.0657516 0.111542895 0.08101536 0.089234315 0.0
00000000: eb35 caec f707 ee6b e1ef 9f2a 7344 c01d
00000010: c423 9cbb 9ebd e8ad 2ced 15f9 c9d8 07e1
00000020: a20c 4411 669f 3635 4d9f 1b55 cff2 6651
00000030: 2d9f 12c8 2347 42d6 accf 4236 14b1 aeb6
00000040: d171 1749 e5fc 4a22 cc99 c171 290c e909
00000050: d9c3 35a5 3645 df23 ac12 a9cc 09bd b2c3
00000060: b852 1a10 1dfa d627 03ac b7a2 daf1 54fb
00000070: 4833 efbe 56bb 6cb7 1e53 a23b e860 3c21
00000080: 2ca4 dbcb c58f 9495 a7f9 cb20 c6ea 1cad
00000090: 4f2a d0bd ffe4 cb52 b30d d60a f8cb e916
000000a0: 2b0d d3af f4c2 2ab4 cb6f ecdd d202 d736
000000b0: 2792 6a16 fb6c bff5 61ac 12b3 2869 c94c
000000c0: 3d0b e666 f84e 3454 aa97 e1ae 004e 49ff
000000d0: 71bd 282e 99cf dd34 d301 2e0b c435 b04b
000000e0: ae27 dfcc 6254 0da7 681d 4fe2 3bd2 0928
000000f0: e30e c463 63a3 0119 c237 ae38 5f45 4c00

sequential_40/quant_dense_112/MatMul;sequential_40/quant_dense_112/LastValueQuant/FakeQuantWithMinMaxVars i1 [50, 100] scale=0.0016529359 zero_point=0
-0.18017001 -0.0049588075 -0.05619982 0.12397019 0.05619982 0.11405257 0.12397019 0.15868184
0.061158627 -0.0148764225 0.117358446 0.1702524 0.18843469 -0.14876422 -0.08099386 0.19174056
-0.013223487 0.0644645 0.18017001 -0.15868184 0.04297633 0.09091147 -0.033058718 0.07272918
-0.16198772 -0.14876422 -0.1983523 -0.13719368 0.05124101 -0.05950569 -0.105787896 0.04297633
0.009917615 0.16859946 -0.16198772 0.18182294 -0.04793514 -0.13223487 0.10744083 -0.12397019
0.15702891 -0.06281156 -0.10909377 0.046282206 -0.013223487 0.03636459 0.10082909 -0.094217345
0.03967046 0.13058193 -0.14380541 -0.16198772 -0.0016529359 -0.02809991 0.082646795 0.03471165
-0.07272918 -0.16694652 0.09917615 -0.05124101 -0.19008763 0.009917615 -0.10248202 0.15041716
0.082646795 -0.1471113 -0.077687986 -0.10744083 -0.19504644 0.07603505 -0.20165817 0.05619982
-0.07603505 -0.16198772 0.12066432 0.17190532 -0.013223487 0.024794038 -0.094217345 -0.14215249
0.16694652 0.09752322 -0.09917615 0.08595266 0.0876056 -0.0644645 0.18017001 -0.082646795
0.06777037 0.094217345 -0.1520701 -0.16694652 -0.17851707 -0.14876422 -0.11405257 -0.041323397
-0.10248202 -0.09917615 -0.024794038 0.07272918 0.19008763 0.18017001 0.1520701 -0.052893948
-0.14380541 0.12562312 0.07603505 0.0049588075 -0.10082909 -0.10744083 0.19504644 -0.071076244
-0.20165817 -0.023141103 -0.016529359 0.018182294 0.041323397 -0.02809991 0.14876422 0.18843469
-0.0694233 0.049588077 0.061158627 0.0876056 -0.0049588075 0.011570551 -0.0876056 0.117358446
-0.04793514 0.18843469 0.17686413 0.13223487 0.06777037 0.02809991 0.09091147 0.11570551
-0.05619982 0.14049955 0.07272918 0.0033058717 0.12562312 -0.013223487 0.0644645 0.16198772
-0.14545836 -0.17851707 0.011570551 -0.013223487 -0.1752112 0.1702524 -0.17190532 0.1752112
-0.15702891 0.17190532 0.13554074 0.041323397 0.11239964 0.05124101 -0.046282206 -0.09256441
0.04297633 -0.041323397 -0.03140578 0.17686413 0.029752845 -0.057852756 -0.08099386 0.1520701
0.11570551 0.11901138 -0.12562312 0.117358446 -0.0049588075 -0.19008763 -0.021488165 0.0016529359
0.046282206 0.08595266 -0.04297633 -0.15868184 -0.094217345 0.117358446 -0.066117436 -0.026446974
0.013223487 0.071076244 0.009917615 -0.13223487 -0.049588077 0.15372303 -0.128929 -0.03967046
-0.0066117435 -0.0049588075 0.20331112 0.17190532 -0.13058193 -0.07272918 -0.19174056 0.16033478
-0.05124101 -0.17355826 0.0644645 -0.11239964 0.07272918 0.054546885 -0.1520701 0.09917615
0.07934092 0.10744083 -0.13223487 -0.08595266 -0.03636459 0.11570551 -0.18182294 0.10082909
-0.05619982 -0.052893948 -0.13719368 0.16859946 0.0644645 -0.1388466 0.15372303 -0.13554074
-0.10909377 0.14049955 0.18017001 -0.11405257 -0.12397019 -0.057852756 -0.03140578 0.07272918
-0.14215249 -0.110746704 -0.12397019 0.05619982 -0.041323397 -0.1388466 -0.033058718 0.12727606
-0.04297633 -0.026446974 0.077687986 0.01983523 0.18512882 -0.117358446 0.024794038 0.061158627
-0.06281156 0.07272918 0.128929 0.09917615 0.07272918 -0.0049588075 0.12397019 0.09256441
00000000: 93fd de4b 2245 4b60 25f7 4767 72a6 cf74
00000010: f827 6da0 1a37 ec2c 9ea6 88ad 1fdc c01a
00000020: 0666 9e6e e3b0 41b5 5fda be1c f816 3dc7
00000030: 184f a99e ffef 3215 d49b 3ce1 8d06 c25b
00000040: 32a7 d1bf 8a2e 8622 d29e 4968 f80f c7aa
00000050: 653b c434 35d9 6dce 2939 a49b 94a6 bbe7
00000060: c2c4 f12c 736d 5ce0 a94c 2e03 c3bf 76d5
00000070: 86f2 f60b 19ef 5a72 d61e 2535 fd07 cb47
00000080: e372 6b50 2911 3746 de55 2c02 4cf8 2762
00000090: a894 07f8 9667 986a a168 5219 441f e4c8
000000a0: 1ae7 ed6b 12dd cf5c 4648 b447 fd8d f301
000000b0: 1c34 e6a0 c747 d8f0 082b 06b0 e25d b2e8
000000c0: fcfd 7b68 b1d4 8c61 e197 27bc 2c21 a43c
000000d0: 3041 b0cc ea46 923d dee0 ad66 27ac 5dae
000000e0: be55 6dbb b5dd ed2c aabd b522 e7ac ec4d
000000f0: e6f0 2f0c 70b9 0f25 da2c 4e3c 2cfd 4b38

sequential_40/quant_dense_113/MatMul;sequential_40/quant_dense_113/LastValueQuant/FakeQuantWithMinMaxVars i1 [10, 50] scale=0.0025601932 zero_point=0
-0.27906105 -0.18177372 -0.053764056 0.046083476 0.25601932 -0.017921353 0.23297758 0.16897275
0.13313004 0.17153294 0.2969824 -0.2688203 -0.05632425 -0.16129217 -0.07680579 0.25089893
-0.2636999 0.13313004 0.25089893 -0.31234357 0.08960676 0.12544946 -0.07936599 0.17153294
0.0025601932 -0.2688203 -0.28418145 -0.04864367 0.24577855 -0.23553777 0.061444636 0.1484912
-0.03328251 0.11520869 -0.14081062 0.28162125 0.0 0.23297758 -0.15361159 0.225297
0.3021028 0.023041738 -0.08192618 -0.19457468 0.13825043 0.28930184 0.030722318 0.28930184
0.0051203864 -0.19713488 -0.25345913 0.1484912 -0.2662601 0.04096309 0.1868941 0.15361159
-0.291862 -0.31234357 0.017921353 0.24065816 0.19969507 0.05120386 -0.19201449 -0.15617178
-0.12800966 0.04096309 0.23297758 -0.1100883 -0.24833874 -0.20481545 -0.020481545 -0.21505623
-0.25857952 -0.21505623 -0.21505623 -0.028162125 -0.1484912 0.053764056 -0.20225526 -0.028162125
0.1894543 0.30978337 0.28418145 0.13056985 0.28418145 -0.0051203864 0.22785719 0.20737565
0.2688203 0.1100883 -0.04864367 0.25345913 0.06656502 0.13825043 0.06656502 -0.1510514
0.32514453 -0.16129217 -0.24577855 -0.12800966 -0.0051203864 0.304663 0.03328251 0.145931
0.2227368 0.3021028 0.1894543 -0.06400483 0.017921353 0.28162125 -0.1868941 -0.304663
0.16897275 0.10240772 0.14081062 0.16385236 0.12032908 -0.1843339 -0.1868941 -0.061444636
-0.09728734 -0.25345913 0.12800966 -0.17409314 0.14337082 -0.09216695 0.28162125 -0.25601932
0.030722318 0.0076805796 0.19457468 0.30978337 -0.10240772 -0.27906105 -0.30722317 0.05632425
-0.05632425 0.11776888 -0.06912521 0.23809797 0.038402896 0.020481545 -0.06656502 0.15873198
0.20225526 -0.12800966 -0.31746396 -0.1100883 -0.225297 -0.27394068 -0.18177372 -0.09728734
-0.09472715 0.2995426 0.010240773 -0.08448637 -0.28674164 -0.30978337 0.08960676 -0.07168541
0.030722318 -0.20737565 -0.2969824 0.053764056 0.06656502 0.015361159 0.23553777 -0.030722318
0.1843339 -0.20225526 -0.25089893 -0.023041738 -0.02560193 -0.27138048 -0.012800965 -0.06656502
0.22785719 0.27906105 -0.1510514 0.31490377 0.015361159 -0.05888444 -0.23809797 0.15361159
-0.23553777 -0.31234357 0.2944222 0.17921352 0.25345913 -0.145931 -0.25345913 0.30722317
-0.09472715 -0.053764056 0.10752811 0.27906105 0.08192618 -0.05632425 -0.23297758 0.038402896
-0.06912521 -0.2662601 0.15617178 -0.14337082 0.035842706 -0.15873198 0.304663 -0.16897275
0.015361159 -0.08192618 -0.15617178 0.21505623 -0.25601932 -0.06400483 0.27138048 0.09216695
0.1100883 -0.3021028 -0.07680579 -0.09472715 0.30722317 -0.12800966 -0.017921353 0.1894543
-0.0025601932 -0.12288927 0.2969824 0.27394068 0.0742456 -0.06656502 0.09728734 0.304663
-0.15873198 0.023041738 -0.03328251 0.1868941 -0.28162125 0.22785719 0.05632425 -0.25345913
0.1843339 -0.08192618 0.2969824 -0.06656502 0.08192618 -0.12544946 0.09216695 0.14081062
-0.19713488 0.0076805796 0.19201449 0.14337082 -0.2688203 -0.28930184 0.23297758 0.02560193
00000000: 93b9 eb12 64f9 5b42 3443 7497 eac1 e262
00000010: 9934 6286 2331 e143 0197 91ed 60a4 183a
00000020: f32d c96e 005b c458 7609 e0b4 3671 0c71
00000030: 02b3 9d3a 9810 493c 8e86 075e 4e14 b5c3
00000040: ce10 5bd5 9fb0 f8ac 9bac acf5 c615 b1f5
00000050: 4a79 6f33 6ffe 5951 692b ed63 1a36 1ac5
00000060: 7fc1 a0ce fe77 0d39 5776 4ae7 076e b789
00000070: 4228 3740 2fb8 b7e8 da9d 32bc 38dc 6e9c
00000080: 0c03 4c79 d893 8816 ea2e e55d 0f08 e63e
00000090: 4fce 84d5 a895 b9da db75 04df 9087 23e4
000000a0: 0caf 8c15 1a06 5cf4 48b1 9ef7 f696 fbe6
000000b0: 596d c57b 06e9 a33c a486 7346 63c7 9d78
000000c0: dbeb 2a6d 20ea a50f e598 3dc8 0ec2 77be
000000d0: 06e0 c354 9ce7 6a24 2b8a e2db 78ce f94a
000000e0: ffd0 746b 1de6 2677 c209 f349 9259 169d
000000f0: 48e0 74e6 20cf 2437 b303 4b38 978f 5b0a

sequential_40/quant_output/MatMul;sequential_40/quant_output/LastValueQuant/FakeQuantWithMinMaxVars i1 [1, 10] scale=0.0053824517 zero_point=0
0.40368387 -0.12379639 0.3014173 0.68357134 -0.113031484 0.19915071 -0.5813048 -0.5436276
0.59745216 0.5651574
00000000: 4be9 387f eb25 949b 6f69
