models/opt-160x66x3.tflite (tflite, 234512 bytes, 9 tensors)

sequential/quant_conv2d/Conv2D;sequential/quant_conv2d/LastValueQuant/FakeQuantWithMinMaxVarsPerChannel i1 [24, 5, 5, 3]
0	0x12	18
1	0x50	80
2	0x2d	45
3	0x07	7
4	0x6e	110
5	0x30	48
6	0x1e	30
7	0x53	83
8	0x25	37
9	0x10	16
10	0x0b	11
11	0x3e	62
12	0xa6	-90
13	0x7f	127
14	0x66	102
15	0xfc	-4
16	0x0f	15
17	0xd9	-39
18	0x4b	75
19	0x49	73
20	0xfe	-2
21	0xeb	-21
22	0xd1	-47
23	0xcb	-53
24	0x30	48
25	0x7a	122
26	0xdc	-36
27	0x44	68
28	0x7b	123
29	0x3e	62
30	0x20	32
31	0xec	-20
32	0x46	70
33	0x2c	44
34	0x51	81
35	0x5c	92
36	0x5e	94
37	0x37	55
38	0x4f	79
39	0xa6	-90
40	0xd3	-45
41	0x1e	30
42	0x0c	12
43	0xfe	-2
44	0xd8	-40
45	0x66	102
46	0x29	41
47	0xa5	-91
48	0x59	89
49	0x66	102
50	0x74	116
51	0xc7	-57
52	0xf7	-9
53	0x66	102
54	0x18	24
55	0xd2	-46
56	0x05	5
57	0xf2	-14
58	0x3c	60
59	0x0e	14
60	0x38	56
61	0x98	-104
62	0xe1	-31
63	0x1a	26
64	0x8f	-113
65	0x4f	79
66	0xd9	-39
67	0x32	50
68	0xa8	-88
69	0xda	-38
70	0x4e	78
71	0x2b	43
72	0x44	68
73	0x36	54
74	0x52	82
75	0x03	3
76	0xca	-54
77	0x16	22
78	0x46	70
79	0xf2	-14
80	0x6b	107
81	0x66	102
82	0xd7	-41
83	0xec	-20
84	0xfa	-6
85	0xa2	-94
86	0x27	39
87	0x22	34
88	0xb2	-78
89	0xbb	-69
90	0xb6	-74
91	0x09	9
92	0x65	101
93	0x54	84
94	0x46	70
95	0x12	18
96	0x3d	61
97	0xa7	-89
98	0x0b	11
99	0xdc	-36
100	0xb7	-73
101	0x6b	107
102	0x45	69
103	0xf7	-9
104	0x52	82
105	0x1c	28
106	0x62	98
107	0xc7	-57
108	0xb4	-76
109	0x6c	108
110	0xbc	-68
111	0x27	39
112	0x11	17
113	0x95	-107
114	0xff	-1
115	0xda	-38
116	0x5e	94
117	0x21	33
118	0x65	101
119	0x18	24
120	0xf1	-15
121	0x9b	-101
122	0x91	-111
123	0xac	-84
124	0xf4	-12
125	0x86	-122
126	0x81	-127
127	0x55	85
128	0x90	-112
129	0x85	-123
130	0x5e	94
131	0xa9	-87
132	0x2d	45
133	0xf0	-16
134	0xe3	-29
135	0xa3	-93
136	0x0f	15
137	0x13	19
138	0xed	-19
139	0x5a	90
140	0xcc	-52
141	0xd8	-40
142	0x33	51
143	0x1a	26
144	0xcf	-49
145	0x4e	78
146	0xb0	-80
147	0xda	-38
148	0xe7	-25
149	0xcc	-52
150	0x39	57
151	0x6d	109
152	0x58	88
153	0x47	71
154	0xba	-70
155	0xc1	-63
156	0x59	89
157	0x3f	63
158	0x0b	11
159	0x4e	78
160	0xdd	-35
161	0x05	5
162	0x66	102
163	0xee	-18
164	0xf6	-10
165	0x5d	93
166	0xbf	-65
167	0xcf	-49
168	0xb3	-77
169	0xef	-17
170	0xec	-20
171	0xcc	-52
172	0xbb	-69
173	0x5f	95
174	0xb2	-78
175	0x6b	107
176	0x0b	11
177	0xa6	-90
178	0xae	-82
179	0xca	-54
180	0x6a	106
181	0x55	85
182	0x3f	63
183	0x30	48
184	0x7e	126
185	0xf5	-11
186	0xc5	-59
187	0x50	80
188	0x17	23
189	0x0d	13
190	0xe0	-32
191	0x9b	-101
192	0x69	105
193	0x3c	60
194	0x56	86
195	0x6e	110
196	0x0b	11
197	0x26	38
198	0x56	86
199	0x7f	127
200	0x6b	107
201	0x39	57
202	0x48	72
203	0xa8	-88
204	0x7f	127
205	0xe3	-29
206	0x9f	-97
207	0x28	40
208	0x66	102
209	0x26	38
210	0xb1	-79
211	0x74	116
212	0xcf	-49
213	0x6c	108
214	0x63	99
215	0xa7	-89
216	0xed	-19
217	0x54	84
218	0xc1	-63
219	0x4c	76
220	0x4b	75
221	0xf7	-9
222	0x48	72
223	0xb7	-73
224	0xbe	-66
225	0xb6	-74
226	0x2d	45
227	0x53	83
228	0x19	25
229	0xd9	-39
230	0x0a	10
231	0x45	69
232	0x1a	26
233	0x73	115
234	0x10	16
235	0x2e	46
236	0x75	117
237	0x35	53
238	0x6c	108
239	0x38	56
240	0xc1	-63
241	0x7c	124
242	0x32	50
243	0x1c	28
244	0xc6	-58
245	0x64	100
246	0xc9	-55
247	0x26	38
248	0x53	83
249	0xf6	-10
250	0xc8	-56
251	0x6d	109
252	0x5c	92
253	0xd5	-43
254	0x5d	93
255	0x33	51

sequential/quant_conv2d_1/Conv2D;sequential/quant_conv2d_1/LastValueQuant/FakeQuantWithMinMaxVarsPerChannel i1 [36, 5, 5, 24]
0	0x40	64
1	0xc4	-60
2	0x69	105
3	0x05	5
4	0xb1	-79
5	0xc6	-58
6	0xaf	-81
7	0xc0	-64
8	0xf1	-15
9	0x22	34
10	0xe6	-26
11	0x06	6
12	0xde	-34
13	0x1a	26
14	0x47	71
15	0x43	67
16	0x62	98
17	0xde	-34
18	0x51	81
19	0x4d	77
20	0xdc	-36
21	0x02	2
22	0xec	-20
23	0x98	-104
24	0x99	-103
25	0x1c	28
26	0xc5	-59
27	0x97	-105
28	0x06	6
29	0x51	81
30	0xf3	-13
31	0x6b	107
32	0x8d	-115
33	0x1e	30
34	0x17	23
35	0x08	8
36	0xc4	-60
37	0x68	104
38	0x44	68
39	0x1c	28
40	0xe2	-30
41	0xa6	-90
42	0xae	-82
43	0xb6	-74
44	0xb6	-74
45	0xce	-50
46	0x0f	15
47	0x0a	10
48	0x4f	79
49	0x60	96
50	0x39	57
51	0x96	-106
52	0x09	9
53	0x2b	43
54	0x43	67
55	0xd1	-47
56	0x60	96
57	0xf6	-10
58	0xbe	-66
59	0xa2	-94
60	0x58	88
61	0xf4	-12
62	0x8d	-115
63	0xa0	-96
64	0x96	-106
65	0xbb	-69
66	0x0c	12
67	0x00	0
68	0x02	2
69	0x26	38
70	0xa5	-91
71	0xf8	-8
72	0x33	51
73	0x2d	45
74	0xb7	-73
75	0x71	113
76	0xab	-85
77	0x32	50
78	0x26	38
79	0xe8	-24
80	0x3d	61
81	0x3c	60
82	0xc2	-62
83	0xc5	-59
84	0x75	117
85	0x6f	111
86	0xfb	-5
87	0x03	3
88	0x98	-104
89	0x16	22
90	0xbc	-68
91	0x0b	11
92	0x5f	95
93	0xe8	-24
94	0x9e	-98
95	0x71	113
96	0xb0	-80
97	0x07	7
98	0xae	-82
99	0xf0	-16
100	0xfc	-4
101	0x62	98
102	0x69	105
103	0xbd	-67
104	0x02	2
105	0x55	85
106	0x12	18
107	0x98	-104
108	0x6e	110
109	0xc9	-55
110	0xd4	-44
111	0xe5	-27
112	0xdc	-36
113	0x5c	92
114	0x6a	106
115	0x02	2
116	0xa7	-89
117	0xd9	-39
118	0x50	80
119	0x1f	31
120	0x9d	-99
121	0x51	81
122	0xc9	-55
123	0x67	103
124	0x53	83
125	0x1e	30
126	0x20	32
127	0x29	41
128	0x35	53
129	0xc3	-61
130	0x63	99
131	0xf1	-15
132	0xee	-18
133	0x8c	-116
134	0x58	88
135	0xe6	-26
136	0x66	102
137	0xf8	-8
138	0x01	1
139	0xec	-20
140	0xe4	-28
141	0x43	67
142	0x9f	-97
143	0x20	32
144	0x32	50
145	0xd1	-47
146	0xe1	-31
147	0xce	-50
148	0xb7	-73
149	0x09	9
150	0x55	85
151	0xb3	-77
152	0xa4	-92
153	0x30	48
154	0xbd	-67
155	0xb5	-75
156	0x92	-110
157	0x1f	31
158	0x06	6
159	0xbe	-66
160	0xf2	-14
161	0x0d	13
162	0xdc	-36
163	0x9f	-97
164	0x25	37
165	0x21	33
166	0x3f	63
167	0x3a	58
168	0xd5	-43
169	0x74	116
170	0x06	6
171	0xd9	-39
172	0xfe	-2
173	0x4e	78
174	0x52	82
175	0xf0	-16
176	0x35	53
177	0x32	50
178	0x2b	43
179	0xf4	-12
180	0xaf	-81
181	0xcb	-53
182	0x8d	-115
183	0x6f	111
184	0x4b	75
185	0x23	35
186	0xe5	-27
187	0x16	22
188	0x25	37
189	0xdc	-36
190	0xd7	-41
191	0x28	40
192	0x08	8
193	0x17	23
194	0xa5	-91
195	0x5b	91
196	0xcc	-52
197	0xaa	-86
198	0x13	19
199	0x5d	93
200	0x37	55
201	0x09	9
202	0xb2	-78
203	0xcf	-49
204	0xda	-38
205	0x14	20
206	0xf4	-12
207	0xe7	-25
208	0xcb	-53
209	0x69	105
210	0xa1	-95
211	0xd8	-40
212	0x9c	-100
213	0xf8	-8
214	0x9f	-97
215	0x37	55
216	0xd9	-39
217	0xdd	-35
218	0xcf	-49
219	0x90	-112
220	0xd0	-48
221	0x20	32
222	0x46	70
223	0xcd	-51
224	0xdb	-37
225	0xd8	-40
226	0x56	86
227	0xaa	-86
228	0xd6	-42
229	0xba	-70
230	0x8a	-118
231	0x5f	95
232	0x92	-110
233	0x3b	59
234	0x30	48
235	0x2a	42
236	0x30	48
237	0xf9	-7
238	0x3e	62
239	0xb6	-74
240	0xf7	-9
241	0xa7	-89
242	0xc6	-58
243	0xa5	-91
244	0xee	-18
245	0x9e	-98
246	0xb4	-76
247	0xeb	-21
248	0x95	-107
249	0x22	34
250	0x23	35
251	0x4b	75
252	0xf6	-10
253	0x15	21
254	0x06	6
255	0x42	66

sequential/quant_conv2d_2/Conv2D;sequential/quant_conv2d_2/LastValueQuant/FakeQuantWithMinMaxVarsPerChannel i1 [48, 5, 5, 36]
0	0x57	87
1	0x29	41
2	0x2a	42
3	0xe6	-26
4	0xc2	-62
5	0x40	64
6	0x1b	27
7	0xb0	-80
8	0xab	-85
9	0xc0	-64
10	0xa5	-91
11	0xec	-20
12	0xa5	-91
13	0xd8	-40
14	0x3c	60
15	0x2a	42
16	0x39	57
17	0xcb	-53
18	0xe2	-30
19	0x3f	63
20	0x0d	13
21	0xe6	-26
22	0x0f	15
23	0x1e	30
24	0xa8	-88
25	0x1e	30
26	0xd0	-48
27	0xdd	-35
28	0x0d	13
29	0x24	36
30	0x1c	28
31	0xd5	-43
32	0x01	1
33	0xf8	-8
34	0x38	56
35	0x30	48
36	0x2f	47
37	0xd3	-45
38	0x32	50
39	0x57	87
40	0x2f	47
41	0x26	38
42	0x10	16
43	0xe2	-30
44	0x07	7
45	0x25	37
46	0xd3	-45
47	0xf2	-14
48	0xbe	-66
49	0x27	39
50	0x0f	15
51	0x72	114
52	0xe1	-31
53	0x21	33
54	0xc5	-59
55	0x64	100
56	0xb7	-73
57	0x58	88
58	0xb8	-72
59	0x30	48
60	0x16	22
61	0x5e	94
62	0x0d	13
63	0xb2	-78
64	0xac	-84
65	0x3d	61
66	0x09	9
67	0xd9	-39
68	0xa1	-95
69	0x2f	47
70	0xc0	-64
71	0x5a	90
72	0xaa	-86
73	0xfc	-4
74	0x45	69
75	0xe0	-32
76	0xb7	-73
77	0xb8	-72
78	0xe9	-23
79	0xda	-38
80	0xbf	-65
81	0x9a	-102
82	0xb2	-78
83	0xb3	-77
84	0xe8	-24
85	0x53	83
86	0xa2	-94
87	0x53	83
88	0x24	36
89	0x01	1
90	0x22	34
91	0xab	-85
92	0x1e	30
93	0x9b	-101
94	0xea	-22
95	0x46	70
96	0x25	37
97	0xf7	-9
98	0xc2	-62
99	0xe4	-28
100	0x0f	15
101	0x10	16
102	0x67	103
103	0x2b	43
104	0x57	87
105	0x45	69
106	0xb0	-80
107	0x3f	63
108	0x58	88
109	0xcc	-52
110	0xa9	-87
111	0x3d	61
112	0x1d	29
113	0x01	1
114	0x13	19
115	0x9f	-97
116	0xef	-17
117	0xf3	-13
118	0xa7	-89
119	0xe6	-26
120	0xfb	-5
121	0x62	98
122	0xde	-34
123	0xe9	-23
124	0x2c	44
125	0x4d	77
126	0xa9	-87
127	0x59	89
128	0x1c	28
129	0x01	1
130	0xae	-82
131	0xd2	-46
132	0xfc	-4
133	0xa0	-96
134	0x79	121
135	0xfe	-2
136	0xd1	-47
137	0xc4	-60
138	0x2e	46
139	0xf5	-11
140	0x0b	11
141	0x31	49
142	0x4c	76
143	0xfb	-5
144	0x28	40
145	0xe7	-25
146	0x52	82
147	0x6f	111
148	0xea	-22
149	0x06	6
150	0xd4	-44
151	0xbc	-68
152	0x09	9
153	0xd2	-46
154	0x26	38
155	0x25	37
156	0x4d	77
157	0xc5	-59
158	0x4c	76
159	0x69	105
160	0xf1	-15
161	0x02	2
162	0x16	22
163	0x04	4
164	0xba	-70
165	0x2a	42
166	0x24	36
167	0xd6	-42
168	0x61	97
169	0x3e	62
170	0x5b	91
171	0x4b	75
172	0xd5	-43
173	0x33	51
174	0xf2	-14
175	0xa9	-87
176	0xf7	-9
177	0xbf	-65
178	0x5c	92
179	0x2d	45
180	0x37	55
181	0xc0	-64
182	0xa5	-91
183	0xf7	-9
184	0xa8	-88
185	0xc7	-57
186	0x32	50
187	0x63	99
188	0xe9	-23
189	0x46	70
190	0x5b	91
191	0xd2	-46
192	0x11	17
193	0xb1	-79
194	0xd7	-41
195	0x87	-121
196	0x49	73
197	0x1e	30
198	0x36	54
199	0x5e	94
200	0xf3	-13
201	0xfe	-2
202	0xe1	-31
203	0xec	-20
204	0xd8	-40
205	0x60	96
206	0x43	67
207	0xc3	-61
208	0x01	1
209	0x36	54
210	0xb0	-80
211	0xfd	-3
212	0x4f	79
213	0x06	6
214	0xf7	-9
215	0xee	-18
216	0xbb	-69
217	0x27	39
218	0x1d	29
219	0x20	32
220	0x05	5
221	0xef	-17
222	0xe6	-26
223	0x40	64
224	0x09	9
225	0xb0	-80
226	0xcf	-49
227	0x07	7
228	0x07	7
229	0x2b	43
230	0xd1	-47
231	0x27	39
232	0xbf	-65
233	0x3d	61
234	0xfb	-5
235	0x0f	15
236	0xea	-22
237	0x3d	61
238	0x52	82
239	0xba	-70
240	0xb3	-77
241	0xa2	-94
242	0x29	41
243	0x45	69
244	0xa3	-93
245	0x1c	28
246	0xf8	-8
247	0x23	35
248	0xaa	-86
249	0xc4	-60
250	0xae	-82
251	0x47	71
252	0xef	-17
253	0xad	-83
254	0x48	72
255	0xb3	-77

sequential/quant_conv2d_3/Conv2D;sequential/quant_conv2d_3/LastValueQuant/FakeQuantWithMinMaxVarsPerChannel i1 [64, 3, 3, 48]
0	0xfd	-3
1	0xf8	-8
2	0xce	-50
3	0x2d	45
4	0xce	-50
5	0x16	22
6	0xb4	-76
7	0x01	1
8	0x68	104
9	0x18	24
10	0x22	34
11	0xcd	-51
12	0xa1	-95
13	0xea	-22
14	0x13	19
15	0x46	70
16	0x48	72
17	0x45	69
18	0x88	-120
19	0x00	0
20	0xd8	-40
21	0x0a	10
22	0x08	8
23	0x78	120
24	0x48	72
25	0xb1	-79
26	0xf8	-8
27	0x72	114
28	0x9d	-99
29	0x04	4
30	0xb7	-73
31	0x9e	-98
32	0xc6	-58
33	0x8c	-116
34	0xb6	-74
35	0x81	-127
36	0x65	101
37	0x15	21
38	0xa4	-92
39	0x9d	-99
40	0xd7	-41
41	0x0b	11
42	0xa1	-95
43	0xf3	-13
44	0xe2	-30
45	0x26	38
46	0x21	33
47	0x5b	91
48	0xcf	-49
49	0x29	41
50	0x12	18
51	0x97	-105
52	0xcc	-52
53	0xad	-83
54	0xce	-50
55	0x6b	107
56	0x8c	-116
57	0xe0	-32
58	0x9d	-99
59	0x63	99
60	0x65	101
61	0xf2	-14
62	0x75	117
63	0x35	53
64	0xdc	-36
65	0x87	-121
66	0x14	20
67	0x35	53
68	0x8d	-115
69	0x29	41
70	0xc9	-55
71	0x52	82
72	0x0f	15
73	0xbf	-65
74	0x33	51
75	0x2a	42
76	0xd3	-45
77	0x0a	10
78	0x27	39
79	0xd9	-39
80	0x33	51
81	0x2e	46
82	0xcb	-53
83	0x34	52
84	0x2b	43
85	0xaf	-81
86	0x1b	27
87	0x51	81
88	0x97	-105
89	0x09	9
90	0x8f	-113
91	0x50	80
92	0xfa	-6
93	0x13	19
94	0xbd	-67
95	0xbe	-66
96	0xf3	-13
97	0x9a	-102
98	0xb2	-78
99	0x96	-106
100	0x39	57
101	0xe6	-26
102	0x94	-108
103	0x48	72
104	0x28	40
105	0xba	-70
106	0xc8	-56
107	0x64	100
108	0xcb	-53
109	0x92	-110
110	0x16	22
111	0xfc	-4
112	0xee	-18
113	0x4a	74
114	0xd6	-42
115	0x70	112
116	0x58	88
117	0x56	86
118	0x93	-109
119	0x5e	94
120	0xc5	-59
121	0xf1	-15
122	0xf9	-7
123	0x92	-110
124	0x32	50
125	0x05	5
126	0x22	34
127	0xe8	-24
128	0xd3	-45
129	0xb6	-74
130	0xa0	-96
131	0xc0	-64
132	0xd1	-47
133	0xba	-70
134	0xa3	-93
135	0xb9	-71
136	0x90	-112
137	0x22	34
138	0x74	116
139	0x18	24
140	0xe9	-23
141	0x64	100
142	0x18	24
143	0x30	48
144	0xdf	-33
145	0xcc	-52
146	0x5d	93
147	0x53	83
148	0xd1	-47
149	0x21	33
150	0x68	104
151	0x5e	94
152	0xd4	-44
153	0x44	68
154	0xb6	-74
155	0x16	22
156	0x16	22
157	0x0b	11
158	0xf0	-16
159	0xb8	-72
160	0x5a	90
161	0xa2	-94
162	0xab	-85
163	0xe9	-23
164	0xa4	-92
165	0xe8	-24
166	0x9a	-102
167	0x91	-111
168	0x0f	15
169	0x42	66
170	0xd7	-41
171	0x5b	91
172	0xb0	-80
173	0x66	102
174	0x40	64
175	0xae	-82
176	0x93	-109
177	0xe0	-32
178	0xe2	-30
179	0x52	82
180	0x9b	-101
181	0x4d	77
182	0x18	24
183	0x98	-104
184	0x00	0
185	0xb0	-80
186	0x3a	58
187	0x2a	42
188	0xd9	-39
189	0x97	-105
190	0x47	71
191	0xcc	-52
192	0x6d	109
193	0x61	97
194	0xd5	-43
195	0xf1	-15
196	0xe6	-26
197	0x49	73
198	0x96	-106
199	0x29	41
200	0xbd	-67
201	0x46	70
202	0x15	21
203	0xba	-70
204	0x77	119
205	0x33	51
206	0xb1	-79
207	0x36	54
208	0xfe	-2
209	0x4b	75
210	0x17	23
211	0x62	98
212	0xa2	-94
213	0x6a	106
214	0xc1	-63
215	0xdb	-37
216	0x41	65
217	0x0b	11
218	0x55	85
219	0x50	80
220	0x96	-106
221	0x7a	122
222	0xcb	-53
223	0x3d	61
224	0xae	-82
225	0xfd	-3
226	0x56	86
227	0x90	-112
228	0xff	-1
229	0xf2	-14
230	0xde	-34
231	0xcc	-52
232	0xa3	-93
233	0xa3	-93
234	0xb7	-73
235	0xe0	-32
236	0xfe	-2
237	0x6c	108
238	0x5a	90
239	0x30	48
240	0x70	112
241	0x24	36
242	0x05	5
243	0x0c	12
244	0x42	66
245	0x4d	77
246	0x5a	90
247	0x4a	74
248	0xab	-85
249	0xf7	-9
250	0xa7	-89
251	0xa4	-92
252	0xb0	-80
253	0x02	2
254	0x2e	46
255	0x61	97

sequential/quant_conv2d_4/Conv2D;sequential/quant_conv2d_4/LastValueQuant/FakeQuantWithMinMaxVarsPerChannel i1 [64, 3, 3, 64]
0	0xfa	-6
1	0xf8	-8
2	0x4e	78
3	0x0b	11
4	0xef	-17
5	0xd3	-45
6	0x18	24
7	0xeb	-21
8	0x17	23
9	0xd3	-45
10	0xf7	-9
11	0xd6	-42
12	0xba	-70
13	0x36	54
14	0xae	-82
15	0x59	89
16	0x53	83
17	0x9a	-102
18	0xae	-82
19	0x61	97
20	0xfa	-6
21	0xc5	-59
22	0x48	72
23	0x54	84
24	0xf4	-12
25	0x55	85
26	0x5b	91
27	0x1a	26
28	0x22	34
29	0x4e	78
30	0x32	50
31	0x17	23
32	0x60	96
33	0x03	3
34	0x6f	111
35	0x19	25
36	0xae	-82
37	0x00	0
38	0x2e	46
39	0x38	56
40	0xe3	-29
41	0x4f	79
42	0xfd	-3
43	0xb0	-80
44	0x32	50
45	0xc8	-56
46	0xd5	-43
47	0xaf	-81
48	0xfb	-5
49	0xe2	-30
50	0xb2	-78
51	0xd9	-39
52	0x3d	61
53	0x41	65
54	0xa9	-87
55	0xdd	-35
56	0x1b	27
57	0xb4	-76
58	0xe2	-30
59	0xbc	-68
60	0xa1	-95
61	0x36	54
62	0xf3	-13
63	0xcf	-49
64	0xfa	-6
65	0xfe	-2
66	0x28	40
67	0xbe	-66
68	0xdf	-33
69	0x23	35
70	0x25	37
71	0x26	38
72	0x67	103
73	0x27	39
74	0x19	25
75	0xdd	-35
76	0xbc	-68
77	0x1b	27
78	0x31	49
79	0x60	96
80	0x3f	63
81	0x22	34
82	0xb8	-72
83	0xb7	-73
84	0x1c	28
85	0xf1	-15
86	0x0f	15
87	0xdf	-33
88	0x2d	45
89	0x0a	10
90	0xdd	-35
91	0x24	36
92	0x58	88
93	0x1a	26
94	0x3b	59
95	0xc5	-59
96	0xdb	-37
97	0x1a	26
98	0xb7	-73
99	0xd6	-42
100	0x21	33
101	0x49	73
102	0xed	-19
103	0x50	80
104	0xcd	-51
105	0xce	-50
106	0xf9	-7
107	0xf9	-7
108	0xd0	-48
109	0x77	119
110	0xff	-1
111	0x4e	78
112	0xd0	-48
113	0xc6	-58
114	0x26	38
115	0x29	41
116	0x32	50
117	0x12	18
118	0xd0	-48
119	0x23	35
120	0xe2	-30
121	0xe6	-26
122	0x4f	79
123	0x3d	61
124	0x37	55
125	0x9c	-100
126	0xd0	-48
127	0x48	72
128	0x9f	-97
129	0xd4	-44
130	0x44	68
131	0xea	-22
132	0x32	50
133	0x8e	-114
134	0x95	-107
135	0xc1	-63
136	0xe7	-25
137	0xe6	-26
138	0x06	6
139	0x2a	42
140	0xe7	-25
141	0xcc	-52
142	0x67	103
143	0xe5	-27
144	0xfb	-5
145	0x1f	31
146	0xce	-50
147	0x35	53
148	0x58	88
149	0x56	86
150	0x34	52
151	0x52	82
152	0x1c	28
153	0xb9	-71
154	0xfb	-5
155	0xbb	-69
156	0x28	40
157	0x09	9
158	0x2d	45
159	0x0b	11
160	0xd9	-39
161	0xc9	-55
162	0x4c	76
163	0xa8	-88
164	0xd8	-40
165	0xc7	-57
166	0x4f	79
167	0x54	84
168	0x29	41
169	0x41	65
170	0x39	57
171	0xed	-19
172	0x45	69
173	0xd8	-40
174	0x61	97
175	0xc0	-64
176	0x37	55
177	0xd0	-48
178	0x93	-109
179	0x2f	47
180	0x47	71
181	0x09	9
182	0xab	-85
183	0x51	81
184	0x9c	-100
185	0x13	19
186	0xdb	-37
187	0x29	41
188	0xe0	-32
189	0xa3	-93
190	0xdd	-35
191	0x22	34
192	0x4d	77
193	0xa9	-87
194	0xb3	-77
195	0x97	-105
196	0xd2	-46
197	0x3e	62
198	0x52	82
199	0x26	38
200	0x99	-103
201	0xc6	-58
202	0x15	21
203	0xab	-85
204	0x22	34
205	0x3f	63
206	0x73	115
207	0x11	17
208	0x2f	47
209	0xa5	-91
210	0xf1	-15
211	0x27	39
212	0xa8	-88
213	0x1e	30
214	0xa0	-96
215	0x2b	43
216	0x29	41
217	0x36	54
218	0xc8	-56
219	0xc6	-58
220	0x5f	95
221	0x33	51
222	0xdc	-36
223	0x22	34
224	0xeb	-21
225	0xbc	-68
226	0xaa	-86
227	0x25	37
228	0xfd	-3
229	0x53	83
230	0x8d	-115
231	0xc1	-63
232	0xc1	-63
233	0x2c	44
234	0x51	81
235	0xf9	-7
236	0x13	19
237	0xd7	-41
238	0xab	-85
239	0x18	24
240	0x93	-109
241	0xe7	-25
242	0x3c	60
243	0xf6	-10
244	0xdb	-37
245	0xdf	-33
246	0x41	65
247	0x00	0
248	0x5e	94
249	0x81	-127
250	0x0f	15
251	0xf5	-11
252	0xa0	-96
253	0x06	6
254	0xbb	-69
255	0x5b	91

sequential/quant_dense/MatMul;sequential/quant_dense/LastValueQuant/FakeQuantWithMinMaxVars i1 [100, 832] scale=0.00095133967 zero_point=0
0	0xfe	-0.0019026793
1	0x2b	0.040907606
2	0xfc	-0.0038053587
3	0xc1	-0.0599344
4	0x14	0.019026794
5	0xf0	-0.015221435
6	0x27	0.03710225
7	0x3c	0.05708038
8	0xb3	-0.073253155
9	0x50	0.076107174
10	0xe0	-0.03044287
11	0x0b	0.010464736
12	0x56	0.08181521
13	0x2c	0.041858945
14	0xbb	-0.06564244
15	0x49	0.06944779
16	0x56	0.08181521
17	0x2a	0.039956264
18	0x21	0.03139421
19	0x39	0.05422636
20	0x22	0.03234555
21	0x18	0.022832152
22	0x30	0.045664303
23	0x20	0.03044287
24	0x3e	0.058983058
25	0xde	-0.03234555
26	0xf6	-0.009513397
27	0xc8	-0.053275023
28	0x48	0.06849646
29	0x31	0.046615645
30	0xcc	-0.04946966
31	0xc9	-0.05232368
32	0xcc	-0.04946966
33	0xf4	-0.011416076
34	0xae	-0.07800985
35	0x20	0.03044287
36	0x33	0.048518322
37	0xe1	-0.029491529
38	0x1c	0.026637511
39	0xf8	-0.0076107173
40	0xb7	-0.06944779
41	0x18	0.022832152
42	0x08	0.0076107173
43	0xdd	-0.033296887
44	0x1b	0.02568617
45	0xee	-0.017124115
46	0xfa	-0.005708038
47	0xfa	-0.005708038
48	0xd3	-0.042810284
49	0x30	0.045664303
50	0xf7	-0.008562057
51	0x4a	0.070399135
52	0x10	0.015221435
53	0x46	0.06659377
54	0x49	0.06944779
55	0xd8	-0.038053587
56	0xe9	-0.021880813
57	0xfb	-0.0047566984
58	0x52	0.07800985
59	0x3a	0.0551777
60	0x4f	0.07515583
61	0x41	0.061837077
62	0x50	0.076107174
63	0x43	0.063739754
64	0x31	0.046615645
65	0x11	0.016172774
66	0xef	-0.016172774
67	0x22	0.03234555
68	0x50	0.076107174
69	0x37	0.05232368
70	0xb3	-0.073253155
71	0x14	0.019026794
72	0x2e	0.043761626
73	0x03	0.002854019
74	0xc8	-0.053275023
75	0x10	0.015221435
76	0xcc	-0.04946966
77	0xf1	-0.014270095
78	0xcc	-0.04946966
79	0x24	0.03424823
80	0x0a	0.009513397
81	0x10	0.015221435
82	0xee	-0.017124115
83	0xef	-0.016172774
84	0xc2	-0.058983058
85	0xdf	-0.03139421
86	0x3c	0.05708038
87	0x37	0.05232368
88	0xf1	-0.014270095
89	0xd3	-0.042810284
90	0xba	-0.06659377
91	0xb1	-0.07515583
92	0xfd	-0.002854019
93	0x34	0.04946966
94	0xbc	-0.0646911
95	0xaf	-0.07705852
96	0x27	0.03710225
97	0x4e	0.0742045
98	0x45	0.06564244
99	0xe6	-0.02473483
100	0x2f	0.044712964
101	0x22	0.03234555
102	0x3b	0.056129042
103	0x40	0.06088574
104	0xc8	-0.053275023
105	0x52	0.07800985
106	0x21	0.03139421
107	0x3d	0.05803172
108	0x21	0.03139421
109	0xf8	-0.0076107173
110	0x56	0.08181521
111	0xbc	-0.0646911
112	0x44	0.0646911
113	0x47	0.067545116
114	0x02	0.0019026793
115	0x4b	0.07135048
116	0x29	0.039004926
117	0x5d	0.08847459
118	0xf6	-0.009513397
119	0x2f	0.044712964
120	0x2c	0.041858945
121	0xe3	-0.02758885
122	0x0e	0.013318756
123	0xcf	-0.046615645
124	0x26	0.036150906
125	0xf0	-0.015221435
126	0x33	0.048518322
127	0x27	0.03710225
128	0x3a	0.0551777
129	0xac	-0.07991253
130	0x48	0.06849646
131	0xed	-0.018075453
132	0xb2	-0.0742045
133	0xf6	-0.009513397
134	0xeb	-0.019978132
135	0xd3	-0.042810284
136	0xe9	-0.021880813
137	0x47	0.067545116
138	0xd3	-0.042810284
139	0xd5	-0.040907606
140	0x14	0.019026794
141	0xf1	-0.014270095
142	0xbc	-0.0646911
143	0x0d	0.012367415
144	0x4d	0.073253155
145	0x2c	0.041858945
146	0x01	0.00095133967
147	0xd8	-0.038053587
148	0x0f	0.014270095
149	0xdd	-0.033296887
150	0x26	0.036150906
151	0xc4	-0.05708038
152	0xf5	-0.010464736
153	0xfd	-0.002854019
154	0xf0	-0.015221435
155	0xc4	-0.05708038
156	0x44	0.0646911
157	0x19	0.023783492
158	0xf8	-0.0076107173
159	0x32	0.047566984
160	0xb4	-0.07230181
161	0xc5	-0.056129042
162	0x09	0.008562057
163	0xdb	-0.035199568
164	0xf4	-0.011416076
165	0xb6	-0.070399135
166	0x33	0.048518322
167	0xbc	-0.0646911
168	0x12	0.017124115
169	0x51	0.07705852
170	0x47	0.067545116
171	0x35	0.050421003
172	0xf5	-0.010464736
173	0x52	0.07800985
174	0x13	0.018075453
175	0xc8	-0.053275023
176	0xc0	-0.06088574
177	0xe5	-0.02568617
178	0x3c	0.05708038
179	0xef	-0.016172774
180	0xbe	-0.06278842
181	0x3d	0.05803172
182	0x10	0.015221435
183	0xb6	-0.070399135
184	0xbb	-0.06564244
185	0x40	0.06088574
186	0xf3	-0.012367415
187	0x2f	0.044712964
188	0xb3	-0.073253155
189	0x2c	0.041858945
190	0x0a	0.009513397
191	0x4b	0.07135048
192	0x4b	0.07135048
193	0xf6	-0.009513397
194	0x35	0.050421003
195	0xe0	-0.03044287
196	0x44	0.0646911
197	0xcd	-0.048518322
198	0xf2	-0.013318756
199	0x18	0.022832152
200	0x59	0.08466923
201	0x4b	0.07135048
202	0x47	0.067545116
203	0x09	0.008562057
204	0x50	0.076107174
205	0x10	0.015221435
206	0xd8	-0.038053587
207	0xef	-0.016172774
208	0x00	0.0
209	0x24	0.03424823
210	0x30	0.045664303
211	0xca	-0.05137234
212	0xaa	-0.08181521
213	0xc0	-0.06088574
214	0x1b	0.02568617
215	0x32	0.047566984
216	0xf2	-0.013318756
217	0x58	0.08371789
218	0xf4	-0.011416076
219	0x50	0.076107174
220	0xf2	-0.013318756
221	0x0f	0.014270095
222	0x3e	0.058983058
223	0x01	0.00095133967
224	0xbd	-0.063739754
225	0xf5	-0.010464736
226	0x07	0.006659378
227	0x4d	0.073253155
228	0x37	0.05232368
229	0x41	0.061837077
230	0xba	-0.06659377
231	0xcd	-0.048518322
232	0xec	-0.019026794
233	0xfe	-0.0019026793
234	0x4b	0.07135048
235	0x04	0.0038053587
236	0xff	-0.00095133967
237	0x1f	0.029491529
238	0x53	0.07896119
239	0xcd	-0.048518322
240	0x16	0.020929473
241	0xcd	-0.048518322
242	0x2a	0.039956264
243	0x31	0.046615645
244	0x0d	0.012367415
245	0x07	0.006659378
246	0xcb	-0.050421003
247	0xae	-0.07800985
248	0x26	0.036150906
249	0xc4	-0.05708038
250	0x00	0.0
251	0x23	0.033296887
252	0xfd	-0.002854019
253	0xfc	-0.0038053587
254	0x1d	0.02758885
255	0x42	0.06278842

sequential/quant_dense_1/MatMul;sequential/quant_dense_1/LastValueQuant/FakeQuantWithMinMaxVars i1 [50, 100] scale=0.0017310766 zero_point=0
0	0x25	0.06404983
1	0x13	0.032890458
2	0x1e	0.051932298
3	0xfc	-0.0069243065
4	0x3e	0.10732675
5	0xa2	-0.1627212
6	0x41	0.11251998
7	0xe1	-0.053663377
8	0x51	0.1402172
9	0x69	0.18176305
10	0x20	0.055394452
11	0xc0	-0.110788904
12	0x8f	-0.19561166
13	0xfd	-0.0051932298
14	0xcd	-0.08828491
15	0xe5	-0.046739068
16	0x0a	0.017310767
17	0xe2	-0.051932298
18	0xcc	-0.090015985
19	0xce	-0.086553834
20	0x95	-0.1852252
21	0xf8	-0.013848613
22	0xe7	-0.043276917
23	0x6c	0.18695627
24	0xe0	-0.055394452
25	0x31	0.08482275
26	0xc1	-0.10905783
27	0x72	0.19734274
28	0x30	0.083091676
29	0x52	0.14194828
30	0x4f	0.13675505
31	0x64	0.17310767
32	0xdf	-0.057125527
33	0x5b	0.15752797
34	0xd5	-0.07443629
35	0xfe	-0.0034621533
36	0xbe	-0.114251055
37	0xca	-0.093478136
38	0x56	0.14887258
39	0x25	0.06404983
40	0xd6	-0.07270522
41	0xdb	-0.06404983
42	0x2b	0.07443629
43	0x1f	0.053663377
44	0xa4	-0.15925905
45	0xa8	-0.15233475
46	0xed	-0.032890458
47	0x53	0.14367937
48	0x96	-0.18349412
49	0x9d	-0.17137659
50	0xe2	-0.051932298
51	0xfd	-0.0051932298
52	0x60	0.16618335
53	0x43	0.11598214
54	0x44	0.11771321
55	0x37	0.09520921
56	0x5b	0.15752797
57	0xf5	-0.019041844
58	0x36	0.093478136
59	0x3f	0.10905783
60	0xdc	-0.062318757
61	0xf7	-0.015579689
62	0xf6	-0.017310767
63	0x4d	0.1332929
64	0x8e	-0.19734274
65	0xf3	-0.022503996
66	0xe4	-0.048470147
67	0x28	0.069243066
68	0xb2	-0.13502398
69	0xa8	-0.15233475
70	0x58	0.15233475
71	0xc1	-0.10905783
72	0x69	0.18176305
73	0xdc	-0.062318757
74	0x49	0.1263686
75	0xd3	-0.07789845
76	0x1f	0.053663377
77	0x19	0.043276917
78	0xa7	-0.15406582
79	0x91	-0.1921495
80	0xf4	-0.020772919
81	0x61	0.16791444
82	0xd9	-0.06751199
83	0x15	0.03635261
84	0x42	0.114251055
85	0xfa	-0.0103864595
86	0xa3	-0.16099012
87	0xdb	-0.06404983
88	0x3a	0.100402445
89	0xeb	-0.03635261
90	0xf0	-0.027697226
91	0x99	-0.17830089
92	0x38	0.096940294
93	0x6d	0.18868735
94	0xff	-0.0017310766
95	0xc7	-0.09867137
96	0xb5	-0.12983075
97	0x53	0.14367937
98	0x6d	0.18868735
99	0x38	0.096940294
100	0xb8	-0.124637514
101	0x21	0.057125527
102	0x90	-0.19388059
103	0x60	0.16618335
104	0x3c	0.103864595
105	0x5a	0.1557969
106	0x07	0.012117537
107	0x14	0.034621533
108	0x1f	0.053663377
109	0xb7	-0.1263686
110	0x53	0.14367937
111	0x1d	0.050201222
112	0xcb	-0.09174706
113	0xa9	-0.15060367
114	0x3c	0.103864595
115	0x9c	-0.17310767
116	0x1a	0.045007993
117	0xdc	-0.062318757
118	0x2c	0.076167375
119	0x93	-0.18868735
120	0x42	0.114251055
121	0x51	0.1402172
122	0x19	0.043276917
123	0x3b	0.10213352
124	0x66	0.17656982
125	0x34	0.090015985
126	0x53	0.14367937
127	0xb1	-0.13675505
128	0x34	0.090015985
129	0x96	-0.18349412
130	0x0f	0.025966149
131	0xb2	-0.13502398
132	0x92	-0.19041842
133	0x00	0.0
134	0x5c	0.15925905
135	0x2b	0.07443629
136	0xd7	-0.07097414
137	0x02	0.0034621533
138	0xf9	-0.012117537
139	0xa6	-0.1557969
140	0x11	0.029428303
141	0xf1	-0.025966149
142	0x5d	0.16099012
143	0x49	0.1263686
144	0x49	0.1263686
145	0xf5	-0.019041844
146	0x5f	0.16445228
147	0xc3	-0.10559567
148	0x6f	0.1921495
149	0x5f	0.16445228
150	0xfd	-0.0051932298
151	0x8f	-0.19561166
152	0x97	-0.18176305
153	0xbb	-0.11944429
154	0xfd	-0.0051932298
155	0x4b	0.12983075
156	0x75	0.20253597
157	0xb8	-0.124637514
158	0x2e	0.079629526
159	0xfc	-0.0069243065
160	0xb2	-0.13502398
161	0x21	0.057125527
162	0xf8	-0.013848613
163	0xc3	-0.10559567
164	0xc5	-0.10213352
165	0xb6	-0.12809967
166	0x3b	0.10213352
167	0xed	-0.032890458
168	0x25	0.06404983
169	0x01	0.0017310766
170	0x95	-0.1852252
171	0xe5	-0.046739068
172	0xb8	-0.124637514
173	0x5b	0.15752797
174	0xdb	-0.06404983
175	0xe6	-0.045007993
176	0xae	-0.14194828
177	0xda	-0.065780915
178	0xf8	-0.013848613
179	0x6e	0.19041842
180	0xbf	-0.11251998
181	0x94	-0.18695627
182	0x4e	0.13502398
183	0x4b	0.12983075
184	0x15	0.03635261
185	0xed	-0.032890458
186	0x5e	0.1627212
187	0x4d	0.1332929
188	0x49	0.1263686
189	0x66	0.17656982
190	0x64	0.17310767
191	0x39	0.09867137
192	0x16	0.038083687
193	0x62	0.1696455
194	0x1c	0.048470147
195	0xe7	-0.043276917
196	0x5d	0.16099012
197	0x0c	0.020772919
198	0x18	0.041545838
199	0x65	0.17483874
200	0x39	0.09867137
201	0x90	-0.19388059
202	0xd5	-0.07443629
203	0x27	0.06751199
204	0xa8	-0.15233475
205	0x20	0.055394452
206	0xf9	-0.012117537
207	0xb6	-0.12809967
208	0x08	0.013848613
209	0x57	0.15060367
210	0x5e	0.1627212
211	0xc2	-0.10732675
212	0x54	0.14541043
213	0xd4	-0.076167375
214	0xe4	-0.048470147
215	0x04	0.0069243065
216	0xb0	-0.13848613
217	0xfb	-0.008655383
218	0xb8	-0.124637514
219	0xd0	-0.083091676
220	0xde	-0.058856606
221	0x8a	-0.20426704
222	0xe0	-0.055394452
223	0xa6	-0.1557969
224	0x61	0.16791444
225	0x00	0.0
226	0xba	-0.12117536
227	0x27	0.06751199
228	0x41	0.11251998
229	0x35	0.09174706
230	0x89	-0.20599812
231	0xe2	-0.051932298
232	0xb5	-0.12983075
233	0xb6	-0.12809967
234	0x04	0.0069243065
235	0xea	-0.038083687
236	0xa4	-0.15925905
237	0x13	0.032890458
238	0xd7	-0.07097414
239	0x52	0.14194828
240	0xdc	-0.062318757
241	0xac	-0.14541043
242	0xd8	-0.069243066
243	0x4b	0.12983075
244	0xca	-0.093478136
245	0xc2	-0.10732675
246	0x0a	0.017310767
247	0x22	0.058856606
248	0x2f	0.0813606
249	0x0d	0.022503996
250	0xe5	-0.046739068
251	0xc1	-0.10905783
252	0x2f	0.0813606
253	0x59	0.15406582
254	0xdd	-0.06058768
255	0xaa	-0.14887258

sequential/quant_dense_2/MatMul;sequential/quant_dense_2/LastValueQuant/FakeQuantWithMinMaxVars i1 [10, 50] scale=0.0024917314 zero_point=0
0	0x89	-0.29651603
1	0x9b	-0.25166488
2	0x4d	0.19186331
3	0x7b	0.30648297
4	0x17	0.05730982
5	0xe2	-0.07475194
6	0xe2	-0.07475194
7	0x7f	0.31644988
8	0x75	0.29153258
9	0x81	-0.31644988
10	0x90	-0.27907392
11	0x36	0.13455349
12	0xbe	-0.16445428
13	0x39	0.14202869
14	0x2f	0.11711138
15	0x79	0.30149952
16	0x58	0.21927236
17	0x25	0.092194065
18	0x5c	0.22923928
19	0x65	0.25166488
20	0xed	-0.047342896
21	0x4f	0.19684678
22	0x7d	0.31146643
23	0x92	-0.27409047
24	0xa9	-0.21678063
25	0xae	-0.20432198
26	0x20	0.079735406
27	0x89	-0.29651603
28	0x16	0.05481809
29	0xbc	-0.16943774
30	0xf5	-0.027409045
31	0x46	0.1744212
32	0xda	-0.09468579
33	0x53	0.20681371
34	0xb8	-0.17940466
35	0x8e	-0.28405738
36	0x2e	0.11461964
37	0x92	-0.27409047
38	0x21	0.08222714
39	0x36	0.13455349
40	0x95	-0.26661527
41	0x01	0.0024917314
42	0xa2	-0.23422275
43	0xb9	-0.17691293
44	0x36	0.13455349
45	0xd3	-0.112127915
46	0x1e	0.07475194
47	0xd8	-0.099669255
48	0xff	-0.0024917314
49	0xc4	-0.14950389
50	0x53	0.20681371
51	0x9f	-0.24169795
52	0x99	-0.25664833
53	0xed	-0.047342896
54	0xbb	-0.17192946
55	0x34	0.12957004
56	0xcb	-0.13206176
57	0x88	-0.29900777
58	0xac	-0.20930544
59	0x00	0.0
60	0xe9	-0.05730982
61	0x0e	0.03488424
62	0xb5	-0.18687986
63	0x38	0.13953696
64	0xdd	-0.0872106
65	0xc4	-0.14950389
66	0x6a	0.26412353
67	0xc0	-0.15947081
68	0x5b	0.22674756
69	0xc4	-0.14950389
70	0x1b	0.067276746
71	0xf4	-0.029900778
72	0x51	0.20183025
73	0xf1	-0.03737597
74	0x10	0.039867703
75	0x90	-0.27907392
76	0x2c	0.10963618
77	0xce	-0.124586575
78	0xde	-0.08471887
79	0xb0	-0.19933851
80	0xcb	-0.13206176
81	0x01	0.0024917314
82	0xeb	-0.05232636
83	0xb1	-0.19684678
84	0x1c	0.06976848
85	0x86	-0.30399123
86	0x41	0.16196254
87	0xa8	-0.21927236
88	0x3b	0.14701216
89	0x77	0.29651603
90	0xaf	-0.20183025
91	0x6c	0.26910698
92	0x1e	0.07475194
93	0x1c	0.06976848
94	0xd1	-0.11711138
95	0x64	0.24917315
96	0x16	0.05481809
97	0x20	0.079735406
98	0x3f	0.15697908
99	0x12	0.044851165
100	0xe9	-0.05730982
101	0xea	-0.05481809
102	0xa3	-0.23173103
103	0xe6	-0.06478502
104	0x14	0.049834628
105	0xa0	-0.23920622
106	0x23	0.0872106
107	0x75	0.29153258
108	0xeb	-0.05232636
109	0x8a	-0.29402432
110	0xe8	-0.059801556
111	0x7d	0.31146643
112	0xf7	-0.022425583
113	0x76	0.29402432
114	0x97	-0.2616318
115	0x18	0.059801556
116	0x1f	0.07724367
117	0x7a	0.30399123
118	0x86	-0.30399123
119	0xcf	-0.12209484
120	0xfd	-0.0074751945
121	0x91	-0.27658218
122	0x48	0.17940466
123	0x7d	0.31146643
124	0x68	0.25914007
125	0x70	0.27907392
126	0x2d	0.112127915
127	0xe2	-0.07475194
128	0x40	0.15947081
129	0xf7	-0.022425583
130	0x62	0.24418968
131	0x7e	0.31395817
132	0xc5	-0.14701216
133	0x63	0.2466814
134	0x08	0.019933851
135	0x2b	0.10714445
136	0x36	0.13455349
137	0x63	0.2466814
138	0x33	0.12707831
139	0x5d	0.23173103
140	0x62	0.24418968
141	0x14	0.049834628
142	0x1b	0.067276746
143	0xa5	-0.22674756
144	0xee	-0.044851165
145	0xc3	-0.15199561
146	0x84	-0.30897468
147	0xd3	-0.112127915
148	0xd0	-0.11960311
149	0xa4	-0.22923928
150	0x47	0.17691293
151	0xeb	-0.05232636
152	0xf8	-0.019933851
153	0x01	0.0024917314
154	0xe4	-0.06976848
155	0x77	0.29651603
156	0xec	-0.049834628
157	0x8c	-0.28904083
158	0x79	0.30149952
159	0xe8	-0.059801556
160	0x4b	0.18687986
161	0x96	-0.26412353
162	0x79	0.30149952
163	0x77	0.29651603
164	0xe2	-0.07475194
165	0x1e	0.07475194
166	0x59	0.2217641
167	0x2e	0.11461964
168	0x9a	-0.25415662
169	0x78	0.29900777
170	0xa8	-0.21927236
171	0xb2	-0.19435506
172	0x0a	0.024917314
173	0x22	0.08471887
174	0x0e	0.03488424
175	0x9f	-0.24169795
176	0x5d	0.23173103
177	0x93	-0.27159873
178	0x46	0.1744212
179	0x0c	0.029900778
180	0xc3	-0.15199561
181	0x9b	-0.25166488
182	0x25	0.092194065
183	0x41	0.16196254
184	0xdb	-0.092194065
185	0x11	0.042359434
186	0xe3	-0.07226021
187	0x89	-0.29651603
188	0xe3	-0.07226021
189	0xb1	-0.19684678
190	0x48	0.17940466
191	0x13	0.047342896
192	0x25	0.092194065
193	0xf1	-0.03737597
194	0xe1	-0.07724367
195	0xbd	-0.16694601
196	0x47	0.17691293
197	0x1b	0.067276746
198	0x50	0.19933851
199	0xec	-0.049834628
200	0x9c	-0.24917315
201	0x52	0.20432198
202	0x77	0.29651603
203	0x7c	0.30897468
204	0xb4	-0.18937159
205	0xd0	-0.11960311
206	0x62	0.24418968
207	0x3c	0.14950389
208	0x1b	0.067276746
209	0x8f	-0.28156567
210	0x14	0.049834628
211	0xd6	-0.10465272
212	0xfd	-0.0074751945
213	0x6e	0.27409047
214	0xc9	-0.13704523
215	0xf2	-0.03488424
216	0x06	0.014950389
217	0x5a	0.22425583
218	0x76	0.29402432
219	0xe6	-0.06478502
220	0xe5	-0.067276746
221	0x39	0.14202869
222	0x31	0.12209484
223	0x20	0.079735406
224	0x6f	0.27658218
225	0xe4	-0.06976848
226	0xc3	-0.15199561
227	0xe7	-0.062293287
228	0xe1	-0.07724367
229	0xf1	-0.03737597
230	0xa9	-0.21678063
231	0x6d	0.27159873
232	0x5d	0.23173103
233	0x75	0.29153258
234	0xf5	-0.027409045
235	0xc1	-0.15697908
236	0xb3	-0.19186331
237	0xda	-0.09468579
238	0x46	0.1744212
239	0xab	-0.21179718
240	0x4f	0.19684678
241	0xb7	-0.18189639
242	0x77	0.29651603
243	0x6d	0.27159873
244	0x58	0.21927236
245	0x49	0.18189639
246	0x57	0.21678063
247	0x26	0.09468579
248	0xe4	-0.06976848
249	0x6f	0.27658218
250	0x2a	0.10465272
251	0x8d	-0.28654912
252	0x03	0.0074751945
253	0xbb	-0.17192946
254	0xa4	-0.22923928
255	0xe2	-0.07475194

sequential/quant_output/MatMul;sequential/quant_output/LastValueQuant/FakeQuantWithMinMaxVars i1 [1, 10] scale=0.0050732004 zero_point=0
0	0xc1	-0.31961164
1	0x32	0.25366002
2	0x0b	0.055805206
3	0x32	0.25366002
4	0x7d	0.63415
5	0x70	0.56819844
6	0xa8	-0.44644165
7	0x81	-0.64429647
8	0x81	-0.64429647
9	0x93	-0.5529789
