models/opt-80x60x3.tflite (tflite, 156808 bytes, 9 tensors)

sequential_38/quant_conv2d_188/Conv2D;sequential_38/quant_conv2d_188/LastValueQuant/FakeQuantWithMinMaxVarsPerChannel i1 [24, 5, 5, 3]
00000000: 463b b1a6 f10f e3a2 a455 e122 1daa 7031
00000010: bdd2 7f22 3fc0 452e 037f 6b78 32f4 065d
00000020: 4234 fea5 46f9 e05b 3fd6 03db e00a 5fd1
00000030: a4d0 c1f1 1516 fa69 3dba 3328 f504 2ad3
00000040: 2942 f5cc 413b 6399 2bea 007f cfa8 f75b
00000050: 1b5c 6c8b dfee 8a79 a0d0 730c 1a95 d68c
00000060: 0389 bf7e 8549 549d d0c4 ef2e a43c 403f
00000070: 0368 50e9 2de3 dae6 01d7 4887 01ea e4de
00000080: e3e9 c8da fee4 efcf 36ba c4d7 855f 45ca
00000090: 96fe 9f39 d546 3508 d784 fc9b 0a3b c1eb
000000a0: fd5c 5d24 b0b6 fe20 5315 495c df8b 4504
000000b0: af05 1f9d 9008 65bb d655 c23f bdaf 5101
000000c0: b979 f11e 6074 03af 2dc4 09c4 d7ea c0ce
000000d0: 7551 d42d b75d b2b6 38ce 407d a57f 5c5d
000000e0: c47f b7b6 1c0a da27 77fb 35fd 46b8 828e
000000f0: c036 b86d 4fe4 009d 2557 43a1 729f c7ca
70 59 -79 -90 -15 15 -29 -94
-92 85 -31 34 29 -86 112 49
-67 -46 127 34 63 -64 69 46
3 127 107 120 50 -12 6 93
66 52 -2 -91 70 -7 -32 91
63 -42 3 -37 -32 10 95 -47
-92 -48 -63 -15 21 22 -6 105
61 -70 51 40 -11 4 42 -45
41 66 -11 -52 65 59 99 -103
43 -22 0 127 -49 -88 -9 91
27 92 108 -117 -33 -18 -118 121
-96 -48 115 12 26 -107 -42 -116
3 -119 -65 126 -123 73 84 -99
-48 -60 -17 46 -92 60 64 63
3 104 80 -23 45 -29 -38 -26
1 -41 72 -121 1 -22 -28 -34
-29 -23 -56 -38 -2 -28 -17 -49
54 -70 -60 -41 -123 95 69 -54
-106 -2 -97 57 -43 70 53 8
-41 -124 -4 -101 10 59 -63 -21
-3 92 93 36 -80 -74 -2 32
83 21 73 92 -33 -117 69 4
-81 5 31 -99 -112 8 101 -69
-42 85 -62 63 -67 -81 81 1
-71 121 -15 30 96 116 3 -81
45 -60 9 -60 -41 -22 -64 -50
117 81 -44 45 -73 93 -78 -74
56 -50 64 125 -91 127 92 93
-60 127 -73 -74 28 10 -38 39
119 -5 53 -3 70 -72 -126 -114
-64 54 -72 109 79 -28 0 -99
37 87 67 -95 114 -97 -57 -54

sequential_38/quant_conv2d_189/Conv2D;sequential_38/quant_conv2d_189/LastValueQuant/FakeQuantWithMinMaxVarsPerChannel i1 [36, 5, 5, 24]
00000000: 4a3b a298 3215 acd7 0daf 8376 a45d 5cbf
00000010: b7f4 a5cd 4567 aa2a 20ad 94e1 eb26 b0e0
00000020: cff7 17ef e533 8d4b 4c44 97a0 5c26 0a67
00000030: c7b2 c756 5e40 c5fb 2217 31c6 e368 c3f5
00000040: 440f c6fe f937 6ab4 5fe6 8da6 b7a8 dcb6
00000050: 57eb 8abc c63b 519f 9314 b93c 245b c2c7
00000060: bc05 0bc6 df63 93f7 3ea5 2672 fa54 5b6e
00000070: 48db 1dc0 b352 376f 1366 27fd 20ea 5b78
00000080: e84d 0966 a2d3 54fa c892 d9ad 3f07 d456
00000090: ae52 d8d0 1c49 7369 9930 c92c a207 3029
000000a0: e458 d66a 6be8 dcf1 9553 8b77 a703 4cb7
000000b0: f618 59ec dff1 388e d966 ab3d 0938 e267
000000c0: 07e4 b046 9ca9 61ca f204 5861 7f03 f944
000000d0: 57ad e2da 674e 8f9e 2ccb 5ac3 37cc 855b
000000e0: 11ed af55 93f3 604e ec6f f911 b83c 444c
000000f0: e6d0 6c02 14bd e6b8 4611 cf38 e8cd caf7
74 59 -94 -104 50 21 -84 -41
13 -81 -125 118 -92 93 92 -65
-73 -12 -91 -51 69 103 -86 42
32 -83 -108 -31 -21 38 -80 -32
-49 -9 23 -17 -27 51 -115 75
76 68 -105 -96 92 38 10 103
-57 -78 -57 86 94 64 -59 -5
34 23 49 -58 -29 104 -61 -11
68 15 -58 -2 -7 55 106 -76
95 -26 -115 -90 -73 -88 -36 -74
87 -21 -118 -68 -58 59 81 -97
-109 20 -71 60 36 91 -62 -57
-68 5 11 -58 -33 99 -109 -9
62 -91 38 114 -6 84 91 110
72 -37 29 -64 -77 82 55 111
19 102 39 -3 32 -22 91 120
-24 77 9 102 -94 -45 84 -6
-56 -110 -39 -83 63 7 -44 86
-82 82 -40 -48 28 73 115 105
-103 48 -55 44 -94 7 48 41
-28 88 -42 106 107 -24 -36 -15
-107 83 -117 119 -89 3 76 -73
-10 24 89 -20 -33 -15 56 -114
-39 102 -85 61 9 56 -30 103
7 -28 -80 70 -100 -87 97 -54
-14 4 88 97 127 3 -7 68
87 -83 -30 -38 103 78 -113 -98
44 -53 90 -61 55 -52 -123 91
17 -19 -81 85 -109 -13 96 78
-20 111 -7 17 -72 60 68 76
-26 -48 108 2 20 -67 -26 -72
70 17 -49 56 -24 -51 -54 -9

sequential_38/quant_conv2d_190/Conv2D;sequential_38/quant_conv2d_190/LastValueQuant/FakeQuantWithMinMaxVarsPerChannel i1 [48, 5, 5, 36]
00000000: ff4c 0be9 9bfe e8d1 0d1c 3d22 30b7 5db9
00000010: 5b18 f64a 1c52 a65a 2be9 526e 5434 81ad
00000020: d0d8 ac96 3f2a 9441 ec61 0010 f617 b2fa
00000030: 3e59 eb21 12d6 92f2 1522 b300 4c5c 39f0
00000040: aa59 0ee4 d6fd 01e0 14df ca66 619f e3df
00000050: 53e3 cb15 ccba 1440 3a4e 5333 2c05 8e1b
00000060: 4fc5 ee07 278d f54a 2b59 db3b 9fd9 34e2
00000070: 19fb f012 d6a6 5622 1042 f9ea 3a42 be35
00000080: 2f9b 57c1 f163 510f fadc 55a0 08c8 5798
00000090: bdc3 fd9b f953 4dff e640 c0ef b6ae e25d
000000a0: 670a b4df 455d 5abb d254 366a 3b47 2709
000000b0: bb19 04af 180d 5ae1 a6cc f799 b81d 3137
000000c0: be1d 10c2 2407 1cea 01bd 534c 29f5 b2dc
000000d0: 4819 50ec 8aa8 0b59 ace5 e9bd cb9a d9c5
000000e0: 6601 0527 eaa9 b9c7 0e9a 503b afc0 5b0a
000000f0: 5fe9 2457 4149 4b23 ffbd 4ab3 24ae dde2
-1 76 11 -23 -101 -2 -24 -47
13 28 61 34 48 -73 93 -71
91 24 -10 74 28 82 -90 90
43 -23 82 110 84 52 -127 -83
-48 -40 -84 -106 63 42 -108 65
-20 97 0 16 -10 23 -78 -6
62 89 -21 33 18 -42 -110 -14
21 34 -77 0 76 92 57 -16
-86 89 14 -28 -42 -3 1 -32
20 -33 -54 102 97 -97 -29 -33
83 -29 -53 21 -52 -70 20 64
58 78 83 51 44 5 -114 27
79 -59 -18 7 39 -115 -11 74
43 89 -37 59 -97 -39 52 -30
25 -5 -16 18 -42 -90 86 34
16 66 -7 -22 58 66 -66 53
47 -101 87 -63 -15 99 81 15
-6 -36 85 -96 8 -56 87 -104
-67 -61 -3 -101 -7 83 77 -1
-26 64 -64 -17 -74 -82 -30 93
103 10 -76 -33 69 93 90 -69
-46 84 54 106 59 71 39 9
-69 25 4 -81 24 13 90 -31
-90 -52 -9 -103 -72 29 49 55
-66 29 16 -62 36 7 28 -22
1 -67 83 76 41 -11 -78 -36
72 25 80 -20 -118 -88 11 89
-84 -27 -23 -67 -53 -102 -39 -59
102 1 5 39 -22 -87 -71 -57
14 -102 80 59 -81 -64 91 10
95 -23 36 87 65 73 75 35
-1 -67 74 -77 36 -82 -35 -30

sequential_38/quant_conv2d_191/Conv2D;sequential_38/quant_conv2d_191/LastValueQuant/FakeQuantWithMinMaxVarsPerChannel i1 [64, 3, 3, 48]
00000000: 7395 34aa 9d31 5c58 4003 b970 f75f 0904
00000010: 5f6a 86b6 7be1 0ead 60a1 adfa 2e22 f541
00000020: 23f5 e1da 1f86 814a 4cf7 2406 094d d93d
00000030: add2 db7f f730 718f a221 acc4 cfe1 d619
00000040: 27f6 1fa6 9965 11e5 d163 e910 e4c0 17e8
00000050: 9934 f99b 9746 645f c895 b767 bf89 460a
00000060: 5872 f467 b7e8 eb8d bc86 f928 6f7e 53a8
00000070: bf3f d55d eb54 8dc8 69b1 1fc1 d300 0e53
00000080: b34c a587 14ef bccc cd3a ec6e d501 8e3b
00000090: 2061 cfda 23ac 7462 dacb 060f 762e 9064
000000a0: 43df eb6c 631c 751f 6a15 6de1 75d1 fbb5
000000b0: 5794 3ff2 a82a cb21 ed57 b0ae 98f9 99fe
000000c0: 09b1 3e92 9c5d c1cb 1e9f 29ee 900b f2d4
000000d0: 4e65 63ea 3387 bc2d cb4a 9ba4 25d9 598c
000000e0: baf3 4dd6 56cf b5d8 3cc8 8228 2104 ec43
000000f0: 35f9 2f6f c003 8c72 d3a6 1afa 89b5 f926
115 -107 52 -86 -99 49 92 88
64 3 -71 112 -9 95 9 4
95 106 -122 -74 123 -31 14 -83
96 -95 -83 -6 46 34 -11 65
35 -11 -31 -38 31 -122 -127 74
76 -9 36 6 9 77 -39 61
-83 -46 -37 127 -9 48 113 -113
-94 33 -84 -60 -49 -31 -42 25
39 -10 31 -90 -103 101 17 -27
-47 99 -23 16 -28 -64 23 -24
-103 52 -7 -101 -105 70 100 95
-56 -107 -73 103 -65 -119 70 10
88 114 -12 103 -73 -24 -21 -115
-68 -122 -7 40 111 126 83 -88
-65 63 -43 93 -21 84 -115 -56
105 -79 31 -63 -45 0 14 83
-77 76 -91 -121 20 -17 -68 -52
-51 58 -20 110 -43 1 -114 59
32 97 -49 -38 35 -84 116 98
-38 -53 6 15 118 46 -112 100
67 -33 -21 108 99 28 117 31
106 21 109 -31 117 -47 -5 -75
87 -108 63 -14 -88 42 -53 33
-19 87 -80 -82 -104 -7 -103 -2
9 -79 62 -110 -100 93 -63 -53
30 -97 41 -18 -112 11 -14 -44
78 101 99 -22 51 -121 -68 45
-53 74 -101 -92 37 -39 89 -116
-70 -13 77 -42 86 -49 -75 -40
60 -56 -126 40 33 4 -20 67
53 -7 47 111 -64 3 -116 114
-45 -90 26 -6 -119 -75 -7 38

sequential_38/quant_conv2d_192/Conv2D;sequential_38/quant_conv2d_192/LastValueQuant/FakeQuantWithMinMaxVarsPerChannel i1 [64, 2, 2, 64]
00000000: 9861 02e8 9462 0e0b feab e46c e654 4e10
00000010: dcf9 6200 4342 c4c3 7315 9326 63ff b70d
00000020: 97ce 2283 b912 dfa8 ffc2 db10 10ca ffd6
00000030: 88d1 5433 8d9a 9020 0526 c30f bbc6 42e2
00000040: f233 7746 2ba8 c91c a8ef f135 283f ebd3
00000050: 70ae 3c46 5d5d d8c2 2b58 9ebb d396 9ec8
00000060: 315b 8333 6b93 a853 fe39 9651 853e c7dc
00000070: a0a6 59e6 4caa dd6b 89ff 6e19 86ae aa5f
00000080: a3d6 5a25 f222 0223 bcfd 29ee 4166 1c96
00000090: 75b2 a2f3 2df2 258f f867 f816 0339 edf7
000000a0: 6bec 99c4 95b5 68b2 ff34 79c4 4a2d f927
000000b0: 8198 942e 3418 be3c ba4c e59f 1645 b1e9
000000c0: 5333 698a 010b bbca a84b ede7 0f2c c844
000000d0: e0e8 59d0 efa3 658f a9c9 54ab f9bc b6b3
000000e0: d079 ed96 6ce9 fd1e fa77 24d2 4f78 8ab0
000000f0: baa1 4dc3 ff03 55c7 070c 8340 6adf 4628
-104 97 2 -24 -108 98 14 11
-2 -85 -28 108 -26 84 78 16
-36 -7 98 0 67 66 -60 -61
115 21 -109 38 99 -1 -73 13
-105 -50 34 -125 -71 18 -33 -88
-1 -62 -37 16 16 -54 -1 -42
-120 -47 84 51 -115 -102 -112 32
5 38 -61 15 -69 -58 66 -30
-14 51 119 70 43 -88 -55 28
-88 -17 -15 53 40 63 -21 -45
112 -82 60 70 93 93 -40 -62
43 88 -98 -69 -45 -106 -98 -56
49 91 -125 51 107 -109 -88 83
-2 57 -106 81 -123 62 -57 -36
-96 -90 89 -26 76 -86 -35 107
-119 -1 110 25 -122 -82 -86 95
-93 -42 90 37 -14 34 2 35
-68 -3 41 -18 65 102 28 -106
117 -78 -94 -13 45 -14 37 -113
-8 103 -8 22 3 57 -19 -9
107 -20 -103 -60 -107 -75 104 -78
-1 52 121 -60 74 45 -7 39
-127 -104 -108 46 52 24 -66 60
-70 76 -27 -97 22 69 -79 -23
83 51 105 -118 1 11 -69 -54
-88 75 -19 -25 15 44 -56 68
-32 -24 89 -48 -17 -93 101 -113
-87 -55 84 -85 -7 -68 -74 -77
-48 121 -19 -106 108 -23 -3 30
-6 119 36 -46 79 120 -118 -80
-70 -95 77 -61 -1 3 85 -57
7 12 -125 64 106 -33 70 40

sequential_38/quant_dense_105/MatMul;sequential_38/quant_dense_105/LastValueQuant/FakeQuantWithMinMaxVars i1 [100, 256] scale=0.0011532677 zero_point=0
00000000: b699 ab1a bb00 f219 b1ab d81e 4b5d 3cdd
00000010: af2c 1c46 1863 e3ec f442 0702 07cd 2a29
00000020: 70d9 9b9a 623a f2ae cc0f dd45 3956 c40c
00000030: b3b7 edda f2b1 c8d7 4c67 1a57 bc6b 2eb1
00000040: 9bdf 345a f86a f73f 2b94 0147 d83a 57d7
00000050: 6d62 4ce0 a729 145c 04e4 ed54 b011 b7f8
00000060: fcef 54f8 c3c8 48c2 c540 ed38 fdae c132
00000070: 46c4 abb6 ad33 dfef b905 ea1a cbd6 cdef
00000080: de23 cada b460 2ad3 0b66 68d0 269e bde7
00000090: a61e c196 b02e 36d5 d5f9 106d 7433 d6b7
000000a0: d100 9070 1fe5 6fae 094f da48 eaf5 a8f0
000000b0: c1e8 9273 4333 0b22 5520 aa36 3627 bca4
000000c0: d12f 47f6 19e6 0e1b f0d8 c455 b11d 0026
000000d0: 2ade 67db f955 6ce5 42f6 3d18 be25 5afe
000000e0: 69ce db6d 2637 1374 4cff 0ea4 befd b835
000000f0: 3d46 d41f 4e26 f501 27a6 d795 69c9 681a
-0.08534181 -0.11878657 -0.09802775 0.02998496 -0.07957547 0.0 -0.016145747 0.028831692
-0.09110815 -0.09802775 -0.04613071 0.03459803 0.08649508 0.107253894 0.06919606 -0.04036437
-0.09341468 0.050743777 0.032291494 0.08072874 0.027678424 0.1141735 -0.033444762 -0.023065355
-0.013839212 0.07611567 0.008072874 0.0023065354 0.008072874 -0.058816653 0.04843724 0.047283974
0.12916598 -0.04497744 -0.11648004 -0.117633305 0.113020234 0.066889524 -0.016145747 -0.09456795
-0.05996992 0.017299015 -0.04036437 0.07957547 0.06573626 0.09918102 -0.06919606 0.013839212
-0.088801615 -0.08418854 -0.021912087 -0.043824174 -0.016145747 -0.09110815 -0.06458299 -0.047283974
0.08764835 0.11878657 0.02998496 0.10033429 -0.0784222 0.123399645 0.053050313 -0.09110815
-0.11648004 -0.038057834 0.05996992 0.10379409 -0.0092261415 0.12224638 -0.010379409 0.072655864
0.04959051 -0.12455291 0.0011532677 0.08188201 -0.04613071 0.066889524 0.10033429 -0.047283974
0.12570618 0.113020234 0.08764835 -0.036904566 -0.10264082 0.047283974 0.023065355 0.10610063
0.0046130707 -0.032291494 -0.021912087 0.09687448 -0.09226142 0.01960555 -0.08418854 -0.0092261415
-0.0046130707 -0.01960555 0.09687448 -0.0092261415 -0.07034933 -0.06458299 0.083035275 -0.071502596
-0.06804279 0.07380913 -0.021912087 0.06458299 -0.003459803 -0.09456795 -0.072655864 0.057663385
0.08072874 -0.06919606 -0.09802775 -0.08534181 -0.095721215 0.058816653 -0.038057834 -0.01960555
-0.08188201 0.0057663387 -0.025371889 0.02998496 -0.06112319 -0.04843724 -0.058816653 -0.01960555
-0.0392111 0.04036437 -0.062276457 -0.043824174 -0.08764835 0.1107137 0.04843724 -0.051897045
0.012685944 0.117633305 0.11993984 -0.05535685 0.043824174 -0.113020234 -0.077268936 -0.028831692
-0.10379409 0.03459803 -0.072655864 -0.12224638 -0.09226142 0.053050313 0.062276457 -0.04959051
-0.04959051 -0.008072874 0.018452283 0.12570618 0.13377905 0.058816653 -0.04843724 -0.08418854
-0.05420358 0.0 -0.12916598 0.12916598 0.035751298 -0.031138228 0.12801272 -0.09456795
0.010379409 0.09110815 -0.043824174 0.083035275 -0.025371889 -0.012685944 -0.101487555 -0.018452283
-0.072655864 -0.027678424 -0.12685944 0.13262579 0.077268936 0.058816653 0.012685944 0.0392111
0.09802775 0.036904566 -0.09918102 0.062276457 0.062276457 0.04497744 -0.0784222 -0.10610063
-0.05420358 0.05420358 0.08188201 -0.011532677 0.028831692 -0.02998496 0.016145747 0.031138228
-0.018452283 -0.04613071 -0.06919606 0.09802775 -0.09110815 0.033444762 0.0 0.043824174
0.04843724 -0.0392111 0.11878657 -0.042670906 -0.008072874 0.09802775 0.12455291 -0.031138228
0.07611567 -0.011532677 0.07034933 0.027678424 -0.07611567 0.042670906 0.10379409 -0.0023065354
0.12109311 -0.057663385 -0.042670906 0.12570618 0.043824174 0.06342972 0.021912087 0.13377905
0.08764835 -0.0011532677 0.016145747 -0.10610063 -0.07611567 -0.003459803 -0.083035275 0.06112319
0.07034933 0.08072874 -0.050743777 0.035751298 0.08995488 0.043824174 -0.012685944 0.0011532677
0.04497744 -0.10379409 -0.047283974 -0.123399645 0.12109311 -0.06342972 0.11993984 0.02998496

sequential_38/quant_dense_106/MatMul;sequential_38/quant_dense_106/LastValueQuant/FakeQuantWithMinMaxVars i1 [50, 100] scale=0.0016523853 zero_point=0
00000000: 0721 6c32 9bab 1006 1628 0ae7 b5b9 0995
00000010: a00d bf62 3d4b 7653 b58d 3032 5095 b90b
00000020: fcd4 daa1 b66d 3756 6a27 4cfd acc4 4502
00000030: 26bc 1398 e550 9243 009a fb48 6ce5 d1eb
00000040: 3f36 b05c 5c12 de56 a25f 59d7 9bee 5941
00000050: 0f3b 275d 2d5d 9795 6a9d 385c 7df2 e455
00000060: ed6e 9abb a5dc c5f8 db9e 1de4 2249 7b07
00000070: dae9 be90 a473 b9d2 f2a1 b638 5942 36ed
00000080: e86f 7fff e8c1 7335 fb0d 652c 5259 f0e7
00000090: 7616 b14f e6e5 320f 2369 c1c3 07eb 0afc
000000a0: aed2 d408 ec2e 3cc9 fe47 bd07 8d51 04b0
000000b0: 2bfe f147 45f7 b522 b7d4 2453 2263 44b5
000000c0: d79c c91c 5ab8 9ab2 77cb e1ef f867 3ea9
000000d0: dfba cb6b 79b1 49a3 4056 a151 558f 5915
000000e0: 708d 35d5 51e4 432a 72c5 03ba 0e97 9ecb
000000f0: 6cc2 0b98 079e 8de5 15e2 a044 ecde 8be8
0.011566698 0.054528717 0.17845762 0.082619265 -0.16689092 -0.14045276 0.026438165 0.0099143125
0.036352478 0.06609541 0.016523853 -0.041309632 -0.1239289 -0.11731936 0.014871468 -0.17680523
-0.158629 0.02148101 -0.107405044 0.16193376 0.10079551 0.1239289 0.19498147 0.13714798
-0.1239289 -0.19002432 0.0793145 0.082619265 0.13219082 -0.17680523 -0.11731936 0.018176239
-0.0066095414 -0.072704956 -0.06279064 -0.15697661 -0.122276515 0.18011001 0.09088119 0.14210513
0.17515285 0.06444303 0.12558128 -0.0049571563 -0.13880037 -0.09914312 0.11401459 0.0033047707
0.06279064 -0.112362206 0.03139532 -0.17184807 -0.044614404 0.13219082 -0.18176238 0.110709816
0.0 -0.16854331 -0.0082619265 0.11897174 0.17845762 -0.044614404 -0.07766211 -0.034700092
0.10410028 0.08922881 -0.13219082 0.15201946 0.15201946 0.029742936 -0.056181103 0.14210513
-0.15532422 0.15697661 0.1470623 -0.0677478 -0.16689092 -0.029742936 0.1470623 0.107405044
0.02478578 0.097490735 0.06444303 0.15367183 0.07435734 0.15367183 -0.17350046 -0.17680523
0.17515285 -0.16358615 0.09253358 0.15201946 0.20654817 -0.023133395 -0.04626679 0.14045276
-0.03139532 0.18176238 -0.16854331 -0.11401459 -0.15036707 -0.05948587 -0.097490735 -0.013219083
-0.061138257 -0.16193376 0.047919177 -0.04626679 0.056181103 0.12062413 0.20324339 0.011566698
-0.06279064 -0.038004864 -0.109057434 -0.18506716 -0.15201946 0.19002432 -0.11731936 -0.07600973
-0.023133395 -0.15697661 -0.122276515 0.09253358 0.1470623 0.109057434 0.08922881 -0.03139532
-0.03965725 0.18341477 0.20985293 -0.0016523853 -0.03965725 -0.10410028 0.19002432 0.08757643
-0.0082619265 0.02148101 0.16689092 0.072704956 0.1354956 0.1470623 -0.026438165 -0.041309632
0.19498147 0.036352478 -0.13053845 0.13053845 -0.04296202 -0.044614404 0.082619265 0.02478578
0.057833485 0.17350046 -0.10410028 -0.10079551 0.011566698 -0.034700092 0.016523853 -0.0066095414
-0.1354956 -0.07600973 -0.072704956 0.013219083 -0.033047706 0.07600973 0.09914312 -0.09088119
-0.0033047707 0.11731936 -0.110709816 0.011566698 -0.19002432 0.13384321 0.0066095414 -0.13219082
0.071052566 -0.0033047707 -0.02478578 0.11731936 0.11401459 -0.014871468 -0.1239289 0.056181103
-0.12062413 -0.072704956 0.05948587 0.13714798 0.056181103 0.16358615 0.112362206 -0.1239289
-0.0677478 -0.16523853 -0.09088119 0.04626679 0.14871468 -0.11897174 -0.16854331 -0.12888606
0.19663386 -0.08757643 -0.051223945 -0.028090551 -0.013219083 0.17019568 0.10244789 -0.14375752
-0.054528717 -0.11566697 -0.08757643 0.17680523 0.19993863 -0.13053845 0.12062413 -0.15367183
0.10575266 0.14210513 -0.15697661 0.13384321 0.14045276 -0.18671954 0.1470623 0.034700092
0.18506716 -0.19002432 0.08757643 -0.071052566 0.13384321 -0.04626679 0.110709816 0.069400184
0.18837193 -0.097490735 0.0049571563 -0.11566697 0.023133395 -0.17350046 -0.16193376 -0.08757643
0.17845762 -0.10244789 0.018176239 -0.17184807 0.011566698 -0.16193376 -0.19002432 -0.044614404
0.034700092 -0.04957156 -0.158629 0.112362206 -0.033047706 -0.056181103 -0.19332908 -0.03965725

sequential_38/quant_dense_107/MatMul;sequential_38/quant_dense_107/LastValueQuant/FakeQuantWithMinMaxVars i1 [10, 50] scale=0.0024991268 zero_point=0
00000000: 6d12 d01e 347a c6a9 60b0 3420 4d5b 0ee8
00000010: 78a1 14b7 9c3e 92f1 a8fa 5415 ef54 bd6d
00000020: 15e0 2be4 d3a6 2c03 2f46 781c 78b9 9484
00000030: 1bda ed2e b85e 17dd 17d8 4ace bc52 bb93
00000040: 1af3 e74d 5dcb aca6 47cb d4a9 d7b6 da66
00000050: 2bd3 40b4 e279 e033 022a f65c 850b 3668
00000060: b153 e889 fc1a f4b5 f46a 0c6e 3a95 ebd8
00000070: aec7 d731 081b a336 19ef 2c36 712a 4110
00000080: 07ff 10a4 6038 e209 69a1 2daa f227 597f
00000090: 20db 1bd9 c5c1 a7cf e610 f3c9 51da c6d0
000000a0: 5103 7366 f491 cf4e 1799 c6c3 41d0 639c
000000b0: d0f5 9e16 02e2 fc93 b328 19c5 c445 60c5
000000c0: af72 a6c9 6266 0e9e ddc6 ac60 1c77 3ff7
000000d0: 2df9 2657 447c f7c6 ab6d 756f c3cc fb3e
000000e0: a2ff 238b 344c 6023 6529 d2ad e68b 50ce
000000f0: ac0f 7796 2dc5 9379 4af3 99f1 bcd3 5509
0.27240482 0.04498428 -0.11995809 0.07497381 0.12995459 0.30489346 -0.14494936 -0.21742404
0.23991618 -0.19993015 0.12995459 0.07997206 0.19243276 0.22742054 0.034987777 -0.059979044
0.29989523 -0.23741704 0.049982537 -0.18243626 -0.24991268 0.15494587 -0.27490395 -0.037486903
-0.21992317 -0.014994761 0.20992665 0.052481662 -0.042485155 0.20992665 -0.1674415 0.27240482
0.052481662 -0.07997206 0.10746245 -0.069975555 -0.11246071 -0.22492142 0.109961584 0.0074973805
0.11745896 0.17493887 0.29989523 0.069975555 0.29989523 -0.177438 -0.2699057 -0.30989173
0.06747642 -0.09496682 -0.04748341 0.114959836 -0.17993712 0.23491792 0.057479918 -0.087469436
0.057479918 -0.09996507 0.18493539 -0.12495634 -0.16994062 0.2049284 -0.17243975 -0.27240482
0.064977296 -0.032488648 -0.06247817 0.19243276 0.23241879 -0.13245372 -0.20992665 -0.22492142
0.177438 -0.13245372 -0.109961584 -0.21742404 -0.1024642 -0.18493539 -0.09496682 0.25491095
0.10746245 -0.11246071 0.15994412 -0.18993364 -0.07497381 0.30239436 -0.07997206 0.12745547
0.0049982537 0.104963325 -0.024991268 0.22991967 -0.3073926 0.027490396 0.13495284 0.25990918
-0.19743101 0.20742753 -0.059979044 -0.2973961 -0.009996507 0.064977296 -0.029989522 -0.18743451
-0.029989522 0.26490745 0.029989522 0.27490395 0.14494936 -0.26740658 -0.052481662 -0.09996507
-0.2049284 -0.14245023 -0.1024642 0.12245721 0.019993015 0.06747642 -0.23241879 0.13495284
0.06247817 -0.042485155 0.109961584 0.13495284 0.28240132 0.104963325 0.16244325 0.03998603
0.017493889 -0.0024991268 0.03998603 -0.22991967 0.23991618 0.13995111 -0.07497381 0.02249214
0.26240832 -0.23741704 0.11246071 -0.2149249 -0.034987777 0.09746595 0.22242229 0.3173891
0.07997206 -0.092467695 0.06747642 -0.09746595 -0.14744848 -0.15744498 -0.22242229 -0.12245721
-0.064977296 0.03998603 -0.032488648 -0.13745198 0.20242928 -0.09496682 -0.14494936 -0.11995809
0.20242928 0.0074973805 0.2873996 0.25491095 -0.029989522 -0.2774031 -0.12245721 0.1949319
0.057479918 -0.25741005 -0.14494936 -0.15244673 0.16244325 -0.11995809 0.24741356 -0.24991268
-0.11995809 -0.027490396 -0.24491443 0.054980792 0.0049982537 -0.07497381 -0.009996507 -0.27240482
-0.19243276 0.09996507 0.06247817 -0.14744848 -0.14994761 0.17243975 0.23991618 -0.14744848
-0.20242928 0.28490046 -0.22492142 -0.13745198 0.24491443 0.25491095 0.034987777 -0.24491443
-0.087469436 -0.14494936 -0.20992665 0.23991618 0.069975555 0.2973961 0.15744498 -0.02249214
0.11246071 -0.017493889 0.09496682 0.21742404 0.16994062 0.30989173 -0.02249214 -0.14494936
-0.21242578 0.27240482 0.29239783 0.2774031 -0.15244673 -0.12995459 -0.012495634 0.15494587
-0.23491792 -0.0024991268 0.087469436 -0.29239783 0.12995459 0.18993364 0.23991618 0.087469436
0.2524118 0.1024642 -0.114959836 -0.20742753 -0.064977296 -0.29239783 0.19993015 -0.12495634
-0.20992665 0.037486903 0.2973961 -0.26490745 0.11246071 -0.14744848 -0.27240482 0.30239436
0.18493539 -0.032488648 -0.25741005 -0.037486903 -0.16994062 -0.11246071 0.21242578 0.02249214

sequential_38/quant_output/MatMul;sequential_38/quant_output/LastValueQuant/FakeQuantWithMinMaxVars i1 [1, 10] scale=0.0056529194 zero_point=0
00000000: f6fd d23d 587f c253 c32d
-0.056529194 -0.016958758 -0.2600343 0.34482807 0.4974569 0.7179208 -0.350481 0.46919233
-0.34482807 0.25438136
