models/opt-80x60x3.tflite (tflite, 160264 bytes, 9 tensors)

sequential_2/quant_conv2d_10/Conv2D;sequential_2/quant_conv2d_10/LastValueQuant/FakeQuantWithMinMaxVarsPerChannel i1 [24, 5, 5, 9]
000000 f9 15 cf a1 00 06 0c d7 c7 f4 fc b8 bd 12 1e ce
       -7 21 -49 -95 0 6 12 -41 -57 -12 -4 -72 -67 18 30 -50
000010 68 4c 2e 5e e7 51 5b 36 1c 03 9f e8 d2 33 ab b0
       104 76 46 94 -25 81 91 54 28 3 -97 -24 -46 51 -85 -80
000020 96 ea 51 9f e3 b7 ff ce 3b c6 3b d0 2b 4b ef cc
       -106 -22 81 -97 -29 -73 -1 -50 59 -58 59 -48 43 75 -17 -52
000030 fb 5e 09 31 00 41 dc 5a d0 76 6d 90 0c e1 fe 71
       -5 94 9 49 0 65 -36 90 -48 118 109 -112 12 -31 -2 113
000040 2b 33 58 af f1 a9 34 51 30 04 b6 41 cd 36 5b 4d
       43 51 88 -81 -15 -87 52 81 48 4 -74 65 -51 54 91 77
000050 43 2a a8 33 bc 0d e2 0a 1a cf ee d8 98 6b 0a 37
       67 42 -88 51 -68 13 -30 10 26 -49 -18 -40 -104 107 10 55
000060 74 d0 e8 03 ee 2c ba a9 8e bd 56 15 64 5f 95 33
       116 -48 -24 3 -18 44 -70 -87 -114 -67 86 21 100 95 -107 51
000070 5c e3 c8 72 26 cb f2 3e 3b c9 1f e2 40 40 27 e9
       92 -29 -56 114 38 -53 -14 62 59 -55 31 -30 64 64 39 -23
000080 2e 68 48 aa 05 48 e4 fa a5 14 fd d5 8f 0a 27 d7
       46 104 72 -86 5 72 -28 -6 -91 20 -3 -43 -113 10 39 -41
000090 6d e1 c3 61 22 47 f0 19 37 13 1e fc ca 6d 8e 3b
       109 -31 -61 97 34 71 -16 25 55 19 30 -4 -54 109 -114 59
0000a0 56 9e 29 4b 98 79 09 ca 5a df 81 17 f9 ec 35 dc
       86 -98 41 75 -104 121 9 -54 90 -33 -127 23 -7 -20 53 -36
0000b0 a0 22 c3 93 39 52 2e 13 30 c6 66 4c df 48 62 e5
       -96 34 -61 -109 57 82 46 19 48 -58 102 76 -33 72 98 -27
0000c0 d1 0f ff 29 c3 fe 2e 15 3f 0d 2c c3 b5 3c 25 56
       -47 15 -1 41 -61 -2 46 21 63 13 44 -61 -75 60 37 86
0000d0 e1 88 3d 4b c6 47 41 1f 0d 39 99 46 ba 2c f4 bd
       -31 -120 61 75 -58 71 65 31 13 57 -103 70 -70 44 -12 -67
0000e0 a2 33 e4 32 aa bd d6 b4 01 4d be 0d db 85 46 f2
       -94 51 -28 50 -86 -67 -42 -76 1 77 -66 13 -37 -123 70 -14
0000f0 09 d7 e5 50 4b 4b 3c 9d db b4 ea d5 b3 27 48 3b
       9 -41 -27 80 75 75 60 -99 -37 -76 -22 -43 -77 39 72 59

sequential_2/quant_conv2d_11/Conv2D;sequential_2/quant_conv2d_11/LastValueQuant/FakeQuantWithMinMaxVarsPerChannel i1 [36, 5, 5, 24]
000000 0b 49 a5 a7 45 bc 39 3a e1 91 95 18 14 59 9a 1c
       11 73 -91 -89 69 -68 57 58 -31 -111 -107 24 20 89 -102 28
000010 71 30 66 f0 47 ba 3f ff e2 26 b8 d2 48 9c a1 1d
       113 48 102 -16 71 -70 63 -1 -30 38 -72 -46 72 -100 -95 29
000020 d3 54 08 bc ba c8 02 dc db 28 68 e5 f7 40 c3 6e
       -45 84 8 -68 -70 -56 2 -36 -37 40 104 -27 -9 64 -61 110
000030 f5 06 93 aa af df 61 9d fa 17 4b ed 76 c6 3c 95
       -11 6 -109 -86 -81 -33 97 -99 -6 23 75 -19 118 -58 60 -107
000040 c0 11 11 64 27 e6 27 62 3c fc e4 96 66 29 6e a9
       -64 17 17 100 39 -26 39 98 60 -4 -28 -106 102 41 110 -87
000050 33 14 ef c0 bc 6d d6 5c c7 67 b8 38 19 ca 31 96
       51 20 -17 -64 -68 109 -42 92 -57 103 -72 56 25 -54 49 -106
000060 3b e4 bd ad a0 50 bb 3c 95 45 de c6 d4 a9 55 45
       59 -28 -67 -83 -96 80 -69 60 -107 69 -34 -58 -44 -87 85 69
000070 97 60 09 58 08 ea 33 ab 58 eb cd 2c 0a 50 0b c8
       -105 96 9 88 8 -22 51 -85 88 -21 -51 44 10 80 11 -56
000080 23 11 2d d8 a4 aa f2 5d 63 04 54 c8 e7 ed db b4
       35 17 45 -40 -92 -86 -14 93 99 4 84 -56 -25 -19 -37 -76
000090 a9 24 a9 14 08 4f ba 8c 59 4b 55 fa ce a4 47 e4
       -87 36 -87 20 8 79 -70 -116 89 75 85 -6 -50 -92 71 -28
0000a0 16 61 fc 4d c5 73 b3 49 ea d4 4b f1 ca be 92 20
       22 97 -4 77 -59 115 -77 73 -22 -44 75 -15 -54 -66 -110 32
0000b0 df cf 5a 68 fd c0 6a 15 3a 64 16 3e 15 32 bf e9
       -33 -49 90 104 -3 -64 106 21 58 100 22 62 21 50 -65 -23
0000c0 a4 fd 94 db fe 9d f6 db dc 03 2f ee 81 38 39 26
       -92 -3 -108 -37 -2 -99 -10 -37 -36 3 47 -18 -127 56 57 38
0000d0 17 ea 3c 1e f0 23 4a da 2b b4 d4 36 f1 ce b6 ea
       23 -22 60 30 -16 35 74 -38 43 -76 -44 54 -15 -50 -74 -22
0000e0 d5 d6 e2 a4 55 9d 1b 59 e8 b2 36 8d 1a 4c 13 cb
       -43 -42 -30 -92 85 -99 27 89 -24 -78 54 -115 26 76 19 -53
0000f0 a2 a2 d7 13 00 f7 4c e9 2e 5a ac 12 72 62 6c ce
       -94 -94 -41 19 0 -9 76 -23 46 90 -84 18 114 98 108 -50

sequential_2/quant_conv2d_12/Conv2D;sequential_2/quant_conv2d_12/LastValueQuant/FakeQuantWithMinMaxVarsPerChannel i1 [48, 5, 5, 36]
000000 ff d8 13 e6 e4 2e e1 01 07 fb 1d 40 de 45 ef c9
       -1 -40 19 -26 -28 46 -31 1 7 -5 29 64 -34 69 -17 -55
000010 ea dd 06 cb d5 b0 6c 17 d1 04 ea a8 11 00 0a e8
       -22 -35 6 -53 -43 -80 108 23 -47 4 -22 -88 17 0 10 -24
000020 40 ca 12 11 18 e8 37 c3 03 d6 e6 03 bb 3e 18 30
       64 -54 18 17 24 -24 55 -61 3 -42 -26 3 -69 62 24 48
000030 d6 17 46 d5 3b e4 c8 c0 23 e2 fd b2 43 0b fa aa
       -42 23 70 -43 59 -28 -56 -64 35 -30 -3 -78 67 11 -6 -86
000040 27 ed 2c 21 eb 22 e1 2b d6 0d 13 e1 cb 0e e9 2c
       39 -19 44 33 -21 34 -31 43 -42 13 19 -31 -53 14 -23 44
000050 ed 19 07 f1 26 06 d4 1b 1d 27 14 e9 0e e1 22 df
       -19 25 7 -15 38 6 -44 27 29 39 20 -23 14 -31 34 -33
000060 d8 38 1e d0 49 10 17 c7 e8 e3 22 de fe ed fa c8
       -40 56 30 -48 73 16 23 -57 -24 -29 34 -34 -2 -19 -6 -56
000070 57 e1 32 2e 08 e5 e4 f8 e8 ea 44 1e e3 eb 15 c1
       87 -31 50 46 8 -27 -28 -8 -24 -22 68 30 -29 -21 21 -63
000080 f3 04 5d fd 4b df 3a 24 16 40 24 de c5 f4 9c ee
       -13 4 93 -3 75 -33 58 36 22 64 36 -34 -59 -12 -100 -18
000090 24 b2 24 d3 fd fc ff 3f c5 0c 0f 33 c8 c4 e6 0a
       36 -78 36 -45 -3 -4 -1 63 -59 12 15 51 -56 -60 -26 10
0000a0 da ad 3a f7 05 ab 53 26 d5 02 3d 1a de 0a 27 9f
       -38 -83 58 -9 5 -85 83 38 -43 2 61 26 -34 10 39 -97
0000b0 de d7 e4 fa dd 3e 08 06 1c c3 c7 81 d5 18 cd c0
       -34 -41 -28 -6 -35 62 8 6 28 -61 -57 -127 -43 24 -51 -64
0000c0 be 03 13 98 d1 d6 2b a0 43 df 1c 11 26 1c dd f2
       -66 3 19 -104 -47 -42 43 -96 67 -33 28 17 38 28 -35 -14
0000d0 39 3c 23 97 4f 10 d8 cd bc e2 15 e6 07 01 d7 dc
       57 60 35 -105 79 16 -40 -51 -68 -30 21 -26 7 1 -41 -36
0000e0 19 d8 f0 e5 cc c0 27 13 be fc fd ab 30 c8 35 cb
       25 -40 -16 -27 -52 -64 39 19 -66 -4 -3 -85 48 -56 53 -53
0000f0 4b f2 35 05 0f d1 b3 ce d7 41 07 bf 1a cb 98 d1
       75 -14 53 5 15 -47 -77 -50 -41 65 7 -65 26 -53 -104 -47

sequential_2/quant_conv2d_13/Conv2D;sequential_2/quant_conv2d_13/LastValueQuant/FakeQuantWithMinMaxVarsPerChannel i1 [64, 3, 3, 48]
000000 ea 23 49 16 ab f2 ad 44 34 4f f7 14 d6 02 b4 29
       -22 35 73 22 -85 -14 -83 68 52 79 -9 20 -42 2 -76 41
000010 c9 40 ce 04 3a 2a df 15 07 fb aa b7 ce 2a d7 00
       -55 64 -50 4 58 42 -33 21 7 -5 -86 -73 -50 42 -41 0
000020 be b2 28 d9 e4 65 f6 c8 c6 30 d0 f6 37 b3 ef a4
       -66 -78 40 -39 -28 101 -10 -56 -58 48 -48 -10 55 -77 -17 -92
000030 06 2e e4 66 ff 56 c4 a0 01 31 61 1f ac 59 cb 9f
       6 46 -28 102 -1 86 -60 -96 1 49 97 31 -84 89 -53 -97
000040 b4 30 e8 51 ac ec f4 45 e8 d9 eb 3c d4 dd 1a bd
       -76 48 -24 81 -84 -20 -12 69 -24 -39 -21 60 -44 -35 26 -67
000050 eb db bf 57 58 d7 dc c5 36 da ec 0a ad 4a 08 f0
       -21 -37 -65 87 88 -41 -36 -59 54 -38 -20 10 -83 74 8 -16
000060 13 38 f7 24 e4 c8 bb 14 a8 cc 21 ed af 29 b2 e6
       19 56 -9 36 -28 -56 -69 20 -88 -52 33 -19 -81 41 -78 -26
000070 a5 ed f9 57 cc f5 eb 3c 17 e6 c3 d4 08 30 2f 39
       -91 -19 -7 87 -52 -11 -21 60 23 -26 -61 -44 8 48 47 57
000080 c3 2f 11 0b 1c 16 60 d4 d7 a0 ac ee cd 9c f3 02
       -61 47 17 11 28 22 96 -44 -41 -96 -84 -18 -51 -100 -13 2
000090 2d c3 25 52 09 ee 11 0b 30 2c e8 17 f4 f9 4d 4a
       45 -61 37 82 9 -18 17 11 48 44 -24 23 -12 -7 77 74
0000a0 f8 d9 ac aa 46 2d a8 0a 3f b3 c6 1c 5f d1 bd 21
       -8 -39 -84 -86 70 45 -88 10 63 -77 -58 28 95 -47 -67 33
0000b0 1e 37 45 20 98 fb 1f 57 a6 e8 00 9c 16 de d7 4f
       30 55 69 32 -104 -5 31 87 -90 -24 0 -100 22 -34 -41 79
0000c0 b2 2b e2 4b 38 ff 0e 3f 2f 13 d8 32 e2 f7 f8 e0
       -78 43 -30 75 56 -1 14 63 47 19 -40 50 -30 -9 -8 -32
0000d0 a0 5d ef 0f 0f 03 fa ea b1 f9 af 31 9e db d7 be
       -96 93 -17 15 15 3 -6 -22 -79 -7 -81 49 -98 -37 -41 -66
0000e0 e9 ac 20 24 fb 07 38 a9 58 ed f1 a6 e1 1f 34 f4
       -23 -84 32 36 -5 7 56 -87 88 -19 -15 -90 -31 31 52 -12
0000f0 01 d1 0f 3e 64 38 b5 2b 3f 2f c8 fd 2d b9 d5 ec
       1 -47 15 62 100 56 -75 43 63 47 -56 -3 45 -71 -43 -20

sequential_2/quant_conv2d_14/Conv2D;sequential_2/quant_conv2d_14/LastValueQuant/FakeQuantWithMinMaxVarsPerChannel i1 [64, 2, 2, 64]
000000 eb 48 6e da 1e c3 17 3c be 29 aa b2 9e 47 c0 eb
       -21 72 110 -38 30 -61 23 60 -66 41 -86 -78 -98 71 -64 -21
000010 44 6a 01 aa 20 09 47 2d 6d bd 59 2e f8 d7 18 92
       68 106 1 -86 32 9 71 45 109 -67 89 46 -8 -41 24 -110
000020 c2 40 bb d5 3e 02 46 91 8b 2d 2d c0 dd 5b 09 37
       -62 64 -69 -43 62 2 70 -111 -117 45 45 -64 -35 91 9 55
000030 40 57 55 0a 3e 8c 58 0b 50 a0 58 f2 2d ae b9 20
       64 87 85 10 62 -116 88 11 80 -96 88 -14 45 -82 -71 32
000040 26 2e 58 ff a1 46 0e 39 0e d2 b2 17 a2 52 3b de
       38 46 88 -1 -95 70 14 57 14 -46 -78 23 -94 82 59 -34
000050 e4 b6 be 2c b1 0b 58 2b f2 34 ea e0 b6 d3 c9 3f
       -28 -74 -66 44 -79 11 88 43 -14 52 -22 -32 -74 -45 -55 63
000060 e9 23 81 3b 06 ce 2e aa 2f de f8 bf ca 32 5a 04
       -23 35 -127 59 6 -50 46 -86 47 -34 -8 -65 -54 50 90 4
000070 00 67 09 b0 a3 a0 d5 42 93 ca b7 d2 fb 04 30 05
       0 103 9 -80 -93 -96 -43 66 -109 -54 -73 -46 -5 4 48 5
000080 6a 1c 31 ff 9f cc 5a 49 03 10 ee ed b9 4d 56 09
       106 28 49 -1 -97 -52 90 73 3 16 -18 -19 -71 77 86 9
000090 3a e5 43 c7 eb 0f 61 d0 60 05 fd 12 e0 b3 23 bf
       58 -27 67 -57 -21 15 97 -48 96 5 -3 18 -32 -77 35 -65
0000a0 12 bf 62 f5 aa 63 62 57 cf 45 32 1e 4a b9 eb 04
       18 -65 98 -11 -86 99 98 87 -49 69 50 30 74 -71 -21 4
0000b0 21 26 e9 48 e5 88 61 ba f8 d2 9d dc d1 51 d3 da
       33 38 -23 72 -27 -120 97 -70 -8 -46 -99 -36 -47 81 -45 -38
0000c0 b8 93 cc 4a e7 17 be d0 6d 21 99 c3 29 e8 04 2d
       -72 -109 -52 74 -25 23 -66 -48 109 33 -103 -61 41 -24 4 45
0000d0 d5 6a 44 af 63 50 69 3c e9 62 ed 5a 26 d3 55 5c
       -43 106 68 -81 99 80 105 60 -23 98 -19 90 38 -45 85 92
0000e0 69 10 de b5 e7 5e a8 d3 35 0b 70 9b d0 97 b9 54
       105 16 -34 -75 -25 94 -88 -45 53 11 112 -101 -48 -105 -71 84
0000f0 45 ed 0e 54 0b a4 31 8e 4d c4 44 d9 0c 46 08 eb
       69 -19 14 84 11 -92 49 -114 77 -60 68 -39 12 70 8 -21

sequential_2/quant_dense_6/MatMul;sequential_2/quant_dense_6/LastValueQuant/FakeQuantWithMinMaxVars i1 [100, 256] scale=0.0014114553 zero_point=0
000000 b8 1b 20 c3 fe 45 37 ca c2 31 cb d4 b3 36 fa 42
       -0.10162479 0.038109295 0.04516657 -0.086098775 -0.0028229107 0.09739042 0.07763004 -0.07621859 -0.08751023 0.06916131 -0.07480713 -0.062104035 -0.10868206 0.07621859 -0.008468732 0.093156055
000010 ae c6 eb 4f 54 d4 27 ec c3 e8 19 08 b8 48 fa 48
       -0.11573934 -0.08186441 -0.029640563 0.11150497 0.11856225 -0.062104035 0.05504676 -0.028229106 -0.086098775 -0.03387493 0.03528638 0.011291643 -0.10162479 0.10162479 -0.008468732 0.10162479
000020 dc ad 08 f5 2b 02 d0 4b c7 04 d0 44 61 c3 2d 39
       -0.050812393 -0.11715079 0.011291643 -0.015526009 0.06069258 0.0028229107 -0.06774986 0.10585915 -0.080452956 0.0056458213 -0.06774986 0.09597896 0.13691117 -0.086098775 0.06351549 0.080452956
000030 36 0a 1b 35 f7 16 ab 4e 2f d9 25 0e 1b 5b 3b 2b
       0.07621859 0.014114553 0.038109295 0.07480713 -0.012703098 0.031052018 -0.119973704 0.11009352 0.0663384 -0.05504676 0.052223846 0.019760374 0.038109295 0.12844244 0.08327586 0.06069258
000040 07 3b f5 0e 9e 53 ac 44 37 0e 4c 31 4b c9 b1 c7
       0.009880187 0.08327586 -0.015526009 0.019760374 -0.13832262 0.11715079 -0.11856225 0.09597896 0.07763004 0.019760374 0.107270606 0.06916131 0.10585915 -0.07763004 -0.11150497 -0.080452956
000050 34 dc c1 b4 ec 08 cd 17 ec 4b a8 f8 ef ce b5 9e
       0.07339568 -0.050812393 -0.08892169 -0.107270606 -0.028229106 0.011291643 -0.071984224 0.032463472 -0.028229106 0.10585915 -0.12420807 -0.011291643 -0.02399474 -0.07057276 -0.10585915 -0.13832262
000060 47 4e be f1 03 19 b3 c5 e1 d9 d5 00 cf be c2 53
       0.10021333 0.11009352 -0.093156055 -0.02117183 0.004234366 0.03528638 -0.10868206 -0.08327586 -0.043755114 -0.05504676 -0.06069258 0.0 -0.06916131 -0.093156055 -0.08751023 0.11715079
000070 2d e1 0b 45 c3 3d a5 d8 d6 56 20 26 d3 58 c0 49
       0.06351549 -0.043755114 0.015526009 0.09739042 -0.086098775 0.086098775 -0.12844244 -0.056458212 -0.059281126 0.12138516 0.04516657 0.053635303 -0.06351549 0.12420807 -0.09033314 0.10303624
000080 2c df a0 a5 18 2a cf c5 3a e4 f4 ce 2d 07 de c0
       0.062104035 -0.046578027 -0.13549972 -0.12844244 0.03387493 0.059281126 -0.06916131 -0.08327586 0.08186441 -0.039520748 -0.016937464 -0.07057276 0.06351549 0.009880187 -0.04798948 -0.09033314
000090 e0 ee 51 c0 14 4b 07 e9 48 be 1a e0 bc 41 a3 9e
       -0.04516657 -0.025406197 0.114327885 -0.09033314 0.028229106 0.10585915 0.009880187 -0.032463472 0.10162479 -0.093156055 0.03669784 -0.04516657 -0.09597896 0.091744594 -0.13126534 -0.13832262
0000a0 dc b2 30 1f b5 eb e7 e1 12 fe e6 f2 32 ac 23 b3
       -0.050812393 -0.11009352 0.06774986 0.043755114 -0.10585915 -0.029640563 -0.03528638 -0.043755114 0.025406197 -0.0028229107 -0.03669784 -0.019760374 0.07057276 -0.11856225 0.049400937 -0.10868206
0000b0 c2 a1 3b e5 4a fc bc 22 f0 e5 27 5a be eb b2 b1
       -0.08751023 -0.13408826 0.08327586 -0.038109295 0.10444769 -0.0056458213 -0.09597896 0.04798948 -0.022583285 -0.038109295 0.05504676 0.12703098 -0.093156055 -0.029640563 -0.11009352 -0.11150497
0000c0 25 ee 08 cc 03 b6 2e f7 10 cd fa ed a1 00 b4 fe
       0.052223846 -0.025406197 0.011291643 -0.07339568 0.004234366 -0.10444769 0.064926945 -0.012703098 0.022583285 -0.071984224 -0.008468732 -0.026817651 -0.13408826 0.0 -0.107270606 -0.0028229107
0000d0 49 e6 59 40 eb fb 34 14 d0 a2 43 b8 f0 e7 9d 10
       0.10303624 -0.03669784 0.12561953 0.09033314 -0.029640563 -0.0070572766 0.07339568 0.028229106 -0.06774986 -0.1326768 0.09456751 -0.10162479 -0.022583285 -0.03528638 -0.13973407 0.022583285
0000e0 3f 1b ab 2b 9f 1e 02 a2 3b 1d df 1d 03 b2 da 37
       0.08892169 0.038109295 -0.119973704 0.06069258 -0.13691117 0.04234366 0.0028229107 -0.1326768 0.08327586 0.040932205 -0.046578027 0.040932205 0.004234366 -0.11009352 -0.053635303 0.07763004
0000f0 ea 2f 3f 38 1b 2c e2 d3 f3 f4 da 05 46 c5 31 30
       -0.031052018 0.0663384 0.08892169 0.079041496 0.038109295 0.062104035 -0.04234366 -0.06351549 -0.01834892 -0.016937464 -0.053635303 0.0070572766 0.09880187 -0.08327586 0.06916131 0.06774986

sequential_2/quant_dense_7/MatMul;sequential_2/quant_dense_7/LastValueQuant/FakeQuantWithMinMaxVars i1 [50, 100] scale=0.0019432583 zero_point=0
000000 54 e1 55 44 2c af a0 00 f3 a0 a9 cc cf a8 4e f0
       0.1632337 -0.06024101 0.16517696 0.13214156 0.08550337 -0.15740393 -0.1865528 0.0 -0.025262358 -0.1865528 -0.16906348 -0.10104943 -0.09521966 -0.17100674 0.15157415 -0.031092133
000010 f5 f9 bb ec b5 ea a8 2b ec aa ae e6 a4 60 21 c2
       -0.021375842 -0.013602808 -0.13408482 -0.038865168 -0.14574437 -0.042751685 -0.17100674 0.08356011 -0.038865168 -0.16712022 -0.15934718 -0.050524715 -0.17877977 0.1865528 0.06412753 -0.12048202
000020 29 fc ca da f3 0f 1c 04 fa 3c e4 b6 31 1b 30 8f
       0.07967359 -0.0077730333 -0.10493595 -0.073843814 -0.025262358 0.029148875 0.054411232 0.0077730333 -0.01165955 0.1165955 -0.054411232 -0.14380112 0.09521966 0.052467976 0.0932764 -0.21958819
000030 2c 67 ea 31 ea d3 00 a9 28 be 67 c3 c2 dd f1 5d
       0.08550337 0.20015562 -0.042751685 0.09521966 -0.042751685 -0.08744662 0.0 -0.16906348 0.077730335 -0.12825505 0.20015562 -0.11853876 -0.12048202 -0.06801404 -0.029148875 0.18072303
000040 af 44 d4 ab f2 d4 09 c3 f3 31 f0 31 f3 55 23 35
       -0.15740393 0.13214156 -0.08550337 -0.16517696 -0.027205616 -0.08550337 0.017489325 -0.11853876 -0.025262358 0.09521966 -0.031092133 0.09521966 -0.025262358 0.16517696 0.06801404 0.10299269
000050 40 5b 18 5d 3b ed ab 45 fe fb bd 3a 97 18 cd fa
       0.12436853 0.1768365 0.0466382 0.18072303 0.11465224 -0.036921907 -0.16517696 0.13408482 -0.0038865167 -0.009716292 -0.13019831 0.112708986 -0.20404212 0.0466382 -0.09910618 -0.01165955
000060 fa 25 f0 98 e4 da e4 22 d1 29 02 0a f9 48 1e f8
       -0.01165955 0.07190056 -0.031092133 -0.20209886 -0.054411232 -0.073843814 -0.054411232 0.06607078 -0.09133314 0.07967359 0.0038865167 0.019432584 -0.013602808 0.1399146 0.05829775 -0.015546067
000070 9d 21 3b b4 4b b6 f6 a4 28 19 13 f0 fc b1 3b 05
       -0.19238257 0.06412753 0.11465224 -0.14768763 0.14574437 -0.14380112 -0.019432584 -0.17877977 0.077730335 0.04858146 0.036921907 -0.031092133 -0.0077730333 -0.15351741 0.11465224 0.009716292
000080 08 03 22 48 ce b1 02 b5 14 41 20 35 a3 ce e4 5b
       0.015546067 0.005829775 0.06607078 0.1399146 -0.09716292 -0.15351741 0.0038865167 -0.14574437 0.038865168 0.1263118 0.062184267 0.10299269 -0.18072303 -0.09716292 -0.054411232 0.1768365
000090 bd a9 1b 17 b2 13 1a a9 0f cf b2 ae 32 9b c1 c6
       -0.13019831 -0.16906348 0.052467976 0.04469494 -0.15157415 0.036921907 0.050524715 -0.16906348 0.029148875 -0.09521966 -0.15157415 -0.15934718 0.09716292 -0.1962691 -0.12242527 -0.112708986
0000a0 c3 45 a9 44 19 46 a7 0f a1 f0 2c f5 5c 40 b8 5a
       -0.11853876 0.13408482 -0.16906348 0.13214156 0.04858146 0.13602808 -0.17294998 0.029148875 -0.18460955 -0.031092133 0.08550337 -0.021375842 0.17877977 0.12436853 -0.1399146 0.17489325
0000b0 1d 41 b4 ac 4f 35 44 0c b0 ae a2 29 9e 9b 23 01
       0.056354493 0.1263118 -0.14768763 -0.1632337 0.15351741 0.10299269 0.13214156 0.0233191 -0.15546067 -0.15934718 -0.18266629 0.07967359 -0.19043931 -0.1962691 0.06801404 0.0019432583
0000c0 05 46 39 13 ee ba 1d bc db 9a 5f 5c 19 01 cc 5d
       0.009716292 0.13602808 0.110765725 0.036921907 -0.03497865 -0.13602808 0.056354493 -0.13214156 -0.07190056 -0.19821236 0.18460955 0.17877977 0.04858146 0.0019432583 -0.10104943 0.18072303
0000d0 51 c4 e4 22 ac b0 a2 15 c8 ef 11 99 4e bb 69 c1
       0.15740393 -0.1165955 -0.054411232 0.06607078 -0.1632337 -0.15546067 -0.18266629 0.040808424 -0.108822465 -0.03303539 0.03303539 -0.20015562 0.15157415 -0.13408482 0.20404212 -0.12242527
0000e0 20 d1 b2 35 23 53 e9 c4 cf 4c a5 d1 f1 c9 95 b9
       0.062184267 -0.09133314 -0.15157415 0.10299269 0.06801404 0.16129044 -0.04469494 -0.1165955 -0.09521966 0.14768763 -0.1768365 -0.09133314 -0.029148875 -0.10687921 -0.20792864 -0.13797134
0000f0 41 42 48 d1 5b 0a e7 e4 03 e6 51 ea 1e f1 31 92
       0.1263118 0.12825505 0.1399146 -0.09133314 0.1768365 0.019432584 -0.04858146 -0.054411232 0.005829775 -0.050524715 0.15740393 -0.042751685 0.05829775 -0.029148875 0.09521966 -0.21375842

sequential_2/quant_dense_8/MatMul;sequential_2/quant_dense_8/LastValueQuant/FakeQuantWithMinMaxVars i1 [10, 50] scale=0.0032185118 zero_point=0
000000 0e 11 9d cc 1d d1 a6 e3 4c 2e b0 f8 53 fd a2 dc
       0.045059167 0.054714702 -0.31863266 -0.16736262 0.09333684 -0.15127006 -0.28966606 -0.09333684 0.2446069 0.14805155 -0.25748095 -0.025748095 0.26713648 -0.009655535 -0.30254012 -0.11586642
000010 55 33 ef ea 26 d7 fc c5 40 9f ac 1a 52 5b f6 21
       0.27357352 0.1641441 -0.054714702 -0.07080726 0.12230345 -0.13195899 -0.012874047 -0.1898922 0.20598476 -0.31219566 -0.270355 0.08368131 0.26391798 0.2928846 -0.03218512 0.10621089
000020 e0 cd d4 5c be b1 a7 a9 2e b1 23 c9 e8 22 a9 51
       -0.10299238 -0.1641441 -0.14161453 0.2961031 -0.21242177 -0.25426245 -0.28644755 -0.28001052 0.14805155 -0.25426245 0.11264791 -0.17701815 -0.07724428 0.109429404 -0.28001052 0.26069945
000030 19 d2 fa 19 a7 c2 30 f0 2a 0c 02 ab 32 d0 18 2b
       0.0804628 -0.14805155 -0.01931107 0.0804628 -0.28644755 -0.19954774 0.15448856 -0.05149619 0.1351775 0.03862214 0.0064370236 -0.27357352 0.1609256 -0.15448856 0.07724428 0.13839601
000040 e2 19 19 e3 6e af 5b b7 54 70 e1 68 5a e3 c8 58
       -0.09655535 0.0804628 0.0804628 -0.09333684 0.3540363 -0.26069945 0.2928846 -0.23495136 0.270355 0.36047333 -0.09977387 0.33472523 0.28966606 -0.09333684 -0.18023667 0.28322905
000050 2e f0 45 6f f4 28 ec c5 5b 4b 1b 14 e4 2c 18 f8
       0.14805155 -0.05149619 0.22207731 0.3572548 -0.03862214 0.12874047 -0.06437024 -0.1898922 0.2928846 0.24138838 0.08689982 0.06437024 -0.09011833 0.14161453 0.07724428 -0.025748095
000060 05 d7 4a ae 04 ee 10 08 b4 d7 f3 ad fd c1 aa 0b
       0.01609256 -0.13195899 0.23816988 -0.26391798 0.012874047 -0.05793321 0.05149619 0.025748095 -0.2446069 -0.13195899 -0.041840654 -0.26713648 -0.009655535 -0.20276624 -0.27679202 0.03540363
000070 1a 1e e4 28 d9 e6 ce fb 1b c3 1f d4 13 05 02 2e
       0.08368131 0.09655535 -0.09011833 0.12874047 -0.12552196 -0.08368131 -0.1609256 -0.01609256 0.08689982 -0.19632922 0.09977387 -0.14161453 0.061151724 0.01609256 0.0064370236 0.14805155
000080 0d 3c a9 a5 4e c7 4e c7 0a c4 ce c8 e3 d5 01 3d
       0.041840654 0.1931107 -0.28001052 -0.2928846 0.25104392 -0.18345517 0.25104392 -0.18345517 0.03218512 -0.1931107 -0.1609256 -0.18023667 -0.09333684 -0.13839601 0.0032185118 0.19632922
000090 39 bc b3 e5 bb b7 f6 3c 0b 27 52 42 30 12 d1 3d
       0.18345517 -0.21885881 -0.24782541 -0.08689982 -0.22207731 -0.23495136 -0.03218512 0.1931107 0.03540363 0.12552196 0.26391798 0.21242177 0.15448856 0.05793321 -0.15127006 0.19632922
0000a0 1b 08 54 a7 f3 d6 2d 16 94 29 42 26 5e 38 1e fb
       0.08689982 0.025748095 0.270355 -0.28644755 -0.041840654 -0.1351775 0.14483303 0.07080726 -0.34759927 0.13195899 0.21242177 0.12230345 0.30254012 0.18023667 0.09655535 -0.01609256
0000b0 fe 4e 33 26 52 4d 41 f2 2b e6 f9 eb 25 b5 f2 b8
       -0.0064370236 0.25104392 0.1641441 0.12230345 0.26391798 0.24782541 0.20920327 -0.045059167 0.13839601 -0.08368131 -0.022529583 -0.06758875 0.11908494 -0.24138838 -0.045059167 -0.23173285
0000c0 4b 44 08 53 42 1d 0c 15 1c e0 08 a9 4e 3b 10 16
       0.24138838 0.21885881 0.025748095 0.26713648 0.21242177 0.09333684 0.03862214 0.06758875 0.09011833 -0.10299238 0.025748095 -0.28001052 0.25104392 0.1898922 0.05149619 0.07080726
0000d0 f1 4c 42 9e eb 9d 55 e8 1a b3 ad aa 4d 18 3b bf
       -0.048277676 0.2446069 0.21242177 -0.31541416 -0.06758875 -0.31863266 0.27357352 -0.07724428 0.08368131 -0.24782541 -0.26713648 -0.27679202 0.24782541 0.07724428 0.1898922 -0.20920327
0000e0 ea c2 52 2a 30 cb 42 12 9e 54 24 11 a6 00 a7 f7
       -0.07080726 -0.19954774 0.26391798 0.1351775 0.15448856 -0.17058113 0.21242177 0.05793321 -0.31541416 0.270355 0.11586642 0.054714702 -0.28966606 0.0 -0.28644755 -0.028966606
0000f0 2b 48 ba 10 e8 fa b8 ea da ec 57 55 e7 19 a2 3e
       0.13839601 0.23173285 -0.22529583 0.05149619 -0.07724428 -0.01931107 -0.23173285 -0.07080726 -0.12230345 -0.06437024 0.28001052 0.27357352 -0.0804628 0.0804628 -0.30254012 0.19954774

sequential_2/quant_output/MatMul;sequential_2/quant_output/LastValueQuant/FakeQuantWithMinMaxVars i1 [1, 10] scale=0.0046530263 zero_point=0
000000 81 f2 b4 45 a6 47 f0 ed e0 2a
       -0.59093434 -0.06514237 -0.35363 0.3210588 -0.41877237 0.33036488 -0.07444842 -0.0884075 -0.14889684 0.1954271
