models/opt-80x60x3-T1.tflite (tflite, 381960 bytes, 9 tensors)

sequential_4/quant_conv2d_19/Conv2D;sequential_4/quant_conv2d_19/LastValueQuant/FakeQuantWithMinMaxVarsPerChannel i1 [24, 5, 5, 3]
0	0xb0	-80
1	0x35	53
2	0xcf	-49
3	0x53	83
4	0xa7	-89
5	0xfc	-4
6	0x45	69
7	0xdd	-35
8	0x0a	10
9	0xb9	-71
10	0x1c	28
11	0xab	-85
12	0x4e	78
13	0x22	34
14	0xe8	-24
15	0x5a	90
16	0xbe	-66
17	0x41	65
18	0xe9	-23
19	0x34	52
20	0x11	17
21	0xd7	-41
22	0x65	101
23	0x05	5
24	0x3c	60
25	0x19	25
26	0x15	21
27	0x54	84
28	0x69	105
29	0xf3	-13
30	0x6a	106
31	0xc8	-56
32	0x13	19
33	0xf8	-8
34	0x24	36
35	0x53	83
36	0x34	52
37	0xe3	-29
38	0x10	16
39	0xbc	-68
40	0x55	85
41	0x50	80
42	0x45	69
43	0x03	3
44	0x1e	30
45	0x7f	127
46	0x79	121
47	0xc4	-60
48	0x66	102
49	0x41	65
50	0x5c	92
51	0x2f	47
52	0x3a	58
53	0x27	39
54	0x26	38
55	0x60	96
56	0x5b	91
57	0xea	-22
58	0x7e	126
59	0x0f	15
60	0xe7	-25
61	0x10	16
62	0xea	-22
63	0xd6	-42
64	0xd0	-48
65	0xb8	-72
66	0x5b	91
67	0xdd	-35
68	0xd3	-45
69	0x1b	27
70	0x47	71
71	0xc6	-58
72	0x30	48
73	0x4b	75
74	0x61	97
75	0xf3	-13
76	0x1c	28
77	0x35	53
78	0xb7	-73
79	0x08	8
80	0x17	23
81	0xeb	-21
82	0x01	1
83	0xa7	-89
84	0xae	-82
85	0x06	6
86	0xe9	-23
87	0xda	-38
88	0x15	21
89	0x26	38
90	0xdf	-33
91	0xbc	-68
92	0xd5	-43
93	0xb5	-75
94	0xb1	-79
95	0xf7	-9
96	0xe4	-28
97	0x89	-119
98	0x08	8
99	0xec	-20
100	0x42	66
101	0x39	57
102	0xaf	-81
103	0x24	36
104	0xbe	-66
105	0x34	52
106	0x16	22
107	0x92	-110
108	0xa6	-90
109	0x86	-122
110	0xe4	-28
111	0x09	9
112	0x81	-127
113	0xe8	-24
114	0x0c	12
115	0xea	-22
116	0xaa	-86
117	0x01	1
118	0x10	16
119	0xd3	-45
120	0xee	-18
121	0xd1	-47
122	0x3d	61
123	0x11	17
124	0x06	6
125	0x16	22
126	0x18	24
127	0xe2	-30
128	0xe9	-23
129	0xd4	-44
130	0xa4	-92
131	0xaa	-86
132	0x17	23
133	0x17	23
134	0x05	5
135	0x46	70
136	0xb0	-80
137	0xcc	-52
138	0xeb	-21
139	0xf8	-8
140	0x33	51
141	0xe9	-23
142	0xfc	-4
143	0x35	53
144	0x43	67
145	0x0b	11
146	0xe2	-30
147	0x06	6
148	0x31	49
149	0xda	-38
150	0x5e	94
151	0xc1	-63
152	0xf0	-16
153	0xb8	-72
154	0x5a	90
155	0x07	7
156	0xc2	-62
157	0x54	84
158	0xe3	-29
159	0x8e	-114
160	0xa8	-88
161	0x5b	91
162	0xa3	-93
163	0xbe	-66
164	0x15	21
165	0x11	17
166	0x18	24
167	0xbd	-67
168	0xef	-17
169	0xef	-17
170	0x67	103
171	0x4f	79
172	0x00	0
173	0x20	32
174	0x4b	75
175	0xf8	-8
176	0x0f	15
177	0x4e	78
178	0x14	20
179	0x1f	31
180	0x24	36
181	0x6e	110
182	0x7a	122
183	0x7b	123
184	0x10	16
185	0x14	20
186	0x08	8
187	0x0b	11
188	0x5c	92
189	0x6f	111
190	0xfb	-5
191	0x1c	28
192	0xf2	-14
193	0x5d	93
194	0x7f	127
195	0x12	18
196	0xd1	-47
197	0xca	-54
198	0xce	-50
199	0x9c	-100
200	0x58	88
201	0x66	102
202	0xc3	-61
203	0x62	98
204	0xd7	-41
205	0xc4	-60
206	0x51	81
207	0x1d	29
208	0x71	113
209	0x14	20
210	0xb4	-76
211	0xc1	-63
212	0x44	68
213	0x82	-126
214	0x08	8
215	0x7b	123
216	0x41	65
217	0x69	105
218	0x25	37
219	0xa2	-94
220	0x43	67
221	0x69	105
222	0x8c	-116
223	0xb4	-76
224	0xba	-70
225	0xe3	-29
226	0x8d	-115
227	0xf9	-7
228	0x63	99
229	0x1a	26
230	0x54	84
231	0xb7	-73
232	0xfb	-5
233	0x6c	108
234	0x41	65
235	0x98	-104
236	0x11	17
237	0xb0	-80
238	0x67	103
239	0x74	116
240	0x5c	92
241	0xb1	-79
242	0xfe	-2
243	0x05	5
244	0x08	8
245	0xcf	-49
246	0xaa	-86
247	0x60	96
248	0xf6	-10
249	0x1b	27
250	0x49	73
251	0xa4	-92
252	0x42	66
253	0x90	-112
254	0x59	89
255	0xa5	-91

sequential_4/quant_conv2d_20/Conv2D;sequential_4/quant_conv2d_20/LastValueQuant/FakeQuantWithMinMaxVarsPerChannel i1 [36, 5, 5, 24]
0	0x0b	11
1	0x07	7
2	0x01	1
3	0x54	84
4	0xd6	-42
5	0x3a	58
6	0xe5	-27
7	0xe6	-26
8	0xa3	-93
9	0x1f	31
10	0x0d	13
11	0xc6	-58
12	0x49	73
13	0x3a	58
14	0xb3	-77
15	0x43	67
16	0x24	36
17	0x42	66
18	0x1d	29
19	0x1e	30
20	0xa0	-96
21	0x04	4
22	0x45	69
23	0x21	33
24	0x01	1
25	0xa7	-89
26	0x07	7
27	0xcc	-52
28	0x3b	59
29	0x28	40
30	0xe6	-26
31	0xbe	-66
32	0xf9	-7
33	0x04	4
34	0x50	80
35	0xee	-18
36	0x4b	75
37	0x27	39
38	0xeb	-21
39	0x41	65
40	0xc8	-56
41	0xeb	-21
42	0x32	50
43	0xba	-70
44	0xd2	-46
45	0xec	-20
46	0x2b	43
47	0xb5	-75
48	0x52	82
49	0xec	-20
50	0xc7	-57
51	0x2d	45
52	0xfa	-6
53	0x28	40
54	0x36	54
55	0x12	18
56	0xce	-50
57	0x02	2
58	0xc4	-60
59	0xf9	-7
60	0x15	21
61	0x24	36
62	0x14	20
63	0xb5	-75
64	0xc1	-63
65	0xf2	-14
66	0xb2	-78
67	0xf8	-8
68	0xe3	-29
69	0x29	41
70	0xb9	-71
71	0xcc	-52
72	0xca	-54
73	0x35	53
74	0x3f	63
75	0xed	-19
76	0x1d	29
77	0x34	52
78	0x09	9
79	0xc6	-58
80	0xcc	-52
81	0xef	-17
82	0xbc	-68
83	0x22	34
84	0xdc	-36
85	0x46	70
86	0xec	-20
87	0x27	39
88	0x49	73
89	0xe0	-32
90	0xc2	-62
91	0x25	37
92	0x4a	74
93	0xcf	-49
94	0x14	20
95	0x5c	92
96	0x00	0
97	0xd9	-39
98	0x5e	94
99	0x61	97
100	0x09	9
101	0xbd	-67
102	0x2e	46
103	0x2f	47
104	0xb9	-71
105	0x0c	12
106	0x28	40
107	0x15	21
108	0xf2	-14
109	0x20	32
110	0x20	32
111	0xf6	-10
112	0x53	83
113	0xfd	-3
114	0xc8	-56
115	0x98	-104
116	0x0a	10
117	0xce	-50
118	0xf3	-13
119	0xdc	-36
120	0xca	-54
121	0x5a	90
122	0xc3	-61
123	0x34	52
124	0xd2	-46
125	0x2a	42
126	0xc5	-59
127	0x52	82
128	0xc5	-59
129	0xcf	-49
130	0xd7	-41
131	0xc1	-63
132	0xf3	-13
133	0x3b	59
134	0xfe	-2
135	0xfd	-3
136	0xff	-1
137	0xf9	-7
138	0x4c	76
139	0xd9	-39
140	0x31	49
141	0x5c	92
142	0x2a	42
143	0x13	19
144	0x0b	11
145	0x42	66
146	0x37	55
147	0x16	22
148	0x13	19
149	0x03	3
150	0xb5	-75
151	0x02	2
152	0x0d	13
153	0x0d	13
154	0xdd	-35
155	0xba	-70
156	0x1c	28
157	0x13	19
158	0x27	39
159	0x56	86
160	0x3e	62
161	0x39	57
162	0x32	50
163	0xca	-54
164	0xbe	-66
165	0x25	37
166	0x4e	78
167	0x12	18
168	0x41	65
169	0xf8	-8
170	0x0f	15
171	0xfd	-3
172	0x32	50
173	0x1b	27
174	0x49	73
175	0xf9	-7
176	0xd1	-47
177	0xb8	-72
178	0x51	81
179	0x43	67
180	0xcd	-51
181	0xd2	-46
182	0x19	25
183	0x23	35
184	0xe2	-30
185	0xcc	-52
186	0xbc	-68
187	0x1b	27
188	0x14	20
189	0xf7	-9
190	0x2c	44
191	0x53	83
192	0xc2	-62
193	0x01	1
194	0x1e	30
195	0x2b	43
196	0x3a	58
197	0xf1	-15
198	0xb9	-71
199	0x2d	45
200	0x4a	74
201	0xf6	-10
202	0xda	-38
203	0x3c	60
204	0x1c	28
205	0x02	2
206	0x1a	26
207	0xde	-34
208	0xd2	-46
209	0xea	-22
210	0xc6	-58
211	0xad	-83
212	0x4a	74
213	0xfa	-6
214	0xf7	-9
215	0x68	104
216	0xe4	-28
217	0x26	38
218	0x3a	58
219	0x38	56
220	0x1f	31
221	0xc3	-61
222	0x2a	42
223	0x30	48
224	0xfc	-4
225	0x3a	58
226	0x13	19
227	0x3e	62
228	0x4e	78
229	0xcd	-51
230	0xd0	-48
231	0xfd	-3
232	0xc1	-63
233	0x08	8
234	0x0b	11
235	0xad	-83
236	0x37	55
237	0xbb	-69
238	0x2b	43
239	0x49	73
240	0x0c	12
241	0x11	17
242	0xdf	-33
243	0x2b	43
244	0xe4	-28
245	0xfa	-6
246	0xe5	-27
247	0xcd	-51
248	0x2a	42
249	0x3f	63
250	0x32	50
251	0xe0	-32
252	0xb5	-75
253	0x38	56
254	0xd8	-40
255	0x42	66

sequential_4/quant_conv2d_21/Conv2D;sequential_4/quant_conv2d_21/LastValueQuant/FakeQuantWithMinMaxVarsPerChannel i1 [48, 5, 5, 36]
0	0xc3	-61
1	0x41	65
2	0xf1	-15
3	0x56	86
4	0x18	24
5	0xf8	-8
6	0xb4	-76
7	0x3c	60
8	0x95	-107
9	0xc4	-60
10	0x5a	90
11	0xc9	-55
12	0x4b	75
13	0xb9	-71
14	0x13	19
15	0xa3	-93
16	0xbd	-67
17	0xdf	-33
18	0xe5	-27
19	0x15	21
20	0x1b	27
21	0x2c	44
22	0xdf	-33
23	0xe0	-32
24	0xcd	-51
25	0xbb	-69
26	0x47	71
27	0x0b	11
28	0xef	-17
29	0x14	20
30	0x24	36
31	0x03	3
32	0x2b	43
33	0x3a	58
34	0x49	73
35	0xd9	-39
36	0xc4	-60
37	0x40	64
38	0xdb	-37
39	0xf8	-8
40	0x1a	26
41	0xc6	-58
42	0x23	35
43	0xee	-18
44	0x17	23
45	0x15	21
46	0x04	4
47	0x40	64
48	0x2c	44
49	0xf4	-12
50	0x1e	30
51	0xd2	-46
52	0x0b	11
53	0x52	82
54	0xeb	-21
55	0xe4	-28
56	0xe0	-32
57	0x47	71
58	0x15	21
59	0x01	1
60	0x3f	63
61	0xb4	-76
62	0xd5	-43
63	0xbb	-69
64	0xf2	-14
65	0xeb	-21
66	0x16	22
67	0x60	96
68	0xe8	-24
69	0xec	-20
70	0xce	-50
71	0x2f	47
72	0x32	50
73	0x08	8
74	0xeb	-21
75	0x48	72
76	0xb6	-74
77	0xa4	-92
78	0x3d	61
79	0x2d	45
80	0xd1	-47
81	0x1c	28
82	0xff	-1
83	0xe0	-32
84	0xe6	-26
85	0xd1	-47
86	0x11	17
87	0xf3	-13
88	0xbb	-69
89	0xb4	-76
90	0xc6	-58
91	0xe6	-26
92	0xc9	-55
93	0xd8	-40
94	0x25	37
95	0xd8	-40
96	0x0e	14
97	0xc9	-55
98	0xb5	-75
99	0xcc	-52
100	0x27	39
101	0xd0	-48
102	0x01	1
103	0x03	3
104	0xba	-70
105	0x1e	30
106	0xe9	-23
107	0x33	51
108	0xf5	-11
109	0x56	86
110	0x18	24
111	0x18	24
112	0x21	33
113	0xfd	-3
114	0x23	35
115	0xd3	-45
116	0x81	-127
117	0x26	38
118	0x23	35
119	0x35	53
120	0x26	38
121	0xcd	-51
122	0x2b	43
123	0x03	3
124	0xb4	-76
125	0xf3	-13
126	0x06	6
127	0x04	4
128	0x2f	47
129	0x12	18
130	0xc4	-60
131	0x2c	44
132	0xb4	-76
133	0xe6	-26
134	0xb0	-80
135	0x1b	27
136	0x39	57
137	0xca	-54
138	0xd8	-40
139	0xcd	-51
140	0xf0	-16
141	0xf9	-7
142	0x3a	58
143	0xd1	-47
144	0xe4	-28
145	0xd6	-42
146	0x1e	30
147	0xbf	-65
148	0x11	17
149	0x17	23
150	0x3e	62
151	0xfd	-3
152	0x9b	-101
153	0xbd	-67
154	0xfb	-5
155	0x27	39
156	0x00	0
157	0xe1	-31
158	0x16	22
159	0x22	34
160	0x15	21
161	0xe0	-32
162	0x05	5
163	0x3f	63
164	0xd0	-48
165	0xeb	-21
166	0x09	9
167	0x0c	12
168	0xf5	-11
169	0x27	39
170	0xce	-50
171	0xc6	-58
172	0x27	39
173	0x02	2
174	0x25	37
175	0xb9	-71
176	0x2d	45
177	0x40	64
178	0x44	68
179	0xce	-50
180	0x30	48
181	0x3b	59
182	0x24	36
183	0x44	68
184	0xd1	-47
185	0xe2	-30
186	0x0c	12
187	0xa9	-87
188	0xdc	-36
189	0xef	-17
190	0x3a	58
191	0x28	40
192	0x58	88
193	0x1d	29
194	0xd2	-46
195	0xf6	-10
196	0x29	41
197	0x74	116
198	0xfc	-4
199	0x27	39
200	0x33	51
201	0xef	-17
202	0x4b	75
203	0xc3	-61
204	0x2d	45
205	0x4e	78
206	0x30	48
207	0xf0	-16
208	0xab	-85
209	0xe9	-23
210	0xcd	-51
211	0x26	38
212	0x24	36
213	0xcb	-53
214	0x07	7
215	0x3e	62
216	0xe5	-27
217	0xd5	-43
218	0xdd	-35
219	0xf3	-13
220	0x38	56
221	0x28	40
222	0x1e	30
223	0xd1	-47
224	0xef	-17
225	0x36	54
226	0xd0	-48
227	0x32	50
228	0x3f	63
229	0x32	50
230	0x22	34
231	0x38	56
232	0x27	39
233	0xf2	-14
234	0x22	34
235	0x19	25
236	0x2e	46
237	0xab	-85
238	0x2d	45
239	0x17	23
240	0x01	1
241	0xfc	-4
242	0x0f	15
243	0xfa	-6
244	0xcb	-53
245	0x06	6
246	0x2e	46
247	0xe8	-24
248	0x2e	46
249	0x19	25
250	0x47	71
251	0xfe	-2
252	0xfb	-5
253	0xcf	-49
254	0x4f	79
255	0x4c	76

sequential_4/quant_conv2d_22/Conv2D;sequential_4/quant_conv2d_22/LastValueQuant/FakeQuantWithMinMaxVarsPerChannel i1 [64, 3, 3, 48]
0	0x22	34
1	0xc9	-55
2	0x22	34
3	0xa9	-87
4	0xaa	-86
5	0x3a	58
6	0xe0	-32
7	0x52	82
8	0x4e	78
9	0xa4	-92
10	0xef	-17
11	0x44	68
12	0xaa	-86
13	0xaf	-81
14	0xab	-85
15	0x18	24
16	0xa2	-94
17	0xb8	-72
18	0xd4	-44
19	0x05	5
20	0x9d	-99
21	0x85	-123
22	0x01	1
23	0xfb	-5
24	0xfa	-6
25	0xb9	-71
26	0xc7	-57
27	0x65	101
28	0x9e	-98
29	0x5d	93
30	0xf3	-13
31	0xa9	-87
32	0x97	-105
33	0xb1	-79
34	0x81	-127
35	0xf3	-13
36	0xad	-83
37	0xa3	-93
38	0xd8	-40
39	0x10	16
40	0x4c	76
41	0x2e	46
42	0x0c	12
43	0xee	-18
44	0x0f	15
45	0x57	87
46	0xce	-50
47	0x20	32
48	0xd3	-45
49	0x0d	13
50	0x2d	45
51	0x42	66
52	0x05	5
53	0xb4	-76
54	0x68	104
55	0xfe	-2
56	0x28	40
57	0x93	-109
58	0x68	104
59	0x54	84
60	0x5e	94
61	0x22	34
62	0x39	57
63	0x22	34
64	0xdf	-33
65	0x44	68
66	0xf6	-10
67	0xe2	-30
68	0x6a	106
69	0xe2	-30
70	0xee	-18
71	0x3e	62
72	0xf5	-11
73	0x37	55
74	0x39	57
75	0x44	68
76	0xef	-17
77	0x9f	-97
78	0x20	32
79	0xbe	-66
80	0xe6	-26
81	0xbf	-65
82	0xa8	-88
83	0xaa	-86
84	0xfa	-6
85	0x11	17
86	0xcc	-52
87	0x19	25
88	0xe1	-31
89	0xff	-1
90	0x68	104
91	0x62	98
92	0xd7	-41
93	0x39	57
94	0x56	86
95	0xc6	-58
96	0x92	-110
97	0x27	39
98	0xf3	-13
99	0xaf	-81
100	0xe3	-29
101	0x35	53
102	0x00	0
103	0x5b	91
104	0x99	-103
105	0x26	38
106	0x5d	93
107	0x6e	110
108	0x4a	74
109	0xae	-82
110	0x91	-111
111	0xe7	-25
112	0x0b	11
113	0xb0	-80
114	0xfe	-2
115	0x00	0
116	0x4b	75
117	0xe2	-30
118	0xbe	-66
119	0x0f	15
120	0xd9	-39
121	0x1f	31
122	0x2e	46
123	0xe6	-26
124	0xcb	-53
125	0xa4	-92
126	0x03	3
127	0x3c	60
128	0xab	-85
129	0x48	72
130	0xa7	-89
131	0xdc	-36
132	0xfb	-5
133	0x54	84
134	0x55	85
135	0x04	4
136	0xd1	-47
137	0xa1	-95
138	0xa7	-89
139	0xed	-19
140	0x8c	-116
141	0x6d	109
142	0x22	34
143	0xb4	-76
144	0xeb	-21
145	0xca	-54
146	0x3f	63
147	0xcc	-52
148	0x95	-107
149	0x59	89
150	0x65	101
151	0x4a	74
152	0xe2	-30
153	0x28	40
154	0x97	-105
155	0xfe	-2
156	0xaf	-81
157	0x4f	79
158	0x45	69
159	0x9b	-101
160	0xde	-34
161	0xda	-38
162	0xd6	-42
163	0x8d	-115
164	0x44	68
165	0x3e	62
166	0xef	-17
167	0x15	21
168	0xde	-34
169	0x5b	91
170	0x1f	31
171	0x97	-105
172	0x42	66
173	0x17	23
174	0x22	34
175	0x0b	11
176	0xf3	-13
177	0x33	51
178	0x97	-105
179	0xb1	-79
180	0xa1	-95
181	0xc7	-57
182	0x5b	91
183	0xf3	-13
184	0x34	52
185	0x98	-104
186	0xf6	-10
187	0xcc	-52
188	0x34	52
189	0x30	48
190	0x6e	110
191	0x28	40
192	0x61	97
193	0xb8	-72
194	0xbb	-69
195	0xb9	-71
196	0xa1	-95
197	0x56	86
198	0x64	100
199	0xef	-17
200	0xc4	-60
201	0x39	57
202	0x3c	60
203	0x9b	-101
204	0xe9	-23
205	0x3c	60
206	0x3f	63
207	0xaf	-81
208	0xb5	-75
209	0xf4	-12
210	0x4e	78
211	0xaf	-81
212	0x3e	62
213	0x48	72
214	0xa1	-95
215	0x2e	46
216	0x43	67
217	0x88	-120
218	0xcf	-49
219	0x25	37
220	0x9e	-98
221	0xda	-38
222	0xc6	-58
223	0xdd	-35
224	0x27	39
225	0xfb	-5
226	0x45	69
227	0xc4	-60
228	0x53	83
229	0xa9	-87
230	0x65	101
231	0xe9	-23
232	0xcb	-53
233	0xa4	-92
234	0xa9	-87
235	0xc8	-56
236	0x5b	91
237	0xd8	-40
238	0x21	33
239	0xcf	-49
240	0x57	87
241	0xbe	-66
242	0xa0	-96
243	0x5e	94
244	0x57	87
245	0x1a	26
246	0x9a	-102
247	0x54	84
248	0x97	-105
249	0x20	32
250	0x95	-107
251	0xcd	-51
252	0xd6	-42
253	0xbf	-65
254	0x38	56
255	0xda	-38

sequential_4/quant_conv2d_23/Conv2D;sequential_4/quant_conv2d_23/LastValueQuant/FakeQuantWithMinMaxVarsPerChannel i1 [64, 3, 3, 64]
0	0xe1	-31
1	0x42	66
2	0x26	38
3	0x23	35
4	0x25	37
5	0xdc	-36
6	0xe1	-31
7	0x39	57
8	0x24	36
9	0x44	68
10	0x07	7
11	0xb8	-72
12	0xcb	-53
13	0x2f	47
14	0xf1	-15
15	0x39	57
16	0xfc	-4
17	0x35	53
18	0x42	66
19	0xd4	-44
20	0xf2	-14
21	0x07	7
22	0x51	81
23	0xab	-85
24	0x19	25
25	0x1a	26
26	0x27	39
27	0x17	23
28	0xaf	-81
29	0x0c	12
30	0x2e	46
31	0xf8	-8
32	0x36	54
33	0xbf	-65
34	0xe0	-32
35	0x41	65
36	0xab	-85
37	0x02	2
38	0x0a	10
39	0xd6	-42
40	0xe7	-25
41	0x04	4
42	0x44	68
43	0xa5	-91
44	0xd8	-40
45	0x08	8
46	0x53	83
47	0xb1	-79
48	0xbf	-65
49	0x10	16
50	0x01	1
51	0xc3	-61
52	0xe8	-24
53	0xd3	-45
54	0xe6	-26
55	0x27	39
56	0xcb	-53
57	0x98	-104
58	0xdc	-36
59	0x4e	78
60	0xb1	-79
61	0xda	-38
62	0x36	54
63	0x09	9
64	0x52	82
65	0x5a	90
66	0x5a	90
67	0x06	6
68	0xb3	-77
69	0xec	-20
70	0xff	-1
71	0xa3	-93
72	0xcf	-49
73	0x0e	14
74	0x92	-110
75	0x14	20
76	0xb0	-80
77	0xfd	-3
78	0x36	54
79	0xd5	-43
80	0x9d	-99
81	0x3f	63
82	0xab	-85
83	0x3e	62
84	0x4b	75
85	0xa4	-92
86	0x2b	43
87	0xbc	-68
88	0x22	34
89	0x4c	76
90	0x4d	77
91	0x03	3
92	0x99	-103
93	0x23	35
94	0x19	25
95	0x39	57
96	0x4f	79
97	0xd9	-39
98	0x10	16
99	0x04	4
100	0xaf	-81
101	0xbd	-67
102	0x0c	12
103	0xbb	-69
104	0xcb	-53
105	0xa6	-90
106	0xaf	-81
107	0x11	17
108	0xb9	-71
109	0x10	16
110	0xcb	-53
111	0xbf	-65
112	0x4b	75
113	0x0b	11
114	0x2a	42
115	0xda	-38
116	0xb5	-75
117	0x18	24
118	0xe0	-32
119	0xa6	-90
120	0xaa	-86
121	0xee	-18
122	0xd8	-40
123	0x35	53
124	0x1f	31
125	0xde	-34
126	0xc7	-57
127	0x5a	90
128	0xfb	-5
129	0xf8	-8
130	0x55	85
131	0x3d	61
132	0xf6	-10
133	0x54	84
134	0xee	-18
135	0x55	85
136	0x44	68
137	0x30	48
138	0x3f	63
139	0x9d	-99
140	0xfe	-2
141	0xeb	-21
142	0xc7	-57
143	0x1e	30
144	0x31	49
145	0xf7	-9
146	0x43	67
147	0x03	3
148	0xc7	-57
149	0xdc	-36
150	0x28	40
151	0xb8	-72
152	0x9f	-97
153	0xf7	-9
154	0xe3	-29
155	0xf7	-9
156	0xd9	-39
157	0xe9	-23
158	0xb7	-73
159	0x35	53
160	0x99	-103
161	0x4e	78
162	0x4d	77
163	0x21	33
164	0x3c	60
165	0xfa	-6
166	0xe6	-26
167	0x95	-107
168	0xb6	-74
169	0x3e	62
170	0x49	73
171	0x0b	11
172	0x49	73
173	0x44	68
174	0xd2	-46
175	0xdf	-33
176	0xd0	-48
177	0x81	-127
178	0xce	-50
179	0x2d	45
180	0xa8	-88
181	0xac	-84
182	0x3c	60
183	0xf5	-11
184	0xc9	-55
185	0xbb	-69
186	0x01	1
187	0x05	5
188	0xa2	-94
189	0xc1	-63
190	0xdf	-33
191	0xd1	-47
192	0x0f	15
193	0x42	66
194	0xd1	-47
195	0xf0	-16
196	0x43	67
197	0x50	80
198	0x33	51
199	0xf4	-12
200	0x45	69
201	0x1e	30
202	0xf2	-14
203	0x34	52
204	0xb9	-71
205	0x32	50
206	0xe0	-32
207	0xb3	-77
208	0x46	70
209	0xf1	-15
210	0xfa	-6
211	0x39	57
212	0xda	-38
213	0xa8	-88
214	0xb7	-73
215	0x34	52
216	0x25	37
217	0x2a	42
218	0xe9	-23
219	0x09	9
220	0x24	36
221	0x85	-123
222	0xa1	-95
223	0xec	-20
224	0x24	36
225	0xbd	-67
226	0x30	48
227	0xf8	-8
228	0xdd	-35
229	0xd1	-47
230	0x96	-106
231	0xa2	-94
232	0xc7	-57
233	0xba	-70
234	0xa8	-88
235	0x54	84
236	0xba	-70
237	0x12	18
238	0xa8	-88
239	0xe6	-26
240	0xd3	-45
241	0x36	54
242	0xaa	-86
243	0x1a	26
244	0xb0	-80
245	0x56	86
246	0x23	35
247	0x05	5
248	0x4b	75
249	0x1f	31
250	0x26	38
251	0xe5	-27
252	0xc4	-60
253	0xb7	-73
254	0x52	82
255	0x34	52

sequential_4/quant_dense_9/MatMul;sequential_4/quant_dense_9/LastValueQuant/FakeQuantWithMinMaxVars i1 [100, 2304] scale=0.0007793728 zero_point=0
0	0xef	-0.013249338
1	0xf8	-0.0062349825
2	0x03	0.0023381184
3	0x27	0.03039554
4	0x32	0.03896864
5	0x93	-0.08495164
6	0xe4	-0.02182244
7	0xdb	-0.028836794
8	0x17	0.017925575
9	0x00	0.0
10	0xb9	-0.05533547
11	0x1c	0.02182244
12	0x08	0.0062349825
13	0x23	0.027278049
14	0x3a	0.045203622
15	0xca	-0.042086132
16	0xd0	-0.037409894
17	0xf5	-0.008573101
18	0xb0	-0.062349826
19	0xe6	-0.020263692
20	0xff	-0.0007793728
21	0x31	0.03818927
22	0xce	-0.03896864
23	0xe3	-0.022601811
24	0xe4	-0.02182244
25	0x0d	0.010131846
26	0x2f	0.036630522
27	0xf7	-0.007014355
28	0xe1	-0.024160556
29	0xd2	-0.03585115
30	0xc4	-0.04676237
31	0xf8	-0.0062349825
32	0x2c	0.034292404
33	0xf7	-0.007014355
34	0x12	0.01402871
35	0x2d	0.035071775
36	0xde	-0.026498675
37	0xec	-0.0155874565
38	0x12	0.01402871
39	0x07	0.00545561
40	0x46	0.054556098
41	0x06	0.004676237
42	0xf3	-0.010131846
43	0xdd	-0.027278049
44	0xcb	-0.04130676
45	0x07	0.00545561
46	0xd3	-0.035071775
47	0xb6	-0.05767359
48	0xb5	-0.05845296
49	0xbe	-0.051438607
50	0x37	0.042865504
51	0x35	0.04130676
52	0xfb	-0.0038968641
53	0xd6	-0.032733656
54	0xc4	-0.04676237
55	0x2f	0.036630522
56	0xe5	-0.021043066
57	0xd7	-0.031954285
58	0xc5	-0.045982998
59	0xe3	-0.022601811
60	0x13	0.014808084
61	0xbe	-0.051438607
62	0x37	0.042865504
63	0xcb	-0.04130676
64	0xeb	-0.016366828
65	0xf7	-0.007014355
66	0xfe	-0.0015587456
67	0xdf	-0.025719304
68	0xd9	-0.03039554
69	0xd0	-0.037409894
70	0xf2	-0.01091122
71	0xe1	-0.024160556
72	0xdb	-0.028836794
73	0x3a	0.045203622
74	0x0d	0.010131846
75	0xd0	-0.037409894
76	0xc9	-0.042865504
77	0xce	-0.03896864
78	0xfb	-0.0038968641
79	0xd2	-0.03585115
80	0x2d	0.035071775
81	0x30	0.037409894
82	0xe3	-0.022601811
83	0xd9	-0.03039554
84	0xe1	-0.024160556
85	0xdc	-0.02805742
86	0xdb	-0.028836794
87	0x04	0.0031174913
88	0xd8	-0.031174913
89	0xc6	-0.045203622
90	0x05	0.0038968641
91	0xc5	-0.045982998
92	0xbd	-0.05221798
93	0x2a	0.032733656
94	0xb8	-0.05611484
95	0xf2	-0.01091122
96	0x43	0.05221798
97	0x11	0.013249338
98	0x43	0.05221798
99	0xf5	-0.008573101
100	0xb5	-0.05845296
101	0xcc	-0.040527385
102	0xd1	-0.036630522
103	0xef	-0.013249338
104	0x2c	0.034292404
105	0x0f	0.011690592
106	0x0b	0.008573101
107	0xda	-0.029616168
108	0x17	0.017925575
109	0x12	0.01402871
110	0xf4	-0.009352474
111	0xe2	-0.023381185
112	0xf8	-0.0062349825
113	0x0d	0.010131846
114	0x45	0.053776722
115	0x3b	0.045982998
116	0xfd	-0.0023381184
117	0x07	0.00545561
118	0xd0	-0.037409894
119	0x24	0.02805742
120	0xed	-0.014808084
121	0x18	0.018704947
122	0x27	0.03039554
123	0x2f	0.036630522
124	0x22	0.026498675
125	0xe9	-0.017925575
126	0xe2	-0.023381185
127	0x0c	0.009352474
128	0x37	0.042865504
129	0xc5	-0.045982998
130	0xc6	-0.045203622
131	0x10	0.012469965
132	0xca	-0.042086132
133	0xb5	-0.05845296
134	0xee	-0.01402871
135	0xf0	-0.012469965
136	0x06	0.004676237
137	0xde	-0.026498675
138	0x15	0.016366828
139	0x2e	0.03585115
140	0x35	0.04130676
141	0xc0	-0.04987986
142	0x07	0.00545561
143	0x23	0.027278049
144	0x31	0.03818927
145	0xdd	-0.027278049
146	0xb5	-0.05845296
147	0x3a	0.045203622
148	0xee	-0.01402871
149	0xf0	-0.012469965
150	0xfd	-0.0023381184
151	0xf1	-0.011690592
152	0xe9	-0.017925575
153	0x0e	0.01091122
154	0x11	0.013249338
155	0xe1	-0.024160556
156	0xff	-0.0007793728
157	0x26	0.029616168
158	0xca	-0.042086132
159	0x23	0.027278049
160	0x2f	0.036630522
161	0x20	0.02493993
162	0xed	-0.014808084
163	0xe9	-0.017925575
164	0xfd	-0.0023381184
165	0x17	0.017925575
166	0xff	-0.0007793728
167	0xbd	-0.05221798
168	0x27	0.03039554
169	0xd9	-0.03039554
170	0x30	0.037409894
171	0xd5	-0.033513032
172	0x2a	0.032733656
173	0xe0	-0.02493993
174	0xca	-0.042086132
175	0x10	0.012469965
176	0xd6	-0.032733656
177	0xfa	-0.004676237
178	0xe8	-0.018704947
179	0xd9	-0.03039554
180	0xdd	-0.027278049
181	0xca	-0.042086132
182	0xd2	-0.03585115
183	0xda	-0.029616168
184	0xe2	-0.023381185
185	0x0c	0.009352474
186	0x42	0.051438607
187	0xca	-0.042086132
188	0x12	0.01402871
189	0xf0	-0.012469965
190	0x0c	0.009352474
191	0x35	0.04130676
192	0x1a	0.020263692
193	0x37	0.042865504
194	0xd4	-0.034292404
195	0xc0	-0.04987986
196	0xe2	-0.023381185
197	0x0e	0.01091122
198	0x10	0.012469965
199	0xf8	-0.0062349825
200	0x03	0.0023381184
201	0x14	0.0155874565
202	0xd2	-0.03585115
203	0x14	0.0155874565
204	0xd5	-0.033513032
205	0xe8	-0.018704947
206	0x2c	0.034292404
207	0xf8	-0.0062349825
208	0x10	0.012469965
209	0x06	0.004676237
210	0xba	-0.054556098
211	0x10	0.012469965
212	0xc5	-0.045982998
213	0xfe	-0.0015587456
214	0xb7	-0.056894217
215	0x29	0.031954285
216	0xe0	-0.02493993
217	0xe2	-0.023381185
218	0x0c	0.009352474
219	0x08	0.0062349825
220	0xf0	-0.012469965
221	0xdd	-0.027278049
222	0x25	0.028836794
223	0xf5	-0.008573101
224	0xd1	-0.036630522
225	0xea	-0.017146202
226	0x4c	0.059232336
227	0x06	0.004676237
228	0x2f	0.036630522
229	0xfb	-0.0038968641
230	0xf4	-0.009352474
231	0x08	0.0062349825
232	0xd3	-0.035071775
233	0xbc	-0.05299735
234	0x2b	0.033513032
235	0xea	-0.017146202
236	0xe0	-0.02493993
237	0x23	0.027278049
238	0xcb	-0.04130676
239	0xf1	-0.011690592
240	0x18	0.018704947
241	0x40	0.04987986
242	0xc1	-0.04910049
243	0xc2	-0.048321113
244	0xc1	-0.04910049
245	0xc2	-0.048321113
246	0xe3	-0.022601811
247	0xd4	-0.034292404
248	0x02	0.0015587456
249	0xbe	-0.051438607
250	0xd8	-0.031174913
251	0x1d	0.022601811
252	0x15	0.016366828
253	0x12	0.01402871
254	0x17	0.017925575
255	0xdb	-0.028836794

sequential_4/quant_dense_10/MatMul;sequential_4/quant_dense_10/LastValueQuant/FakeQuantWithMinMaxVars i1 [50, 100] scale=0.0018929103 zero_point=0
0	0xc4	-0.113574624
1	0xb8	-0.13628954
2	0xd3	-0.08518097
3	0xc9	-0.10411007
4	0x39	0.10789589
5	0x22	0.06435895
6	0xbb	-0.13061081
7	0x34	0.098431334
8	0xd4	-0.08328806
9	0x2f	0.08896679
10	0xac	-0.15900446
11	0x1a	0.049215667
12	0xa4	-0.17414775
13	0x6b	0.20254141
14	0x0a	0.018929103
15	0x48	0.13628954
16	0x19	0.047322758
17	0x97	-0.19875559
18	0x56	0.16279028
19	0x38	0.10600298
20	0x10	0.030286565
21	0xbd	-0.12682499
22	0x0f	0.028393656
23	0xf9	-0.013250372
24	0x3e	0.11736044
25	0x68	0.19686267
26	0x23	0.06625186
27	0xe7	-0.047322758
28	0x29	0.07760932
29	0xe1	-0.05868022
30	0x63	0.18739812
31	0xee	-0.034072384
32	0x1f	0.05868022
33	0xe2	-0.056787312
34	0xd2	-0.08707388
35	0x08	0.015143283
36	0xff	-0.0018929103
37	0xe9	-0.04353694
38	0x57	0.1646832
39	0xa1	-0.17982648
40	0x4e	0.14764701
41	0x6d	0.20632723
42	0x06	0.011357462
43	0xbc	-0.1287179
44	0xdd	-0.06625186
45	0xf2	-0.026500745
46	0xf6	-0.018929103
47	0xc6	-0.1097888
48	0x3a	0.1097888
49	0x56	0.16279028
50	0xfd	-0.005678731
51	0xb3	-0.1457541
52	0xc5	-0.11168171
53	0xbb	-0.13061081
54	0x0f	0.028393656
55	0xd4	-0.08328806
56	0x0d	0.024607833
57	0xeb	-0.039751116
58	0x12	0.034072384
59	0x5c	0.17414775
60	0xe7	-0.047322758
61	0x0c	0.022714924
62	0xbc	-0.1287179
63	0x6a	0.2006485
64	0x31	0.092752606
65	0xc2	-0.11736044
66	0x54	0.15900446
67	0xe6	-0.049215667
68	0x3d	0.11546753
69	0x02	0.0037858207
70	0x5a	0.17036194
71	0xd2	-0.08707388
72	0x02	0.0037858207
73	0xcd	-0.096538424
74	0xf7	-0.017036192
75	0x5b	0.17225485
76	0x28	0.07571641
77	0xcb	-0.10032425
78	0xc1	-0.11925335
79	0xb1	-0.14953992
80	0x61	0.1836123
81	0x40	0.12114626
82	0x9e	-0.18550521
83	0x44	0.1287179
84	0xd0	-0.090859696
85	0xa8	-0.16657612
86	0x15	0.039751116
87	0x12	0.034072384
88	0x38	0.10600298
89	0x2b	0.08139514
90	0x38	0.10600298
91	0x2c	0.08328806
92	0x51	0.15332574
93	0xeb	-0.039751116
94	0xf6	-0.018929103
95	0xca	-0.10221716
96	0xe9	-0.04353694
97	0x9a	-0.19307685
98	0xe5	-0.05110858
99	0xb6	-0.14007537
100	0x40	0.12114626
101	0x39	0.10789589
102	0x3d	0.11546753
103	0x37	0.10411007
104	0x2b	0.08139514
105	0xdf	-0.06246604
106	0x03	0.005678731
107	0x32	0.094645515
108	0xd3	-0.08518097
109	0xd2	-0.08707388
110	0x51	0.15332574
111	0x9a	-0.19307685
112	0xff	-0.0018929103
113	0xce	-0.094645515
114	0x2a	0.07950223
115	0x48	0.13628954
116	0xd6	-0.07950223
117	0xaf	-0.15332574
118	0xd2	-0.08707388
119	0x5c	0.17414775
120	0xab	-0.16089737
121	0x2a	0.07950223
122	0x60	0.18171939
123	0x3c	0.113574624
124	0xbb	-0.13061081
125	0xe9	-0.04353694
126	0xc1	-0.11925335
127	0x1d	0.0548944
128	0xb4	-0.14386119
129	0xe4	-0.05300149
130	0x31	0.092752606
131	0x27	0.073823504
132	0x29	0.07760932
133	0xb1	-0.14953992
134	0x5e	0.17793357
135	0xfd	-0.005678731
136	0xf4	-0.022714924
137	0x17	0.04353694
138	0x42	0.12493208
139	0xcd	-0.096538424
140	0x3b	0.11168171
141	0x46	0.13250372
142	0x29	0.07760932
143	0xe7	-0.047322758
144	0x46	0.13250372
145	0x4b	0.14196828
146	0x22	0.06435895
147	0x33	0.096538424
148	0xda	-0.071930595
149	0x35	0.10032425
150	0x1c	0.05300149
151	0x9f	-0.1836123
152	0x61	0.1836123
153	0x61	0.1836123
154	0x5d	0.17604066
155	0xc2	-0.11736044
156	0x5a	0.17036194
157	0x0d	0.024607833
158	0x3e	0.11736044
159	0xdf	-0.06246604
160	0x5c	0.17414775
161	0x38	0.10600298
162	0x1b	0.05110858
163	0xa6	-0.17036194
164	0xd8	-0.07571641
165	0x01	0.0018929103
166	0x44	0.1287179
167	0xaf	-0.15332574
168	0xdd	-0.06625186
169	0x99	-0.19496976
170	0xec	-0.037858207
171	0x1c	0.05300149
172	0xd0	-0.090859696
173	0xc1	-0.11925335
174	0x2c	0.08328806
175	0xd6	-0.07950223
176	0xf2	-0.026500745
177	0x62	0.18550521
178	0xed	-0.035965297
179	0x58	0.16657612
180	0x00	0.0
181	0xa6	-0.17036194
182	0x09	0.017036192
183	0x1c	0.05300149
184	0xed	-0.035965297
185	0xc7	-0.10789589
186	0xfb	-0.009464552
187	0xe4	-0.05300149
188	0xe1	-0.05868022
189	0xf6	-0.018929103
190	0x8f	-0.21389887
191	0x91	-0.21011305
192	0x01	0.0018929103
193	0x43	0.12682499
194	0xdb	-0.070037685
195	0xeb	-0.039751116
196	0xf1	-0.028393656
197	0x06	0.011357462
198	0xc8	-0.10600298
199	0xea	-0.04164403
200	0x9b	-0.19118394
201	0xa9	-0.1646832
202	0xd7	-0.07760932
203	0xb4	-0.14386119
204	0x26	0.071930595
205	0x4d	0.1457541
206	0xd6	-0.07950223
207	0xb2	-0.14764701
208	0xc1	-0.11925335
209	0xee	-0.034072384
210	0xe0	-0.06057313
211	0xa8	-0.16657612
212	0x44	0.1287179
213	0xc2	-0.11736044
214	0x3b	0.11168171
215	0x21	0.06246604
216	0x18	0.045429848
217	0xcb	-0.10032425
218	0x28	0.07571641
219	0xa6	-0.17036194
220	0x3a	0.1097888
221	0xda	-0.071930595
222	0x14	0.037858207
223	0xa1	-0.17982648
224	0x1a	0.049215667
225	0x32	0.094645515
226	0x69	0.19875559
227	0x46	0.13250372
228	0x37	0.10411007
229	0xf0	-0.030286565
230	0x2c	0.08328806
231	0xf6	-0.018929103
232	0xb5	-0.14196828
233	0x69	0.19875559
234	0x1f	0.05868022
235	0xf5	-0.020822015
236	0x04	0.0075716414
237	0xcb	-0.10032425
238	0xf5	-0.020822015
239	0xec	-0.037858207
240	0x40	0.12114626
241	0x32	0.094645515
242	0x58	0.16657612
243	0xa5	-0.17225485
244	0x09	0.017036192
245	0x5c	0.17414775
246	0xba	-0.13250372
247	0xdf	-0.06246604
248	0xe0	-0.06057313
249	0xd0	-0.090859696
250	0xdb	-0.070037685
251	0xc6	-0.1097888
252	0x38	0.10600298
253	0x55	0.16089737
254	0x9b	-0.19118394
255	0xba	-0.13250372

sequential_4/quant_dense_11/MatMul;sequential_4/quant_dense_11/LastValueQuant/FakeQuantWithMinMaxVars i1 [10, 50] scale=0.0029414291 zero_point=0
0	0x40	0.18825147
1	0x0a	0.029414292
2	0x12	0.052945726
3	0x24	0.10589145
4	0x17	0.06765287
5	0xec	-0.058828585
6	0xa6	-0.26472864
7	0xe2	-0.08824287
8	0x67	0.3029672
9	0xa7	-0.2617872
10	0xe4	-0.082360014
11	0xdd	-0.10295002
12	0x33	0.15001288
13	0x1e	0.08824287
14	0xce	-0.14707145
15	0x04	0.011765717
16	0x3d	0.17942718
17	0x5d	0.27355292
18	0x53	0.24413861
19	0xaa	-0.25296292
20	0x59	0.2617872
21	0x16	0.064711444
22	0xa6	-0.26472864
23	0x4a	0.21766576
24	0xc6	-0.17060289
25	0x2f	0.13824718
26	0xf7	-0.026472863
27	0x26	0.11177431
28	0xe7	-0.073535725
29	0x1d	0.085301444
30	0xe5	-0.079418585
31	0x40	0.18825147
32	0xe2	-0.08824287
33	0xd0	-0.14118859
34	0x53	0.24413861
35	0xa7	-0.2617872
36	0x23	0.10295002
37	0x24	0.10589145
38	0xe8	-0.070594296
39	0xdf	-0.09706716
40	0x17	0.06765287
41	0xe8	-0.070594296
42	0x07	0.020590004
43	0xab	-0.2500215
44	0xd2	-0.13530575
45	0xa3	-0.27355292
46	0x4f	0.23237291
47	0x35	0.15589574
48	0x9d	-0.29120147
49	0xca	-0.15883717
50	0x2e	0.13530575
51	0xbb	-0.20295861
52	0xca	-0.15883717
53	0xad	-0.24413861
54	0x03	0.008824287
55	0x0b	0.032355722
56	0x24	0.10589145
57	0x1d	0.085301444
58	0x38	0.16472003
59	0x32	0.14707145
60	0xb6	-0.21766576
61	0x27	0.11471574
62	0x52	0.24119718
63	0xdf	-0.09706716
64	0x37	0.1617786
65	0xfd	-0.008824287
66	0xb2	-0.22943148
67	0xd8	-0.11765717
68	0x1c	0.082360014
69	0xf5	-0.032355722
70	0xf7	-0.026472863
71	0x22	0.10000859
72	0x5a	0.26472864
73	0x5e	0.27649435
74	0x23	0.10295002
75	0xae	-0.24119718
76	0xef	-0.050004296
77	0xdb	-0.10883288
78	0x95	-0.3147329
79	0x08	0.023531433
80	0x37	0.1617786
81	0x3e	0.1823686
82	0x2e	0.13530575
83	0xaa	-0.25296292
84	0x08	0.023531433
85	0xf3	-0.038238578
86	0xd6	-0.12354002
87	0x0d	0.038238578
88	0x66	0.30002576
89	0x49	0.21472433
90	0x9a	-0.30002576
91	0xac	-0.24708004
92	0xa6	-0.26472864
93	0x5c	0.2706115
94	0xca	-0.15883717
95	0x09	0.026472863
96	0x3e	0.1823686
97	0x45	0.20295861
98	0x13	0.055887155
99	0xd3	-0.13236432
100	0xa9	-0.25590435
101	0x52	0.24119718
102	0x05	0.014707146
103	0xe1	-0.0911843
104	0xdd	-0.10295002
105	0x3b	0.17354432
106	0x11	0.050004296
107	0xdf	-0.09706716
108	0x1b	0.079418585
109	0x5c	0.2706115
110	0xdc	-0.10589145
111	0xb1	-0.23237291
112	0x11	0.050004296
113	0x9b	-0.29708433
114	0x33	0.15001288
115	0x5c	0.2706115
116	0xaf	-0.23825575
117	0xf3	-0.038238578
118	0x11	0.050004296
119	0x9f	-0.2853186
120	0x59	0.2617872
121	0x9e	-0.28826004
122	0xa4	-0.2706115
123	0x16	0.064711444
124	0xed	-0.055887155
125	0xc1	-0.18531004
126	0x1c	0.082360014
127	0xff	-0.0029414291
128	0x0a	0.029414292
129	0x07	0.020590004
130	0xf6	-0.029414292
131	0x5e	0.27649435
132	0x3f	0.18531004
133	0x13	0.055887155
134	0x93	-0.32061577
135	0x35	0.15589574
136	0x25	0.10883288
137	0x4a	0.21766576
138	0x8a	-0.34708863
139	0x36	0.15883717
140	0xbe	-0.19413432
141	0x95	-0.3147329
142	0xfb	-0.014707146
143	0x56	0.25296292
144	0xa7	-0.2617872
145	0x3f	0.18531004
146	0x4d	0.22649005
147	0x4a	0.21766576
148	0x06	0.017648574
149	0xd3	-0.13236432
150	0xe6	-0.076477155
151	0xd2	-0.13530575
152	0x9e	-0.28826004
153	0x39	0.16766146
154	0x59	0.2617872
155	0xb8	-0.2117829
156	0x1c	0.082360014
157	0xb9	-0.20884147
158	0xfe	-0.0058828583
159	0x2b	0.12648146
160	0x4c	0.22354862
161	0x01	0.0029414291
162	0x16	0.064711444
163	0xa1	-0.27943578
164	0x1a	0.076477155
165	0xb8	-0.2117829
166	0xe6	-0.076477155
167	0xe5	-0.079418585
168	0x34	0.15295431
169	0x03	0.008824287
170	0xed	-0.055887155
171	0xec	-0.058828585
172	0xbf	-0.1911929
173	0x0c	0.035297148
174	0xd4	-0.12942289
175	0xbd	-0.19707575
176	0x3d	0.17942718
177	0xc7	-0.16766146
178	0xf1	-0.044121437
179	0xab	-0.2500215
180	0xdb	-0.10883288
181	0xa1	-0.27943578
182	0x07	0.020590004
183	0x0d	0.038238578
184	0x28	0.11765717
185	0x58	0.25884578
186	0x3c	0.17648575
187	0xb3	-0.22649005
188	0xf1	-0.044121437
189	0x53	0.24413861
190	0xf9	-0.020590004
191	0x5e	0.27649435
192	0x98	-0.30590862
193	0xa6	-0.26472864
194	0x11	0.050004296
195	0xb2	-0.22943148
196	0x9d	-0.29120147
197	0xdf	-0.09706716
198	0x0c	0.035297148
199	0x9d	-0.29120147
200	0x96	-0.31179148
201	0x03	0.008824287
202	0xcb	-0.15589574
203	0xfd	-0.008824287
204	0xf1	-0.044121437
205	0x3c	0.17648575
206	0xd8	-0.11765717
207	0xc8	-0.16472003
208	0x2f	0.13824718
209	0xb7	-0.21472433
210	0x31	0.14413002
211	0x36	0.15883717
212	0x23	0.10295002
213	0x31	0.14413002
214	0xae	-0.24119718
215	0x2d	0.13236432
216	0x46	0.20590004
217	0xea	-0.064711444
218	0xa0	-0.28237718
219	0xec	-0.058828585
220	0xb9	-0.20884147
221	0x4b	0.22060719
222	0x57	0.25590435
223	0xee	-0.052945726
224	0x5f	0.27943578
225	0x45	0.20295861
226	0x1f	0.0911843
227	0xaf	-0.23825575
228	0xa3	-0.27355292
229	0x5a	0.26472864
230	0x9d	-0.29120147
231	0xa9	-0.25590435
232	0x44	0.20001718
233	0x00	0.0
234	0x53	0.24413861
235	0xdd	-0.10295002
236	0x61	0.2853186
237	0x68	0.30590862
238	0xd0	-0.14118859
239	0xe8	-0.070594296
240	0xdb	-0.10883288
241	0xde	-0.10000859
242	0x57	0.25590435
243	0xdd	-0.10295002
244	0x0b	0.032355722
245	0x26	0.11177431
246	0xc0	-0.18825147
247	0xcc	-0.15295431
248	0x63	0.29120147
249	0x09	0.026472863
250	0x1f	0.0911843
251	0xb2	-0.22943148
252	0x36	0.15883717
253	0x3c	0.17648575
254	0x1b	0.079418585
255	0xdd	-0.10295002

sequential_4/quant_output/MatMul;sequential_4/quant_output/LastValueQuant/FakeQuantWithMinMaxVars i1 [1, 10] scale=0.004500555 zero_point=0
0	0xd8	-0.1800222
1	0x63	0.44555494
2	0x7f	0.57157046
3	0xbb	-0.3105383
4	0x5b	0.4095505
5	0xec	-0.0900111
6	0x34	0.23402885
7	0x18	0.10801332
8	0xcb	-0.23852941
9	0xd6	-0.1890233
