models/opt-160x66x3.tflite (tflite, 234744 bytes, 9 tensors)

sequential_2/quant_conv2d_10/Conv2D;sequential_2/quant_conv2d_10/LastValueQuant/FakeQuantWithMinMaxVarsPerChannel i1 [24, 5, 5, 3]
00000000: cb7a 2fd7 7f11 4567 5909 6578 0cb1 15aa
00000010: 1ab0 3a18 c13e 48e5 9c56 67b6 4f47 b45b
00000020: 70e7 7118 0bc2 bda5 2bfc 91d7 b603 6ebd
00000030: 2707 cd3f 33cc ef4d f88e 0960 38bb 1b5c
00000040: 6a44 9c50 3144 2845 03bb 3453 aa81 0b97
00000050: 8a50 ba2d 370f 16d3 99b9 bc27 30ec ad02
00000060: 0dcc 2436 9cbc 371d 4c31 33d6 2ef8 9b07
00000070: 03ca 159c f4e6 08f9 34f0 889c 31b5 b598
00000080: 8da8 cfbf 29dd f007 45a9 0331 2bc3 a4c8
00000090: b9f8 afa5 a4a0 2d10 7251 061e 2bae 68e2
000000a0: 5f73 157a 7fd4 4036 3a4f 10a8 c44f c607
000000b0: 2258 b4f1 6779 2840 5d13 3644 dcfb 4009
000000c0: be03 44e3 7553 79aa 4107 b1ce 66ff 3858
000000d0: f8ac 3f67 c73d 4bc8 f06b c9e5 4c39 45c9
000000e0: 032a 309d 2055 1181 2070 ae71 06e7 ee27
000000f0: aa0a 06a0 94c1 07e9 9358 08c5 b0a0 c8ae
-53 122 47 -41 127 17 69 103
89 9 101 120 12 -79 21 -86
26 -80 58 24 -63 62 72 -27
-100 86 103 -74 79 71 -76 91
112 -25 113 24 11 -62 -67 -91
43 -4 -111 -41 -74 3 110 -67
39 7 -51 63 51 -52 -17 77
-8 -114 9 96 56 -69 27 92
106 68 -100 80 49 68 40 69
3 -69 52 83 -86 -127 11 -105
-118 80 -70 45 55 15 22 -45
-103 -71 -68 39 48 -20 -83 2
13 -52 36 54 -100 -68 55 29
76 49 51 -42 46 -8 -101 7
3 -54 21 -100 -12 -26 8 -7
52 -16 -120 -100 49 -75 -75 -104
-115 -88 -49 -65 41 -35 -16 7
69 -87 3 49 43 -61 -92 -56
-71 -8 -81 -91 -92 -96 45 16
114 81 6 30 43 -82 104 -30
95 115 21 122 127 -44 64 54
58 79 16 -88 -60 79 -58 7
34 88 -76 -15 103 121 40 64
93 19 54 68 -36 -5 64 9
-66 3 68 -29 117 83 121 -86
65 7 -79 -50 102 -1 56 88
-8 -84 63 103 -57 61 75 -56
-16 107 -55 -27 76 57 69 -55
3 42 48 -99 32 85 17 -127
32 112 -82 113 6 -25 -18 39
-86 10 6 -96 -108 -63 7 -23
-109 88 8 -59 -80 -96 -56 -82

sequential_2/quant_conv2d_11/Conv2D;sequential_2/quant_conv2d_11/LastValueQuant/FakeQuantWithMinMaxVarsPerChannel i1 [36, 5, 5, 24]
00000000: a3aa 1838 6069 ef29 27a0 bd03 30fc 1443
00000010: b7f4 ae34 35aa dd0e 162b 9c29 b75c 23dd
00000020: 6d9d 47c3 e92b ddae bd0a a5d2 dcc8 e1b2
00000030: 7272 ecca aa11 3239 e5bd d119 08c6 67f0
00000040: 1acb b708 b722 2bbe 1ece d025 93f5 e311
00000050: f43d 2b42 bfdb d2ed 4c2a 4e29 aca1 c298
00000060: 5957 46c0 4198 e29b d343 19ac e153 ab9c
00000070: f536 d20f 0ef3 9cb3 da3b cd0d 9a41 5356
00000080: 9aff 52e6 6106 fcc2 d1c4 40ce 2de4 f8e1
00000090: 9a47 dff4 56ba e038 f9c0 a5c3 f837 4760
000000a0: d2d8 5bbe ec6b 2d43 1a0c 4441 522d 4860
000000b0: 2d0c bd1a c234 261e c4df acf3 ce74 3cd7
000000c0: cdd1 eee4 0b52 f7de 43ba 3008 0ece 6771
000000d0: 0ced d304 7514 c4ad b46f 2f32 1722 f507
000000e0: 5afe 4641 7c01 e2dc f7bb f2c6 f546 e7f2
000000f0: 24fe 4fc3 335b 3bb7 1935 26d5 3d3b 1574
-93 -86 24 56 96 105 -17 41
39 -96 -67 3 48 -4 20 67
-73 -12 -82 52 53 -86 -35 14
22 43 -100 41 -73 92 35 -35
109 -99 71 -61 -23 43 -35 -82
-67 10 -91 -46 -36 -56 -31 -78
114 114 -20 -54 -86 17 50 57
-27 -67 -47 25 8 -58 103 -16
26 -53 -73 8 -73 34 43 -66
30 -50 -48 37 -109 -11 -29 17
-12 61 43 66 -65 -37 -46 -19
76 42 78 41 -84 -95 -62 -104
89 87 70 -64 65 -104 -30 -101
-45 67 25 -84 -31 83 -85 -100
-11 54 -46 15 14 -13 -100 -77
-38 59 -51 13 -102 65 83 86
-102 -1 82 -26 97 6 -4 -62
-47 -60 64 -50 45 -28 -8 -31
-102 71 -33 -12 86 -70 -32 56
-7 -64 -91 -61 -8 55 71 96
-46 -40 91 -66 -20 107 45 67
26 12 68 65 82 45 72 96
45 12 -67 26 -62 52 38 30
-60 -33 -84 -13 -50 116 60 -41
-51 -47 -18 -28 11 82 -9 -34
67 -70 48 8 14 -50 103 113
12 -19 -45 4 117 20 -60 -83
-76 111 47 50 23 34 -11 7
90 -2 70 65 124 1 -30 -36
-9 -69 -14 -58 -11 70 -25 -14
36 -2 79 -61 51 91 59 -73
25 53 38 -43 61 59 21 116

sequential_2/quant_conv2d_12/Conv2D;sequential_2/quant_conv2d_12/LastValueQuant/FakeQuantWithMinMaxVarsPerChannel i1 [48, 5, 5, 36]
00000000: 492c b10d bdcf 4b47 c1e5 11af cf59 3bb5
00000010: 23d4 0373 1fc8 35d8 5118 543e c5db 3f00
00000020: 3e28 dad8 379a 4ea8 2f37 eafe 5a2b d146
00000030: b6bd d8e3 fffd 31b4 ce04 2736 b813 abb3
00000040: 01e4 db19 5eef b418 572a c42b fe4f 17cd
00000050: 06f2 09b2 3347 4828 e732 e42a 11fd 3146
00000060: f046 3cb0 c93c 42c2 524b c4d0 2714 fa48
00000070: d0c9 bd31 af08 4f36 c8e8 2201 c64f f6e8
00000080: 0f55 bbf1 43f8 b904 0cfb bcf0 3806 ee27
00000090: 2b4a 2fd2 f22a b5ee 35fe afdd c2f8 3137
000000a0: 3bd0 f9d2 b114 aa50 29cd 2827 e81a 29ed
000000b0: 2ad1 b9ec 4538 2c25 b102 dbd8 bedb ab2d
000000c0: eff0 0f4c 62a8 47e7 f615 f750 c34c be0a
000000d0: 5f4f ad07 f143 351f feb2 d333 00df 27ce
000000e0: 46b6 f9c2 e3c7 cf40 2cea b9c4 1003 bdc5
000000f0: d92d 1603 0c3c 2c0e bbea c1d8 3e21 1dcc
73 44 -79 13 -67 -49 75 71
-63 -27 17 -81 -49 89 59 -75
35 -44 3 115 31 -56 53 -40
81 24 84 62 -59 -37 63 0
62 40 -38 -40 55 -102 78 -88
47 55 -22 -2 90 43 -47 70
-74 -67 -40 -29 -1 -3 49 -76
-50 4 39 54 -72 19 -85 -77
1 -28 -37 25 94 -17 -76 24
87 42 -60 43 -2 79 23 -51
6 -14 9 -78 51 71 72 40
-25 50 -28 42 17 -3 49 70
-16 70 60 -80 -55 60 66 -62
82 75 -60 -48 39 20 -6 72
-48 -55 -67 49 -81 8 79 54
-56 -24 34 1 -58 79 -10 -24
15 85 -69 -15 67 -8 -71 4
12 -5 -68 -16 56 6 -18 39
43 74 47 -46 -14 42 -75 -18
53 -2 -81 -35 -62 -8 49 55
59 -48 -7 -46 -79 20 -86 80
41 -51 40 39 -24 26 41 -19
42 -47 -71 -20 69 56 44 37
-79 2 -37 -40 -66 -37 -85 45
-17 -16 15 76 98 -88 71 -25
-10 21 -9 80 -61 76 -66 10
95 79 -83 7 -15 67 53 31
-2 -78 -45 51 0 -33 39 -50
70 -74 -7 -62 -29 -57 -49 64
44 -22 -71 -60 16 3 -67 -59
-39 45 22 3 12 60 44 14
-69 -22 -63 -40 62 33 29 -52

sequential_2/quant_conv2d_13/Conv2D;sequential_2/quant_conv2d_13/LastValueQuant/FakeQuantWithMinMaxVarsPerChannel i1 [64, 3, 3, 48]
00000000: d5b3 2932 0a36 d331 b803 56bf ef51 a040
00000010: b506 5e2b aed6 2397 2a02 c7d4 b45b abde
00000020: cbae 6756 5138 b7a4 a6b8 13bb 3035 abdc
00000030: 3abf 14cf fa48 f2b8 43f8 bf9e a455 b02a
00000040: aacf f0d8 fff8 6805 f049 2ede a8ed 057a
00000050: 0a45 57f1 acfd fec4 17bd feb0 1c06 5140
00000060: 42bc b41e b51a 19c4 a5f9 1b12 f345 4c27
00000070: 4d15 7224 1bab c1f1 ad15 4822 1726 fec6
00000080: 58e6 e8a8 a41e b919 5c19 5ded 98fc 15b7
00000090: 3547 a1a1 575d 5f37 d643 c0af f82b 13ca
000000a0: 1110 0f08 a633 dcea 2c18 6320 a0db ffd7
000000b0: 2b05 ddc2 6421 250b e434 6eef b6c3 f512
000000c0: 09d4 f4d8 5b9d bbed edff 06ad b225 a8e7
000000d0: ece0 f428 ab33 2222 eeb8 e81e 5efe f0ab
000000e0: a24a 1f34 102d d3a2 3818 054a dc1f 3652
000000f0: 1062 2ee7 20b2 1c44 572e de39 cba7 1e27
-43 -77 41 50 10 54 -45 49
-72 3 86 -65 -17 81 -96 64
-75 6 94 43 -82 -42 35 -105
42 2 -57 -44 -76 91 -85 -34
-53 -82 103 86 81 56 -73 -92
-90 -72 19 -69 48 53 -85 -36
58 -65 20 -49 -6 72 -14 -72
67 -8 -65 -98 -92 85 -80 42
-86 -49 -16 -40 -1 -8 104 5
-16 73 46 -34 -88 -19 5 122
10 69 87 -15 -84 -3 -2 -60
23 -67 -2 -80 28 6 81 64
66 -68 -76 30 -75 26 25 -60
-91 -7 27 18 -13 69 76 39
77 21 114 36 27 -85 -63 -15
-83 21 72 34 23 38 -2 -58
88 -26 -24 -88 -92 30 -71 25
92 25 93 -19 -104 -4 21 -73
53 71 -95 -95 87 93 95 55
-42 67 -64 -81 -8 43 19 -54
17 16 15 8 -90 51 -36 -22
44 24 99 32 -96 -37 -1 -41
43 5 -35 -62 100 33 37 11
-28 52 110 -17 -74 -61 -11 18
9 -44 -12 -40 91 -99 -69 -19
-19 -1 6 -83 -78 37 -88 -25
-20 -32 -12 40 -85 51 34 34
-18 -72 -24 30 94 -2 -16 -85
-94 74 31 52 16 45 -45 -94
56 24 5 74 -36 31 54 82
16 98 46 -25 32 -78 28 68
87 46 -34 57 -53 -89 30 39

sequential_2/quant_conv2d_14/Conv2D;sequential_2/quant_conv2d_14/LastValueQuant/FakeQuantWithMinMaxVarsPerChannel i1 [64, 3, 3, 64]
00000000: 5707 9c07 f5a0 cfbb 9bc6 0311 daf6 3be9
00000010: 5597 3315 55f5 15ee 3913 44b5 189b 176a
00000020: 0741 abf5 db98 474f ba15 3517 5807 2e62
00000030: c160 98c8 ecfe c449 4a0c 1b23 163c 3a39
00000040: cc93 4eb6 6b00 d32b 5f9f 5b48 c810 90b9
00000050: 6308 3b39 d731 f9c6 39c1 0d06 3457 52a2
00000060: e355 e185 2c57 edba d89a af0e 47d5 bb5c
00000070: e911 c775 1292 1ecf 23f7 af62 04ea 7467
00000080: 2038 6420 6197 2040 cba3 03f6 af4a cf47
00000090: a661 94ac 3dcc eea5 0a66 185e 1a12 d1c6
000000a0: 55ee bbe4 b139 8b65 404d 05c6 b460 e843
000000b0: 3bee b39d 1477 a9d3 0047 38e2 e2c6 4ca4
000000c0: 459d 6681 acea ecf6 2d43 0f19 a3f7 f469
000000d0: e6aa 942c 2f2e fcd0 34a4 b719 bf1e 2d0b
000000e0: 13d3 fffc 48db d6a7 0149 f36f df99 430e
000000f0: 050b 0b98 26f6 ac3f be21 4a32 6260 65bd
87 7 -100 7 -11 -96 -49 -69
-101 -58 3 17 -38 -10 59 -23
85 -105 51 21 85 -11 21 -18
57 19 68 -75 24 -101 23 106
7 65 -85 -11 -37 -104 71 79
-70 21 53 23 88 7 46 98
-63 96 -104 -56 -20 -2 -60 73
74 12 27 35 22 60 58 57
-52 -109 78 -74 107 0 -45 43
95 -97 91 72 -56 16 -112 -71
99 8 59 57 -41 49 -7 -58
57 -63 13 6 52 87 82 -94
-29 85 -31 -123 44 87 -19 -70
-40 -102 -81 14 71 -43 -69 92
-23 17 -57 117 18 -110 30 -49
35 -9 -81 98 4 -22 116 103
32 56 100 32 97 -105 32 64
-53 -93 3 -10 -81 74 -49 71
-90 97 -108 -84 61 -52 -18 -91
10 102 24 94 26 18 -47 -58
85 -18 -69 -28 -79 57 -117 101
64 77 5 -58 -76 96 -24 67
59 -18 -77 -99 20 119 -87 -45
0 71 56 -30 -30 -58 76 -92
69 -99 102 -127 -84 -22 -20 -10
45 67 15 25 -93 -9 -12 105
-26 -86 -108 44 47 46 -4 -48
52 -92 -73 25 -65 30 45 11
19 -45 -1 -4 72 -37 -42 -89
1 73 -13 111 -33 -103 67 14
5 11 11 -104 38 -10 -84 63
-66 33 74 50 98 96 101 -67

sequential_2/quant_dense_6/MatMul;sequential_2/quant_dense_6/LastValueQuant/FakeQuantWithMinMaxVars i1 [100, 832] scale=0.0010103685 zero_point=0
00000000: 09a6 021f e1d9 0341 02fc e250 4c22 e2cb
00000010: f04e e620 281e e0d2 4cf5 ca29 19dd 022c
00000020: e6e9 0e27 ca12 4e23 cd37 e01a bd36 0ebe
00000030: 1d15 1216 fbc8 130a b849 1f08 e7cd f5b0
00000040: 31be 19ad db11 28b6 f520 cff2 b219 e323
00000050: 41da 01d4 f6f9 60a8 c425 fddf 45f6 e645
00000060: 3f23 cde5 b70e f9ce 0932 19d9 d5ae eeaa
00000070: 18b4 adda b73f 41cf 13cf 2fd0 ccce cf3e
00000080: 2825 fbc5 fe0f 1d1e d1e4 e20b ffb9 ff3d
00000090: 35c4 e2b8 e9c0 c9f2 0cff edd3 3200 13c6
000000a0: 322f 042d bdb7 030f 09c3 da27 dfaa eccc
000000b0: b6c1 ccdc 1c23 b9ce c7bf c3dc dcc7 d214
000000c0: 1ff7 d00f 32c2 abad 46db ecee 2528 1fd5
000000d0: 2ae3 dbb2 e4ac 3e2d 48b7 cc31 fdb0 17cc
000000e0: 4827 4823 fe1f c9ff c6c5 d6f4 f3d1 e40e
000000f0: 2946 2ee7 2bd8 baf8 16cc e71b 39b7 3b33
0.009093316 -0.09093316 0.002020737 0.03132142 -0.03132142 -0.03940437 0.0030311053 0.06567395
0.002020737 -0.004041474 -0.030311054 0.08082948 0.076788 0.034352526 -0.030311054 -0.053549528
-0.016165895 0.07880874 -0.02626958 0.03233179 0.04041474 0.030311054 -0.03233179 -0.04647695
0.076788 -0.011114053 -0.054559898 0.041425105 0.025259212 -0.035362896 0.002020737 0.044456214
-0.02626958 -0.023238475 0.014145158 0.03940437 -0.054559898 0.018186633 0.07880874 0.035362896
-0.051528793 0.055570267 -0.03233179 0.02626958 -0.06769469 0.054559898 0.014145158 -0.06668432
0.029300686 0.021217737 0.018186633 0.022228107 -0.0050518424 -0.056580633 0.019197 0.010103685
-0.07274653 0.073756896 0.03132142 0.008082948 -0.025259212 -0.051528793 -0.011114053 -0.08082948
0.049508054 -0.06668432 0.025259212 -0.08386058 -0.037383635 0.017176263 0.04041474 -0.07476727
-0.011114053 0.03233179 -0.049508054 -0.014145158 -0.07880874 0.025259212 -0.029300686 0.035362896
0.06567395 -0.038394 0.0010103685 -0.044456214 -0.010103685 -0.007072579 0.09699537 -0.08891243
-0.060622107 0.037383635 -0.0030311053 -0.03334216 0.069715425 -0.010103685 -0.02626958 0.069715425
0.063653216 0.035362896 -0.051528793 -0.027279949 -0.073756896 0.014145158 -0.007072579 -0.050518423
0.009093316 0.050518423 0.025259212 -0.03940437 -0.043445844 -0.08285021 -0.018186633 -0.08689169
0.024248842 -0.076788 -0.08386058 -0.038394 -0.073756896 0.063653216 0.06567395 -0.049508054
0.019197 -0.049508054 0.04748732 -0.048497684 -0.05253916 -0.050518423 -0.049508054 0.06264284
0.04041474 0.037383635 -0.0050518424 -0.059611738 -0.002020737 0.015155527 0.029300686 0.030311054
-0.04748732 -0.028290316 -0.030311054 0.011114053 -0.0010103685 -0.071736164 -0.0010103685 0.061632477
0.053549528 -0.060622107 -0.030311054 -0.07274653 -0.023238475 -0.06466358 -0.055570267 -0.014145158
0.012124421 -0.0010103685 -0.019197 -0.04546658 0.050518423 0.0 0.019197 -0.058601372
0.050518423 0.04748732 0.004041474 0.04546658 -0.06769469 -0.073756896 0.0030311053 0.015155527
0.009093316 -0.061632477 -0.038394 0.03940437 -0.03334216 -0.08689169 -0.02020737 -0.05253916
-0.07476727 -0.063653216 -0.05253916 -0.036373265 0.028290316 0.035362896 -0.071736164 -0.050518423
-0.057591002 -0.06567395 -0.061632477 -0.036373265 -0.036373265 -0.057591002 -0.04647695 0.02020737
0.03132142 -0.009093316 -0.048497684 0.015155527 0.050518423 -0.06264284 -0.08588132 -0.08386058
0.07072579 -0.037383635 -0.02020737 -0.018186633 0.037383635 0.04041474 0.03132142 -0.043445844
0.042435475 -0.029300686 -0.037383635 -0.07880874 -0.028290316 -0.08487095 0.06264284 0.04546658
0.07274653 -0.073756896 -0.05253916 0.049508054 -0.0030311053 -0.08082948 0.023238475 -0.05253916
0.07274653 0.03940437 0.07274653 0.035362896 -0.002020737 0.03132142 -0.055570267 -0.0010103685
-0.058601372 -0.059611738 -0.042435475 -0.012124421 -0.01313479 -0.04748732 -0.028290316 0.014145158
0.041425105 0.07072579 0.04647695 -0.025259212 0.043445844 -0.04041474 -0.07072579 -0.008082948
0.022228107 -0.05253916 -0.025259212 0.027279949 0.057591002 -0.073756896 0.059611738 0.051528793

sequential_2/quant_dense_7/MatMul;sequential_2/quant_dense_7/LastValueQuant/FakeQuantWithMinMaxVars i1 [50, 100] scale=0.0017502473 zero_point=0
00000000: c6f1 f2ff 64f6 54bf 30ea ea54 e1fe 29d9
00000010: f0f5 1de7 4b47 3f0d b3e4 09de dfe0 e1a2
00000020: 53a5 27f1 04d7 af26 5c4f 5f96 119d ba4f
00000030: e50a 3326 e46c ebfa 53fa 672b 342e ae3a
00000040: 3b4e 5c97 f533 23dc 4e69 6d52 fcae 91b7
00000050: 6f1d 5a55 6b8f ba05 f930 44ac a992 112d
00000060: 0715 d193 d3e7 dc3d e204 e64d d5f5 4457
00000070: 491d 618f f748 b073 c023 fdf9 0f33 39b2
00000080: 13e4 c22d 18ba 9831 1afd 8ee3 f6fe 3333
00000090: c5a1 13a6 e3d6 16ef eb44 3241 1c33 9296
000000a0: c3fd 3805 39e8 25f2 6fa8 e867 ed59 fa6c
000000b0: 364d 95d3 def5 fdbc 38c8 c10f 5fdb 4eff
000000c0: 0164 9df6 e59a 4293 014a 1c1f ff30 1862
000000d0: c269 2f01 4356 3dd1 b460 c84c 07a0 f9d8
000000e0: 9ae4 7199 b966 b143 e52b 1bd2 d81d e8cc
000000f0: 51e2 0ab8 fba2 5c14 0440 48d6 0db8 0a07
-0.10151435 -0.02625371 -0.024503462 -0.0017502473 0.17502473 -0.017502474 0.14702077 -0.113766074
0.08401187 -0.038505442 -0.038505442 0.14702077 -0.05425767 -0.0035004946 0.07176014 -0.06825965
-0.028003957 -0.019252721 0.050757173 -0.043756183 0.13126855 0.12426756 0.11026558 0.022753214
-0.13476904 -0.049006924 0.015752226 -0.05950841 -0.05775816 -0.056007914 -0.05425767 -0.16452324
0.14527053 -0.1592725 0.06825965 -0.02625371 0.0070009893 -0.07176014 -0.14177004 0.066509396
0.16102275 0.13826954 0.16627349 -0.18552622 0.029754205 -0.17327449 -0.12251731 0.13826954
-0.04725668 0.017502474 0.08926261 0.066509396 -0.049006924 0.18902671 -0.036755193 -0.010501483
0.14527053 -0.010501483 0.18027547 0.07526063 0.09101286 0.080511376 -0.14352028 0.10151435
0.10326459 0.1365193 0.16102275 -0.18377596 -0.019252721 0.08926261 0.061258655 -0.063008904
0.1365193 0.18377596 0.19077696 0.14352028 -0.0070009893 -0.14352028 -0.19427745 -0.12776805
0.19427745 0.050757173 0.15752226 0.14877102 0.18727647 -0.19777794 -0.12251731 0.008751237
-0.012251731 0.08401187 0.11901682 -0.14702077 -0.15227152 -0.1925272 0.029754205 0.07876113
0.012251731 0.036755193 -0.08226162 -0.19077696 -0.07876113 -0.043756183 -0.063008904 0.106765084
-0.05250742 0.0070009893 -0.04550643 0.13476904 -0.07526063 -0.019252721 0.11901682 0.15227152
0.12776805 0.050757173 0.169774 -0.19777794 -0.015752226 0.12601781 -0.14001979 0.20127845
-0.11201583 0.061258655 -0.0052507417 -0.012251731 0.02625371 0.08926261 0.099764094 -0.1365193
0.033254698 -0.049006924 -0.10851534 0.07876113 0.042005934 -0.12251731 -0.18202572 0.08576212
0.04550643 -0.0052507417 -0.19952819 -0.050757173 -0.017502474 -0.0035004946 0.08926261 0.08926261
-0.10326459 -0.16627349 0.033254698 -0.15752226 -0.050757173 -0.073510386 0.038505442 -0.029754205
-0.036755193 0.11901682 0.08751237 0.113766074 0.049006924 0.08926261 -0.1925272 -0.18552622
-0.106765084 -0.0052507417 0.09801385 0.008751237 0.099764094 -0.042005934 0.06475915 -0.024503462
0.19427745 -0.15402177 -0.042005934 0.18027547 -0.033254698 0.15577202 -0.010501483 0.18902671
0.09451336 0.13476904 -0.18727647 -0.07876113 -0.05950841 -0.019252721 -0.0052507417 -0.11901682
0.09801385 -0.09801385 -0.11026558 0.02625371 0.16627349 -0.06475915 0.1365193 -0.0017502473
0.0017502473 0.17502473 -0.17327449 -0.017502474 -0.04725668 -0.17852522 0.11551632 -0.19077696
0.0017502473 0.1295183 0.049006924 0.05425767 -0.0017502473 0.08401187 0.042005934 0.17152424
-0.10851534 0.18377596 0.08226162 0.0017502473 0.11726657 0.15052126 0.106765084 -0.08226162
-0.13301879 0.16802374 -0.09801385 0.13301879 0.012251731 -0.16802374 -0.012251731 -0.070009895
-0.17852522 -0.049006924 0.19777794 -0.18027547 -0.12426756 0.17852522 -0.13826954 0.11726657
-0.04725668 0.07526063 0.04725668 -0.080511376 -0.070009895 0.050757173 -0.042005934 -0.09101286
0.14177004 -0.05250742 0.017502474 -0.12601781 -0.008751237 -0.16452324 0.16102275 0.035004947
0.0070009893 0.11201583 0.12601781 -0.073510386 0.022753214 -0.12601781 0.017502474 0.012251731

sequential_2/quant_dense_8/MatMul;sequential_2/quant_dense_8/LastValueQuant/FakeQuantWithMinMaxVars i1 [10, 50] scale=0.002532942 zero_point=0
00000000: 6fcb e520 a177 0eb5 08b6 3897 cfcd 2562
00000010: 59ed 3b6b 9921 58cb 712b 3ab8 2955 892d
00000020: 660c 03c9 a85a 3fca 9e59 4aff b46c 1abf
00000030: 97d5 6ccd 2a2d d414 3f83 2a9f f95c 54c2
00000040: 279f 8f46 d70c 5348 d656 53a6 e073 5967
00000050: 08a7 11bf 67a8 9156 a65f 00fb 9c59 fee1
00000060: f5c5 abc3 5928 d534 eeae 080e 09d6 8fcc
00000070: 1113 1c29 7303 a144 cbce d141 d5a6 4a2f
00000080: 0c83 ad12 b46b 1666 df3c 9fd1 ca3d 4cfb
00000090: cffc 98c1 824a a7be ce2a 2a89 e71f 0e23
000000a0: 3712 a56b 397d e7e1 a70d 3416 b3ec 01e8
000000b0: 0244 bf3c 9f4d 8213 efe1 4fb4 5e27 4333
000000c0: e54c 8514 445a 37b4 225f be0a 1a9c 300b
000000d0: 000e 7ddc e112 eb9e c407 d6b9 9348 8f0f
000000e0: 6e98 2441 d707 8baa 05e4 ee31 d373 dfaa
000000f0: 5c13 56b4 5c76 e8f4 5063 c0f4 6bf9 c0db
0.28115657 -0.13424593 -0.06838943 0.08105414 -0.2406295 0.3014201 0.035461187 -0.18997064
0.020263536 -0.18743771 0.14184475 -0.2659589 -0.124114156 -0.12918004 0.09371886 0.24822831
0.22543183 -0.048125897 0.14944358 0.2710248 -0.26089302 0.08358709 0.2228989 -0.13424593
0.28622246 0.108916506 0.14691064 -0.18237182 0.10385062 0.21530007 -0.3014201 0.11398239
0.2583601 0.030395303 0.0075988257 -0.1393118 -0.2228989 0.22796477 0.15957534 -0.13677886
-0.24822831 0.22543183 0.18743771 -0.002532942 -0.19250359 0.27355772 0.065856494 -0.16464123
-0.2659589 -0.108916506 0.27355772 -0.12918004 0.10638356 0.11398239 -0.11144945 0.05065884
0.15957534 -0.31661776 0.10638356 -0.24569537 -0.017730594 0.23303066 0.21276712 -0.1570424
0.09878474 -0.24569537 -0.28622246 0.17730594 -0.10385062 0.030395303 0.21023418 0.18237182
-0.10638356 0.21783301 0.21023418 -0.22796477 -0.08105414 0.29128832 0.22543183 0.26089302
0.020263536 -0.22543183 0.043060012 -0.16464123 0.26089302 -0.2228989 -0.28115657 0.21783301
-0.22796477 0.2406295 0.0 -0.01266471 -0.2532942 0.22543183 -0.005065884 -0.0785212
-0.027862363 -0.14944358 -0.21530007 -0.15450945 0.22543183 0.10131768 -0.108916506 0.13171299
-0.045592956 -0.20770124 0.020263536 0.035461187 0.022796478 -0.10638356 -0.28622246 -0.13171299
0.043060012 0.048125897 0.070922375 0.10385062 0.29128832 0.0075988257 -0.2406295 0.17224005
-0.13424593 -0.1266471 -0.119048275 0.16464123 -0.108916506 -0.22796477 0.18743771 0.119048275
0.030395303 -0.31661776 -0.21023418 0.045592956 -0.19250359 0.2710248 0.055724725 0.2583601
-0.08358709 0.15197653 -0.24569537 -0.119048275 -0.13677886 0.15450945 0.19250359 -0.01266471
-0.124114156 -0.010131768 -0.26342598 -0.15957534 -0.3191507 0.18743771 -0.22543183 -0.16717418
-0.1266471 0.10638356 0.10638356 -0.3014201 -0.06332355 0.0785212 0.035461187 0.08865297
0.1393118 0.045592956 -0.23049772 0.2710248 0.1443777 0.31661776 -0.06332355 -0.0785212
-0.22543183 0.032928247 0.13171299 0.055724725 -0.19503653 -0.05065884 0.002532942 -0.060790606
0.005065884 0.17224005 -0.16464123 0.15197653 -0.24569537 0.19503653 -0.3191507 0.048125897
-0.043060012 -0.0785212 0.20010242 -0.19250359 0.23809655 0.09878474 0.16970712 0.12918004
-0.06838943 0.19250359 -0.31155187 0.05065884 0.17224005 0.22796477 0.1393118 -0.19250359
0.086120024 0.2406295 -0.16717418 0.02532942 0.065856494 -0.2532942 0.12158121 0.027862363
0.0 0.035461187 0.31661776 -0.09118591 -0.0785212 0.045592956 -0.05319178 -0.24822831
-0.15197653 0.017730594 -0.10638356 -0.17983888 -0.27609068 0.18237182 -0.28622246 0.03799413
0.2786236 -0.26342598 0.09118591 0.16464123 -0.10385062 0.017730594 -0.2963542 -0.21783301
0.01266471 -0.070922375 -0.045592956 0.124114156 -0.11398239 0.29128832 -0.08358709 -0.21783301
0.23303066 0.048125897 0.21783301 -0.19250359 0.23303066 0.29888716 -0.060790606 -0.030395303
0.20263536 0.25076127 -0.16210829 -0.030395303 0.2710248 -0.017730594 -0.16210829 -0.09371886

sequential_2/quant_output/MatMul;sequential_2/quant_output/LastValueQuant/FakeQuantWithMinMaxVars i1 [1, 10] scale=0.0057621263 zero_point=0
00000000: f16f 54b0 3bcb 7f4d 8a05
-0.08643189 0.63959605 0.48401862 -0.4609701 0.33996546 -0.30539268 0.73179007 0.4436837
-0.6799309 0.028810631
