models/opt-160x66x3.tflite (tflite, 234512 bytes, 9 tensors)

sequential/quant_conv2d/Conv2D;sequential/quant_conv2d/LastValueQuant/FakeQuantWithMinMaxVarsPerChannel i1 [24, 5, 5, 3]
000000 d3 2e 5e f7 3a 43 d0 33 0b 23 e9 f6 2d 09 5a 62
       -45 46 94 -9 58 67 -48 51 11 35 -23 -10 45 9 90 98
000010 f0 3e b3 c5 29 4e 14 00 e8 6a 50 df ec 6d 45 f6
       -16 62 -77 -59 41 78 20 0 -24 106 80 -33 -20 109 69 -10
000020 5e 0a 2a 09 5d 63 7f 05 39 57 b9 11 d2 c3 3f 47
       94 10 42 9 93 99 127 5 57 87 -71 17 -46 -61 63 71
000030 4e 71 6a 69 e8 0b f9 14 d3 f4 eb 61 2c 00 78 f0
       78 113 106 105 -24 11 -7 20 -45 -12 -21 97 44 0 120 -16
000040 e8 49 56 45 60 bb 2f 68 ee fc 22 64 31 03 db 44
       -24 73 86 69 96 -69 47 104 -18 -4 34 100 49 3 -37 68
000050 a8 5c e2 ec 3b de 52 cc 1f 62 a2 e1 a0 ce 13 44
       -88 92 -30 -20 59 -34 82 -52 31 98 -94 -31 -96 -50 19 68
000060 bc 96 4c c0 0d e0 78 16 c1 62 0b 27 ca 23 97 60
       -68 -106 76 -64 13 -32 120 22 -63 98 11 39 -54 35 -105 96
000070 16 0e 54 d1 b1 70 bd 92 cc 02 c6 f6 a1 a4 65 44
       22 14 84 -47 -79 112 -67 -110 -52 2 -58 -10 -95 -92 101 68
000080 c2 48 af 2b 54 be 26 bd b5 38 5d 03 69 2a 70 1f
       -62 72 -81 43 84 -66 38 -67 -75 56 93 3 105 42 112 31
000090 1f 3e 54 7f 0a c9 41 28 9e 5e ae a8 d7 17 a8 57
       31 62 84 127 10 -55 65 40 -98 94 -82 -88 -41 23 -88 87
0000a0 77 08 cd c3 3e 2d 47 09 0f 3d 90 0a 10 90 c6 ea
       119 8 -51 -61 62 45 71 9 15 61 -112 10 16 -112 -58 -22
0000b0 92 81 00 b0 4a 53 fc 49 b7 4a 36 21 a8 bd 9f 0c
       -110 -127 0 -80 74 83 -4 73 -73 74 54 33 -88 -67 -97 12
0000c0 2e ef 08 61 a6 4a 46 c3 60 fb af 66 ac c4 ef 60
       46 -17 8 97 -90 74 70 -61 96 -5 -81 102 -84 -60 -17 96
0000d0 2a 36 df d8 d5 53 89 09 58 ec cf 43 51 96 dd 88
       42 54 -33 -40 -43 83 -119 9 88 -20 -49 67 81 -106 -35 -120
0000e0 6d 47 97 da a9 82 9b ff 03 d2 b1 df 4b c2 9f 55
       109 71 -105 -38 -87 -126 -101 -1 3 -46 -79 -33 75 -62 -97 85
0000f0 fc b0 d9 a1 6a f3 8b f3 12 bc 61 2e 0a 57 42 bc
       -4 -80 -39 -95 106 -13 -117 -13 18 -68 97 46 10 87 66 -68

sequential/quant_conv2d_1/Conv2D;sequential/quant_conv2d_1/LastValueQuant/FakeQuantWithMinMaxVarsPerChannel i1 [36, 5, 5, 24]
000000 b6 95 c2 bf be fd 1a 9a b5 2d e2 3f 64 00 5b 73
       -74 -107 -62 -65 -66 -3 26 -102 -75 45 -30 63 100 0 91 115
000010 d7 1b 38 b3 97 30 64 09 61 ca 51 9a dd cc 6d 48
       -41 27 56 -77 -105 48 100 9 97 -54 81 -102 -35 -52 109 72
000020 bd 19 60 07 c4 83 c0 92 f5 11 e9 c0 f5 fd 2d f5
       -67 25 96 7 -60 -125 -64 -110 -11 17 -23 -64 -11 -3 45 -11
000030 46 e1 02 29 67 15 ad 0b b0 56 2d cc 5b ea d9 e1
       70 -31 2 41 103 21 -83 11 -80 86 45 -52 91 -22 -39 -31
000040 ac 36 23 af f7 dc 35 3b 9f 89 93 4c f7 0e 63 24
       -84 54 35 -81 -9 -36 53 59 -97 -119 -109 76 -9 14 99 36
000050 39 05 28 36 4b 19 cf a1 d4 b9 96 b2 37 81 93 ad
       57 5 40 54 75 25 -49 -95 -44 -71 -106 -78 55 -127 -109 -83
000060 36 34 22 1c 32 ca 45 bc 92 ce a3 0f f9 89 09 6c
       54 52 34 28 50 -54 69 -68 -110 -50 -93 15 -7 -119 9 108
000070 ac db c3 3c 8c a3 a7 ae 08 39 03 ab c2 6e 9d 20
       -84 -37 -61 60 -116 -93 -89 -82 8 57 3 -85 -62 110 -99 32
000080 a5 df 6b 9e fd 17 c8 b4 bc 44 01 00 da 2f f4 65
       -91 -33 107 -98 -3 23 -56 -76 -68 68 1 0 -38 47 -12 101
000090 de ca b2 39 9f fa bf 45 d4 34 a0 af dd 31 0d c8
       -34 -54 -78 57 -97 -6 -65 69 -44 52 -96 -81 -35 49 13 -56
0000a0 4d ee 55 44 17 e0 e3 ef b7 11 99 c1 bf 45 40 ed
       77 -18 85 68 23 -32 -29 -17 -73 17 -103 -63 -65 69 64 -19
0000b0 43 ce 67 be 71 04 a8 34 66 d3 8e ce c8 e5 97 6c
       67 -50 103 -66 113 4 -88 52 102 -45 -114 -50 -56 -27 -105 108
0000c0 05 0b 4f 0b 51 c8 94 11 33 74 27 fb b6 44 9b aa
       5 11 79 11 81 -56 -108 17 51 116 39 -5 -74 68 -101 -86
0000d0 fa 4e a4 aa 38 37 fb 37 12 4a 89 37 82 1e 20 2f
       -6 78 -92 -86 56 55 -5 55 18 74 -119 55 -126 30 32 47
0000e0 d3 c8 ea f9 5b eb 31 0d ec a0 cd e0 3f e3 05 45
       -45 -56 -22 -7 91 -21 49 13 -20 -96 -51 -32 63 -29 5 69
0000f0 23 47 cd e9 6f f2 cc 17 0e 6e bc 40 2b c5 3a ea
       35 71 -51 -23 111 -14 -52 23 14 110 -68 64 43 -59 58 -22

sequential/quant_conv2d_2/Conv2D;sequential/quant_conv2d_2/LastValueQuant/FakeQuantWithMinMaxVarsPerChannel i1 [48, 5, 5, 36]
000000 f3 47 1d 4c 4f bf e6 f6 15 cb ed 3e 2d 4c a6 fe
       -13 71 29 76 79 -65 -26 -10 21 -53 -19 62 45 76 -90 -2
000010 05 fe 0b 44 1b fb 46 12 3d 0a cf f9 d6 ee cd 1a
       5 -2 11 68 27 -5 70 18 61 10 -49 -7 -42 -18 -51 26
000020 b3 38 b8 cd 34 cf 53 40 1a f5 f1 e3 3c da 1a 38
       -77 56 -72 -51 52 -49 83 64 26 -11 -15 -29 60 -38 26 56
000030 ef fc a7 45 5b 0a c9 04 1f 16 21 45 c3 0f d5 de
       -17 -4 -89 69 91 10 -55 4 31 22 33 69 -61 15 -43 -34
000040 53 a1 c8 26 0f 3f 23 d4 42 14 c2 d7 eb ac e6 42
       83 -95 -56 38 15 63 35 -44 66 20 -62 -41 -21 -84 -26 66
000050 1f e9 e8 be bf b4 f5 a8 c4 f5 c3 d4 15 9f 24 bc
       31 -23 -24 -66 -65 -76 -11 -88 -60 -11 -61 -44 21 -97 36 -68
000060 c8 01 d4 da 2d 32 4b cf 37 13 29 ed 37 39 06 59
       -56 1 -44 -38 45 50 75 -49 55 19 41 -19 55 57 6 89
000070 da 18 d0 3c ed bb fe 16 fb bc f9 da 0f 3f d2 05
       -38 24 -48 60 -19 -69 -2 22 -5 -68 -7 -38 15 63 -46 5
000080 c5 08 19 49 c6 08 f7 05 bd 06 17 4b e7 3e 22 c6
       -59 8 25 73 -58 8 -9 5 -67 6 23 75 -25 62 34 -58
000090 d5 24 cd 0a 00 de 46 42 30 39 cc c9 00 bf 12 4a
       -43 36 -51 10 0 -34 70 66 48 57 -52 -55 0 -65 18 74
0000a0 3b cc 47 da 9f 38 fb ff 07 fe 59 10 4e 0e e7 f0
       59 -52 71 -38 -97 56 -5 -1 7 -2 89 16 78 14 -25 -16
0000b0 24 f0 c5 0b dd 33 ae ae 37 3b d0 28 1d e2 38 b9
       36 -16 -59 11 -35 51 -82 -82 55 59 -48 40 29 -30 56 -71
0000c0 0b 37 26 fd ed 27 4e f5 ce ec c0 e7 28 f8 d7 12
       11 55 38 -3 -19 39 78 -11 -50 -20 -64 -25 40 -8 -41 18
0000d0 d3 47 4b 41 c1 ae 30 ec bb b1 0e 09 fd 1a 36 e8
       -45 71 75 65 -63 -82 48 -20 -69 -79 14 9 -3 26 54 -24
0000e0 3d df ee 29 3d 35 44 e3 fc a6 c6 b2 d4 29 c6 b4
       61 -33 -18 41 61 53 68 -29 -4 -90 -58 -78 -44 41 -58 -76
0000f0 34 bf 37 44 35 cb c0 ff bc c2 1b 1f f1 e9 0b d9
       52 -65 55 68 53 -53 -64 -1 -68 -62 27 31 -15 -23 11 -39

sequential/quant_conv2d_3/Conv2D;sequential/quant_conv2d_3/LastValueQuant/FakeQuantWithMinMaxVarsPerChannel i1 [64, 3, 3, 48]
000000 97 14 29 4c 41 1e 1e 55 c1 f7 e3 53 fe 02 56 9f
       -105 20 41 76 65 30 30 85 -63 -9 -29 83 -2 2 86 -97
000010 b3 23 df 3b b6 d1 cb 26 57 29 c4 68 0d 62 f9 21
       -77 35 -33 59 -74 -47 -53 38 87 41 -60 104 13 98 -7 33
000020 db e1 e2 de 9b b5 af d9 b6 ca 6d 3a 15 a8 9d 44
       -37 -31 -30 -34 -101 -75 -81 -39 -74 -54 109 58 21 -88 -99 68
000030 1c fe e2 6e da a7 56 aa 53 1c c9 e4 d8 e1 c5 3b
       28 -2 -30 110 -38 -89 86 -86 83 28 -55 -28 -40 -31 -59 59
000040 e3 ff cc af dc 19 95 54 d4 97 d2 a5 06 c9 e8 16
       -29 -1 -52 -81 -36 25 -107 84 -44 -105 -46 -91 6 -55 -24 22
000050 4d 40 25 52 f6 b1 d4 ae b5 e3 69 34 e2 0a 4e cc
       77 64 37 82 -10 -79 -44 -82 -75 -29 105 52 -30 10 78 -52
000060 33 ca 4b 01 d2 bc dc dd b1 6a f8 9e 0a e0 b7 31
       51 -54 75 1 -46 -68 -36 -35 -79 106 -8 -98 10 -32 -73 49
000070 12 41 dd 42 fc 1d b0 2c 03 11 46 4f 66 de c9 31
       18 65 -35 66 -4 29 -80 44 3 17 70 79 102 -34 -55 49
000080 53 af 06 44 2b bd 0f ec 5d 3c a8 f1 37 e7 17 9a
       83 -81 6 68 43 -67 15 -20 93 60 -88 -15 55 -25 23 -102
000090 ac 13 f0 7f 61 40 1b c5 04 0e ca bf 56 e7 9c 44
       -84 19 -16 127 97 64 27 -59 4 14 -54 -65 86 -25 -100 68
0000a0 42 29 0a 2d b1 66 22 57 46 29 a5 df 24 5b b0 05
       66 41 10 45 -79 102 34 87 70 41 -91 -33 36 91 -80 5
0000b0 67 ae 64 a5 46 38 69 36 ba e0 21 e9 35 11 50 67
       103 -82 100 -91 70 56 105 54 -70 -32 33 -23 53 17 80 103
0000c0 48 03 c5 39 1b e2 3e f2 18 2a 24 39 39 01 bf 9d
       72 3 -59 57 27 -30 62 -14 24 42 36 57 57 1 -65 -99
0000d0 99 ac 2e a5 55 cc 56 a5 bc e3 22 5b ce cc 7c b3
       -103 -84 46 -91 85 -52 86 -91 -68 -29 34 91 -50 -52 124 -77
0000e0 1d 5f 15 2e 30 d2 61 13 53 38 fe da 44 03 fe 35
       29 95 21 46 48 -46 97 19 83 56 -2 -38 68 3 -2 53
0000f0 ea 66 c1 64 d7 15 e3 3d 04 f2 b7 dc 1d 1c 5b b5
       -22 102 -63 100 -41 21 -29 61 4 -14 -73 -36 29 28 91 -75

sequential/quant_conv2d_4/Conv2D;sequential/quant_conv2d_4/LastValueQuant/FakeQuantWithMinMaxVarsPerChannel i1 [64, 3, 3, 64]
000000 e9 a5 96 07 f3 a5 d9 9f 0e 04 45 55 93 5e aa 27
       -23 -91 -106 7 -13 -91 -39 -97 14 4 69 85 -109 94 -86 39
000010 ab e4 fc 64 fe d0 c3 05 d9 d8 13 5a 2e 4e 01 56
       -85 -28 -4 100 -2 -48 -61 5 -39 -40 19 90 46 78 1 86
000020 29 f0 49 1d 5e b6 d0 20 b2 f5 6c 09 d4 05 4a 99
       41 -16 73 29 94 -74 -48 32 -78 -11 108 9 -44 5 74 -103
000030 f4 b6 b7 a4 39 e2 f5 36 c1 13 20 6d 5d f7 06 94
       -12 -74 -73 -92 57 -30 -11 54 -63 19 32 109 93 -9 6 -108
000040 68 d4 53 18 13 be 19 fa 94 bd 4c 87 ff ca ae a1
       104 -44 83 24 19 -66 25 -6 -108 -67 76 -121 -1 -54 -82 -95
000050 5f c3 ae 3e 02 d7 fa e5 59 19 3a 29 b7 a2 b7 40
       95 -61 -82 62 2 -41 -6 -27 89 25 58 41 -73 -94 -73 64
000060 f5 5c 4a fc a1 39 dc d3 00 4a 0c 42 e8 fe 2e af
       -11 92 74 -4 -95 57 -36 -45 0 74 12 66 -24 -2 46 -81
000070 35 c0 0c 96 5a 4a ef ba ea eb 47 c7 59 e3 33 49
       53 -64 12 -106 90 74 -17 -70 -22 -21 71 -57 89 -29 51 73
000080 6c 50 e4 e2 81 12 64 ea 25 c9 2a da ad a0 da f2
       108 80 -28 -30 -127 18 100 -22 37 -55 42 -38 -83 -96 -38 -14
000090 31 f5 49 d7 9f ee a5 e9 96 0f d9 c4 a0 f1 5d 4e
       49 -11 73 -41 -97 -18 -91 -23 -106 15 -39 -60 -96 -15 93 78
0000a0 8f 52 51 41 b5 b4 28 49 03 9d c5 ab a7 34 00 43
       -113 82 81 65 -75 -76 40 73 3 -99 -59 -85 -89 52 0 67
0000b0 6e e7 fa ff 4f 25 a6 12 a9 a3 b9 bb 38 0f 02 0e
       110 -25 -6 -1 79 37 -90 18 -87 -93 -71 -69 56 15 2 14
0000c0 df 92 f8 f4 f4 fb e3 c3 32 64 21 bd c8 0e db 24
       -33 -110 -8 -12 -12 -5 -29 -61 50 100 33 -67 -56 14 -37 36
0000d0 1a ec f5 5f 2d c9 0f 59 cf b5 ef af bb b6 1d af
       26 -20 -11 95 45 -55 15 89 -49 -75 -17 -81 -69 -74 29 -81
0000e0 06 c2 59 43 a4 0d 4c 56 15 17 a5 33 56 31 4d c0
       6 -62 89 67 -92 13 76 86 21 23 -91 51 86 49 77 -64
0000f0 62 24 c0 e0 40 d5 b9 96 00 e9 9f 08 ee 24 fa 4b
       98 36 -64 -32 64 -43 -71 -106 0 -23 -97 8 -18 36 -6 75

sequential/quant_dense/MatMul;sequential/quant_dense/LastValueQuant/FakeQuantWithMinMaxVars i1 [100, 832] scale=0.0009069978 zero_point=0
000000 20 ea 4e 01 db 40 c1 17 4b 44 f6 e8 ab 24 fe c0
       0.02902393 -0.019953951 0.07074583 0.0009069978 -0.03355892 0.05804786 -0.057140864 0.02086095 0.06802484 0.061675854 -0.009069978 -0.021767948 -0.077094816 0.032651924 -0.0018139957 -0.05804786
000010 b1 c2 e6 c5 ad cf 41 29 a9 01 a5 20 b1 f1 e3 f8
       -0.07165283 -0.056233864 -0.023581944 -0.05351287 -0.07528082 -0.044442892 0.058954857 0.03718691 -0.07890881 0.0009069978 -0.0825368 0.02902393 -0.07165283 -0.013604967 -0.026302937 -0.0072559826
000020 c6 fb 24 e4 af 38 56 e7 4e df 4d c6 44 25 e4 b2
       -0.052605875 -0.004534989 0.032651924 -0.02539594 -0.07346682 0.05079188 0.07800181 -0.022674946 0.07074583 -0.029930929 0.06983883 -0.052605875 0.061675854 0.03355892 -0.02539594 -0.07074583
000030 2c c1 d2 ff 33 dd c1 31 07 50 40 d6 28 2c f2 22
       0.039907902 -0.057140864 -0.0417219 -0.0009069978 0.04625689 -0.031744923 -0.057140864 0.044442892 0.006348985 0.072559826 0.05804786 -0.03809391 0.036279913 0.039907902 -0.01269797 0.030837927
000040 52 f9 38 44 16 d7 2b 3c e5 e2 bf 1d af 05 bd 1d
       0.07437382 -0.006348985 0.05079188 0.061675854 0.019953951 -0.03718691 0.039000906 0.054419868 -0.02448894 -0.027209934 -0.058954857 0.026302937 -0.07346682 0.004534989 -0.060768854 0.026302937
000050 e9 32 ce e1 e8 0f f8 d2 a5 0a c2 cb bf 32 ae ac
       -0.02086095 0.045349892 -0.045349892 -0.028116932 -0.021767948 0.013604967 -0.0072559826 -0.0417219 -0.0825368 0.009069978 -0.056233864 -0.048070885 -0.058954857 0.045349892 -0.07437382 -0.07618782
000060 35 fc 45 50 49 de bd a9 09 e0 cb cb 2e 35 55 2d
       0.048070885 -0.0036279913 0.06258285 0.072559826 0.06621084 -0.030837927 -0.060768854 -0.07890881 0.008162981 -0.02902393 -0.048070885 -0.048070885 0.0417219 0.048070885 0.077094816 0.040814903
000070 3b e3 07 e1 00 00 bf 1a 2d 06 00 06 b2 20 21 bd
       0.05351287 -0.026302937 0.006348985 -0.028116932 0.0 0.0 -0.058954857 0.023581944 0.040814903 0.005441987 0.0 0.005441987 -0.07074583 0.02902393 0.029930929 -0.060768854
000080 0c 3b ba 15 46 35 12 a8 25 f0 12 fd 1e c4 1c 26
       0.010883974 0.05351287 -0.06348985 0.019046955 0.06348985 0.048070885 0.016325962 -0.079815805 0.03355892 -0.014511965 0.016325962 -0.0027209935 0.027209934 -0.054419868 0.02539594 0.034465916
000090 fd d7 ac 1c a7 4e 0f 54 cf d2 fa 2d 3d ac ee 2f
       -0.0027209935 -0.03718691 -0.07618782 0.02539594 -0.08072281 0.07074583 0.013604967 0.07618782 -0.044442892 -0.0417219 -0.005441987 0.040814903 0.055326868 -0.07618782 -0.016325962 0.0426289
0000a0 b1 f3 b2 cd 58 fb 58 fb d3 ec cf f8 e4 f3 c3 c0
       -0.07165283 -0.011790972 -0.07074583 -0.04625689 0.079815805 -0.004534989 0.079815805 -0.004534989 -0.040814903 -0.018139957 -0.044442892 -0.0072559826 -0.02539594 -0.011790972 -0.055326868 -0.05804786
0000b0 4a d0 52 d9 cd ef ca fc f5 ae e6 c5 ad 55 f9 32
       0.06711784 -0.043535896 0.07437382 -0.035372917 -0.04625689 -0.0154189635 -0.04897788 -0.0036279913 -0.009976976 -0.07437382 -0.023581944 -0.05351287 -0.07528082 0.077094816 -0.006348985 0.045349892
0000c0 2b f6 f2 cc b1 30 3f e3 fb f8 0b 1f fb c1 0e d0
       0.039000906 -0.009069978 -0.01269797 -0.04716389 -0.07165283 0.043535896 0.057140864 -0.026302937 -0.004534989 -0.0072559826 0.009976976 0.028116932 -0.004534989 -0.057140864 0.01269797 -0.043535896
0000d0 dc cc 33 a8 d5 ae e2 c7 4c bf f7 2a d2 e1 c6 dd
       -0.032651924 -0.04716389 0.04625689 -0.079815805 -0.039000906 -0.07437382 -0.027209934 -0.051698875 0.06893183 -0.058954857 -0.008162981 0.03809391 -0.0417219 -0.028116932 -0.052605875 -0.031744923
0000e0 b1 18 f6 39 3d 2d ad 21 b7 c1 19 bc 40 c1 0b b3
       -0.07165283 0.021767948 -0.009069978 0.051698875 0.055326868 0.040814903 -0.07528082 0.029930929 -0.06621084 -0.057140864 0.022674946 -0.061675854 0.05804786 -0.057140864 0.009976976 -0.06983883
0000f0 da ec 31 39 23 d0 06 42 2b a9 27 20 46 df f8 27
       -0.034465916 -0.018139957 0.044442892 0.051698875 0.031744923 -0.043535896 0.005441987 0.059861857 0.039000906 -0.07890881 0.035372917 0.02902393 0.06348985 -0.029930929 -0.0072559826 0.035372917

sequential/quant_dense_1/MatMul;sequential/quant_dense_1/LastValueQuant/FakeQuantWithMinMaxVars i1 [50, 100] scale=0.0018849948 zero_point=0
000000 59 07 95 cf a0 59 2a e4 10 a2 f9 96 d9 a5 36 13
       0.16776453 0.013194963 -0.20169444 -0.09236474 -0.1809595 0.16776453 0.07916978 -0.052779853 0.030159917 -0.17718951 -0.013194963 -0.19980945 -0.0735148 -0.17153452 0.10178972 0.0358149
000010 fe 25 27 ea 47 b5 dd d0 34 4a 4b 2a 04 e3 db 1d
       -0.0037699896 0.06974481 0.0735148 -0.041469887 0.13383463 -0.1413746 -0.06597482 -0.09047975 0.09801973 0.13948962 0.1413746 0.07916978 0.007539979 -0.05466485 -0.06974481 0.05466485
000020 20 bd e9 23 05 49 ca 5e a3 de 14 d7 ec 57 22 5f
       0.060319833 -0.12629466 -0.04335488 0.06597482 0.009424974 0.13760462 -0.10178972 0.17718951 -0.17530452 -0.06408982 0.037699897 -0.07728478 -0.037699897 0.16399455 0.06408982 0.17907451
000030 e3 40 0d 47 35 0f 07 61 23 ee 5c 4b 36 ba ab d3
       -0.05466485 0.12063967 0.024504932 0.13383463 0.09990472 0.028274922 0.013194963 0.18284449 0.06597482 -0.033929907 0.17341952 0.1413746 0.10178972 -0.13194963 -0.16022456 -0.08482476
000040 fa ee 47 cb 1a 30 47 38 59 6b a0 b0 4e f8 4d 6a
       -0.011309968 -0.033929907 0.13383463 -0.09990472 0.049009863 0.09047975 0.13383463 0.10555971 0.16776453 0.20169444 -0.1809595 -0.15079959 0.1470296 -0.015079958 0.1451446 0.19980945
000050 f9 d7 a3 1e db c7 1b cf 37 c8 c9 50 31 bc ee 53
       -0.013194963 -0.07728478 -0.17530452 0.056549843 -0.06974481 -0.1074447 0.05089486 -0.09236474 0.10367472 -0.10555971 -0.10367472 0.15079959 0.09236474 -0.12817964 -0.033929907 0.15645456
000060 45 18 59 3a a8 c8 24 13 a3 29 1e 51 38 49 b1 eb
       0.13006464 0.045239873 0.16776453 0.1093297 -0.16587955 -0.10555971 0.06785981 0.0358149 -0.17530452 0.07728478 0.056549843 0.15268458 0.10555971 0.13760462 -0.14891459 -0.03958489
000070 51 da 2f d3 a9 45 ef a9 aa 4e a7 d2 c1 d2 43 b0
       0.15268458 -0.0716298 0.08859476 -0.08482476 -0.16399455 0.13006464 -0.03204491 -0.16399455 -0.16210955 0.1470296 -0.16776453 -0.08670976 -0.11875467 -0.08670976 0.12629466 -0.15079959
000080 ba be b8 3d 71 db da 54 61 5a 68 39 59 13 a6 5c
       -0.13194963 -0.12440965 -0.13571963 0.11498468 0.21300441 -0.06974481 -0.0716298 0.15833956 0.18284449 0.16964953 0.19603945 0.1074447 0.16776453 0.0358149 -0.16964953 0.17341952
000090 aa f6 f0 b5 a2 ba f7 4d 9f 04 4f 33 58 06 35 aa
       -0.16210955 -0.018849948 -0.030159917 -0.1413746 -0.17718951 -0.13194963 -0.016964953 0.1451446 -0.18284449 0.007539979 0.14891459 0.09613474 0.16587955 0.011309968 0.09990472 -0.16210955
0000a0 e2 6c 0e 4c ee d0 b1 30 eb 1c ae 50 4c bf 2b be
       -0.056549843 0.20357944 0.026389927 0.1432596 -0.033929907 -0.09047975 -0.14891459 0.09047975 -0.03958489 0.052779853 -0.15456957 0.15079959 0.1432596 -0.122524664 0.08105478 -0.12440965
0000b0 dd d0 00 ea f6 3d 2e 49 34 de 1c a8 cc 45 14 26
       -0.06597482 -0.09047975 0.0 -0.041469887 -0.018849948 0.11498468 0.08670976 0.13760462 0.09801973 -0.06408982 0.052779853 -0.16587955 -0.09801973 0.13006464 0.037699897 0.0716298
0000c0 e0 21 a0 a2 51 61 d3 0b 14 55 4d 1a a2 c5 df 44
       -0.060319833 0.062204827 -0.1809595 -0.17718951 0.15268458 0.18284449 -0.08482476 0.020734943 0.037699897 0.16022456 0.1451446 0.049009863 -0.17718951 -0.11121469 -0.062204827 0.12817964
0000d0 69 5f fe b5 3a 29 23 50 22 b2 9d a2 25 99 5a 60
       0.19792445 0.17907451 -0.0037699896 -0.1413746 0.1093297 0.07728478 0.06597482 0.15079959 0.06408982 -0.1470296 -0.18661448 -0.17718951 0.06974481 -0.19415447 0.16964953 0.1809595
0000e0 2e 09 1a c4 57 5d 44 4b af c2 23 46 bc 0f 3a 5c
       0.08670976 0.016964953 0.049009863 -0.11309969 0.16399455 0.17530452 0.12817964 0.1413746 -0.15268458 -0.11686968 0.06597482 0.13194963 -0.12817964 0.028274922 0.1093297 0.17341952
0000f0 40 db b0 22 0a ae bc cd 39 e7 08 fb 15 00 fb 60
       0.12063967 -0.06974481 -0.15079959 0.06408982 0.018849948 -0.15456957 -0.12817964 -0.09613474 0.1074447 -0.04712487 0.015079958 -0.009424974 0.03958489 0.0 -0.009424974 0.1809595

sequential/quant_dense_2/MatMul;sequential/quant_dense_2/LastValueQuant/FakeQuantWithMinMaxVars i1 [10, 50] scale=0.0026321383 zero_point=0
000000 bc da cf 98 e8 da 6d af 3d 59 11 73 62 63 5b a1
       -0.1789854 -0.10002126 -0.12897478 -0.27374238 -0.06317132 -0.10002126 0.28690308 -0.2132032 0.16056044 0.2342603 0.04474635 0.3026959 0.25794956 0.2605817 0.23952459 -0.25005314
000010 e1 b5 a6 d1 8f d2 17 59 e5 fd 6a 4e c5 e3 4f 17
       -0.081596285 -0.19741037 -0.23689245 -0.1237105 -0.29743162 -0.121078365 0.060539182 0.2342603 -0.071067736 -0.007896415 0.27900666 0.20530678 -0.15529616 -0.07633201 0.20793892 0.060539182
000020 42 06 93 ec 07 bd dc 4c 70 4f 13 18 10 54 1e 64
       0.17372113 0.01579283 -0.28690308 -0.052642766 0.01842497 -0.17635326 -0.094756976 0.20004252 0.2947995 0.20793892 0.05001063 0.06317132 0.042114213 0.22109962 0.07896415 0.26321384
000030 cb a5 a7 0c c2 21 2d 8b f9 57 3f b7 63 dd fd 22
       -0.13950333 -0.23952459 -0.2342603 0.03158566 -0.16319257 0.08686057 0.11844622 -0.30796018 -0.01842497 0.22899604 0.16582471 -0.1921461 0.2605817 -0.09212484 -0.007896415 0.0894927
000040 3a 76 6d 13 63 14 81 46 50 aa 88 92 98 65 e6 c6
       0.15266402 0.31059232 0.28690308 0.05001063 0.2605817 0.052642766 -0.33428156 0.18424968 0.21057107 -0.2263639 -0.3158566 -0.28953522 -0.27374238 0.26584598 -0.068435594 -0.15266402
000050 a7 c2 ec 72 01 6b 01 6f 07 f6 12 4f f2 eb a5 f9
       -0.2342603 -0.16319257 -0.052642766 0.30006376 0.0026321383 0.2816388 0.0026321383 0.29216737 0.01842497 -0.026321383 0.047378488 0.20793892 -0.03684994 -0.055274904 -0.23952459 -0.01842497
000060 af 33 6d f3 65 0d 34 76 0e 8e 8b 18 9a dc b0 f8
       -0.2132032 0.13423905 0.28690308 -0.034217797 0.26584598 0.034217797 0.13687119 0.31059232 0.03684994 -0.30006376 -0.30796018 0.06317132 -0.2684781 -0.094756976 -0.21057107 -0.021057107
000070 14 36 d6 1f b3 30 20 a7 fa b5 40 88 46 17 af 28
       0.052642766 0.14213547 -0.11054981 0.081596285 -0.20267466 0.12634264 0.084228426 -0.2342603 -0.01579283 -0.19741037 0.16845685 -0.3158566 0.18424968 0.060539182 -0.2132032 0.10528553
000080 51 6e 74 0e a8 f9 94 e1 63 cf cd 8d 37 b2 63 1f
       0.2132032 0.28953522 0.30532804 0.03684994 -0.23162818 -0.01842497 -0.28427094 -0.081596285 0.2605817 -0.12897478 -0.13423905 -0.3026959 0.14476761 -0.20530678 0.2605817 0.081596285
000090 c0 98 4d 2d 29 ce 1d 30 6a 9d 24 d6 04 3b b9 4c
       -0.16845685 -0.27374238 0.20267466 0.11844622 0.107917674 -0.13160692 0.07633201 0.12634264 0.27900666 -0.2605817 0.094756976 -0.11054981 0.010528553 0.15529616 -0.18688183 0.20004252
0000a0 89 76 6c b7 17 57 6d 69 d0 2f 05 c5 2a f2 d9 c8
       -0.31322446 0.31059232 0.28427094 -0.1921461 0.060539182 0.22899604 0.28690308 0.27637452 -0.12634264 0.1237105 0.013160692 -0.15529616 0.11054981 -0.03684994 -0.10265339 -0.14739975
0000b0 4c c6 03 af e1 95 6c dc ef 13 77 3d a7 1e f7 f2
       0.20004252 -0.15266402 0.007896415 -0.2132032 -0.081596285 -0.2816388 0.28427094 -0.094756976 -0.04474635 0.05001063 0.31322446 0.16056044 -0.2342603 0.07896415 -0.023689244 -0.03684994
0000c0 10 b7 25 32 a4 01 cc c1 0c 8f 30 5f ef 07 b6 8f
       0.042114213 -0.1921461 0.09738912 0.13160692 -0.24215673 0.0026321383 -0.13687119 -0.16582471 0.03158566 -0.29743162 0.12634264 0.25005314 -0.04474635 0.01842497 -0.19477823 -0.29743162
0000d0 66 18 da 20 ff 8c 04 97 53 19 08 64 4b 21 95 d7
       0.2684781 0.06317132 -0.10002126 0.084228426 -0.0026321383 -0.30532804 0.010528553 -0.27637452 0.21846747 0.06580346 0.021057107 0.26321384 0.19741037 0.08686057 -0.2816388 -0.107917674
0000e0 dd 2e ac 14 11 b1 ad 8b 02 f6 72 19 68 6f 39 a5
       -0.09212484 0.121078365 -0.22109962 0.052642766 0.04474635 -0.20793892 -0.21846747 -0.30796018 0.0052642766 -0.026321383 0.30006376 0.06580346 0.27374238 0.29216737 0.15003188 -0.23952459
0000f0 9e f9 55 a5 ce 6d 6e f6 63 fc ce 5d 5d 2e a1 6a
       -0.25794956 -0.01842497 0.22373176 -0.23952459 -0.13160692 0.28690308 0.28953522 -0.026321383 0.2605817 -0.010528553 -0.13160692 0.24478887 0.24478887 0.121078365 -0.25005314 0.27900666

sequential/quant_output/MatMul;sequential/quant_output/LastValueQuant/FakeQuantWithMinMaxVars i1 [1, 10] scale=0.005699062 zero_point=0
000000 68 21 6e bc 81 16 df be 7f fc
       0.59270245 0.18806905 0.6268968 -0.3875362 -0.7237809 0.12537935 -0.18806905 -0.3761381 0.7237809 -0.022796247
