models/opt-40x30x3-T1.tflite (tflite, 189872 bytes, 9 tensors)

sequential_1/quant_conv2d_5/Conv2D;sequential_1/quant_conv2d_5/LastValueQuant/FakeQuantWithMinMaxVarsPerChannel i1 [24, 5, 5, 3]
-59 109 15 119 17 -24 46 55
110 -20 76 88 75 -22 -15 -76
-72 -35 -59 92 -40 -94 -91 -49
63 38 -43 -87 116 -21 75 50
-46 22 -58 -127 -45 43 -87 37
22 -26 92 -9 38 -85 98 -42
28 -91 -5 -22 48 70 23 -15
74 67 86 78 -99 -84 -46 -14
-54 89 -103 -59 -102 -29 -57 -69
-1 -12 98 26 -67 123 -83 7
-104 -28 -10 -46 -73 49 7 50
-40 -13 -103 -16 15 63 -94 110
-2 55 36 -118 -67 -43 28 -107
115 84 82 125 45 -71 81 15
35 78 -81 -3 -11 -21 -93 111
-91 48 -70 100 111 -28 117 -114
-73 127 -117 62 123 103 37 -61
-75 94 102 30 103 -107 69 46
83 -55 96 -31 -17 -49 102 -115
60 18 -5 59 -4 0 104 113
92 13 102 73 -32 -113 65 -49
-25 45 39 101 116 127 -71 50
25 -26 -48 30 -104 -92 54 -102
-56 -42 -95 -1 -4 -26 112 61
84 -86 -61 -87 -34 -35 -102 -68
16 90 1 -81 -52 -12 -43 -50
-119 -3 9 78 38 85 77 -19
84 76 115 -102 -53 84 -109 75
-23 12 -86 31 6 87 52 -8
93 13 37 45 1 -83 4 -22
2 -18 95 -12 -90 -39 -22 55
-79 8 -104 34 46 14 -71 -53
00000000: c56d 0f77 11e8 2e37 6eec 4c58 4bea f1b4
00000010: b8dd c55c d8a2 a5cf 3f26 d5a9 74eb 4b32
00000020: d216 c681 d32b a925 16e6 5cf7 26ab 62d6
00000030: 1ca5 fbea 3046 17f1 4a43 564e 9dac d2f2
00000040: ca59 99c5 9ae3 c7bb fff4 621a bd7b ad07
00000050: 98e4 f6d2 b731 0732 d8f3 99f0 0f3f a26e
00000060: fe37 248a bdd5 1c95 7354 527d 2db9 510f
00000070: 234e affd f5eb a36f a530 ba64 6fe4 758e
00000080: b77f 8b3e 7b67 25c3 b55e 661e 6795 452e
00000090: 53c9 60e1 efcf 668d 3c12 fb3b fc00 6871
000000a0: 5c0d 6649 e08f 41cf e72d 2765 747f b932
000000b0: 19e6 d01e 98a4 369a c8d6 a1ff fce6 703d
000000c0: 54aa c3a9 dedd 9abc 105a 01af ccf4 d5ce
000000d0: 89fd 094e 2655 4ded 544c 739a cb54 934b
000000e0: e90c aa1f 0657 34f8 5d0d 252d 01ad 04ea
000000f0: 02ee 5ff4 a6d9 ea37 b108 9822 2e0e b9cb

sequential_1/quant_conv2d_6/Conv2D;sequential_1/quant_conv2d_6/LastValueQuant/FakeQuantWithMinMaxVarsPerChannel i1 [36, 5, 5, 24]
6 -32 -78 -48 -59 28 -27 -33
18 -18 -47 30 6 33 -63 27
94 115 -42 -24 20 -75 43 -19
6 86 -1 32 -12 86 53 -59
-45 -9 -36 -47 -71 61 -4 21
17 -10 -57 26 -16 -71 -56 -48
-83 -32 -61 -9 23 -64 -6 19
-27 -38 -13 72 -52 23 27 7
-52 13 63 63 -49 -89 -40 -73
-41 -73 75 -42 -69 -56 -25 -44
5 -74 85 -88 44 -11 -17 85
42 -2 14 -22 16 -19 -49 0
27 52 73 -87 53 -20 -52 42
6 80 33 -109 -65 19 -65 -2
7 62 -34 45 -21 43 -46 64
-111 -49 56 -44 46 83 -22 26
-12 -74 -11 73 60 -23 37 -103
-56 67 -20 -39 61 17 -19 29
-12 37 7 -10 25 -28 20 5
60 -68 -44 17 55 32 -40 -66
0 49 -42 32 71 71 37 -40
-4 -27 21 -73 -2 17 -86 6
-20 -52 77 43 -16 -44 2 73
-81 52 85 -24 7 15 -19 75
60 33 9 -18 27 -37 -77 -58
-79 81 26 56 -93 10 -60 -55
74 -47 5 -64 -45 69 -50 72
-45 80 -31 39 -23 -49 17 -31
61 28 7 69 35 -56 108 76
15 -51 -2 -78 -15 26 -8 48
-37 -22 -7 24 -46 -50 -61 -20
70 86 -70 -60 83 -5 -28 -35
00000000: 06e0 b2d0 c51c e5df 12ee d11e 0621 c11b
00000010: 5e73 d6e8 14b5 2bed 0656 ff20 f456 35c5
00000020: d3f7 dcd1 b93d fc15 11f6 c71a f0b9 c8d0
00000030: ade0 c3f7 17c0 fa13 e5da f348 cc17 1b07
00000040: cc0d 3f3f cfa7 d8b7 d7b7 4bd6 bbc8 e7d4
00000050: 05b6 55a8 2cf5 ef55 2afe 0eea 10ed cf00
00000060: 1b34 49a9 35ec cc2a 0650 2193 bf13 bffe
00000070: 073e de2d eb2b d240 91cf 38d4 2e53 ea1a
00000080: f4b6 f549 3ce9 2599 c843 ecd9 3d11 ed1d
00000090: f425 07f6 19e4 1405 3cbc d411 3720 d8be
000000a0: 0031 d620 4747 25d8 fce5 15b7 fe11 aa06
000000b0: eccc 4d2b f0d4 0249 af34 55e8 070f ed4b
000000c0: 3c21 09ee 1bdb b3c6 b151 1a38 a30a c4c9
000000d0: 4ad1 05c0 d345 ce48 d350 e127 e9cf 11e1
000000e0: 3d1c 0745 23c8 6c4c 0fcd feb2 f11a f830
000000f0: dbea f918 d2ce c3ec 4656 bac4 53fb e4dd

sequential_1/quant_conv2d_7/Conv2D;sequential_1/quant_conv2d_7/LastValueQuant/FakeQuantWithMinMaxVarsPerChannel i1 [48, 5, 5, 36]
-5 39 -14 64 58 24 -6 89
-39 15 35 49 59 47 92 21
23 -77 2 -60 64 72 -78 5
44 80 24 35 -3 44 70 -55
49 -61 -32 35 -18 -53 -106 39
68 -101 -53 -20 -81 32 93 -33
68 -1 28 60 76 -76 -29 64
-65 83 -16 76 63 -27 81 -23
-90 86 -43 17 79 -110 -9 -29
-37 37 -71 81 -38 22 54 -21
-50 58 68 -12 -14 -15 17 -78
9 40 92 47 64 38 -35 -84
47 108 79 6 -25 83 -42 -84
-56 -30 -44 -81 -61 -59 -41 53
47 -55 23 -6 38 20 -95 67
-68 31 5 -11 -65 -10 -14 -96
-28 83 -47 -102 21 -20 -67 33
-70 -6 -7 -18 31 47 -42 -84
63 26 -28 75 -18 -48 -65 44
-11 67 -80 15 -71 79 -9 0
-22 -20 34 -30 -100 72 40 -23
-10 91 -71 44 -94 -108 -65 -85
-80 37 35 -13 25 -60 0 42
-5 44 -17 -73 56 64 69 -59
-61 -11 52 61 -79 73 12 1
-38 41 83 4 -85 18 -81 57
49 29 -8 47 33 -69 -77 9
4 -62 -97 6 -110 -5 -84 9
-61 -77 -33 -5 19 -43 29 83
58 -79 -52 45 -5 -63 -21 43
32 88 25 -61 -82 24 -41 -10
19 65 -70 -52 10 -90 -115 56
00000000: fb27 f240 3a18 fa59 d90f 2331 3b2f 5c15
00000010: 17b3 02c4 4048 b205 2c50 1823 fd2c 46c9
00000020: 31c3 e023 eecb 9627 449b cbec af20 5ddf
00000030: 44ff 1c3c 4cb4 e340 bf53 f04c 3fe5 51e9
00000040: a656 d511 4f92 f7e3 db25 b951 da16 36eb
00000050: ce3a 44f4 f2f1 11b2 0928 5c2f 4026 ddac
00000060: 2f6c 4f06 e753 d6ac c8e2 d4af c3c5 d735
00000070: 2fc9 17fa 2614 a143 bc1f 05f5 bff6 f2a0
00000080: e453 d19a 15ec bd21 bafa f9ee 1f2f d6ac
00000090: 3f1a e44b eed0 bf2c f543 b00f b94f f700
000000a0: eaec 22e2 9c48 28e9 f65b b92c a294 bfab
000000b0: b025 23f3 19c4 002a fb2c efb7 3840 45c5
000000c0: c3f5 343d b149 0c01 da29 5304 ab12 af39
000000d0: 311d f82f 21bb b309 04c2 9f06 92fb ac09
000000e0: c3b3 dffb 13d5 1d53 3ab1 cc2d fbc1 eb2b
000000f0: 2058 19c3 ae18 d7f6 1341 bacc 0aa6 8d38

sequential_1/quant_conv2d_8/Conv2D;sequential_1/quant_conv2d_8/LastValueQuant/FakeQuantWithMinMaxVarsPerChannel i1 [64, 3, 3, 48]
80 13 -17 -75 -20 -61 -71 24
-127 32 -27 -45 -17 -13 -30 -14
-26 -73 -18 -26 21 14 -31 -37
-9 -71 8 -70 60 0 57 -31
-106 20 22 23 -4 60 -67 1
22 -44 85 -48 -80 -50 -34 88
-53 57 -12 22 -4 18 -93 -66
67 34 77 52 -75 33 -9 -88
69 30 33 -35 67 7 -31 69
61 37 -32 -46 -60 -43 -2 -11
-67 -6 67 -83 -39 18 -4 84
-38 84 -66 2 -57 -60 -101 37
68 -86 -48 10 -85 -8 -80 -81
9 -92 9 87 -63 49 -6 81
-47 40 -6 -29 -75 -81 -25 -75
-6 -7 -109 -29 -7 -34 43 32
-37 -93 -74 23 -2 -82 93 -39
-8 -98 6 -93 21 -34 -38 -38
-62 40 39 -79 1 -15 -34 -41
-77 -67 1 54 44 -47 92 -75
86 -64 -36 27 -9 -9 89 3
58 36 -28 50 47 35 -79 1
-35 37 -22 -39 77 79 1 -63
-4 58 -71 91 62 -73 52 -40
-60 8 42 -85 -14 -32 13 22
-61 -16 27 -18 31 37 86 59
-4 40 -55 13 -85 43 61 29
5 37 51 -103 -80 45 37 -33
48 -70 52 -80 41 -22 -97 -42
89 -7 -32 49 -2 12 -45 34
4 -51 -64 50 -13 80 12 -71
54 -78 -11 -43 -126 63 -66 8
00000000: 500d efb5 ecc3 b918 8120 e5d3 eff3 e2f2
00000010: e6b7 eee6 150e e1db f7b9 08ba 3c00 39e1
00000020: 9614 1617 fc3c bd01 16d4 55d0 b0ce de58
00000030: cb39 f416 fc12 a3be 4322 4d34 b521 f7a8
00000040: 451e 21dd 4307 e145 3d25 e0d2 c4d5 fef5
00000050: bdfa 43ad d912 fc54 da54 be02 c7c4 9b25
00000060: 44aa d00a abf8 b0af 09a4 0957 c131 fa51
00000070: d128 fae3 b5af e7b5 faf9 93e3 f9de 2b20
00000080: dba3 b617 feae 5dd9 f89e 06a3 15de dada
00000090: c228 27b1 01f1 ded7 b3bd 0136 2cd1 5cb5
000000a0: 56c0 dc1b f7f7 5903 3a24 e432 2f23 b101
000000b0: dd25 ead9 4d4f 01c1 fc3a b95b 3eb7 34d8
000000c0: c408 2aab f2e0 0d16 c3f0 1bee 1f25 563b
000000d0: fc28 c90d ab2b 3d1d 0525 3399 b02d 25df
000000e0: 30ba 34b0 29ea 9fd6 59f9 e031 fe0c d322
000000f0: 04cd c032 f350 0cb9 36b2 f5d5 823f be08

sequential_1/quant_conv2d_9/Conv2D;sequential_1/quant_conv2d_9/LastValueQuant/FakeQuantWithMinMaxVarsPerChannel i1 [64, 3, 3, 64]
54 -86 45 32 3 61 -74 -63
31 43 -48 19 -109 -21 -67 74
48 59 -70 -31 -22 103 37 -19
49 -59 -28 44 81 48 21 59
-12 -60 58 -30 -27 41 69 35
-66 -95 51 -79 34 21 11 -48
41 67 65 -48 22 -78 -23 73
-74 -68 58 -55 20 -61 -16 10
-37 -68 40 -32 -3 -81 15 59
-57 10 -67 96 -2 -3 72 85
0 -13 87 11 50 66 -36 71
94 27 -6 -22 29 -95 -60 -82
-4 22 -35 31 0 68 -26 5
35 -45 33 -43 58 34 12 3
1 43 -43 -77 -41 -47 -20 88
28 -83 -9 -53 15 72 61 -35
51 43 -43 23 -11 -63 84 26
-52 -25 -41 -70 -88 34 52 -49
-8 -46 40 69 -74 7 11 12
3 -22 51 10 -54 -61 -98 49
17 -16 -29 39 92 70 67 -6
-3 -22 -64 -38 19 -99 -82 -126
54 -9 99 -87 -105 -46 -32 63
36 41 -33 -67 -91 62 80 -14
-31 -17 -1 -69 73 61 -66 4
3 -19 6 11 -38 73 -8 -6
63 69 78 -12 -96 -45 -6 -94
-1 12 -52 -14 35 -49 39 -68
-1 42 62 62 -14 51 81 -58
32 44 -46 47 -14 -42 -41 1
46 38 -45 12 41 -80 -13 57
-56 31 45 -9 -24 3 64 -44
00000000: 36aa 2d20 033d b6c1 1f2b d013 93eb bd4a
00000010: 303b bae1 ea67 25ed 31c5 e42c 5130 153b
00000020: f4c4 3ae2 e529 4523 bea1 33b1 2215 0bd0
00000030: 2943 41d0 16b2 e949 b6bc 3ac9 14c3 f00a
00000040: dbbc 28e0 fdaf 0f3b c70a bd60 fefd 4855
00000050: 00f3 570b 3242 dc47 5e1b faea 1da1 c4ae
00000060: fc16 dd1f 0044 e605 23d3 21d5 3a22 0c03
00000070: 012b d5b3 d7d1 ec58 1cad f7cb 0f48 3ddd
00000080: 332b d517 f5c1 541a cce7 d7ba a822 34cf
00000090: f8d2 2845 b607 0b0c 03ea 330a cac3 9e31
000000a0: 11f0 e327 5c46 43fa fdea c0da 139d ae82
000000b0: 36f7 63a9 97d2 e03f 2429 dfbd a53e 50f2
000000c0: e1ef ffbb 493d be04 03ed 060b da49 f8fa
000000d0: 3f45 4ef4 a0d3 faa2 ff0c ccf2 23cf 27bc
000000e0: ff2a 3e3e f233 51c6 202c d22f f2d6 d701
000000f0: 2e26 d30c 29b0 f339 c81f 2df7 e803 40d4

sequential_1/quant_dense_3/MatMul;sequential_1/quant_dense_3/LastValueQuant/FakeQuantWithMinMaxVars i1 [100, 384] scale=0.0012558167 zero_point=0
0.036418684 0.0 0.013813984 -0.0678141 -0.0678141 -0.08037227 -0.0904188 -0.060279198
-0.04144195 0.01130235 -0.08916298 0.061535016 -0.04897685 -0.025116334 0.0025116333 -0.01883725
-0.012558167 0.0062790834 0.0226047 0.100465335 0.0050232667 -0.11051187 -0.081628084 0.0025116333
-0.0678141 -0.07032573 0.07786063 -0.12934911 -0.0452094 0.013813984 0.030139599 0.087907165
0.08916298 -0.0904188 0.095442064 -0.08539553 -0.1130235 -0.030139599 -0.032651234 -0.081628084
-0.038930316 0.0452094 0.081628084 -0.1054886 0.07158155 -0.0037674499 0.100465335 0.017581433
-0.092930436 0.0226047 0.08916298 -0.0037674499 -0.07660481 0.06279083 0.07911645 0.0226047
0.04897685 -0.0828839 0.036418684 -0.069069915 0.04144195 0.09167462 -0.0050232667 -0.059023384
0.013813984 0.05148848 -0.0904188 -0.08413972 0.08539553 -0.0527443 0.0527443 -0.05651175
-0.030139599 0.0904188 -0.025116334 0.0150697995 0.075349 0.0226047 0.025116334 -0.054000117
-0.11051187 0.07911645 -0.07911645 -0.02637215 0.09167462 -0.0075348997 0.013813984 -0.0050232667
-0.03390705 0.0037674499 0.0075348997 0.043953583 0.057767566 -0.04897685 0.081628084 0.061535016
0.023860516 -0.043953583 -0.06655829 0.0828839 -0.0904188 0.025116334 -0.09669788 -0.057767566
-0.08037227 0.059023384 0.043953583 -0.035162866 0.07911645 -0.030139599 -0.06279083 0.1130235
0.061535016 0.01130235 0.0226047 0.08665135 0.023860516 0.074093185 -0.04897685 -0.07911645
0.1280933 0.0025116333 0.04144195 0.01130235 -0.0087907165 -0.0904188 0.07158155 0.012558167
0.0828839 -0.04897685 0.0075348997 -0.03390705 0.04897685 0.013813984 -0.075349 0.06530247
0.027627967 0.016325617 -0.061535016 0.016325617 -0.030139599 0.057767566 -0.10925605 -0.06655829
-0.057767566 0.0376745 -0.10297696 0.023860516 0.074093185 -0.0050232667 0.028883783 0.054000117
-0.09167462 -0.012558167 0.06655829 -0.08037227 -0.016325617 0.02637215 0.0979537 0.023860516
-0.01883725 0.06530247 -0.08665135 0.023860516 0.087907165 -0.0979537 0.050232667 0.027627967
0.028883783 -0.07660481 0.046465218 0.07660481 -0.11176768 0.06279083 0.10172115 0.0050232667
-0.07158155 0.030139599 0.023860516 0.10423278 0.087907165 -0.010046533 -0.06404665 0.09669788
0.09167462 0.040186133 0.0050232667 -0.017581433 0.0012558167 0.0979537 -0.06279083 0.057767566
0.081628084 0.040186133 0.023860516 0.0452094 -0.09669788 -0.11051187 0.09669788 0.1130235
-0.08916298 0.0 -0.087907165 -0.046465218 -0.09167462 0.0226047 -0.01130235 0.07911645
-0.06404665 0.10925605 0.0087907165 0.042697765 -0.108000234 0.087907165 0.02637215 0.0087907165
0.10172115 0.05651175 -0.06404665 -0.08665135 -0.07660481 0.074093185 0.10423278 0.09920952
-0.0527443 0.010046533 -0.040186133 -0.0025116333 0.0904188 -0.046465218 0.08665135 0.01883725
0.059023384 0.08037227 0.013813984 -0.040186133 -0.050232667 0.016325617 0.027627967 -0.10423278
-0.07283737 0.031395417 -0.0904188 -0.050232667 0.09920952 -0.012558167 -0.07032573 -0.11553513
0.087907165 -0.069069915 0.059023384 0.0452094 0.100465335 -0.09167462 -0.050232667 0.08037227
00000000: 1d00 0bca cac0 b8d0 df09 b931 d9ec 02f1
00000010: f605 1250 04a8 bf02 cac8 3e99 dc0b 1846
00000020: 47b8 4cbc a6e8 e6bf e124 41ac 39fd 500e
00000030: b612 47fd c332 3f12 27be 1dc9 2149 fcd1
00000040: 0b29 b8bd 44d6 2ad3 e848 ec0c 3c12 14d5
00000050: a83f c1eb 49fa 0bfc e503 0623 2ed9 4131
00000060: 13dd cb42 b814 b3d2 c02f 23e4 3fe8 ce5a
00000070: 3109 1245 133b d9c1 6602 2109 f9b8 390a
00000080: 42d9 06e5 270b c434 160d cf0d e82e a9cb
00000090: d21e ae13 3bfc 172b b7f6 35c0 f315 4e13
000000a0: f134 bb13 46b2 2816 17c3 253d a732 5104
000000b0: c718 1353 46f8 cd4d 4920 04f2 014e ce2e
000000c0: 4120 1324 b3a8 4d5a b900 badb b712 f73f
000000d0: cd57 0722 aa46 1507 512d cdbb c33b 534f
000000e0: d608 e0fe 48db 450f 2f40 0be0 d80d 16ad
000000f0: c619 b8d8 4ff6 c8a4 46c9 2f24 50b7 d840

sequential_1/quant_dense_4/MatMul;sequential_1/quant_dense_4/LastValueQuant/FakeQuantWithMinMaxVars i1 [50, 100] scale=0.0019646513 zero_point=0
-0.07858605 0.10216187 0.007858605 0.13949025 -0.14734885 0.037328374 0.15520746 0.047151633
0.068762794 0.025540467 -0.12573768 0.12377303 -0.15127815 -0.06483349 -0.06286884 0.19057117
-0.21021768 0.21611165 0.096267916 -0.19057117 -0.06090419 -0.16306606 0.13949025 -0.18271257
0.10216187 -0.12180838 -0.06090419 0.07465675 -0.08644465 0.055010237 0.07465675 -0.02946977
-0.0766214 0.019646512 0.0039293026 -0.096267916 0.03143442 0.08251535 -0.05893954 0.06679814
0.19450048 -0.094303265 -0.113949776 0.09823257 0.10609117 0.17681861 -0.16306606 -0.025540467
0.19253583 0.056974888 0.013752559 -0.10609117 0.037328374 -0.11787908 -0.17092466 -0.0039293026
-0.14734885 0.14341955 -0.13752559 -0.09823257 -0.0766214 0.021611163 0.18467721 0.02946977
-0.1571721 0.06090419 -0.072692096 -0.0766214 -0.16896 -0.05893954 0.043222327 0.06679814
0.03143442 -0.13163164 -0.12770234 0.16896 0.111985125 0.08251535 0.21021768 -0.111985125
0.023575816 0.08644465 -0.037328374 0.1532428 -0.11591443 -0.15913676 -0.055010237 -0.07858605
0.068762794 0.01571721 0.094303265 0.01571721 0.043222327 0.094303265 -0.07858605 -0.094303265
-0.14538419 -0.07858605 0.096267916 -0.08251535 0.019646512 0.090373956 0.21414699 -0.11984373
0.20825304 -0.1728893 0.041257676 0.1650307 0.111985125 -0.047151633 0.11787908 0.13752559
0.06090419 0.03143442 0.18860653 0.11984373 -0.13752559 0.088409305 0.06483349 -0.013752559
0.1493135 -0.05893954 -0.096267916 0.0039293026 0.11591443 0.13556094 0.19450048 0.19253583
0.07465675 -0.03339907 0.072692096 -0.18860653 -0.019646512 0.03339907 -0.1611014 0.07465675
-0.070727445 -0.021611163 -0.02946977 0.21807629 0.111985125 -0.13359629 -0.090373956 -0.1493135
0.1532428 -0.021611163 -0.047151633 -0.15913676 0.043222327 0.113949776 0.113949776 -0.15913676
0.11002047 0.03143442 -0.11787908 -0.10805582 0.17878327 0.03339907 0.111985125 -0.021611163
-0.02946977 0.0019646513 0.049116284 0.10019722 0.16896 -0.07465675 -0.068762794 0.13163164
0.21807629 -0.18467721 0.19842978 -0.113949776 0.007858605 -0.1611014 -0.1493135 -0.11591443
-0.11787908 -0.17878327 -0.08251535 0.10019722 0.17092466 0.12770234 -0.10216187 -0.005893954
0.03339907 -0.0019646513 -0.096267916 0.037328374 -0.055010237 -0.21414699 0.023575816 -0.19842978
-0.11984373 0.13752559 -0.090373956 -0.16896 -0.1728893 -0.05893954 -0.19253583 -0.070727445
0.041257676 0.045186978 -0.18467721 -0.0805507 0.06679814 -0.1571721 -0.007858605 0.05893954
0.056974888 -0.10609117 0.1493135 0.007858605 0.005893954 -0.09823257 -0.14734885 0.019646512
-0.15127815 0.21218234 -0.15913676 -0.09233861 -0.053045586 -0.17681861 -0.113949776 -0.16896
0.025540467 -0.08644465 -0.035363723 0.013752559 0.16306606 0.01571721 0.039293025 -0.11984373
-0.051080935 0.035363723 0.055010237 0.15520746 0.035363723 0.03143442 0.14341955 0.1728893
-0.0805507 -0.14145489 0.13556094 0.17485397 -0.06679814 0.14734885 -0.14538419 -0.056974888
0.03339907 0.06090419 -0.0039293026 -0.17878327 0.08644465 0.11591443 0.11787908 -0.19057117
00000000: d834 0447 b513 4f18 230d c03f b3df e061
00000010: 956e 319f e1ad 47a3 34c2 e126 d41c 26f1
00000020: d90a 02cf 102a e222 63d0 c632 365a adf3
00000030: 621d 07ca 13c4 a9fe b549 bace d90b 5e0f
00000040: b01f dbd9 aae2 1622 10bd bf56 392a 6bc7
00000050: 0c2c ed4e c5af e4d8 2308 3008 1630 d8d0
00000060: b6d8 31d6 0a2e 6dc3 6aa8 1554 39e8 3c46
00000070: 1f10 603d ba2d 21f9 4ce2 cf02 3b45 6362
00000080: 26ef 25a0 f611 ae26 dcf5 f16f 39bc d2b4
00000090: 4ef5 e8af 163a 3aaf 3810 c4c9 5b11 39f5
000000a0: f101 1933 56da dd43 6fa2 65c6 04ae b4c5
000000b0: c4a5 d633 5741 ccfd 11ff cf13 e493 0c9b
000000c0: c346 d2aa a8e2 9edc 1517 a2d7 22b0 fc1e
000000d0: 1dca 4c04 03ce b50a b36c afd1 e5a6 c6aa
000000e0: 0dd4 ee07 5308 14c3 e612 1c4f 1210 4958
000000f0: d7b8 4559 de4b b6e3 111f fea5 2c3b 3c9f

sequential_1/quant_dense_5/MatMul;sequential_1/quant_dense_5/LastValueQuant/FakeQuantWithMinMaxVars i1 [10, 50] scale=0.0031730249 zero_point=0
-0.14595914 -0.26018804 -0.0063460497 -0.038076296 0.17768939 0.15230519 0.30143735 0.27288014
-0.24114989 0.18086241 0.16817032 0.27922618 0.12374797 0.18403544 0.09201772 -0.30778342
-0.20624661 0.15230519 -0.14913216 -0.126921 -0.08567167 -0.0063460497 -0.041249324 -0.041249324
-0.06028747 0.29191828 -0.050768398 0.050768398 0.29191828 0.2665341 0.30461037 0.0031730249
-0.028557224 -0.18403544 0.13326705 0.019038148 -0.03173025 -0.14278612 0.101536795 -0.06028747
-0.09836377 0.17768939 -0.069806546 -0.17451636 0.07297957 0.050768398 -0.1903815 0.26018804
0.2284578 0.20941964 -0.29826432 0.23797686 0.015865125 0.08567167 0.07615259 0.08249865
-0.09519075 -0.044422347 0.044422347 -0.17451636 0.1142289 0.1903815 0.126921 -0.22211175
-0.13326705 0.21576568 0.20307359 0.23480384 0.31095645 0.12057494 -0.10788284 -0.09201772
-0.19672754 0.044422347 -0.009519074 0.31095645 0.15547822 0.0634605 -0.253842 -0.12057494
0.27288014 -0.041249324 -0.0634605 -0.022211174 -0.09519075 0.24432291 -0.11105587 -0.069806546
0.012692099 0.23797686 0.11105587 -0.20941964 -0.069806546 0.09201772 0.23797686 -0.23480384
-0.14913216 0.09201772 0.0634605 -0.044422347 0.05711445 0.015865125 -0.27288014 0.08249865
0.019038148 0.10788284 -0.2284578 -0.16182427 0.1142289 0.06028747 -0.022211174 0.2950913
-0.09201772 0.05394142 -0.09836377 0.08249865 -0.041249324 0.06028747 -0.047595374 0.07615259
-0.17768939 0.26336107 -0.012692099 -0.025384199 -0.079325624 -0.14595914 0.10470982 -0.19672754
0.27288014 -0.14913216 -0.24432291 0.047595374 -0.29826432 -0.15865125 0.12057494 -0.20624661
-0.050768398 0.16817032 0.19355452 0.20307359 -0.10470982 0.11105587 -0.08249865 0.041249324
-0.06663352 0.012692099 -0.11740192 0.20624661 0.26018804 0.13644007 0.012692099 -0.19355452
0.18403544 0.015865125 0.23480384 0.050768398 -0.17768939 0.28874525 0.32682157 -0.30143735
0.253842 0.15230519 -0.0634605 -0.022211174 0.19672754 -0.25701502 -0.26018804 0.13961309
0.07297957 -0.050768398 -0.025384199 -0.21259266 0.33951366 -0.05394142 -0.0031730249 0.13009402
0.047595374 -0.25701502 0.05394142 0.13009402 -0.069806546 -0.1649973 -0.09201772 -0.14595914
-0.07615259 0.2284578 -0.22211175 -0.07297957 -0.015865125 -0.19990057 0.08567167 0.0
0.32364854 0.1903815 0.12057494 -0.13961309 0.23480384 0.11740192 -0.0031730249 -0.022211174
-0.034903273 0.27605316 0.24114989 0.07615259 0.29826432 -0.29191828 -0.15865125 0.26336107
-0.2697071 0.12057494 0.20624661 -0.20941964 -0.18720847 -0.028557224 0.30461037 0.28557223
0.044422347 -0.24749593 0.028557224 -0.022211174 -0.18720847 -0.07297957 -0.3299946 -0.15865125
0.03173025 -0.13961309 -0.034903273 0.15547822 0.253842 0.17451636 0.12374797 0.21259266
-0.24114989 0.09201772 -0.10470982 -0.19672754 0.044422347 0.21576568 0.16817032 -0.09836377
0.11105587 -0.022211174 -0.25066897 -0.27605316 0.06028747 -0.2284578 0.27288014 0.27922618
0.27922618 -0.0063460497 0.0063460497 0.038076296 0.3173025 0.40297416 -0.034903273 -0.24749593
00000000: d2ae fef4 3830 5f56 b439 3558 273a 1d9f
00000010: bf30 d1d8 e5fe f3f3 ed5c f010 5c54 6001
00000020: f7c6 2a06 f6d3 20ed e138 eac9 1710 c452
00000030: 4842 a24b 051b 181a e2f2 0ec9 243c 28ba
00000040: d644 404a 6226 dee3 c20e fd62 3114 b0da
00000050: 56f3 ecf9 e24d ddea 044b 23be ea1d 4bb6
00000060: d11d 14f2 1205 aa1a 0622 b8cd 2413 f95d
00000070: e311 e11a f313 f118 c853 fcf8 e7d2 21c2
00000080: 56d1 b30f a2ce 26bf f035 3d40 df23 e60d
00000090: eb04 db41 522b 04c3 3a05 4a10 c85b 67a1
000000a0: 5030 ecf9 3eaf ae2c 17f0 f8bd 6bef ff29
000000b0: 0faf 1129 eacc e3d2 e848 bae9 fbc1 1b00
000000c0: 663c 26d4 4a25 fff9 f557 4c18 5ea4 ce53
000000d0: ab26 41be c5f7 605a 0eb2 09f9 c5e9 98ce
000000e0: 0ad4 f531 5037 2743 b41d dfc2 0e44 35e1
000000f0: 23f9 b1a9 13b8 5658 58fe 020c 647f f5b2

sequential_1/quant_output/MatMul;sequential_1/quant_output/LastValueQuant/FakeQuantWithMinMaxVars i1 [1, 10] scale=0.0045833252 zero_point=0
0.4216659 0.42624924 0.58208233 -0.2749995 0.39416596 -0.19249967 -0.24749956 -0.44916588
0.43999922 -0.5179157
00000000: 5c5d 7fc4 56d6 ca9e 608f
