models/opt-80x60x3.tflite (tflite, 156808 bytes, 9 tensors)

sequential_26/quant_conv2d_130/Conv2D;sequential_26/quant_conv2d_130/LastValueQuant/FakeQuantWithMinMaxVarsPerChannel i1 [24, 5, 5, 3]
00000000: 45aa f601 551b e64b cf37 155f 151b 6212
00000010: b157 28b2 bb87 a4d7 8e0b 3a14 57b2 d0dd
00000020: 3be3 98b7 13a7 1081 a8ba f2b7 bb1e c0c2
00000030: 6852 cef0 92db daad ba94 9ab6 f753 ae44
00000040: 6a38 ea07 6974 4bbf 034c 0438 17bb b270
00000050: d827 99bf 63da cbfc ecf3 1dc6 e169 092b
00000060: 1355 c6b5 3fd4 ffbc 40d9 4652 6a4e 9e0c
00000070: baec 64d6 e63e 1081 5c38 ef60 e2e7 7922
00000080: 04c9 5b4f 42e8 fa94 f11c 11ff 44c8 38db
00000090: 3688 4bd7 e1be 333b 043b 335b b1b5 1848
000000a0: 0fc4 af41 43b1 442e 080b edb9 05f9 5053
000000b0: 1714 9d1d b214 f36f 3315 1008 25ba 21cf
000000c0: fe22 5f65 3a19 7ffe 165f c4a4 01ea cd79
000000d0: de00 42b5 d81b 58cf 2bd4 bc31 c92a 1148
000000e0: e7d5 bad7 1bf9 6b68 156e cb8f d467 f64e
000000f0: b397 d5c0 b16e fe62 8bba 2d07 5395 e835
69 -86 -10 1 85 27 -26 75
-49 55 21 95 21 27 98 18
-79 87 40 -78 -69 -121 -92 -41
-114 11 58 20 87 -78 -48 -35
59 -29 -104 -73 19 -89 16 -127
-88 -70 -14 -73 -69 30 -64 -62
104 82 -50 -16 -110 -37 -38 -83
-70 -108 -102 -74 -9 83 -82 68
106 56 -22 7 105 116 75 -65
3 76 4 56 23 -69 -78 112
-40 39 -103 -65 99 -38 -53 -4
-20 -13 29 -58 -31 105 9 43
19 85 -58 -75 63 -44 -1 -68
64 -39 70 82 106 78 -98 12
-70 -20 100 -42 -26 62 16 -127
92 56 -17 96 -30 -25 121 34
4 -55 91 79 66 -24 -6 -108
-15 28 17 -1 68 -56 56 -37
54 -120 75 -41 -31 -66 51 59
4 59 51 91 -79 -75 24 72
15 -60 -81 65 67 -79 68 46
8 11 -19 -71 5 -7 80 83
23 20 -99 29 -78 20 -13 111
51 21 16 8 37 -70 33 -49
-2 34 95 101 58 25 127 -2
22 95 -60 -92 1 -22 -51 121
-34 0 66 -75 -40 27 88 -49
43 -44 -68 49 -55 42 17 72
-25 -43 -70 -41 27 -7 107 104
21 110 -53 -113 -44 103 -10 78
-77 -105 -43 -64 -79 110 -2 98
-117 -70 45 7 83 -107 -24 53

sequential_26/quant_conv2d_131/Conv2D;sequential_26/quant_conv2d_131/LastValueQuant/FakeQuantWithMinMaxVarsPerChannel i1 [36, 5, 5, 24]
00000000: 1e56 054d bdaa 044b eada 0ba5 4225 36d8
00000010: 20d8 bb3c 40be ccfa a3d9 36e8 baf8 f5f9
00000020: 1816 3be4 e325 d309 edd7 c505 1906 96d0
00000030: 441c e9f7 0c04 14df c7ea 0922 b3b1 5ce1
00000040: fa26 e8dc ab07 a7c9 a139 4f5a 132d 4f3f
00000050: 5eaa 03c7 3d06 5f1a 24b5 4b5c 3811 1da3
00000060: b80c 38ef fc43 1409 b103 d93c e719 bf52
00000070: 4f4e 3050 150f 619d dd22 4581 5308 89ef
00000080: a8e5 bbfe fc04 ed18 4c9b fcb4 a11d 0a4c
00000090: 4459 1cde 2ffc d3d5 25c6 fd03 ddc0 e2a6
000000a0: e4f1 2a01 3243 3ebc 3732 a021 61d6 071d
000000b0: 3a48 f03c 6cb6 c89e 58ba ebfd b753 23b3
000000c0: 4f11 5233 61a4 dd5c 5caa 1e42 e3a2 1f48
000000d0: 274f 0c58 c526 c331 2ece f815 16a8 e5db
000000e0: 5ada 06c6 d5ee c713 f2d3 3ed9 9e2f e40b
000000f0: d6c3 40dc 18ca c2ec aee2 9f24 fd0a ec40
30 86 5 77 -67 -86 4 75
-22 -38 11 -91 66 37 54 -40
32 -40 -69 60 64 -66 -52 -6
-93 -39 54 -24 -70 -8 -11 -7
24 22 59 -28 -29 37 -45 9
-19 -41 -59 5 25 6 -106 -48
68 28 -23 -9 12 4 20 -33
-57 -22 9 34 -77 -79 92 -31
-6 38 -24 -36 -85 7 -89 -55
-95 57 79 90 19 45 79 63
94 -86 3 -57 61 6 95 26
36 -75 75 92 56 17 29 -93
-72 12 56 -17 -4 67 20 9
-79 3 -39 60 -25 25 -65 82
79 78 48 80 21 15 97 -99
-35 34 69 -127 83 8 -119 -17
-88 -27 -69 -2 -4 4 -19 24
76 -101 -4 -76 -95 29 10 76
68 89 28 -34 47 -4 -45 -43
37 -58 -3 3 -35 -64 -30 -90
-28 -15 42 1 50 67 62 -68
55 50 -96 33 97 -42 7 29
58 72 -16 60 108 -74 -56 -98
88 -70 -21 -3 -73 83 35 -77
79 17 82 51 97 -92 -35 92
92 -86 30 66 -29 -94 31 72
39 79 12 88 -59 38 -61 49
46 -50 -8 21 22 -88 -27 -37
90 -38 6 -58 -43 -18 -57 19
-14 -45 62 -39 -98 47 -28 11
-42 -61 64 -36 24 -54 -62 -20
-82 -30 -97 36 -3 10 -20 64

sequential_26/quant_conv2d_132/Conv2D;sequential_26/quant_conv2d_132/LastValueQuant/FakeQuantWithMinMaxVarsPerChannel i1 [48, 5, 5, 36]
00000000: ea40 e93c cde7 eb20 f600 d727 bbf8 c33c
00000010: d3eb ba11 04d4 32b2 3414 e822 43fc 493b
00000020: dabd 48db e041 4cf9 2712 0e4e c6b0 f745
00000030: b5db 2637 d807 1030 df9f 1034 defa c3aa
00000040: 2df6 f6c8 2b3b 4f05 2813 3416 1ba5 dbfc
00000050: 0556 fd20 fe0c 2327 f522 08fc de30 3acc
00000060: 03ba eff7 cee2 0ce7 97ef 3ab1 ccb4 1d4b
00000070: 3ce5 26a5 e3fd c947 1d53 ff30 49ba 00ea
00000080: d33b 200c c43d 0bf1 1d39 c0e0 b428 dd17
00000090: f545 d707 c9bb dcda 07d5 cafd 31bd b3c4
000000a0: a40a fda6 00c0 e102 d7fb 2cfd 31c7 d84b
000000b0: daac b908 57f0 c748 1f3f 4203 5a4a f1e8
000000c0: e6fc f1bc ddb3 2b0e daab 0426 cd0f aa11
000000d0: f834 27d6 ec4b 35e6 d3f0 5227 f7b4 3625
000000e0: 060d e122 c4fb eb22 1feb 39cb 26e7 e1f7
000000f0: 1e04 03b8 d232 30d5 033d 01d6 dcc7 33de
-22 64 -23 60 -51 -25 -21 32
-10 0 -41 39 -69 -8 -61 60
-45 -21 -70 17 4 -44 50 -78
52 20 -24 34 67 -4 73 59
-38 -67 72 -37 -32 65 76 -7
39 18 14 78 -58 -80 -9 69
-75 -37 38 55 -40 7 16 48
-33 -97 16 52 -34 -6 -61 -86
45 -10 -10 -56 43 59 79 5
40 19 52 22 27 -91 -37 -4
5 86 -3 32 -2 12 35 39
-11 34 8 -4 -34 48 58 -52
3 -70 -17 -9 -50 -30 12 -25
-105 -17 58 -79 -52 -76 29 75
60 -27 38 -91 -29 -3 -55 71
29 83 -1 48 73 -70 0 -22
-45 59 32 12 -60 61 11 -15
29 57 -64 -32 -76 40 -35 23
-11 69 -41 7 -55 -69 -36 -38
7 -43 -54 -3 49 -67 -77 -60
-92 10 -3 -90 0 -64 -31 2
-41 -5 44 -3 49 -57 -40 75
-38 -84 -71 8 87 -16 -57 72
31 63 66 3 90 74 -15 -24
-26 -4 -15 -68 -35 -77 43 14
-38 -85 4 38 -51 15 -86 17
-8 52 39 -42 -20 75 53 -26
-45 -16 82 39 -9 -76 54 37
6 13 -31 34 -60 -5 -21 34
31 -21 57 -53 38 -25 -31 -9
30 4 3 -72 -46 50 48 -43
3 61 1 -42 -36 -57 51 -34

sequential_26/quant_conv2d_133/Conv2D;sequential_26/quant_conv2d_133/LastValueQuant/FakeQuantWithMinMaxVarsPerChannel i1 [64, 3, 3, 48]
00000000: df4b bace b4d1 d7b0 b230 2109 44b6 3b0c
00000010: e24b d832 e218 dbdb 48cc 15c3 d2ce e0ca
00000020: d145 e53d e89a 2b1c 134e bf1d 5e99 dee2
00000030: fa4d de6c 346b 4ec1 ac51 6dd9 f053 ad35
00000040: 04fe db31 2ae8 a05b 3ca1 ba2a b83a fb6b
00000050: 3638 5aff 14eb 2f16 33e5 45ee 493b e6b3
00000060: f370 eeb4 5ced d6ea 5842 31cb 40cd 2e12
00000070: 2bbd b3b3 ebf8 32e6 6b3a 9fc9 04d1 a349
00000080: 23e8 ad40 4836 f056 192a a50a df0a ae46
00000090: 3b96 13b3 d926 1942 20c6 3b42 33e2 f831
000000a0: 2c44 9a25 ee19 b4ce c139 ecb2 5564 9c2d
000000b0: 007e acf4 2c56 3e15 31b0 46e7 c9f9 d121
000000c0: 293c 05a5 c83e d9c8 0ab8 4443 c0df 2233
000000d0: d618 1058 24a8 d6c0 dd4d 0a11 03d9 ec19
000000e0: 21b4 bafd a95a 13d3 b6fb 7faa 6bec ab25
000000f0: 099e 04f3 f6bf 5d19 d510 8651 4899 e835
-33 75 -70 -50 -76 -47 -41 -80
-78 48 33 9 68 -74 59 12
-30 75 -40 50 -30 24 -37 -37
72 -52 21 -61 -46 -50 -32 -54
-47 69 -27 61 -24 -102 43 28
19 78 -65 29 94 -103 -34 -30
-6 77 -34 108 52 107 78 -63
-84 81 109 -39 -16 83 -83 53
4 -2 -37 49 42 -24 -96 91
60 -95 -70 42 -72 58 -5 107
54 56 90 -1 20 -21 47 22
51 -27 69 -18 73 59 -26 -77
-13 112 -18 -76 92 -19 -42 -22
88 66 49 -53 64 -51 46 18
43 -67 -77 -77 -21 -8 50 -26
107 58 -97 -55 4 -47 -93 73
35 -24 -83 64 72 54 -16 86
25 42 -91 10 -33 10 -82 70
59 -106 19 -77 -39 38 25 66
32 -58 59 66 51 -30 -8 49
44 68 -102 37 -18 25 -76 -50
-63 57 -20 -78 85 100 -100 45
0 126 -84 -12 44 86 62 21
49 -80 70 -25 -55 -7 -47 33
41 60 5 -91 -56 62 -39 -56
10 -72 68 67 -64 -33 34 51
-42 24 16 88 36 -88 -42 -64
-35 77 10 17 3 -39 -20 25
33 -76 -70 -3 -87 90 19 -45
-74 -5 127 -86 107 -20 -85 37
9 -98 4 -13 -10 -65 93 25
-43 16 -122 81 72 -103 -24 53

sequential_26/quant_conv2d_134/Conv2D;sequential_26/quant_conv2d_134/LastValueQuant/FakeQuantWithMinMaxVarsPerChannel i1 [64, 2, 2, 64]
00000000: cf1f 0ea8 a916 d4b1 f01c 38ab 1316 c99f
00000010: 0da8 42bd 47bd cd1f 3201 d2ca 97e3 13bb
00000020: d8fa d036 59ec 3d3b d6b5 39b7 a2ae 34db
00000030: 54f2 c400 dd0b ad01 0fbe 8fb7 d7bd f15c
00000040: a7dd 5601 4429 47c7 2828 1822 4a33 df18
00000050: 484f 08c8 0eb9 e562 4bce 05da d93f 4502
00000060: 22f8 16e9 ea34 acae 98d2 c638 a8c6 e72b
00000070: 8a3c 2212 35ff f650 25fc e769 fac8 364b
00000080: b2b3 1212 3041 4b06 3142 40c6 46a5 d581
00000090: dcc6 03d5 4e9d b81c b114 c065 963e 2021
000000a0: ffab a40c 7245 0d99 5159 c7d3 af46 4546
000000b0: 022c 0703 46fd 1cc6 0ad0 3c4e 0049 07cb
000000c0: 3336 2749 ecec 4367 fad1 e4e1 fb52 ecaa
000000d0: 4fda b042 3541 fbaf 0d21 e5d7 4228 dbd9
000000e0: aec5 b3fc 11b4 f03a 0009 b01f 4323 b9ee
000000f0: bc2e dfc3 5dfa 580f 3301 2a3a b58d 14c7
-49 31 14 -88 -87 22 -44 -79
-16 28 56 -85 19 22 -55 -97
13 -88 66 -67 71 -67 -51 31
50 1 -46 -54 -105 -29 19 -69
-40 -6 -48 54 89 -20 61 59
-42 -75 57 -73 -94 -82 52 -37
84 -14 -60 0 -35 11 -83 1
15 -66 -113 -73 -41 -67 -15 92
-89 -35 86 1 68 41 71 -57
40 40 24 34 74 51 -33 24
72 79 8 -56 14 -71 -27 98
75 -50 5 -38 -39 63 69 2
34 -8 22 -23 -22 52 -84 -82
-104 -46 -58 56 -88 -58 -25 43
-118 60 34 18 53 -1 -10 80
37 -4 -25 105 -6 -56 54 75
-78 -77 18 18 48 65 75 6
49 66 64 -58 70 -91 -43 -127
-36 -58 3 -43 78 -99 -72 28
-79 20 -64 101 -106 62 32 33
-1 -85 -92 12 114 69 13 -103
81 89 -57 -45 -81 70 69 70
2 44 7 3 70 -3 28 -58
10 -48 60 78 0 73 7 -53
51 54 39 73 -20 -20 67 103
-6 -47 -28 -31 -5 82 -20 -86
79 -38 -80 66 53 65 -5 -81
13 33 -27 -41 66 40 -37 -39
-82 -59 -77 -4 17 -76 -16 58
0 9 -80 31 67 35 -71 -18
-68 46 -33 -61 93 -6 88 15
51 1 42 58 -75 -115 20 -57

sequential_26/quant_dense_78/MatMul;sequential_26/quant_dense_78/LastValueQuant/FakeQuantWithMinMaxVars i1 [100, 256] scale=0.0015167047 zero_point=0
00000000: 2542 dbb7 08b0 29cb 492d 2755 bbc1 0eeb
00000010: 1948 1a25 09d2 364d 50e7 204f 2029 1627
00000020: b440 4146 0bfc 4dfd 42ec e316 d3cb ddb3
00000030: d622 1ed8 b64a dddb 5bc8 cae0 f3fc 5114
00000040: cdf3 ccaf 2c45 21f0 4d2c 2deb d9e2 b5a5
00000050: 4eee 1eed 111f d61f c235 01d5 18f7 b152
00000060: b0ee 011b 0302 4d17 29ec f8ce 5bc5 d6f3
00000070: c7f8 f223 b6f5 0e05 16f1 edf7 50f8 01ea
00000080: ffba 4a48 25f4 48c5 2cc9 d6c5 f036 29dd
00000090: f2ea 102c 579f de06 37d9 48f7 163e ef4a
000000a0: fe0a da32 1c41 c7b3 2312 2240 e6ef bbeb
000000b0: 1e41 2fb5 e54b 5100 bc2d deb1 61ea 0b33
000000c0: 2cd6 3fec 0019 b4e5 003c 2e02 4ddc e044
000000d0: ec14 d13f ebbd 4fdc 40e0 4fd0 0f4f ed53
000000e0: 42ce cb1a 2314 f35a df27 153f e718 31e2
000000f0: 27c0 cb4b 4752 123f 4b0b 20b5 e10b 0db1
0.056118075 0.10010251 -0.056118075 -0.11071944 0.012133637 -0.12133637 0.062184893 -0.08038535
0.11071944 0.068251714 0.05915148 0.1289199 -0.10465262 -0.09555239 0.021233866 -0.0318508
0.037917618 0.109202735 0.03943432 0.056118075 0.013650342 -0.069768414 0.08190205 0.116786264
0.12133637 -0.037917618 0.04853455 0.11981967 0.04853455 0.062184893 0.033367503 0.05915148
-0.11526956 0.0970691 0.09858581 0.10616933 0.016683752 -0.0060668187 0.116786264 -0.0045501143
0.10010251 -0.030334093 -0.043984435 0.033367503 -0.068251714 -0.08038535 -0.053084664 -0.116786264
-0.0637016 0.05156796 0.04550114 -0.060668185 -0.11223615 0.11223615 -0.053084664 -0.056118075
0.13802013 -0.084935464 -0.08190205 -0.04853455 -0.01971716 -0.0060668187 0.12285308 0.030334093
-0.077351935 -0.01971716 -0.07886864 -0.12285308 0.06673501 0.10465262 0.050051253 -0.024267275
0.116786264 0.06673501 0.068251714 -0.0318508 -0.05915148 -0.04550114 -0.11375285 -0.13802013
0.11830296 -0.027300684 0.04550114 -0.02881739 0.02578398 0.047017846 -0.0637016 0.047017846
-0.09403569 0.08038535 0.0015167047 -0.0652183 0.036400914 -0.013650342 -0.11981967 0.124369785
-0.12133637 -0.027300684 0.0015167047 0.040951025 0.0045501143 0.0030334094 0.116786264 0.034884207
0.062184893 -0.030334093 -0.012133637 -0.075835235 0.13802013 -0.08948558 -0.0637016 -0.01971716
-0.086452164 -0.012133637 -0.021233866 0.053084664 -0.11223615 -0.016683752 0.021233866 0.007583523
0.033367503 -0.02275057 -0.02881739 -0.013650342 0.12133637 -0.012133637 0.0015167047 -0.033367503
-0.0015167047 -0.10616933 0.11223615 0.109202735 0.056118075 -0.018200457 0.109202735 -0.08948558
0.06673501 -0.08341876 -0.0637016 -0.08948558 -0.024267275 0.08190205 0.062184893 -0.053084664
-0.021233866 -0.033367503 0.024267275 0.06673501 0.13195331 -0.14712036 -0.05156796 0.009100229
0.08341876 -0.05915148 0.109202735 -0.013650342 0.033367503 0.09403569 -0.02578398 0.11223615
-0.0030334094 0.015167046 -0.05763478 0.075835235 0.042467732 0.09858581 -0.086452164 -0.116786264
0.053084664 0.027300684 0.05156796 0.0970691 -0.03943432 -0.02578398 -0.10465262 -0.0318508
0.04550114 0.09858581 0.07128512 -0.11375285 -0.040951025 0.11375285 0.12285308 0.0
-0.10313592 0.068251714 -0.05156796 -0.11981967 0.14712036 -0.033367503 0.016683752 0.077351935
0.06673501 -0.0637016 0.09555239 -0.030334093 0.0 0.037917618 -0.11526956 -0.040951025
0.0 0.09100228 0.069768414 0.0030334094 0.116786264 -0.054601368 -0.04853455 0.10313592
-0.030334093 0.030334093 -0.07128512 0.09555239 -0.0318508 -0.101619214 0.11981967 -0.054601368
0.0970691 -0.04853455 0.11981967 -0.07280183 0.02275057 0.11981967 -0.02881739 0.12588648
0.10010251 -0.075835235 -0.08038535 0.03943432 0.053084664 0.030334093 -0.01971716 0.13650343
-0.050051253 0.05915148 0.0318508 0.09555239 -0.037917618 0.036400914 0.07431853 -0.04550114
0.05915148 -0.0970691 -0.08038535 0.11375285 0.107686035 0.124369785 0.027300684 0.09555239
0.11375285 0.016683752 0.04853455 -0.11375285 -0.047017846 0.016683752 0.01971716 -0.11981967

sequential_26/quant_dense_79/MatMul;sequential_26/quant_dense_79/LastValueQuant/FakeQuantWithMinMaxVars i1 [50, 100] scale=0.0019051998 zero_point=0
00000000: 1c51 22ca 422d e2ba 581f 7256 f311 c634
00000010: e559 43c1 e9a8 d728 12ac 3945 bdaa b947
00000020: b130 9c19 52cb 27c5 2dc3 a067 0660 cb5b
00000030: 344c 153d 252a 462b ca59 b2ef c89a 1640
00000040: e8ed f5a4 9dcd 2204 47e7 c3ae 5b18 2548
00000050: bcb6 495f 9743 970e d142 0acb 0536 f104
00000060: 463d eb0a 4e28 593c 5007 69a4 e1c9 bcf1
00000070: 2003 fc1e 0bee f7bd 9d3a 5362 bcfa 22d8
00000080: 3ea0 cd40 b0d6 d9b1 3fa5 afc9 25cf ad51
00000090: a332 0c60 b539 01b3 c69f ff1e a040 0d1c
000000a0: 302b 9a2f eccd 3b52 2055 cbc6 6f1a 1456
000000b0: 19c4 cd24 f516 5f66 1ea2 2abc a09e 56b2
000000c0: ec58 14f8 e8de 4c9f 9bc4 d20b 2519 f1bc
000000d0: c39f bb21 56ff c152 4419 6506 9f30 fc23
000000e0: 52b4 e5da 24d9 6060 4829 6ab7 290e c0bd
000000f0: 3bdf 266f 3ec9 1f22 d2e5 aad2 a74f f834
0.053345595 0.1543212 0.06477679 -0.10288079 0.1257432 0.085733995 -0.057155997 -0.13336399
0.16765758 0.059061196 0.21719278 0.1638472 -0.024767598 0.032388397 -0.11050159 0.09907039
-0.051440395 0.16956279 0.12764838 -0.12002759 -0.043819595 -0.16765758 -0.07811319 0.076207995
0.034293596 -0.16003679 0.10859639 0.13145879 -0.12764838 -0.1638472 -0.1352692 0.1352692
-0.15051079 0.09144959 -0.19051999 0.047629997 0.15622638 -0.10097559 0.07430279 -0.11240679
0.085733995 -0.11621719 -0.18289918 0.19623558 0.011431199 0.18289918 -0.10097559 0.17337319
0.09907039 0.1447952 0.040009197 0.11621719 0.070492394 0.08001839 0.13336399 0.0819236
-0.10288079 0.16956279 -0.14860559 -0.032388397 -0.10669119 -0.19433038 0.041914396 0.12193279
-0.045724794 -0.0361988 -0.020957198 -0.17527838 -0.18861479 -0.09716519 0.06477679 0.0076207994
0.1352692 -0.047629997 -0.11621719 -0.15622638 0.17337319 0.045724794 0.070492394 0.13717438
-0.12955359 -0.14098479 0.13907959 0.18099399 -0.20004599 0.12764838 -0.20004599 0.026672797
-0.08954439 0.1257432 0.019051999 -0.10097559 0.009525999 0.10288079 -0.028577998 0.0076207994
0.13336399 0.11621719 -0.040009197 0.019051999 0.14860559 0.076207995 0.16956279 0.11431199
0.15241599 0.013336399 0.20004599 -0.17527838 -0.059061196 -0.10478599 -0.12955359 -0.028577998
0.060966395 0.0057155993 -0.0076207994 0.057155997 0.020957198 -0.034293596 -0.017146798 -0.12764838
-0.18861479 0.11050159 0.15813158 0.18670958 -0.12955359 -0.011431199 0.06477679 -0.076207995
0.11812239 -0.18289918 -0.09716519 0.12193279 -0.15241599 -0.08001839 -0.07430279 -0.15051079
0.12002759 -0.17337319 -0.1543212 -0.10478599 0.070492394 -0.09335479 -0.15813158 0.1543212
-0.17718358 0.095259994 0.022862397 0.18289918 -0.14288999 0.10859639 0.0019051998 -0.14670038
-0.11050159 -0.18480438 -0.0019051998 0.057155997 -0.18289918 0.12193279 0.024767598 0.053345595
0.09144959 0.0819236 -0.19433038 0.08954439 -0.038103998 -0.09716519 0.11240679 0.15622638
0.060966395 0.16194199 -0.10097559 -0.11050159 0.21147718 0.049535196 0.038103998 0.1638472
0.047629997 -0.11431199 -0.09716519 0.06858719 -0.020957198 0.041914396 0.18099399 0.19433038
0.057155997 -0.17908879 0.08001839 -0.12955359 -0.18289918 -0.18670958 0.1638472 -0.14860559
-0.038103998 0.16765758 0.038103998 -0.015241599 -0.045724794 -0.06477679 0.1447952 -0.18480438
-0.19242518 -0.11431199 -0.08763919 0.020957198 0.070492394 0.047629997 -0.028577998 -0.12955359
-0.11621719 -0.18480438 -0.13145879 0.0628716 0.1638472 -0.0019051998 -0.12002759 0.15622638
0.12955359 0.047629997 0.19242518 0.011431199 -0.18480438 0.09144959 -0.0076207994 0.066681996
0.15622638 -0.1447952 -0.051440395 -0.0723976 0.06858719 -0.07430279 0.18289918 0.18289918
0.13717438 0.07811319 0.20195118 -0.13907959 0.07811319 0.026672797 -0.12193279 -0.12764838
0.11240679 -0.0628716 0.0723976 0.21147718 0.11812239 -0.10478599 0.059061196 0.06477679
-0.08763919 -0.051440395 -0.1638472 -0.08763919 -0.16956279 0.15051079 -0.015241599 0.09907039

sequential_26/quant_dense_80/MatMul;sequential_26/quant_dense_80/LastValueQuant/FakeQuantWithMinMaxVars i1 [10, 50] scale=0.0025444948 zero_point=0
00000000: 8a47 a1cc 9866 02d3 32d1 6098 ffc4 dd4f
00000010: 3f6e 7670 d256 6175 bf41 05fa 0703 ec04
00000020: 8856 d788 b969 f511 e162 4ff9 e771 6c83
00000030: 916d 5f17 4fab 9dfa 430d f058 f91e c4b6
00000040: 64f5 abfa c629 1d78 7961 38f3 901a ec37
00000050: 64d4 52f2 bf51 ba92 ea0d bf5e e6eb fb14
00000060: ea81 32ab dc87 c29e d7f5 19a6 b724 4b9a
00000070: bde3 3660 1c99 ea47 0ebc b1bd 7ac4 91ea
00000080: 5bdd 4023 0d58 c284 6f36 ce21 48b8 692d
00000090: e9a0 4e13 7990 40da 6021 0e91 057c b031
000000a0: 9711 37a7 055c 0c76 77c3 4acf fb3f 6bf1
000000b0: 63f6 f740 6d48 22de c6ce fdb5 9dbb 45f7
000000c0: e20e 6b3a d768 9131 91b8 b8f6 f940 dc50
000000d0: 8d4a 9ae9 0ead 7709 0166 3645 5593 d314
000000e0: e36c 9e25 f4a8 103c d9de dcc6 9a47 ec71
000000f0: 453e e959 e7d4 f4d3 bc30 81ac 9d7b 57d0
-0.30025038 0.18065913 -0.24172701 -0.13231373 -0.26462746 0.25953847 0.0050889896 -0.114502266
0.12722474 -0.11959126 0.2442715 -0.26462746 -0.0025444948 -0.15266968 -0.08905732 0.20101508
0.16030318 0.27989444 0.30025038 0.28498343 -0.11704676 0.21882655 0.246816 0.2977059
-0.16539216 0.16539216 0.012722474 -0.015266969 0.017811464 0.0076334844 -0.050889894 0.010177979
-0.30533937 0.21882655 -0.10432429 -0.30533937 -0.18065913 0.26717195 -0.027989443 0.043256413
-0.07887934 0.24936049 0.20101508 -0.017811464 -0.06361237 0.28752792 0.27480543 -0.31806186
-0.28243893 0.27734995 0.24172701 0.05852338 0.20101508 -0.21628205 -0.251905 -0.015266969
0.17048115 0.033078432 -0.040711917 0.22391555 -0.017811464 0.07633484 -0.15266968 -0.18829262
0.2544495 -0.027989443 -0.21628205 -0.015266969 -0.1475807 0.10432429 0.07379035 0.30533937
0.30788386 0.246816 0.14249171 -0.033078432 -0.28498343 0.066156864 -0.050889894 0.13994722
0.2544495 -0.11195777 0.20864858 -0.03562293 -0.16539216 0.20610408 -0.17811464 -0.27989444
-0.055978887 0.033078432 -0.16539216 0.23918252 -0.066156864 -0.05343439 -0.012722474 0.050889894
-0.055978887 -0.32315084 0.12722474 -0.21628205 -0.09160181 -0.30788386 -0.15775868 -0.24936049
-0.10432429 -0.027989443 0.06361237 -0.22900453 -0.18574812 0.09160181 0.19083712 -0.25953847
-0.17048115 -0.07379035 0.13740271 0.2442715 0.07124586 -0.26208296 -0.055978887 0.18065913
0.03562293 -0.17302565 -0.20101508 -0.17048115 0.31042838 -0.15266968 -0.28243893 -0.055978887
0.23154902 -0.08905732 0.16284767 0.08905732 0.033078432 0.22391555 -0.15775868 -0.31551737
0.28243893 0.13740271 -0.12722474 0.08396833 0.18320362 -0.18320362 0.26717195 0.114502266
-0.05852338 -0.2442715 0.19847059 0.048345402 0.30788386 -0.28498343 0.16284767 -0.096690804
0.2442715 0.08396833 0.03562293 -0.28243893 0.012722474 0.31551737 -0.20355958 0.12468024
-0.26717195 0.043256413 0.13994722 -0.22646004 0.012722474 0.23409352 0.030533938 0.30025038
0.30279487 -0.15521419 0.18829262 -0.12468024 -0.012722474 0.16030318 0.27226093 -0.03816742
0.251905 -0.025444947 -0.022900453 0.16284767 0.27734995 0.18320362 0.08651283 -0.08651283
-0.1475807 -0.12722474 -0.0076334844 -0.19083712 -0.251905 -0.17557015 0.17557015 -0.022900453
-0.07633484 0.03562293 0.27226093 0.1475807 -0.10432429 0.26462746 -0.28243893 0.12468024
-0.28243893 -0.18320362 -0.18320362 -0.025444947 -0.017811464 0.16284767 -0.09160181 0.20355958
-0.2926169 0.18829262 -0.25953847 -0.05852338 0.03562293 -0.21119307 0.30279487 0.022900453
0.0025444948 0.25953847 0.13740271 0.17557015 0.21628205 -0.27734995 -0.114502266 0.050889894
-0.07379035 0.27480543 -0.24936049 0.09414631 -0.030533938 -0.22391555 0.040711917 0.15266968
-0.099235296 -0.08651283 -0.09160181 -0.1475807 -0.25953847 0.18065913 -0.050889894 0.28752792
0.17557015 0.15775868 -0.05852338 0.22646004 -0.06361237 -0.11195777 -0.030533938 -0.114502266
-0.17302565 0.12213575 -0.32315084 -0.21373756 -0.251905 0.31297287 0.22137105 -0.12213575

sequential_26/quant_output/MatMul;sequential_26/quant_output/LastValueQuant/FakeQuantWithMinMaxVars i1 [1, 10] scale=0.005512325 zero_point=0
00000000: 0d81 ae37 166e 2cd2 c79f
0.07166023 -0.7000653 -0.45201066 0.3031779 0.12127115 0.6063558 0.2425423 -0.25356695
-0.31420252 -0.5346955
