models/opt-160x66x3.tflite (tflite, 234888 bytes, 9 tensors)

sequential_31/quant_conv2d_153/Conv2D;sequential_31/quant_conv2d_153/LastValueQuant/FakeQuantWithMinMaxVarsPerChannel i1 [24, 5, 5, 3]
000000 92 96 69 0c 1e c6 15 51 5b 45 e4 7f 1f f4 38 ad
       -110 -106 105 12 30 -58 21 81 91 69 -28 127 31 -12 56 -83
000010 f8 45 68 4a e0 ec e7 65 2a ef 7b 5a f4 74 be f5
       -8 69 104 74 -32 -20 -25 101 42 -17 123 90 -12 116 -66 -11
000020 1a fc 93 d5 e5 35 47 f8 7b fb 5c c0 77 c6 40 ef
       26 -4 -109 -43 -27 53 71 -8 123 -5 92 -64 119 -58 64 -17
000030 92 4c b8 0a a6 a6 f5 0c 9b 39 fe a8 b9 3c 8e 0c
       -110 76 -72 10 -90 -90 -11 12 -101 57 -2 -88 -71 60 -114 12
000040 a7 16 46 e2 0e b2 b6 91 47 7b 77 90 d4 de 23 d3
       -89 22 70 -30 14 -78 -74 -111 71 123 119 -112 -44 -34 35 -45
000050 a5 41 8d 3c 2d 74 a0 20 6d 37 7d aa 63 2a ce f6
       -91 65 -115 60 45 116 -96 32 109 55 125 -86 99 42 -50 -10
000060 b2 4c 1d 19 10 15 64 14 ad 64 d0 ca 36 c6 b4 33
       -78 76 29 25 16 21 100 20 -83 100 -48 -54 54 -58 -76 51
000070 00 c7 01 97 cf 5c 0d ec 69 55 6f cd 89 83 03 31
       0 -57 1 -105 -49 92 13 -20 105 85 111 -51 -119 -125 3 49
000080 53 f1 ea 63 e5 1c e5 81 62 4a df 9c fd 83 47 73
       83 -15 -22 99 -27 28 -27 -127 98 74 -33 -100 -3 -125 71 115
000090 49 16 25 d6 f0 5c 96 af d9 46 7f af 07 f5 ce 58
       73 22 37 -42 -16 92 -106 -81 -39 70 127 -81 7 -11 -50 88
0000a0 c7 ad 9b 2a ad f9 25 1a 69 69 6a 65 7a 2d be a7
       -57 -83 -101 42 -83 -7 37 26 105 105 106 101 122 45 -66 -89
0000b0 e9 72 fe ef 3b 4f 6c cd 18 35 0e d2 04 e2 4b f2
       -23 114 -2 -17 59 79 108 -51 24 53 14 -46 4 -30 75 -14
0000c0 20 5d 50 66 03 3e 63 1a 4d a8 2c 58 57 11 1b 0b
       32 93 80 102 3 62 99 26 77 -88 44 88 87 17 27 11
0000d0 4c 5d 14 b2 de b1 00 fd 4f c9 d4 c5 e0 10 7a 62
       76 93 20 -78 -34 -79 0 -3 79 -55 -44 -59 -32 16 122 98
0000e0 4f 29 e8 74 06 22 99 b2 ff c5 90 35 5f 40 8d 98
       79 41 -24 116 6 34 -103 -78 -1 -59 -112 53 95 64 -115 -104
0000f0 a7 06 31 17 d7 62 5d fd 22 0a 52 96 e1 3c f1 4c
       -89 6 49 23 -41 98 93 -3 34 10 82 -106 -31 60 -15 76

sequential_31/quant_conv2d_154/Conv2D;sequential_31/quant_conv2d_154/LastValueQuant/FakeQuantWithMinMaxVarsPerChannel i1 [36, 5, 5, 24]
000000 a0 04 9a ff 3e ce 1e 66 ab 18 3e 5b 98 e1 c6 01
       -96 4 -102 -1 62 -50 30 102 -85 24 62 91 -104 -31 -58 1
000010 0f 8c ef 3c 07 0f 21 4a 68 b0 8a fb 45 cb 17 3a
       15 -116 -17 60 7 15 33 74 104 -80 -118 -5 69 -53 23 58
000020 bc 10 53 8f bf 0a 07 34 45 bc a2 18 93 d7 a9 51
       -68 16 83 -113 -65 10 7 52 69 -68 -94 24 -109 -41 -87 81
000030 bf d6 a3 2d be f2 b8 c4 2f 9f 30 f4 a8 14 bc 48
       -65 -42 -93 45 -66 -14 -72 -60 47 -97 48 -12 -88 20 -68 72
000040 a3 95 db 58 94 f2 48 19 2d d6 f2 ad c7 09 9e 2b
       -93 -107 -37 88 -108 -14 72 25 45 -42 -14 -83 -57 9 -98 43
000050 62 1c 8e 23 99 1a 63 90 ca 6d b6 2c 2d e0 0c 56
       98 28 -114 35 -103 26 99 -112 -54 109 -74 44 45 -32 12 86
000060 06 e0 34 31 b4 63 19 40 e5 70 d2 43 91 de a1 51
       6 -32 52 49 -76 99 25 64 -27 112 -46 67 -111 -34 -95 81
000070 67 e3 3b b3 da 49 51 1a b7 c7 25 ce 0d 0b 09 58
       103 -29 59 -77 -38 73 81 26 -73 -57 37 -50 13 11 9 88
000080 ef e3 b8 35 5c d8 c4 67 9a bf 05 d3 d4 c3 36 da
       -17 -29 -72 53 92 -40 -60 103 -102 -65 5 -45 -44 -61 54 -38
000090 2a 7f 32 39 fd 16 b2 c7 0d ee 40 e2 23 47 fa ab
       42 127 50 57 -3 22 -78 -57 13 -18 64 -30 35 71 -6 -85
0000a0 1f f0 2e f9 a7 9a fd 65 29 3e ae af f0 47 d0 a5
       31 -16 46 -7 -89 -102 -3 101 41 62 -82 -81 -16 71 -48 -91
0000b0 ef a4 12 d0 d0 d5 93 92 50 c7 9a c0 a6 cb bd 9f
       -17 -92 18 -48 -48 -43 -109 -110 80 -57 -102 -64 -90 -53 -67 -97
0000c0 1a 29 af dd a5 e4 93 0b b4 b1 a9 5e 07 97 cf d1
       26 41 -81 -35 -91 -28 -109 11 -76 -79 -87 94 7 -105 -49 -47
0000d0 de 98 1b 64 ec da fd 6a d3 e9 c8 c5 27 1b 65 b7
       -34 -104 27 100 -20 -38 -3 106 -45 -23 -56 -59 39 27 101 -73
0000e0 05 5a 47 64 d9 f0 fa ba a8 4c da 35 fc 68 98 66
       5 90 71 100 -39 -16 -6 -70 -88 76 -38 53 -4 104 -104 102
0000f0 35 9f 9c 50 6d 15 63 e4 f8 ef cb a4 4f 36 57 19
       53 -97 -100 80 109 21 99 -28 -8 -17 -53 -92 79 54 87 25

sequential_31/quant_conv2d_155/Conv2D;sequential_31/quant_conv2d_155/LastValueQuant/FakeQuantWithMinMaxVarsPerChannel i1 [48, 5, 5, 36]
000000 b3 a9 a5 2c 4e 02 01 2c ba 38 bd da f6 21 4f 25
       -77 -87 -91 44 78 2 1 44 -70 56 -67 -38 -10 33 79 37
000010 13 99 9d 25 9a ea ed 03 ca d6 65 e0 14 d4 9a 3e
       19 -103 -99 37 -102 -22 -19 3 -54 -42 101 -32 20 -44 -102 62
000020 54 b4 3c 1b 55 43 0e f7 28 dc f4 e2 33 4d 14 c0
       84 -76 60 27 85 67 14 -9 40 -36 -12 -30 51 77 20 -64
000030 c2 71 19 97 ae 4e 9d 02 50 e6 49 ab 0c f4 03 ca
       -62 113 25 -105 -82 78 -99 2 80 -26 73 -85 12 -12 3 -54
000040 65 35 fe b0 39 01 f4 c5 ef 60 31 97 df bf fa c2
       101 53 -2 -80 57 1 -12 -59 -17 96 49 -105 -33 -65 -6 -62
000050 b9 9c 17 15 87 ba 61 9b b2 b3 e9 e4 f9 17 d9 25
       -71 -100 23 21 -121 -70 97 -101 -78 -77 -23 -28 -7 23 -39 37
000060 f6 20 31 05 5b 97 1c 41 17 4f ae 48 51 46 a5 2f
       -10 32 49 5 91 -105 28 65 23 79 -82 72 81 70 -91 47
000070 b6 03 ef a8 0f 11 b3 57 54 cf e3 f1 21 b6 c9 f5
       -74 3 -17 -88 15 17 -77 87 84 -49 -29 -15 33 -74 -55 -11
000080 43 9a c4 ce 09 9d f4 d3 b7 26 e0 55 5c d7 05 50
       67 -102 -60 -50 9 -99 -12 -45 -73 38 -32 85 92 -41 5 80
000090 fb 06 cb 4b b6 21 ff 60 2e 4c 50 ec 32 fa 51 35
       -5 6 -53 75 -74 33 -1 96 46 76 80 -20 50 -6 81 53
0000a0 e7 be 1d 8e 59 8e 35 b5 ef 47 40 f1 c3 2a ef 59
       -25 -66 29 -114 89 -114 53 -75 -17 71 64 -15 -61 42 -17 89
0000b0 05 19 40 55 16 69 a5 e1 20 25 c1 5d d0 59 ad fb
       5 25 64 85 22 105 -91 -31 32 37 -63 93 -48 89 -83 -5
0000c0 fa d8 23 d8 5c b0 43 07 06 4c ac 48 20 02 27 22
       -6 -40 35 -40 92 -80 67 7 6 76 -84 72 32 2 39 34
0000d0 29 1c d9 e0 02 1e 0d b2 3f ed 97 2f 40 a6 f5 fe
       41 28 -39 -32 2 30 13 -78 63 -19 -105 47 64 -90 -11 -2
0000e0 3f 34 c5 3c 43 1a 4f c4 fb ae f3 c1 01 13 c4 fe
       63 52 -59 60 67 26 79 -60 -5 -82 -13 -63 1 19 -60 -2
0000f0 04 1b 97 03 f8 c4 2e 5b f9 4f 9a c2 ea 62 a4 d2
       4 27 -105 3 -8 -60 46 91 -7 79 -102 -62 -22 98 -92 -46

sequential_31/quant_conv2d_156/Conv2D;sequential_31/quant_conv2d_156/LastValueQuant/FakeQuantWithMinMaxVarsPerChannel i1 [64, 3, 3, 48]
000000 c6 1f e5 10 d8 0a 51 74 f0 9e 00 e2 cb c7 af df
       -58 31 -27 16 -40 10 81 116 -16 -98 0 -30 -53 -57 -81 -33
000010 17 e7 de c7 0c ef d6 cd b6 03 4b b5 9d cf 95 9b
       23 -25 -34 -57 12 -17 -42 -51 -74 3 75 -75 -99 -49 -107 -101
000020 8e a1 3b 31 a1 e0 e7 43 2e c2 f9 e9 55 72 e7 cc
       -114 -95 59 49 -95 -32 -25 67 46 -62 -7 -23 85 114 -25 -52
000030 d6 ff d9 d2 b2 70 1c 28 a8 07 c6 cd 8e c4 d0 c0
       -42 -1 -39 -46 -78 112 28 40 -88 7 -58 -51 -114 -60 -48 -64
000040 93 4e 50 e1 93 97 63 ed 16 63 6a f9 0d 03 ba 06
       -109 78 80 -31 -109 -105 99 -19 22 99 106 -7 13 3 -70 6
000050 c6 22 dd 3e 51 4d 39 40 65 05 25 18 6f 56 68 e4
       -58 34 -35 62 81 77 57 64 101 5 37 24 111 86 104 -28
000060 02 6c 97 02 6c 48 d6 3b 4e ac b8 46 d6 d4 bb 31
       2 108 -105 2 108 72 -42 59 78 -84 -72 70 -42 -44 -69 49
000070 5d 6d 5d 5f 11 09 5a 34 74 36 07 05 56 64 bb b1
       93 109 93 95 17 9 90 52 116 54 7 5 86 100 -69 -79
000080 fb a1 12 b4 d5 64 4c 6b e6 9e 97 0d d6 b4 de 92
       -5 -95 18 -76 -43 100 76 107 -26 -98 -105 13 -42 -76 -34 -110
000090 bb d8 c2 4f e4 81 ab 28 f0 c5 cf b1 dd 10 c2 15
       -69 -40 -62 79 -28 -127 -85 40 -16 -59 -49 -79 -35 16 -62 21
0000a0 b5 07 ca 27 55 d9 19 a6 49 64 57 c9 14 a4 51 47
       -75 7 -54 39 85 -39 25 -90 73 100 87 -55 20 -92 81 71
0000b0 e1 b0 58 36 e3 fa d4 06 0f b7 3c e3 60 c1 b7 0b
       -31 -80 88 54 -29 -6 -44 6 15 -73 60 -29 96 -63 -73 11
0000c0 25 5b f7 1a cd 67 c8 0d 38 b6 5e 9b 09 f4 e7 5a
       37 91 -9 26 -51 103 -56 13 56 -74 94 -101 9 -12 -25 90
0000d0 6c de ff a5 b8 43 c9 f1 b2 69 54 20 64 c5 e4 1d
       108 -34 -1 -91 -72 67 -55 -15 -78 105 84 32 100 -59 -28 29
0000e0 01 40 23 9d 49 84 dd 15 e1 9a 6c 3c c9 65 08 56
       1 64 35 -99 73 -124 -35 21 -31 -102 108 60 -55 101 8 86
0000f0 f7 16 a9 bd ce 2d 43 02 b5 41 03 c0 fd d3 f6 fd
       -9 22 -87 -67 -50 45 67 2 -75 65 3 -64 -3 -45 -10 -3

sequential_31/quant_conv2d_157/Conv2D;sequential_31/quant_conv2d_157/LastValueQuant/FakeQuantWithMinMaxVarsPerChannel i1 [64, 3, 3, 64]
000000 b3 fd fc 35 93 3b 32 09 1b 66 d3 15 ab 59 a7 bc
       -77 -3 -4 53 -109 59 50 9 27 102 -45 21 -85 89 -89 -68
000010 59 16 c3 42 f2 3d 43 de 62 40 ab 6a b4 01 f8 15
       89 22 -61 66 -14 61 67 -34 98 64 -85 106 -76 1 -8 21
000020 c7 48 11 37 9a 39 1e 05 c3 ba ba 1b 2e 94 3f 10
       -57 72 17 55 -102 57 30 5 -61 -70 -70 27 46 -108 63 16
000030 58 42 4e 53 c6 90 27 5a 3f 43 be 22 18 b0 aa fd
       88 66 78 83 -58 -112 39 90 63 67 -66 34 24 -80 -86 -3
000040 ce d0 b3 a4 4c d6 2d 4d 4e b4 08 64 b2 a3 41 b4
       -50 -48 -77 -92 76 -42 45 77 78 -76 8 100 -78 -93 65 -76
000050 d3 d2 af 3e 0d 60 ae eb d2 db b2 35 20 b2 a0 5e
       -45 -46 -81 62 13 96 -82 -21 -46 -37 -78 53 32 -78 -96 94
000060 fe 6a e9 66 e0 40 f7 12 d7 4d 7f 92 14 d2 1f 68
       -2 106 -23 102 -32 64 -9 18 -41 77 127 -110 20 -46 31 104
000070 68 ac fc a2 19 34 62 4e 5b 4b 6d 09 b0 74 49 6b
       104 -84 -4 -94 25 52 98 78 91 75 109 9 -80 116 73 107
000080 e6 d2 b4 dd 30 dc c5 a7 14 1b 52 ab f0 a2 6d 16
       -26 -46 -76 -35 48 -36 -59 -89 20 27 82 -85 -16 -94 109 22
000090 6d 66 b2 ad c5 06 ab 0b 9d 04 9c e8 46 64 1f e7
       109 102 -78 -83 -59 6 -85 11 -99 4 -100 -24 70 100 31 -25
0000a0 26 c8 d4 fb b8 b6 41 68 43 1b 2e 36 c8 09 6d d6
       38 -56 -44 -5 -72 -74 65 104 67 27 46 54 -56 9 109 -42
0000b0 4e df 97 f3 68 8a 86 29 23 0e e1 af a4 b8 62 52
       78 -33 -105 -13 104 -118 -122 41 35 14 -31 -81 -92 -72 98 82
0000c0 ee 62 1d a5 08 61 40 da 37 cf 10 5b a4 f2 a7 12
       -18 98 29 -91 8 97 64 -38 55 -49 16 91 -92 -14 -89 18
0000d0 1a 53 36 e6 cf ce 11 e3 42 f7 52 56 fb 00 f2 99
       26 83 54 -26 -49 -50 17 -29 66 -9 82 86 -5 0 -14 -103
0000e0 58 50 f0 c6 db a4 61 47 fe bd 04 4b 3d b6 55 e0
       88 80 -16 -58 -37 -92 97 71 -2 -67 4 75 61 -74 85 -32
0000f0 60 3a 05 33 3a ae 51 96 3c 09 1d e9 94 3c e7 b7
       96 58 5 51 58 -82 81 -106 60 9 29 -23 -108 60 -25 -73

sequential_31/quant_dense_84/MatMul;sequential_31/quant_dense_84/LastValueQuant/FakeQuantWithMinMaxVars i1 [100, 832] scale=0.00078333454 zero_point=0
000000 4c bb ab c4 ea 2e 08 99 cb 20 c0 d8 9d 40 ac e7
       0.059533425 -0.054050084 -0.06658344 -0.047000073 -0.01723336 0.03603339 0.0062666764 -0.080683455 -0.041516732 0.025066705 -0.05013341 -0.031333383 -0.07755012 0.05013341 -0.0658001 -0.019583363
000010 5a 30 08 0b 2b e5 20 48 2d 4c 9e 53 0f 04 b3 f0
       0.070500106 0.03760006 0.0062666764 0.00861668 0.033683386 -0.021150032 0.025066705 0.056400087 0.035250053 0.059533425 -0.07676679 0.06501677 0.011750018 0.0031333382 -0.06031676 -0.012533353
000020 01 c1 d8 d3 18 f9 97 52 02 ee bb e1 5f f1 3a 35
       0.00078333454 -0.049350075 -0.031333383 -0.035250053 0.01880003 -0.005483342 -0.082250126 0.06423343 0.0015666691 -0.014100022 -0.054050084 -0.02428337 0.07441678 -0.011750018 0.045433402 0.041516732
000030 20 fe de ab 0e 9e bd 5c fb c9 16 a5 13 3d b1 3b
       0.025066705 -0.0015666691 -0.026633374 -0.06658344 0.010966684 -0.07676679 -0.052483413 0.07206678 -0.003916673 -0.0430834 0.01723336 -0.071283445 0.014883356 0.04778341 -0.061883427 0.046216737
000040 ca 28 30 f7 aa be 21 48 dc a6 ab 06 ab b0 c0 9d
       -0.042300064 0.031333383 0.03760006 -0.007050011 -0.06736677 -0.05170008 0.02585004 0.056400087 -0.028200043 -0.070500106 -0.06658344 0.0047000074 -0.06658344 -0.06266677 -0.05013341 -0.07755012
000050 d5 f6 3c cc 94 3d 56 34 d2 0d fd 4d 1a 12 0c fc
       -0.033683386 -0.007833346 0.047000073 -0.040733397 -0.08460013 0.04778341 0.06736677 0.040733397 -0.03603339 0.010183349 -0.0023500037 0.06031676 0.020366699 0.014100022 0.009400015 -0.0031333382
000060 9c 1b f8 e3 fe b0 ae 2b c7 a4 a4 1f d3 e8 29 e8
       -0.07833345 0.021150032 -0.0062666764 -0.022716701 -0.0015666691 -0.06266677 -0.06423343 0.033683386 -0.04465007 -0.07206678 -0.07206678 0.02428337 -0.035250053 -0.01880003 0.032116715 -0.01880003
000070 52 d4 15 ad 20 c4 57 5a 1f b7 ba 9b 34 08 16 a5
       0.06423343 -0.03446672 0.016450025 -0.06501677 0.025066705 -0.047000073 0.0681501 0.070500106 0.02428337 -0.057183422 -0.05483342 -0.07911679 0.040733397 0.0062666764 0.01723336 -0.071283445
000080 05 d2 f1 0e f7 b2 68 65 d0 24 e8 ed e9 b2 53 e9
       0.003916673 -0.03603339 -0.011750018 0.010966684 -0.007050011 -0.061100096 0.081466794 0.07911679 -0.03760006 0.028200043 -0.01880003 -0.014883356 -0.018016694 -0.061100096 0.06501677 -0.018016694
000090 1b c4 28 e0 20 9d f4 c3 4c 1d ce ff 21 3a a0 19
       0.021150032 -0.047000073 0.031333383 -0.025066705 0.025066705 -0.07755012 -0.009400015 -0.04778341 0.059533425 0.022716701 -0.039166726 -0.00078333454 0.02585004 0.045433402 -0.07520012 0.019583363
0000a0 b2 a7 51 e9 bc f3 26 9a 36 dd dc ca 61 19 0b 2a
       -0.061100096 -0.069716774 0.0634501 -0.018016694 -0.05326675 -0.010183349 0.029766712 -0.07990012 0.042300064 -0.02741671 -0.028200043 -0.042300064 0.07598345 0.019583363 0.00861668 0.03290005
0000b0 2b 13 ff f5 1e c2 b4 c2 42 f4 3c 20 9d f4 5b 60
       0.033683386 0.014883356 -0.00078333454 -0.00861668 0.023500036 -0.04856674 -0.059533425 -0.04856674 0.05170008 -0.009400015 0.047000073 0.025066705 -0.07755012 -0.009400015 0.071283445 0.07520012
0000c0 b3 e2 df 57 d5 06 c0 ff a6 fe c2 d9 1b 38 bf 54
       -0.06031676 -0.023500036 -0.02585004 0.0681501 -0.033683386 0.0047000074 -0.05013341 -0.00078333454 -0.070500106 -0.0015666691 -0.04856674 -0.030550048 0.021150032 0.043866735 -0.050916746 0.0658001
0000d0 e7 c6 cc 43 ae 35 17 b5 f8 31 b9 f3 2a 2c bc e8
       -0.019583363 -0.045433402 -0.040733397 0.052483413 -0.06423343 0.041516732 0.018016694 -0.05875009 -0.0062666764 0.038383394 -0.05561675 -0.010183349 0.03290005 0.03446672 -0.05326675 -0.01880003
0000e0 02 60 1d a7 dd a9 d4 c4 37 c0 4d 3d 25 20 0b 32
       0.0015666691 0.07520012 0.022716701 -0.069716774 -0.02741671 -0.0681501 -0.03446672 -0.047000073 0.0430834 -0.05013341 0.06031676 0.04778341 0.028983379 0.025066705 0.00861668 0.039166726
0000f0 13 3f 31 cb f7 60 9e 2c 27 fc 14 c9 fe 99 34 ed
       0.014883356 0.049350075 0.038383394 -0.041516732 -0.007050011 0.07520012 -0.07676679 0.03446672 0.030550048 -0.0031333382 0.015666692 -0.0430834 -0.0015666691 -0.080683455 0.040733397 -0.014883356

sequential_31/quant_dense_85/MatMul;sequential_31/quant_dense_85/LastValueQuant/FakeQuantWithMinMaxVars i1 [50, 100] scale=0.0016334145 zero_point=0
000000 56 9a b6 79 44 f0 de 2d 68 79 6b 64 cd 6c c5 e1
       0.14047365 -0.16660829 -0.12087268 0.19764316 0.11107219 -0.026134633 -0.055536095 0.07350365 0.16987512 0.19764316 0.17477536 0.16334145 -0.083304144 0.17640877 -0.09637146 -0.050635852
000010 90 8e fa e8 73 89 f5 01 9b 46 77 eb ba bb db 67
       -0.18294242 -0.18620926 -0.009800487 -0.03920195 0.18784267 -0.19437633 -0.01796756 0.0016334145 -0.16497487 0.11433902 0.19437633 -0.034301706 -0.11433902 -0.1127056 -0.06043634 0.1682417
000020 fa bb cf 05 75 91 74 a9 ba 1c f8 20 5a dc 2f e1
       -0.009800487 -0.1127056 -0.08003731 0.008167073 0.1911095 -0.18130901 0.18947609 -0.14210707 -0.11433902 0.045735605 -0.013067316 0.052269265 0.1470073 -0.058802925 0.076770484 -0.050635852
000030 1f 55 d8 8a 60 e4 46 4c 0e bf d0 07 e5 c0 5f e8
       0.050635852 0.13884023 -0.065336585 -0.19274291 0.1568078 -0.045735605 0.11433902 0.1241395 0.022867803 -0.10617194 -0.0784039 0.011433901 -0.044102192 -0.10453853 0.15517437 -0.03920195
000040 2c 98 0a 4b 86 a1 a9 00 d2 d5 e2 70 c5 d7 6b bb
       0.07187024 -0.16987512 0.016334146 0.12250609 -0.19927657 -0.15517437 -0.14210707 0.0 -0.07513707 -0.070236824 -0.049002435 0.18294242 -0.09637146 -0.06697 0.17477536 -0.1127056
000050 29 b4 d8 76 d2 3f 20 35 af 5b d9 1a 63 a5 74 f2
       0.06697 -0.1241395 -0.065336585 0.19274291 -0.07513707 0.10290512 0.052269265 0.08657097 -0.13230658 0.14864072 -0.063703164 0.04246878 0.16170804 -0.14864072 0.18947609 -0.022867803
000060 69 79 8e 63 bc c1 94 31 89 51 b7 c5 3e b1 63 9d
       0.17150852 0.19764316 -0.18620926 0.16170804 -0.11107219 -0.10290512 -0.17640877 0.08003731 -0.19437633 0.13230658 -0.11923926 -0.09637146 0.101271704 -0.12903975 0.16170804 -0.16170804
000070 58 9b 84 15 c8 13 a6 5d c5 48 63 98 c8 b7 b7 3c
       0.14374048 -0.16497487 -0.20254341 0.034301706 -0.09147121 0.031034876 -0.1470073 0.15190755 -0.09637146 0.11760585 0.16170804 -0.16987512 -0.09147121 -0.11923926 -0.11923926 0.09800487
000080 2e 1b 6a 59 56 e7 ab f6 fd d5 63 22 c3 fe e0 35
       0.07513707 0.044102192 0.17314194 0.1453739 0.14047365 -0.040835362 -0.13884023 -0.016334146 -0.0049002436 -0.070236824 0.16170804 0.055536095 -0.09963828 -0.003266829 -0.052269265 0.08657097
000090 62 51 fc 5d 9a d0 2e a0 f6 99 e7 f1 e6 c1 a5 c6
       0.16007462 0.13230658 -0.006533658 0.15190755 -0.16660829 -0.0784039 0.07513707 -0.1568078 -0.016334146 -0.1682417 -0.040835362 -0.024501218 -0.04246878 -0.10290512 -0.14864072 -0.094738044
0000a0 62 1a bc 46 c5 f7 47 66 de 73 63 94 6f ae 93 d7
       0.16007462 0.04246878 -0.11107219 0.11433902 -0.09637146 -0.014700731 0.11597243 0.16660829 -0.055536095 0.18784267 0.16170804 -0.17640877 0.18130901 -0.13394 -0.17804219 -0.06697
0000b0 96 ea 01 39 65 10 6c 9e c1 9a ab a1 87 ae 3d ce
       -0.17314194 -0.03593512 0.0016334145 0.09310463 0.16497487 0.026134633 0.17640877 -0.16007462 -0.10290512 -0.16660829 -0.13884023 -0.15517437 -0.19764316 -0.13394 0.09963828 -0.081670724
0000c0 64 08 ca 28 73 4e d9 64 92 b2 f8 17 7b 93 4a 5a
       0.16334145 0.013067316 -0.088204384 0.065336585 0.18784267 0.12740633 -0.063703164 0.16334145 -0.1796756 -0.12740633 -0.013067316 0.037568536 0.20090999 -0.17804219 0.12087268 0.1470073
0000d0 88 ba c0 f2 aa f5 1f 2e 73 46 fd e6 ef 5c f9 62
       -0.19600974 -0.11433902 -0.10453853 -0.022867803 -0.14047365 -0.01796756 0.050635852 0.07513707 0.18784267 0.11433902 -0.0049002436 -0.04246878 -0.027768048 0.15027414 -0.011433901 0.16007462
0000e0 e9 23 df 25 88 50 d4 cf 9a 2a 96 b0 e6 41 da da
       -0.037568536 0.05716951 -0.05390268 0.06043634 -0.19600974 0.13067317 -0.07187024 -0.08003731 -0.16660829 0.06860341 -0.17314194 -0.13067317 -0.04246878 0.10617194 -0.06206975 -0.06206975
0000f0 b1 72 35 b7 27 f4 20 1c 78 3e 6f f6 92 ba 6b 73
       -0.12903975 0.18620926 0.08657097 -0.11923926 0.063703164 -0.019600974 0.052269265 0.045735605 0.19600974 0.101271704 0.18130901 -0.016334146 -0.1796756 -0.11433902 0.17477536 0.18784267

sequential_31/quant_dense_86/MatMul;sequential_31/quant_dense_86/LastValueQuant/FakeQuantWithMinMaxVars i1 [10, 50] scale=0.0025188918 zero_point=0
000000 f7 10 d0 12 40 67 89 3d 3b e2 85 27 49 cb 19 ad
       -0.022670027 0.04030227 -0.12090681 0.045340054 0.16120908 0.25944585 -0.29974812 0.1536524 0.14861462 -0.075566754 -0.3098237 0.098236784 0.1838791 -0.13350126 0.06297229 -0.20906802
000010 78 52 8b cd 44 fa 10 e8 65 06 2f e6 5a eb 30 6e
       0.30226701 0.20654912 -0.29471034 -0.12846348 0.17128465 -0.015113351 0.04030227 -0.060453404 0.25440806 0.015113351 0.118387915 -0.065491185 0.22670026 -0.052896727 0.12090681 0.2770781
000020 38 d3 86 f1 56 5a 87 92 ca ef d5 f0 a6 57 4c d5
       0.14105794 -0.11335013 -0.3073048 -0.037783377 0.21662469 0.22670026 -0.3047859 -0.2770781 -0.13602015 -0.04282116 -0.108312346 -0.04030227 -0.22670026 0.21914358 0.19143578 -0.108312346
000030 17 28 67 27 2f c3 94 aa c5 86 33 d1 2d ba 88 0e
       0.05793451 0.10075568 0.25944585 0.098236784 0.118387915 -0.1536524 -0.2720403 -0.21662469 -0.14861462 -0.3073048 0.12846348 -0.118387915 0.11335013 -0.17632243 -0.30226701 0.035264485
000040 73 4d 0d d5 bc 62 c4 86 72 de b1 84 72 ef 70 31
       0.28967255 0.19395468 0.032745592 -0.108312346 -0.17128465 0.2468514 -0.15113351 -0.3073048 0.28715366 -0.08564232 -0.19899246 -0.31234258 0.28715366 -0.04282116 0.28211588 0.1234257
000050 fe c8 08 55 bf 20 1b 42 1b 14 5a ac e6 22 90 53
       -0.0050377836 -0.14105794 0.020151135 0.2141058 -0.16372797 0.08060454 0.06801008 0.16624686 0.06801008 0.05037784 0.22670026 -0.21158691 -0.065491185 0.08564232 -0.28211588 0.20906802
000060 6d 31 0d d2 56 25 10 6d f2 7d 43 db 4c 23 19 0b
       0.2745592 0.1234257 0.032745592 -0.11586902 0.21662469 0.093199 0.04030227 0.2745592 -0.035264485 0.31486148 0.16876575 -0.093199 0.19143578 0.088161215 0.06297229 0.02770781
000070 b6 62 78 40 37 8e 0e bc 78 13 32 fa 64 b0 e6 a3
       -0.186398 0.2468514 0.30226701 0.16120908 0.13853905 -0.28715366 0.035264485 -0.17128465 0.30226701 0.047858946 0.12594458 -0.015113351 0.25188917 -0.20151135 -0.065491185 -0.23425694
000080 aa 9e cc 52 cc 72 c7 ed 0a 61 89 86 5e 78 cd c0
       -0.21662469 -0.2468514 -0.13098237 0.20654912 -0.13098237 0.28715366 -0.14357683 -0.047858946 0.02518892 0.2443325 -0.29974812 -0.3073048 0.23677583 0.30226701 -0.12846348 -0.16120908
000090 f1 d1 b5 42 7d 05 77 51 dd 28 b0 b3 20 de ab 4b
       -0.037783377 -0.118387915 -0.18891689 0.16624686 0.31486148 0.01259446 0.29974812 0.20403023 -0.088161215 0.10075568 -0.20151135 -0.19395468 0.08060454 -0.08564232 -0.2141058 0.18891689
0000a0 f1 bf 8e d4 fc 91 ba 2f 53 6b 4d e4 ce b4 e0 c1
       -0.037783377 -0.16372797 -0.28715366 -0.11083124 -0.010075567 -0.27959698 -0.17632243 0.118387915 0.20906802 0.26952142 0.19395468 -0.07052897 -0.12594458 -0.19143578 -0.08060454 -0.15869018
0000b0 dd b2 27 04 9e 9a 9e 5a bb 65 2a a8 0f 34 e7 94
       -0.088161215 -0.19647357 0.098236784 0.010075567 -0.2468514 -0.25692695 -0.2468514 0.22670026 -0.17380354 0.25440806 0.105793454 -0.22166248 0.037783377 0.13098237 -0.06297229 -0.2720403
0000c0 ef d7 22 15 84 7b 61 ca 5d ab 02 20 e3 a6 0d 1c
       -0.04282116 -0.10327456 0.08564232 0.052896727 -0.31234258 0.3098237 0.2443325 -0.13602015 0.23425694 -0.2141058 0.0050377836 0.08060454 -0.07304786 -0.22670026 0.032745592 0.07052897
0000d0 29 a8 95 d1 77 9e b7 32 30 6d e8 16 b0 2a 3e cb
       0.10327456 -0.22166248 -0.26952142 -0.118387915 0.29974812 -0.2468514 -0.1838791 0.12594458 0.12090681 0.2745592 -0.060453404 0.05541562 -0.20151135 0.105793454 0.15617129 -0.13350126
0000e0 59 ae bf f1 93 63 df 6f 60 46 9c 60 5a ec 33 16
       0.22418137 -0.20654912 -0.16372797 -0.037783377 -0.2745592 0.24937029 -0.08312343 0.27959698 0.24181361 0.17632243 -0.25188917 0.24181361 0.22670026 -0.05037784 0.12846348 0.05541562
0000f0 05 f7 13 3e f9 cc 2f ff c8 3c 89 bb b2 df 3e 1a
       0.01259446 -0.022670027 0.047858946 0.15617129 -0.017632242 -0.13098237 0.118387915 -0.0025188918 -0.14105794 0.15113351 -0.29974812 -0.17380354 -0.19647357 -0.08312343 0.15617129 0.065491185

sequential_31/quant_output/MatMul;sequential_31/quant_output/LastValueQuant/FakeQuantWithMinMaxVars i1 [1, 10] scale=0.0039453083 zero_point=0
000000 50 7e 4b 2e 81 39 b4 05 4c 16
       0.31562465 0.49710885 0.2958981 0.18148418 -0.50105417 0.22488257 -0.29984343 0.01972654 0.29984343 0.08679678
