models/opt-k2-80x60x3-T1.tflite (tflite, 156432 bytes, 9 tensors)

sequential/quant_conv2d/Conv2D;sequential/quant_conv2d/LastValueQuant/FakeQuantWithMinMaxVarsPerChannel i1 [24, 5, 5, 3]
0	0x75	117
1	0x4b	75
2	0x5e	94
3	0xc9	-55
4	0x55	85
5	0x22	34
6	0xa1	-95
7	0xb0	-80
8	0xb8	-72
9	0x52	82
10	0x09	9
11	0x2d	45
12	0x7f	127
13	0xe3	-29
14	0xf0	-16
15	0xf8	-8
16	0xca	-54
17	0xa2	-94
18	0x6b	107
19	0xf9	-7
20	0x41	65
21	0x19	25
22	0x08	8
23	0x54	84
24	0x5b	91
25	0x1c	28
26	0xcb	-53
27	0x05	5
28	0x9c	-100
29	0xfc	-4
30	0x1a	26
31	0x98	-104
32	0x34	52
33	0x9a	-102
34	0xeb	-21
35	0x2b	43
36	0xe2	-30
37	0x09	9
38	0x2e	46
39	0xdd	-35
40	0xb4	-76
41	0x17	23
42	0x14	20
43	0xb3	-77
44	0xa1	-95
45	0x8e	-114
46	0xfc	-4
47	0xdd	-35
48	0x48	72
49	0xb9	-71
50	0x9e	-98
51	0xd8	-40
52	0x05	5
53	0x98	-104
54	0xef	-17
55	0xf1	-15
56	0x4b	75
57	0xc7	-57
58	0x0c	12
59	0xfa	-6
60	0x44	68
61	0x27	39
62	0x5f	95
63	0x22	34
64	0x94	-108
65	0x6a	106
66	0x99	-103
67	0x00	0
68	0xa9	-87
69	0x21	33
70	0x50	80
71	0x51	81
72	0x9b	-101
73	0x8f	-113
74	0xe6	-26
75	0x94	-108
76	0x36	54
77	0x64	100
78	0x13	19
79	0x0d	13
80	0x65	101
81	0x5b	91
82	0x29	41
83	0x4b	75
84	0x22	34
85	0x1d	29
86	0xf8	-8
87	0x0b	11
88	0xa9	-87
89	0x6a	106
90	0xaa	-86
91	0xf1	-15
92	0xe5	-27
93	0x9d	-99
94	0x56	86
95	0xea	-22
96	0x1d	29
97	0xfe	-2
98	0x00	0
99	0x25	37
100	0xaa	-86
101	0xe6	-26
102	0x2a	42
103	0x53	83
104	0xa2	-94
105	0xba	-70
106	0xe8	-24
107	0xac	-84
108	0xa3	-93
109	0xd8	-40
110	0x26	38
111	0x60	96
112	0xe4	-28
113	0x5f	95
114	0xd8	-40
115	0x37	55
116	0xbe	-66
117	0x0b	11
118	0xa5	-91
119	0xb8	-72
120	0x13	19
121	0xe7	-25
122	0xf7	-9
123	0xe8	-24
124	0x81	-127
125	0x3a	58
126	0xc3	-61
127	0x99	-103
128	0xcf	-49
129	0xf4	-12
130	0x91	-111
131	0xc2	-62
132	0x27	39
133	0xf9	-7
134	0x2e	46
135	0x27	39
136	0x18	24
137	0x2e	46
138	0xfd	-3
139	0xc6	-58
140	0xcd	-51
141	0x65	101
142	0x1d	29
143	0xa1	-95
144	0x0b	11
145	0x9b	-101
146	0x5d	93
147	0x0b	11
148	0xc6	-58
149	0x28	40
150	0xc2	-62
151	0xd3	-45
152	0x6b	107
153	0x08	8
154	0xe5	-27
155	0xa3	-93
156	0xb5	-75
157	0xe2	-30
158	0x06	6
159	0xfd	-3
160	0xaf	-81
161	0xbd	-67
162	0x8f	-113
163	0x9e	-98
164	0x03	3
165	0x60	96
166	0x52	82
167	0xd3	-45
168	0x0b	11
169	0xd5	-43
170	0xd6	-42
171	0xcd	-51
172	0x99	-103
173	0x4f	79
174	0xd4	-44
175	0x79	121
176	0xe0	-32
177	0xea	-22
178	0xd5	-43
179	0xaf	-81
180	0x53	83
181	0xc0	-64
182	0xa6	-90
183	0x7f	127
184	0xc1	-63
185	0x14	20
186	0x6c	108
187	0x11	17
188	0x62	98
189	0x52	82
190	0xa4	-92
191	0xdc	-36
192	0x66	102
193	0x5f	95
194	0xf8	-8
195	0x5d	93
196	0x57	87
197	0x06	6
198	0x01	1
199	0xfa	-6
200	0x49	73
201	0x86	-122
202	0x0a	10
203	0xcd	-51
204	0xac	-84
205	0x85	-123
206	0x9f	-97
207	0xde	-34
208	0x61	97
209	0x95	-107
210	0x81	-127
211	0x25	37
212	0x1a	26
213	0x3e	62
214	0x54	84
215	0x1f	31
216	0x59	89
217	0x52	82
218	0x62	98
219	0xf6	-10
220	0x1f	31
221	0xdf	-33
222	0x1f	31
223	0xa8	-88
224	0x94	-108
225	0xfe	-2
226	0x4a	74
227	0x91	-111
228	0xed	-19
229	0xff	-1
230	0xd7	-41
231	0x38	56
232	0xe0	-32
233	0x87	-121
234	0xd3	-45
235	0xf4	-12
236	0x98	-104
237	0xae	-82
238	0x37	55
239	0x2d	45
240	0x79	121
241	0x15	21
242	0x0b	11
243	0x7f	127
244	0x12	18
245	0x62	98
246	0x60	96
247	0xda	-38
248	0x1e	30
249	0xbe	-66
250	0x5f	95
251	0x41	65
252	0x4b	75
253	0xdc	-36
254	0x01	1
255	0x74	116

sequential/quant_conv2d_1/Conv2D;sequential/quant_conv2d_1/LastValueQuant/FakeQuantWithMinMaxVarsPerChannel i1 [36, 5, 5, 24]
0	0x1d	29
1	0x57	87
2	0xda	-38
3	0x37	55
4	0xbf	-65
5	0x44	68
6	0xc7	-57
7	0x67	103
8	0x19	25
9	0x34	52
10	0x19	25
11	0xfc	-4
12	0x57	87
13	0xb2	-78
14	0xbf	-65
15	0xc7	-57
16	0xe2	-30
17	0xc5	-59
18	0x1f	31
19	0xad	-83
20	0xb3	-77
21	0xfa	-6
22	0x05	5
23	0x67	103
24	0xe6	-26
25	0xbb	-69
26	0x53	83
27	0x90	-112
28	0xbc	-68
29	0xc2	-62
30	0xb3	-77
31	0xe2	-30
32	0x01	1
33	0x8f	-113
34	0x9c	-100
35	0x50	80
36	0x5c	92
37	0x92	-110
38	0x60	96
39	0x98	-104
40	0xe5	-27
41	0xd6	-42
42	0x4f	79
43	0xd8	-40
44	0xdc	-36
45	0xc2	-62
46	0xcf	-49
47	0x1c	28
48	0x90	-112
49	0x1e	30
50	0x6a	106
51	0x57	87
52	0x5e	94
53	0xcc	-52
54	0x0b	11
55	0x10	16
56	0xfd	-3
57	0x0f	15
58	0x28	40
59	0x90	-112
60	0xbe	-66
61	0xb8	-72
62	0xb5	-75
63	0x25	37
64	0x66	102
65	0xab	-85
66	0x4b	75
67	0x1d	29
68	0xb1	-79
69	0x44	68
70	0x31	49
71	0x47	71
72	0xa7	-89
73	0x4e	78
74	0xb4	-76
75	0xe9	-23
76	0x15	21
77	0xfa	-6
78	0xe6	-26
79	0xfc	-4
80	0xfa	-6
81	0xad	-83
82	0xd0	-48
83	0xf0	-16
84	0x0c	12
85	0xe8	-24
86	0x3a	58
87	0xf9	-7
88	0xdb	-37
89	0x22	34
90	0xee	-18
91	0xb0	-80
92	0xba	-70
93	0xbc	-68
94	0x42	66
95	0xc3	-61
96	0xc8	-56
97	0xdb	-37
98	0xa4	-92
99	0xe9	-23
100	0xec	-20
101	0xbb	-69
102	0x0a	10
103	0xda	-38
104	0x29	41
105	0x37	55
106	0xcd	-51
107	0xcd	-51
108	0x3f	63
109	0xf8	-8
110	0xe1	-31
111	0xe7	-25
112	0x67	103
113	0xc3	-61
114	0x9a	-102
115	0x3b	59
116	0xba	-70
117	0x5d	93
118	0x63	99
119	0x27	39
120	0xe0	-32
121	0x38	56
122	0xcc	-52
123	0xc1	-63
124	0xcb	-53
125	0xc7	-57
126	0x5f	95
127	0xef	-17
128	0xb6	-74
129	0x3d	61
130	0x27	39
131	0x4e	78
132	0x27	39
133	0x70	112
134	0x07	7
135	0x08	8
136	0xfc	-4
137	0xf0	-16
138	0x34	52
139	0x5e	94
140	0x67	103
141	0xe0	-32
142	0xc2	-62
143	0x37	55
144	0x28	40
145	0xc4	-60
146	0x1e	30
147	0x4b	75
148	0xa8	-88
149	0xe5	-27
150	0xd4	-44
151	0x35	53
152	0xe8	-24
153	0x3f	63
154	0x42	66
155	0x45	69
156	0xf2	-14
157	0x12	18
158	0x07	7
159	0x16	22
160	0xab	-85
161	0x96	-106
162	0xe4	-28
163	0x5d	93
164	0xa9	-87
165	0x9b	-101
166	0xbe	-66
167	0x5e	94
168	0x6d	109
169	0xac	-84
170	0x92	-110
171	0xb4	-76
172	0xe0	-32
173	0xd3	-45
174	0xea	-22
175	0x19	25
176	0xa0	-96
177	0xc6	-58
178	0xe9	-23
179	0xb8	-72
180	0xd6	-42
181	0x1a	26
182	0x14	20
183	0x41	65
184	0x26	38
185	0xd1	-47
186	0xf8	-8
187	0xa6	-90
188	0x01	1
189	0x1a	26
190	0x37	55
191	0xb3	-77
192	0x51	81
193	0x27	39
194	0x54	84
195	0x52	82
196	0xec	-20
197	0x5a	90
198	0xc4	-60
199	0xb0	-80
200	0x4e	78
201	0x03	3
202	0x0f	15
203	0x63	99
204	0x0a	10
205	0x35	53
206	0x3f	63
207	0xd2	-46
208	0x40	64
209	0xa0	-96
210	0x2d	45
211	0xe7	-25
212	0xf4	-12
213	0x35	53
214	0x23	35
215	0xa7	-89
216	0x12	18
217	0xc1	-63
218	0x53	83
219	0x56	86
220	0x3f	63
221	0x39	57
222	0xd9	-39
223	0xcf	-49
224	0xac	-84
225	0xb1	-79
226	0x39	57
227	0x69	105
228	0xc6	-58
229	0x60	96
230	0xda	-38
231	0xb1	-79
232	0x29	41
233	0xa3	-93
234	0x44	68
235	0xae	-82
236	0x23	35
237	0xd2	-46
238	0xce	-50
239	0xb0	-80
240	0x68	104
241	0xf2	-14
242	0xb0	-80
243	0x4e	78
244	0x5b	91
245	0x56	86
246	0x57	87
247	0x60	96
248	0x9e	-98
249	0x8f	-113
250	0xc4	-60
251	0xad	-83
252	0xf2	-14
253	0xa2	-94
254	0xf2	-14
255	0x1e	30

sequential/quant_conv2d_2/Conv2D;sequential/quant_conv2d_2/LastValueQuant/FakeQuantWithMinMaxVarsPerChannel i1 [48, 5, 5, 36]
0	0x0d	13
1	0x25	37
2	0x1f	31
3	0x27	39
4	0xe7	-25
5	0x3d	61
6	0x58	88
7	0xde	-34
8	0x08	8
9	0xe7	-25
10	0x0a	10
11	0xae	-82
12	0xe9	-23
13	0x10	16
14	0x28	40
15	0x14	20
16	0x4c	76
17	0xf6	-10
18	0x12	18
19	0x25	37
20	0x21	33
21	0xef	-17
22	0xc2	-62
23	0x1d	29
24	0x25	37
25	0xb7	-73
26	0xbd	-67
27	0x12	18
28	0x13	19
29	0x25	37
30	0x27	39
31	0x34	52
32	0x31	49
33	0x01	1
34	0xe3	-29
35	0xf5	-11
36	0x4c	76
37	0xed	-19
38	0x2b	43
39	0xc4	-60
40	0xee	-18
41	0xc0	-64
42	0xdd	-35
43	0x2e	46
44	0xb5	-75
45	0x33	51
46	0x44	68
47	0x3c	60
48	0x0e	14
49	0xf1	-15
50	0x27	39
51	0xe1	-31
52	0x12	18
53	0xf2	-14
54	0xd1	-47
55	0xdf	-33
56	0x45	69
57	0xe0	-32
58	0xcd	-51
59	0xe9	-23
60	0xfe	-2
61	0xcc	-52
62	0x4e	78
63	0xfa	-6
64	0x19	25
65	0x39	57
66	0xf6	-10
67	0x3a	58
68	0x42	66
69	0x03	3
70	0xb6	-74
71	0xdc	-36
72	0xba	-70
73	0x00	0
74	0x28	40
75	0x20	32
76	0xdf	-33
77	0xc6	-58
78	0x0c	12
79	0x24	36
80	0x23	35
81	0xc5	-59
82	0x7f	127
83	0x28	40
84	0xc6	-58
85	0xe4	-28
86	0x1c	28
87	0x45	69
88	0xef	-17
89	0xfb	-5
90	0x35	53
91	0x14	20
92	0x2f	47
93	0xde	-34
94	0xc7	-57
95	0x0c	12
96	0xcf	-49
97	0x40	64
98	0x09	9
99	0xc6	-58
100	0xf7	-9
101	0x34	52
102	0xc4	-60
103	0x0a	10
104	0xaf	-81
105	0xc7	-57
106	0x38	56
107	0x3a	58
108	0x08	8
109	0xee	-18
110	0x22	34
111	0x17	23
112	0xfa	-6
113	0x04	4
114	0x05	5
115	0x05	5
116	0xf9	-7
117	0xe4	-28
118	0x4b	75
119	0x51	81
120	0x27	39
121	0x01	1
122	0x27	39
123	0x19	25
124	0x3f	63
125	0x37	55
126	0xc1	-63
127	0xd8	-40
128	0x19	25
129	0xf9	-7
130	0xc4	-60
131	0x07	7
132	0xde	-34
133	0x1e	30
134	0x30	48
135	0xe7	-25
136	0x00	0
137	0xef	-17
138	0xd5	-43
139	0x3a	58
140	0x44	68
141	0x08	8
142	0x13	19
143	0xc0	-64
144	0x0f	15
145	0xd2	-46
146	0x0c	12
147	0xd6	-42
148	0xf7	-9
149	0xc5	-59
150	0x34	52
151	0x07	7
152	0xd0	-48
153	0xdb	-37
154	0x0d	13
155	0xe4	-28
156	0x07	7
157	0xdd	-35
158	0xf5	-11
159	0xc3	-61
160	0x2e	46
161	0xb5	-75
162	0xad	-83
163	0xf5	-11
164	0x16	22
165	0xea	-22
166	0xf8	-8
167	0xe0	-32
168	0x3a	58
169	0x23	35
170	0xc8	-56
171	0x38	56
172	0xcf	-49
173	0xf8	-8
174	0xd5	-43
175	0xff	-1
176	0xca	-54
177	0x28	40
178	0xd6	-42
179	0x3c	60
180	0x4b	75
181	0x2a	42
182	0xba	-70
183	0x17	23
184	0xf6	-10
185	0xf2	-14
186	0x2b	43
187	0x04	4
188	0x42	66
189	0x0e	14
190	0xcb	-53
191	0xd6	-42
192	0x26	38
193	0x4f	79
194	0xb6	-74
195	0x4a	74
196	0xfc	-4
197	0xe6	-26
198	0x1e	30
199	0x12	18
200	0xc5	-59
201	0x29	41
202	0x20	32
203	0x12	18
204	0xea	-22
205	0xf5	-11
206	0x15	21
207	0x37	55
208	0xf1	-15
209	0xf2	-14
210	0x50	80
211	0x05	5
212	0x1d	29
213	0x18	24
214	0xd0	-48
215	0x05	5
216	0x30	48
217	0xb6	-74
218	0xb3	-77
219	0xf8	-8
220	0x28	40
221	0xe4	-28
222	0xe5	-27
223	0xae	-82
224	0xa7	-89
225	0x49	73
226	0xba	-70
227	0xea	-22
228	0x43	67
229	0x24	36
230	0x37	55
231	0x2e	46
232	0xed	-19
233	0xe6	-26
234	0x42	66
235	0xc2	-62
236	0xd5	-43
237	0x09	9
238	0x3e	62
239	0x14	20
240	0xc5	-59
241	0x23	35
242	0x3d	61
243	0xe3	-29
244	0xa9	-87
245	0xc9	-55
246	0x43	67
247	0x48	72
248	0x28	40
249	0xae	-82
250	0x4f	79
251	0xc5	-59
252	0x19	25
253	0xba	-70
254	0xcc	-52
255	0x36	54

sequential/quant_conv2d_3/Conv2D;sequential/quant_conv2d_3/LastValueQuant/FakeQuantWithMinMaxVarsPerChannel i1 [64, 3, 3, 48]
0	0x0b	11
1	0x39	57
2	0x25	37
3	0xa9	-87
4	0xf0	-16
5	0xc9	-55
6	0x48	72
7	0x53	83
8	0x28	40
9	0xd1	-47
10	0xd5	-43
11	0x4e	78
12	0xf3	-13
13	0xec	-20
14	0xaa	-86
15	0xed	-19
16	0xf9	-7
17	0xeb	-21
18	0x07	7
19	0xa6	-90
20	0x99	-103
21	0xbd	-67
22	0x40	64
23	0x3e	62
24	0xc2	-62
25	0x2d	45
26	0x2a	42
27	0xe8	-24
28	0x28	40
29	0x44	68
30	0x2b	43
31	0xa4	-92
32	0x55	85
33	0xb7	-73
34	0xce	-50
35	0xd0	-48
36	0xd1	-47
37	0xfc	-4
38	0x05	5
39	0xd2	-46
40	0x03	3
41	0x9e	-98
42	0xdf	-33
43	0xc2	-62
44	0x09	9
45	0x51	81
46	0xa5	-91
47	0xd5	-43
48	0x00	0
49	0xfd	-3
50	0x02	2
51	0xda	-38
52	0x95	-107
53	0x92	-110
54	0xc9	-55
55	0x0e	14
56	0x08	8
57	0x27	39
58	0x44	68
59	0x60	96
60	0x30	48
61	0x9b	-101
62	0x4a	74
63	0x38	56
64	0xd9	-39
65	0xf4	-12
66	0x55	85
67	0x26	38
68	0xae	-82
69	0xeb	-21
70	0x05	5
71	0xd9	-39
72	0x46	70
73	0xfb	-5
74	0xe1	-31
75	0x05	5
76	0xc7	-57
77	0x07	7
78	0x36	54
79	0xd7	-41
80	0xdf	-33
81	0x0f	15
82	0x10	16
83	0x36	54
84	0x9d	-99
85	0x49	73
86	0xe7	-25
87	0xfd	-3
88	0x50	80
89	0xe1	-31
90	0xfc	-4
91	0x1d	29
92	0x93	-109
93	0xd0	-48
94	0x52	82
95	0xad	-83
96	0x12	18
97	0xb1	-79
98	0xaf	-81
99	0xd3	-45
100	0xd0	-48
101	0xab	-85
102	0x81	-127
103	0xf4	-12
104	0xc3	-61
105	0xd8	-40
106	0x14	20
107	0x4b	75
108	0x43	67
109	0xc1	-63
110	0xd4	-44
111	0x18	24
112	0x09	9
113	0x06	6
114	0xd0	-48
115	0xe2	-30
116	0x4c	76
117	0x08	8
118	0xd3	-45
119	0xfb	-5
120	0xdb	-37
121	0xfc	-4
122	0x1d	29
123	0xeb	-21
124	0xc3	-61
125	0x55	85
126	0x41	65
127	0x02	2
128	0x34	52
129	0xc5	-59
130	0x94	-108
131	0x44	68
132	0x13	19
133	0xb0	-80
134	0x32	50
135	0xe2	-30
136	0xa9	-87
137	0xa3	-93
138	0x36	54
139	0xd4	-44
140	0x48	72
141	0xb4	-76
142	0xbd	-67
143	0x23	35
144	0xbb	-69
145	0x11	17
146	0xde	-34
147	0xfa	-6
148	0xcc	-52
149	0xc6	-58
150	0xef	-17
151	0x58	88
152	0xe9	-23
153	0x9b	-101
154	0x2b	43
155	0x14	20
156	0x3c	60
157	0x0d	13
158	0x54	84
159	0x9e	-98
160	0x22	34
161	0x0f	15
162	0x52	82
163	0x9c	-100
164	0xe7	-25
165	0x2c	44
166	0x41	65
167	0x2b	43
168	0x0a	10
169	0xaa	-86
170	0x55	85
171	0x1d	29
172	0x1e	30
173	0xfc	-4
174	0x01	1
175	0x0a	10
176	0xf2	-14
177	0x32	50
178	0x39	57
179	0x13	19
180	0x01	1
181	0x38	56
182	0xb7	-73
183	0xd8	-40
184	0xae	-82
185	0xfd	-3
186	0x98	-104
187	0xda	-38
188	0xa3	-93
189	0xdd	-35
190	0x00	0
191	0x10	16
192	0x02	2
193	0x0a	10
194	0x30	48
195	0x0e	14
196	0xd9	-39
197	0xfb	-5
198	0x45	69
199	0xe1	-31
200	0xc1	-63
201	0x11	17
202	0x11	17
203	0x4c	76
204	0x25	37
205	0xe3	-29
206	0xf2	-14
207	0x41	65
208	0xe7	-25
209	0xdf	-33
210	0x20	32
211	0x07	7
212	0x1f	31
213	0x52	82
214	0xd7	-41
215	0x1c	28
216	0xb0	-80
217	0x0e	14
218	0xda	-38
219	0xf2	-14
220	0xf9	-7
221	0xa9	-87
222	0x29	41
223	0xdb	-37
224	0x55	85
225	0x19	25
226	0xfb	-5
227	0xe3	-29
228	0xf4	-12
229	0xf1	-15
230	0x31	49
231	0x32	50
232	0x2b	43
233	0x47	71
234	0x9a	-102
235	0xb2	-78
236	0xd9	-39
237	0xdd	-35
238	0xb9	-71
239	0x23	35
240	0xf2	-14
241	0x5b	91
242	0x43	67
243	0xad	-83
244	0xd6	-42
245	0xd2	-46
246	0x00	0
247	0x0c	12
248	0xe0	-32
249	0x4c	76
250	0x9e	-98
251	0x37	55
252	0xab	-85
253	0x00	0
254	0x4b	75
255	0xf8	-8

sequential/quant_conv2d_4/Conv2D;sequential/quant_conv2d_4/LastValueQuant/FakeQuantWithMinMaxVarsPerChannel i1 [64, 2, 2, 64]
0	0xd5	-43
1	0xee	-18
2	0x9f	-97
3	0xaf	-81
4	0x22	34
5	0xab	-85
6	0x3b	59
7	0x06	6
8	0x75	117
9	0x2d	45
10	0xa6	-90
11	0xcf	-49
12	0x61	97
13	0x3a	58
14	0x48	72
15	0x5e	94
16	0x0c	12
17	0xfa	-6
18	0x37	55
19	0xd0	-48
20	0xbe	-66
21	0x38	56
22	0x20	32
23	0x56	86
24	0x67	103
25	0xc5	-59
26	0xfb	-5
27	0x52	82
28	0xf5	-11
29	0xd4	-44
30	0xdd	-35
31	0x71	113
32	0xe5	-27
33	0xab	-85
34	0xae	-82
35	0x55	85
36	0xa3	-93
37	0xd5	-43
38	0xd2	-46
39	0x5f	95
40	0xea	-22
41	0xf9	-7
42	0x81	-127
43	0x94	-108
44	0x75	117
45	0xbb	-69
46	0x13	19
47	0xd1	-47
48	0xa4	-92
49	0xbd	-67
50	0xff	-1
51	0x5d	93
52	0xbb	-69
53	0x2d	45
54	0x2e	46
55	0xfb	-5
56	0xa8	-88
57	0x02	2
58	0x27	39
59	0x62	98
60	0x12	18
61	0xce	-50
62	0x1b	27
63	0x26	38
64	0xbc	-68
65	0x50	80
66	0xd5	-43
67	0x5a	90
68	0x57	87
69	0x50	80
70	0x29	41
71	0xd7	-41
72	0xfa	-6
73	0x57	87
74	0x63	99
75	0x48	72
76	0xdd	-35
77	0x2b	43
78	0x2e	46
79	0xbc	-68
80	0x32	50
81	0xec	-20
82	0xb8	-72
83	0x97	-105
84	0x57	87
85	0x00	0
86	0xf6	-10
87	0xfb	-5
88	0xd9	-39
89	0x96	-106
90	0xeb	-21
91	0xb3	-77
92	0x33	51
93	0xa6	-90
94	0x3e	62
95	0x1f	31
96	0x38	56
97	0x4b	75
98	0xec	-20
99	0x42	66
100	0x19	25
101	0xd0	-48
102	0xe4	-28
103	0xcc	-52
104	0xb3	-77
105	0x2e	46
106	0x29	41
107	0x46	70
108	0x27	39
109	0xed	-19
110	0x9a	-102
111	0x69	105
112	0xb6	-74
113	0xef	-17
114	0xb6	-74
115	0xbb	-69
116	0x1a	26
117	0xbf	-65
118	0xd5	-43
119	0x70	112
120	0x07	7
121	0x67	103
122	0x4a	74
123	0xc0	-64
124	0x8d	-115
125	0x67	103
126	0xd8	-40
127	0xc6	-58
128	0x07	7
129	0x13	19
130	0xc2	-62
131	0x21	33
132	0x8d	-115
133	0xb2	-78
134	0xef	-17
135	0x88	-120
136	0x44	68
137	0xb5	-75
138	0xd5	-43
139	0xe5	-27
140	0xae	-82
141	0x3e	62
142	0xed	-19
143	0x42	66
144	0xdd	-35
145	0xde	-34
146	0x12	18
147	0xb2	-78
148	0xbd	-67
149	0xeb	-21
150	0xc2	-62
151	0xec	-20
152	0x53	83
153	0xce	-50
154	0xa4	-92
155	0xdf	-33
156	0x05	5
157	0x8d	-115
158	0x1b	27
159	0xe0	-32
160	0xcb	-53
161	0x12	18
162	0x58	88
163	0xd1	-47
164	0x56	86
165	0x9a	-102
166	0xae	-82
167	0x60	96
168	0x30	48
169	0x2f	47
170	0x94	-108
171	0x6c	108
172	0x68	104
173	0x91	-111
174	0x3b	59
175	0xfe	-2
176	0xa5	-91
177	0x65	101
178	0xbb	-69
179	0xeb	-21
180	0x51	81
181	0x25	37
182	0xec	-20
183	0xf6	-10
184	0xe6	-26
185	0x89	-119
186	0x1c	28
187	0xc4	-60
188	0x8e	-114
189	0xd5	-43
190	0xea	-22
191	0x6e	110
192	0xa1	-95
193	0x12	18
194	0xe6	-26
195	0xd7	-41
196	0x38	56
197	0x57	87
198	0x37	55
199	0x59	89
200	0x54	84
201	0xf4	-12
202	0xa8	-88
203	0x68	104
204	0xe9	-23
205	0x02	2
206	0x3e	62
207	0x9d	-99
208	0x5f	95
209	0x42	66
210	0x56	86
211	0xea	-22
212	0xa8	-88
213	0x33	51
214	0x2a	42
215	0xb8	-72
216	0x26	38
217	0xe9	-23
218	0x27	39
219	0x1d	29
220	0x8c	-116
221	0x37	55
222	0xfb	-5
223	0xda	-38
224	0xc5	-59
225	0xc4	-60
226	0x58	88
227	0xf1	-15
228	0xdb	-37
229	0x2f	47
230	0xeb	-21
231	0x20	32
232	0xa6	-90
233	0xdf	-33
234	0xf7	-9
235	0xed	-19
236	0xab	-85
237	0xcb	-53
238	0xe3	-29
239	0xf5	-11
240	0xb2	-78
241	0x5c	92
242	0xe3	-29
243	0x0a	10
244	0xa3	-93
245	0x23	35
246	0xf4	-12
247	0x84	-124
248	0x3a	58
249	0xaa	-86
250	0xbc	-68
251	0xd0	-48
252	0xf0	-16
253	0xc2	-62
254	0xe5	-27
255	0x44	68

sequential/quant_dense/MatMul;sequential/quant_dense/LastValueQuant/FakeQuantWithMinMaxVars i1 [100, 256] scale=0.0015203162 zero_point=0
0	0xfb	-0.007601581
1	0xf7	-0.013682846
2	0xca	-0.082097076
3	0x64	0.15203163
4	0xf6	-0.015203162
5	0x0b	0.016723478
6	0xfd	-0.004560949
7	0xf0	-0.02432506
8	0xc5	-0.08969866
9	0xe4	-0.042568855
10	0x03	0.004560949
11	0xe6	-0.03952822
12	0x36	0.082097076
13	0xb6	-0.1125034
14	0xb2	-0.11858466
15	0xc3	-0.09273929
16	0xd7	-0.062332965
17	0xb0	-0.1216253
18	0xfd	-0.004560949
19	0x12	0.027365692
20	0xeb	-0.03192664
21	0x32	0.076015815
22	0x20	0.04865012
23	0x23	0.053211067
24	0xb9	-0.107942455
25	0x13	0.028886009
26	0x18	0.03648759
27	0xd7	-0.062332965
28	0xba	-0.106422134
29	0xca	-0.082097076
30	0x50	0.1216253
31	0xec	-0.030406324
32	0xd9	-0.05929233
33	0x06	0.009121898
34	0x1f	0.047129802
35	0x2a	0.06385328
36	0x2f	0.07145486
37	0xce	-0.076015815
38	0xf8	-0.01216253
39	0x19	0.038007908
40	0x43	0.10186119
41	0x1b	0.041048538
42	0xda	-0.057772018
43	0xd7	-0.062332965
44	0xc5	-0.08969866
45	0xd0	-0.07297518
46	0xc3	-0.09273929
47	0x29	0.062332965
48	0x47	0.107942455
49	0x2e	0.06993455
50	0xd2	-0.06993455
51	0x22	0.051690754
52	0x34	0.07905644
53	0xe5	-0.041048538
54	0xdf	-0.050170437
55	0x36	0.082097076
56	0x3e	0.094259605
57	0x2c	0.06689391
58	0xdc	-0.054731384
59	0xcb	-0.08057676
60	0xba	-0.106422134
61	0x06	0.009121898
62	0xab	-0.12922688
63	0xf9	-0.010642214
64	0xcc	-0.07905644
65	0x05	0.007601581
66	0x13	0.028886009
67	0xbb	-0.10490182
68	0x03	0.004560949
69	0xd5	-0.0653736
70	0xfe	-0.0030406325
71	0x2d	0.06841423
72	0x29	0.062332965
73	0xab	-0.12922688
74	0xf3	-0.01976411
75	0xc2	-0.094259605
76	0x0d	0.01976411
77	0x06	0.009121898
78	0xf2	-0.021284427
79	0x4a	0.1125034
80	0xd9	-0.05929233
81	0x34	0.07905644
82	0x48	0.10946277
83	0xcc	-0.07905644
84	0x17	0.034967273
85	0xb7	-0.11098309
86	0x56	0.1307472
87	0xe6	-0.03952822
88	0xbc	-0.10338151
89	0xba	-0.106422134
90	0x45	0.10490182
91	0xe1	-0.047129802
92	0xfe	-0.0030406325
93	0xd0	-0.07297518
94	0xe6	-0.03952822
95	0xb4	-0.115544036
96	0xbd	-0.10186119
97	0x22	0.051690754
98	0xd1	-0.07145486
99	0xbb	-0.10490182
100	0xe1	-0.047129802
101	0x24	0.054731384
102	0xcf	-0.074495494
103	0x11	0.025845377
104	0xd1	-0.07145486
105	0xbb	-0.10490182
106	0x35	0.08057676
107	0x38	0.08513771
108	0x3c	0.09121897
109	0xca	-0.082097076
110	0xca	-0.082097076
111	0x39	0.08665802
112	0x0e	0.021284427
113	0x31	0.074495494
114	0x54	0.12770656
115	0xf6	-0.015203162
116	0x3f	0.095779926
117	0xdb	-0.0562517
118	0x3d	0.09273929
119	0x13	0.028886009
120	0xfb	-0.007601581
121	0x27	0.05929233
122	0xf7	-0.013682846
123	0x10	0.02432506
124	0x0d	0.01976411
125	0xd9	-0.05929233
126	0x35	0.08057676
127	0xe4	-0.042568855
128	0xb3	-0.11706435
129	0xdd	-0.053211067
130	0xe9	-0.034967273
131	0xec	-0.030406324
132	0x0b	0.016723478
133	0xfc	-0.006081265
134	0xa7	-0.13530815
135	0xc7	-0.08665802
136	0xf5	-0.016723478
137	0x3c	0.09121897
138	0x3d	0.09273929
139	0x49	0.11098309
140	0x3b	0.08969866
141	0xc7	-0.08665802
142	0xb8	-0.10946277
143	0xb5	-0.114023715
144	0x2e	0.06993455
145	0xb4	-0.115544036
146	0xa3	-0.14138941
147	0xcd	-0.07753613
148	0xe5	-0.041048538
149	0x0d	0.01976411
150	0x2c	0.06689391
151	0xe7	-0.038007908
152	0x2e	0.06993455
153	0x38	0.08513771
154	0xdb	-0.0562517
155	0xb9	-0.107942455
156	0x38	0.08513771
157	0x1f	0.047129802
158	0xff	-0.0015203162
159	0xa9	-0.1322675
160	0xad	-0.12618625
161	0x20	0.04865012
162	0xeb	-0.03192664
163	0x07	0.010642214
164	0xb6	-0.1125034
165	0xa8	-0.13378783
166	0xbf	-0.09882055
167	0x26	0.057772018
168	0xe2	-0.045609485
169	0xb4	-0.115544036
170	0xfc	-0.006081265
171	0x3b	0.08969866
172	0xd3	-0.06841423
173	0xad	-0.12618625
174	0xe2	-0.045609485
175	0xde	-0.051690754
176	0x0d	0.01976411
177	0x07	0.010642214
178	0xf8	-0.01216253
179	0x50	0.1216253
180	0x27	0.05929233
181	0x41	0.09882055
182	0x39	0.08665802
183	0x13	0.028886009
184	0x09	0.013682846
185	0x33	0.07753613
186	0xb3	-0.11706435
187	0x30	0.07297518
188	0xde	-0.051690754
189	0xbc	-0.10338151
190	0x03	0.004560949
191	0xa8	-0.13378783
192	0xb6	-0.1125034
193	0xd1	-0.07145486
194	0xd0	-0.07297518
195	0xd9	-0.05929233
196	0x1d	0.044089172
197	0xdd	-0.053211067
198	0x12	0.027365692
199	0xa9	-0.1322675
200	0x25	0.0562517
201	0x4f	0.12010498
202	0x46	0.106422134
203	0x0d	0.01976411
204	0xdf	-0.050170437
205	0x00	0.0
206	0xc2	-0.094259605
207	0xcb	-0.08057676
208	0xff	-0.0015203162
209	0x38	0.08513771
210	0xec	-0.030406324
211	0x2e	0.06993455
212	0x1b	0.041048538
213	0x4c	0.115544036
214	0x3e	0.094259605
215	0xca	-0.082097076
216	0xc2	-0.094259605
217	0x1b	0.041048538
218	0x4e	0.11858466
219	0x31	0.074495494
220	0x11	0.025845377
221	0x4c	0.115544036
222	0xc4	-0.09121897
223	0x25	0.0562517
224	0x16	0.033446956
225	0x35	0.08057676
226	0xe4	-0.042568855
227	0x58	0.13378783
228	0xf5	-0.016723478
229	0xcd	-0.07753613
230	0xa6	-0.13682847
231	0xe1	-0.047129802
232	0xc3	-0.09273929
233	0xb2	-0.11858466
234	0xe2	-0.045609485
235	0x58	0.13378783
236	0x14	0.030406324
237	0xce	-0.076015815
238	0xa7	-0.13530815
239	0x4e	0.11858466
240	0xca	-0.082097076
241	0x1d	0.044089172
242	0x2a	0.06385328
243	0xe2	-0.045609485
244	0xb9	-0.107942455
245	0xdd	-0.053211067
246	0xa7	-0.13530815
247	0xea	-0.033446956
248	0xd4	-0.06689391
249	0x11	0.025845377
250	0x0a	0.015203162
251	0xe3	-0.044089172
252	0xb1	-0.12010498
253	0xc9	-0.08361739
254	0xe3	-0.044089172
255	0x09	0.013682846

sequential/quant_dense_1/MatMul;sequential/quant_dense_1/LastValueQuant/FakeQuantWithMinMaxVars i1 [50, 100] scale=0.0019015585 zero_point=0
0	0x68	0.19776209
1	0xe1	-0.058948312
2	0xb2	-0.14832157
3	0x60	0.18254961
4	0x11	0.032326493
5	0xd0	-0.091274805
6	0x45	0.13120754
7	0x0d	0.02472026
8	0x9a	-0.19395897
9	0xb8	-0.13691221
10	0x4f	0.15022312
11	0x4a	0.14071533
12	0xcc	-0.09888104
13	0x2c	0.083668575
14	0xed	-0.036129612
15	0xcb	-0.1007826
16	0xc0	-0.12169974
17	0xc4	-0.11409351
18	0x5f	0.18064806
19	0x38	0.106487274
20	0xd0	-0.091274805
21	0xc2	-0.117896624
22	0xc3	-0.115995064
23	0x0f	0.028523378
24	0x21	0.06275143
25	0xd2	-0.087471694
26	0xc8	-0.106487274
27	0xe7	-0.047538962
28	0x26	0.072259225
29	0x29	0.077963896
30	0x8c	-0.22058079
31	0xd8	-0.07606234
32	0x59	0.1692387
33	0xb8	-0.13691221
34	0x09	0.017114026
35	0xf8	-0.015212468
36	0xfb	-0.009507792
37	0x14	0.03803117
38	0x0c	0.022818701
39	0x34	0.09888104
40	0xd0	-0.091274805
41	0x00	0.0
42	0x44	0.12930597
43	0xf3	-0.02472026
44	0x26	0.072259225
45	0x43	0.12740442
46	0x22	0.06465299
47	0x06	0.011409351
48	0x40	0.12169974
49	0x0e	0.026621819
50	0x35	0.1007826
51	0x03	0.0057046753
52	0x0d	0.02472026
53	0xd4	-0.083668575
54	0xa4	-0.17494339
55	0xd1	-0.089373246
56	0xcb	-0.1007826
57	0x49	0.13881376
58	0x5b	0.17304182
59	0xf3	-0.02472026
60	0x08	0.015212468
61	0x44	0.12930597
62	0xcf	-0.093176365
63	0x11	0.032326493
64	0xb8	-0.13691221
65	0x0f	0.028523378
66	0x17	0.043735847
67	0xed	-0.036129612
68	0x9d	-0.1882543
69	0x33	0.096979484
70	0xc4	-0.11409351
71	0x98	-0.19776209
72	0xc0	-0.12169974
73	0xe7	-0.047538962
74	0x4f	0.15022312
75	0xd2	-0.087471694
76	0x61	0.18445118
77	0xa6	-0.17114027
78	0x9f	-0.18445118
79	0xa2	-0.17874649
80	0x2e	0.087471694
81	0x14	0.03803117
82	0x20	0.06084987
83	0xdd	-0.06655455
84	0xbf	-0.1236013
85	0xd8	-0.07606234
86	0x04	0.007606234
87	0x46	0.1331091
88	0x44	0.12930597
89	0xa2	-0.17874649
90	0x12	0.034228053
91	0x59	0.1692387
92	0x37	0.104585715
93	0x15	0.039932728
94	0xcc	-0.09888104
95	0xea	-0.041834287
96	0x59	0.1692387
97	0xbe	-0.12550285
98	0x0d	0.02472026
99	0xc4	-0.11409351
100	0xc4	-0.11409351
101	0xdd	-0.06655455
102	0x18	0.045637403
103	0xc8	-0.106487274
104	0xfa	-0.011409351
105	0x5e	0.17874649
106	0x21	0.06275143
107	0x5b	0.17304182
108	0xc6	-0.11029039
109	0x3e	0.117896624
110	0xf9	-0.013310909
111	0xb7	-0.13881376
112	0xd1	-0.089373246
113	0x22	0.06465299
114	0x2a	0.079865456
115	0x39	0.10838883
116	0x19	0.047538962
117	0xba	-0.1331091
118	0x0e	0.026621819
119	0xc9	-0.104585715
120	0xc0	-0.12169974
121	0xa1	-0.18064806
122	0x12	0.034228053
123	0x63	0.1882543
124	0x62	0.18635273
125	0xe0	-0.06084987
126	0xdb	-0.070357665
127	0xd2	-0.087471694
128	0x31	0.093176365
129	0xaf	-0.15402624
130	0xac	-0.15973091
131	0xe5	-0.051342078
132	0x11	0.032326493
133	0xa4	-0.17494339
134	0x67	0.19586052
135	0xe4	-0.053243637
136	0xc1	-0.11979818
137	0xbc	-0.12930597
138	0xb4	-0.14451845
139	0xed	-0.036129612
140	0x23	0.06655455
141	0x5a	0.17114027
142	0x57	0.16543558
143	0xa0	-0.18254961
144	0xa6	-0.17114027
145	0xcc	-0.09888104
146	0x43	0.12740442
147	0xf5	-0.020917144
148	0x41	0.1236013
149	0x9f	-0.18445118
150	0x49	0.13881376
151	0x1e	0.057046756
152	0xca	-0.102684155
153	0x03	0.0057046753
154	0x61	0.18445118
155	0xdc	-0.068456106
156	0x15	0.039932728
157	0xa5	-0.17304182
158	0x1b	0.051342078
159	0x4c	0.14451845
160	0xcd	-0.096979484
161	0x9f	-0.18445118
162	0x6a	0.2015652
163	0x47	0.13501066
164	0xac	-0.15973091
165	0xa8	-0.16733715
166	0x1b	0.051342078
167	0x0b	0.020917144
168	0x1e	0.057046756
169	0x02	0.003803117
170	0x97	-0.19966364
171	0xb3	-0.14642
172	0x6a	0.2015652
173	0xb5	-0.14261688
174	0x19	0.047538962
175	0xfe	-0.003803117
176	0xd3	-0.085570134
177	0xe4	-0.053243637
178	0xc1	-0.11979818
179	0x1e	0.057046756
180	0xae	-0.15592779
181	0xdb	-0.070357665
182	0xc4	-0.11409351
183	0x1f	0.058948312
184	0x2c	0.083668575
185	0x3e	0.117896624
186	0x42	0.12550285
187	0x41	0.1236013
188	0x1a	0.04944052
189	0xba	-0.1331091
190	0x17	0.043735847
191	0x06	0.011409351
192	0xc1	-0.11979818
193	0xe7	-0.047538962
194	0xac	-0.15973091
195	0x05	0.009507792
196	0xfb	-0.009507792
197	0xce	-0.095077924
198	0xca	-0.102684155
199	0x28	0.07606234
200	0xab	-0.16163248
201	0x63	0.1882543
202	0x00	0.0
203	0xd6	-0.079865456
204	0x37	0.104585715
205	0xbe	-0.12550285
206	0x2e	0.087471694
207	0xdf	-0.06275143
208	0xbe	-0.12550285
209	0x66	0.19395897
210	0x51	0.15402624
211	0x4c	0.14451845
212	0x9b	-0.1920574
213	0xc2	-0.117896624
214	0xc7	-0.10838883
215	0x17	0.043735847
216	0x0e	0.026621819
217	0xaf	-0.15402624
218	0xbe	-0.12550285
219	0x23	0.06655455
220	0xc2	-0.117896624
221	0xb3	-0.14642
222	0xb1	-0.15022312
223	0xb7	-0.13881376
224	0x27	0.074160784
225	0x0f	0.028523378
226	0x49	0.13881376
227	0x09	0.017114026
228	0xfe	-0.003803117
229	0x0b	0.020917144
230	0xd6	-0.079865456
231	0xa4	-0.17494339
232	0xe9	-0.043735847
233	0xaa	-0.16353403
234	0xd0	-0.091274805
235	0xdd	-0.06655455
236	0xb1	-0.15022312
237	0xb9	-0.13501066
238	0x1f	0.058948312
239	0xaf	-0.15402624
240	0x5b	0.17304182
241	0x05	0.009507792
242	0x42	0.12550285
243	0x32	0.095077924
244	0x70	0.21297455
245	0xd9	-0.074160784
246	0xe3	-0.055145197
247	0xb7	-0.13881376
248	0x46	0.1331091
249	0x27	0.074160784
250	0x46	0.1331091
251	0x60	0.18254961
252	0xbb	-0.13120754
253	0x64	0.19015585
254	0xd9	-0.074160784
255	0x0d	0.02472026

sequential/quant_dense_2/MatMul;sequential/quant_dense_2/LastValueQuant/FakeQuantWithMinMaxVars i1 [10, 50] scale=0.0027888978 zero_point=0
0	0xb9	-0.19801174
1	0xc5	-0.16454497
2	0x16	0.06135575
3	0x14	0.055777956
4	0x3f	0.17570056
5	0xbe	-0.18406726
6	0x66	0.28446758
7	0x1c	0.07808914
8	0xd9	-0.10876702
9	0xb8	-0.20080064
10	0x00	0.0
11	0xc4	-0.16733387
12	0x04	0.011155591
13	0x0d	0.036255673
14	0x0f	0.041833468
15	0xd8	-0.11155591
16	0x3d	0.17012277
17	0xd3	-0.1255004
18	0x14	0.055777956
19	0xe2	-0.083666936
20	0xa3	-0.2593675
21	0x4c	0.21195623
22	0xa3	-0.2593675
23	0xca	-0.15060048
24	0xac	-0.23426741
25	0xe4	-0.07808914
26	0xe1	-0.08645583
27	0xf2	-0.03904457
28	0x95	-0.29841205
29	0x6b	0.29841205
30	0x3c	0.16733387
31	0xf1	-0.041833468
32	0x67	0.28725648
33	0x50	0.22311182
34	0x5e	0.2621564
35	0xd0	-0.1338671
36	0x68	0.29004538
37	0xb6	-0.20637845
38	0xec	-0.055777956
39	0xcc	-0.14502269
40	0x46	0.19522285
41	0xfe	-0.0055777957
42	0x52	0.22868963
43	0xd4	-0.1227115
44	0x0b	0.030677876
45	0x24	0.10040032
46	0xe2	-0.083666936
47	0x9e	-0.273312
48	0xb0	-0.22311182
49	0xa5	-0.2537897
50	0xec	-0.055777956
51	0xf1	-0.041833468
52	0xfb	-0.013944489
53	0xca	-0.15060048
54	0xd6	-0.11713371
55	0xfb	-0.013944489
56	0xf7	-0.02510008
57	0xa0	-0.2677342
58	0x00	0.0
59	0x41	0.18127836
60	0x0d	0.036255673
61	0x22	0.094822526
62	0xd5	-0.11992261
63	0xfb	-0.013944489
64	0x60	0.2677342
65	0x59	0.2482119
66	0x61	0.2705231
67	0x32	0.13944489
68	0x35	0.14781159
69	0xcc	-0.14502269
70	0xaa	-0.23984522
71	0x34	0.14502269
72	0x09	0.02510008
73	0xad	-0.23147853
74	0x11	0.047411263
75	0x5b	0.2537897
76	0x3c	0.16733387
77	0x13	0.05298906
78	0x63	0.27610087
79	0x9b	-0.28167868
80	0x59	0.2482119
81	0xe5	-0.07530024
82	0x0f	0.041833468
83	0x59	0.2482119
84	0x20	0.08924473
85	0x23	0.09761143
86	0xc1	-0.17570056
87	0xc0	-0.17848946
88	0x61	0.2705231
89	0xdf	-0.09203363
90	0x08	0.022311183
91	0xb2	-0.21753404
92	0x20	0.08924473
93	0x6c	0.30120096
94	0x11	0.047411263
95	0xc7	-0.15896718
96	0x2a	0.11713371
97	0x9e	-0.273312
98	0x22	0.094822526
99	0xcb	-0.14781159
100	0x06	0.016733387
101	0x55	0.23705631
102	0xa2	-0.2621564
103	0x38	0.15617828
104	0x52	0.22868963
105	0x61	0.2705231
106	0x65	0.28167868
107	0x54	0.23426741
108	0xb4	-0.21195623
109	0xbc	-0.18964505
110	0xc7	-0.15896718
111	0x49	0.20358954
112	0x24	0.10040032
113	0xcd	-0.14223379
114	0xef	-0.047411263
115	0x11	0.047411263
116	0xe9	-0.06414465
117	0xdf	-0.09203363
118	0x15	0.058566853
119	0x17	0.06414465
120	0xac	-0.23426741
121	0x28	0.11155591
122	0x50	0.22311182
123	0x23	0.09761143
124	0x96	-0.29562318
125	0x10	0.044622365
126	0x50	0.22311182
127	0xa3	-0.2593675
128	0x9b	-0.28167868
129	0x19	0.069722444
130	0x9f	-0.2705231
131	0x07	0.019522285
132	0xeb	-0.058566853
133	0x4d	0.21474513
134	0x0b	0.030677876
135	0x60	0.2677342
136	0xf6	-0.027888978
137	0xac	-0.23426741
138	0x2a	0.11713371
139	0x3b	0.16454497
140	0xa6	-0.2510008
141	0x37	0.15338938
142	0xa7	-0.2482119
143	0xb4	-0.21195623
144	0x46	0.19522285
145	0xb4	-0.21195623
146	0x1d	0.080878034
147	0x02	0.0055777957
148	0x1f	0.08645583
149	0xbd	-0.18685615
150	0xe9	-0.06414465
151	0xe2	-0.083666936
152	0xc0	-0.17848946
153	0xaf	-0.22590072
154	0x63	0.27610087
155	0xf6	-0.027888978
156	0x17	0.06414465
157	0x0e	0.03904457
158	0x67	0.28725648
159	0xa8	-0.245423
160	0xb8	-0.20080064
161	0x0e	0.03904457
162	0xf4	-0.033466775
163	0x25	0.10318922
164	0x2c	0.1227115
165	0x24	0.10040032
166	0xbb	-0.19243395
167	0xf2	-0.03904457
168	0xdd	-0.09761143
169	0x27	0.10876702
170	0xb9	-0.19801174
171	0x3b	0.16454497
172	0x27	0.10876702
173	0x36	0.15060048
174	0x3d	0.17012277
175	0xe6	-0.072511345
176	0x0e	0.03904457
177	0x9b	-0.28167868
178	0x3c	0.16733387
179	0xc0	-0.17848946
180	0xca	-0.15060048
181	0xd5	-0.11992261
182	0xa5	-0.2537897
183	0xc0	-0.17848946
184	0x30	0.1338671
185	0x41	0.18127836
186	0xb6	-0.20637845
187	0x4d	0.21474513
188	0x6b	0.29841205
189	0x51	0.22590072
190	0xd0	-0.1338671
191	0xe9	-0.06414465
192	0xe2	-0.083666936
193	0xa8	-0.245423
194	0x3e	0.17291166
195	0x22	0.094822526
196	0xfd	-0.008366694
197	0xa0	-0.2677342
198	0x2a	0.11713371
199	0x58	0.245423
200	0x27	0.10876702
201	0x10	0.044622365
202	0x5d	0.2593675
203	0xad	-0.23147853
204	0x21	0.09203363
205	0xf2	-0.03904457
206	0x14	0.055777956
207	0xdb	-0.10318922
208	0x46	0.19522285
209	0xd0	-0.1338671
210	0xa0	-0.2677342
211	0x4d	0.21474513
212	0x1c	0.07808914
213	0xc1	-0.17570056
214	0x35	0.14781159
215	0xc2	-0.17291166
216	0x0d	0.036255673
217	0xd4	-0.1227115
218	0x9b	-0.28167868
219	0xad	-0.23147853
220	0xa2	-0.2621564
221	0x09	0.02510008
222	0x10	0.044622365
223	0xca	-0.15060048
224	0x5b	0.2537897
225	0xd9	-0.10876702
226	0x9f	-0.2705231
227	0x47	0.19801174
228	0x1e	0.083666936
229	0xa3	-0.2593675
230	0xd8	-0.11155591
231	0x35	0.14781159
232	0xb8	-0.20080064
233	0x04	0.011155591
234	0xd8	-0.11155591
235	0x00	0.0
236	0xd8	-0.11155591
237	0xad	-0.23147853
238	0xba	-0.19522285
239	0x66	0.28446758
240	0x99	-0.28725648
241	0xbe	-0.18406726
242	0x34	0.14502269
243	0x17	0.06414465
244	0xd3	-0.1255004
245	0x54	0.23426741
246	0x0d	0.036255673
247	0x70	0.31235656
248	0x16	0.06135575
249	0xf5	-0.030677876
250	0x3e	0.17291166
251	0x2c	0.1227115
252	0x27	0.10876702
253	0xa3	-0.2593675
254	0x6e	0.30677876
255	0x06	0.016733387

sequential/quant_output/MatMul;sequential/quant_output/LastValueQuant/FakeQuantWithMinMaxVars i1 [1, 10] scale=0.0052587986 zero_point=0
0	0xce	-0.26293993
1	0x11	0.089399576
2	0x5b	0.47855067
3	0x4c	0.3996687
4	0xd4	-0.23138714
5	0xd8	-0.21035194
6	0x0f	0.07888198
7	0xcd	-0.26819873
8	0x13	0.09991717
9	0x7f	0.6678674
