models/opt-k2-40x30x3-T1.tflite (tflite, 77240 bytes, 9 tensors)

sequential_2/quant_conv2d_10/Conv2D;sequential_2/quant_conv2d_10/LastValueQuant/FakeQuantWithMinMaxVarsPerChannel i1 [24, 3, 3, 3]
0	0x0f	15
1	0x7f	127
2	0x48	72
3	0x3d	61
4	0x09	9
5	0x59	89
6	0xc6	-58
7	0xc0	-64
8	0xda	-38
9	0xd5	-43
10	0x65	101
11	0x0c	12
12	0x72	114
13	0xa3	-93
14	0x28	40
15	0x0f	15
16	0x41	65
17	0x2a	42
18	0x6d	109
19	0x5b	91
20	0x01	1
21	0xc4	-60
22	0x3f	63
23	0x64	100
24	0x54	84
25	0x03	3
26	0x0a	10
27	0x8b	-117
28	0x98	-104
29	0x3b	59
30	0x0a	10
31	0xf5	-11
32	0x1d	29
33	0x7e	126
34	0xd3	-45
35	0xde	-34
36	0x1e	30
37	0x4b	75
38	0xa0	-96
39	0x89	-119
40	0xcc	-52
41	0x62	98
42	0x97	-105
43	0x6b	107
44	0x1b	27
45	0x64	100
46	0xb5	-75
47	0x6a	106
48	0x90	-112
49	0x81	-127
50	0xa5	-91
51	0x31	49
52	0x16	22
53	0xcc	-52
54	0x47	71
55	0x36	54
56	0x81	-127
57	0x40	64
58	0x03	3
59	0xe6	-26
60	0x7d	125
61	0xb3	-77
62	0xb1	-79
63	0xf2	-14
64	0x1b	27
65	0x9c	-100
66	0xe1	-31
67	0x0c	12
68	0xde	-34
69	0xba	-70
70	0x16	22
71	0xff	-1
72	0x02	2
73	0x3f	63
74	0x34	52
75	0xe2	-30
76	0x20	32
77	0x61	97
78	0xa8	-88
79	0xfe	-2
80	0x1a	26
81	0x40	64
82	0x25	37
83	0xa4	-92
84	0x47	71
85	0xd3	-45
86	0x4b	75
87	0x6f	111
88	0x0d	13
89	0xb2	-78
90	0x76	118
91	0xcb	-53
92	0xf6	-10
93	0x7f	127
94	0xa7	-89
95	0x2d	45
96	0x05	5
97	0xac	-84
98	0xfe	-2
99	0xe0	-32
100	0x15	21
101	0xd6	-42
102	0x15	21
103	0xdf	-33
104	0x52	82
105	0xf6	-10
106	0x4f	79
107	0xdb	-37
108	0x21	33
109	0xd0	-48
110	0x90	-112
111	0xaa	-86
112	0xc1	-63
113	0xe7	-25
114	0x1b	27
115	0xea	-22
116	0x41	65
117	0x2b	43
118	0xee	-18
119	0xbb	-69
120	0x3d	61
121	0xe8	-24
122	0x5f	95
123	0x7f	127
124	0x6c	108
125	0x02	2
126	0x1e	30
127	0x32	50
128	0xbf	-65
129	0x31	49
130	0xf5	-11
131	0x4a	74
132	0x8d	-115
133	0x9b	-101
134	0x13	19
135	0x8a	-118
136	0x87	-121
137	0xd3	-45
138	0xb2	-78
139	0x5b	91
140	0x5a	90
141	0x32	50
142	0xe8	-24
143	0xf0	-16
144	0xd7	-41
145	0xd0	-48
146	0xc6	-58
147	0xd1	-47
148	0x7f	127
149	0x99	-103
150	0x3c	60
151	0x72	114
152	0x68	104
153	0xc1	-63
154	0xc2	-62
155	0xde	-34
156	0x3b	59
157	0xb1	-79
158	0x4a	74
159	0x46	70
160	0x19	25
161	0xdb	-37
162	0xae	-82
163	0xd7	-41
164	0xaa	-86
165	0x8d	-115
166	0x40	64
167	0x31	49
168	0x4b	75
169	0x57	87
170	0x20	32
171	0x22	34
172	0xd7	-41
173	0x45	69
174	0xc2	-62
175	0x0c	12
176	0x15	21
177	0x06	6
178	0xb1	-79
179	0xdf	-33
180	0x47	71
181	0xe6	-26
182	0xf5	-11
183	0x94	-108
184	0x7f	127
185	0xfa	-6
186	0x2e	46
187	0xb4	-76
188	0x3d	61
189	0x5f	95
190	0x6b	107
191	0xd4	-44
192	0x93	-109
193	0x28	40
194	0x18	24
195	0x53	83
196	0xc5	-59
197	0x77	119
198	0xe6	-26
199	0x6c	108
200	0x1f	31
201	0x0c	12
202	0xe2	-30
203	0x59	89
204	0xbc	-68
205	0x7f	127
206	0xd9	-39
207	0x22	34
208	0xf4	-12
209	0x56	86
210	0x96	-106
211	0xb9	-71
212	0xb0	-80
213	0x0f	15
214	0x77	119
215	0x11	17
216	0xe8	-24
217	0x31	49
218	0x72	114
219	0x5a	90
220	0x62	98
221	0xc8	-56
222	0x6b	107
223	0xef	-17
224	0xcb	-53
225	0x9e	-98
226	0xbe	-66
227	0x6c	108
228	0x88	-120
229	0x5d	93
230	0xc0	-64
231	0x2b	43
232	0xdd	-35
233	0x5c	92
234	0x64	100
235	0x5f	95
236	0xe0	-32
237	0x81	-127
238	0x8c	-116
239	0xcb	-53
240	0x16	22
241	0xf5	-11
242	0x46	70
243	0xce	-50
244	0x9a	-102
245	0xb2	-78
246	0x9f	-97
247	0x9d	-99
248	0x5f	95
249	0xe1	-31
250	0x45	69
251	0xf4	-12
252	0x24	36
253	0xda	-38
254	0xcc	-52
255	0xf4	-12

sequential_2/quant_conv2d_11/Conv2D;sequential_2/quant_conv2d_11/LastValueQuant/FakeQuantWithMinMaxVarsPerChannel i1 [36, 3, 3, 24]
0	0x22	34
1	0x2b	43
2	0x2d	45
3	0xac	-84
4	0x06	6
5	0xea	-22
6	0xe6	-26
7	0xf4	-12
8	0xa9	-87
9	0xe9	-23
10	0xb0	-80
11	0xc6	-58
12	0xc8	-56
13	0x0c	12
14	0x0d	13
15	0xd3	-45
16	0xc9	-55
17	0xe4	-28
18	0xab	-85
19	0xeb	-21
20	0xf4	-12
21	0xfe	-2
22	0x00	0
23	0x45	69
24	0xcf	-49
25	0xb3	-77
26	0x81	-127
27	0x00	0
28	0xa7	-89
29	0xe3	-29
30	0x28	40
31	0x24	36
32	0xea	-22
33	0xe4	-28
34	0xd4	-44
35	0xd4	-44
36	0x2f	47
37	0x15	21
38	0xee	-18
39	0x5a	90
40	0xa8	-88
41	0x31	49
42	0x07	7
43	0x11	17
44	0xf0	-16
45	0x8e	-114
46	0x08	8
47	0x48	72
48	0x02	2
49	0x39	57
50	0xe1	-31
51	0xf0	-16
52	0x3a	58
53	0x41	65
54	0x72	114
55	0xe1	-31
56	0x39	57
57	0xb9	-71
58	0x29	41
59	0x16	22
60	0xe3	-29
61	0xe3	-29
62	0xc7	-57
63	0x4c	76
64	0xde	-34
65	0x9e	-98
66	0x86	-122
67	0x0d	13
68	0xf8	-8
69	0xb2	-78
70	0xe8	-24
71	0x1e	30
72	0x59	89
73	0x53	83
74	0x9c	-100
75	0xa3	-93
76	0x0b	11
77	0xc5	-59
78	0x16	22
79	0xbc	-68
80	0xc0	-64
81	0x4e	78
82	0x42	66
83	0x26	38
84	0xc4	-60
85	0xaa	-86
86	0xbc	-68
87	0xeb	-21
88	0x18	24
89	0xd9	-39
90	0xa2	-94
91	0xcb	-53
92	0xe6	-26
93	0xa6	-90
94	0x0b	11
95	0xd7	-41
96	0xf3	-13
97	0xcf	-49
98	0xbf	-65
99	0x97	-105
100	0xee	-18
101	0x2e	46
102	0x2e	46
103	0xc8	-56
104	0x1b	27
105	0x95	-107
106	0x34	52
107	0xc6	-58
108	0xea	-22
109	0x57	87
110	0x16	22
111	0x4b	75
112	0xb0	-80
113	0x14	20
114	0xeb	-21
115	0x60	96
116	0x16	22
117	0xf0	-16
118	0x4a	74
119	0xae	-82
120	0xb4	-76
121	0xeb	-21
122	0xad	-83
123	0xd9	-39
124	0x06	6
125	0xf8	-8
126	0xe4	-28
127	0x1d	29
128	0x52	82
129	0xd2	-46
130	0x27	39
131	0x03	3
132	0xdd	-35
133	0x56	86
134	0x25	37
135	0x24	36
136	0xb7	-73
137	0xf7	-9
138	0x01	1
139	0x45	69
140	0xdc	-36
141	0x1b	27
142	0x45	69
143	0x0f	15
144	0x5a	90
145	0x29	41
146	0x94	-108
147	0x98	-104
148	0x52	82
149	0x2d	45
150	0xd3	-45
151	0xaa	-86
152	0xcb	-53
153	0xd9	-39
154	0x0d	13
155	0x3c	60
156	0xc0	-64
157	0x57	87
158	0xbc	-68
159	0x04	4
160	0x99	-103
161	0xd0	-48
162	0x38	56
163	0x9b	-101
164	0x19	25
165	0xf6	-10
166	0xee	-18
167	0x29	41
168	0x21	33
169	0x5b	91
170	0xe0	-32
171	0xf2	-14
172	0xa3	-93
173	0x36	54
174	0x38	56
175	0x10	16
176	0x5c	92
177	0xc3	-61
178	0x1c	28
179	0xcb	-53
180	0xed	-19
181	0x57	87
182	0xb4	-76
183	0x09	9
184	0x0d	13
185	0xdf	-33
186	0xea	-22
187	0xf1	-15
188	0xc5	-59
189	0x33	51
190	0x37	55
191	0xd6	-42
192	0x48	72
193	0xf6	-10
194	0x03	3
195	0x5c	92
196	0xd6	-42
197	0x21	33
198	0x95	-107
199	0xc6	-58
200	0xd5	-43
201	0xca	-54
202	0xca	-54
203	0xcd	-51
204	0x01	1
205	0x4f	79
206	0xe4	-28
207	0xe2	-30
208	0xb5	-75
209	0xa0	-96
210	0xac	-84
211	0xc7	-57
212	0xee	-18
213	0x5d	93
214	0x19	25
215	0xd0	-48
216	0xdd	-35
217	0xcd	-51
218	0xf1	-15
219	0xba	-70
220	0x21	33
221	0xeb	-21
222	0xe9	-23
223	0x38	56
224	0x11	17
225	0x4c	76
226	0xd6	-42
227	0xf9	-7
228	0x24	36
229	0x44	68
230	0x1d	29
231	0x4a	74
232	0xed	-19
233	0x12	18
234	0x51	81
235	0x0d	13
236	0xd4	-44
237	0xe3	-29
238	0x1e	30
239	0xdb	-37
240	0xba	-70
241	0xf7	-9
242	0xc4	-60
243	0x39	57
244	0xcf	-49
245	0xbe	-66
246	0x39	57
247	0x48	72
248	0x00	0
249	0x55	85
250	0x90	-112
251	0x1f	31
252	0xe6	-26
253	0xf9	-7
254	0xbe	-66
255	0xd2	-46

sequential_2/quant_conv2d_12/Conv2D;sequential_2/quant_conv2d_12/LastValueQuant/FakeQuantWithMinMaxVarsPerChannel i1 [48, 2, 2, 36]
0	0xee	-18
1	0x00	0
2	0x3a	58
3	0x59	89
4	0x21	33
5	0xbb	-69
6	0x28	40
7	0x10	16
8	0xd5	-43
9	0xb2	-78
10	0xc4	-60
11	0x5b	91
12	0x01	1
13	0x2f	47
14	0x22	34
15	0x47	71
16	0xd9	-39
17	0x2f	47
18	0x23	35
19	0x06	6
20	0x35	53
21	0xf4	-12
22	0x15	21
23	0xa5	-91
24	0x10	16
25	0xa3	-93
26	0xb6	-74
27	0xf7	-9
28	0x0a	10
29	0xc6	-58
30	0xf5	-11
31	0xbb	-69
32	0x1a	26
33	0x0d	13
34	0xbf	-65
35	0x07	7
36	0x1e	30
37	0x06	6
38	0x45	69
39	0xeb	-21
40	0x62	98
41	0x2d	45
42	0xc0	-64
43	0x45	69
44	0xee	-18
45	0xbc	-68
46	0x09	9
47	0x02	2
48	0x44	68
49	0xd4	-44
50	0xbc	-68
51	0xdb	-37
52	0x1f	31
53	0x2e	46
54	0x35	53
55	0x54	84
56	0xdf	-33
57	0x0a	10
58	0xb2	-78
59	0x0a	10
60	0xd6	-42
61	0xce	-50
62	0x32	50
63	0xcd	-51
64	0x20	32
65	0xf6	-10
66	0x4b	75
67	0x1a	26
68	0x3a	58
69	0x35	53
70	0x62	98
71	0x16	22
72	0x18	24
73	0x04	4
74	0xc1	-63
75	0x23	35
76	0x3b	59
77	0x07	7
78	0x24	36
79	0x4d	77
80	0x15	21
81	0x30	48
82	0xd6	-42
83	0x38	56
84	0x17	23
85	0x2a	42
86	0xe3	-29
87	0x13	19
88	0xa0	-96
89	0xa5	-91
90	0x2c	44
91	0x3c	60
92	0xfb	-5
93	0x0d	13
94	0x41	65
95	0xb5	-75
96	0x0c	12
97	0xbf	-65
98	0x57	87
99	0x61	97
100	0x56	86
101	0xf7	-9
102	0xfc	-4
103	0xfa	-6
104	0xe1	-31
105	0xca	-54
106	0xe0	-32
107	0xcb	-53
108	0xfe	-2
109	0x00	0
110	0x2d	45
111	0x37	55
112	0x30	48
113	0xbf	-65
114	0x28	40
115	0x7f	127
116	0x4a	74
117	0xcb	-53
118	0x3c	60
119	0x0f	15
120	0x0f	15
121	0xea	-22
122	0xfa	-6
123	0x29	41
124	0x1e	30
125	0xa5	-91
126	0x0a	10
127	0xc6	-58
128	0x0f	15
129	0xd6	-42
130	0xcf	-49
131	0x9f	-97
132	0x26	38
133	0x32	50
134	0xeb	-21
135	0xc1	-63
136	0x1b	27
137	0x45	69
138	0xc2	-62
139	0xcc	-52
140	0xba	-70
141	0x40	64
142	0xc5	-59
143	0xde	-34
144	0xda	-38
145	0xef	-17
146	0xd8	-40
147	0xa2	-94
148	0x65	101
149	0xf8	-8
150	0x22	34
151	0x4c	76
152	0x99	-103
153	0xfa	-6
154	0x08	8
155	0x20	32
156	0xf7	-9
157	0x26	38
158	0x02	2
159	0xcb	-53
160	0xea	-22
161	0xc2	-62
162	0x2f	47
163	0x1e	30
164	0x44	68
165	0x64	100
166	0x23	35
167	0x09	9
168	0x52	82
169	0xa6	-90
170	0x95	-107
171	0x57	87
172	0x1c	28
173	0x56	86
174	0xae	-82
175	0x3f	63
176	0xbb	-69
177	0x42	66
178	0xa6	-90
179	0x16	22
180	0xa0	-96
181	0x56	86
182	0xf0	-16
183	0xf6	-10
184	0x2a	42
185	0x14	20
186	0xa4	-92
187	0x04	4
188	0xdb	-37
189	0xb7	-73
190	0x50	80
191	0x3d	61
192	0x73	115
193	0x18	24
194	0x4d	77
195	0xc7	-57
196	0xbc	-68
197	0x27	39
198	0x26	38
199	0xe3	-29
200	0x0e	14
201	0xcc	-52
202	0x1d	29
203	0xe9	-23
204	0xd3	-45
205	0x0e	14
206	0x55	85
207	0xae	-82
208	0xd9	-39
209	0x50	80
210	0x58	88
211	0xa7	-89
212	0xcf	-49
213	0x8b	-117
214	0xda	-38
215	0xc4	-60
216	0x20	32
217	0xa6	-90
218	0xf9	-7
219	0x9b	-101
220	0x04	4
221	0x5e	94
222	0x65	101
223	0x77	119
224	0xb0	-80
225	0xc3	-61
226	0x65	101
227	0x64	100
228	0x00	0
229	0x37	55
230	0x0f	15
231	0xd1	-47
232	0xd7	-41
233	0xce	-50
234	0x9d	-99
235	0x9e	-98
236	0x73	115
237	0x4a	74
238	0x04	4
239	0xcf	-49
240	0xe2	-30
241	0x4f	79
242	0x9d	-99
243	0xd7	-41
244	0x14	20
245	0xee	-18
246	0xc5	-59
247	0x0c	12
248	0xb1	-79
249	0x48	72
250	0xce	-50
251	0x29	41
252	0xef	-17
253	0x81	-127
254	0x13	19
255	0x46	70

sequential_2/quant_conv2d_13/Conv2D;sequential_2/quant_conv2d_13/LastValueQuant/FakeQuantWithMinMaxVarsPerChannel i1 [64, 2, 2, 48]
0	0xeb	-21
1	0xe7	-25
2	0x32	50
3	0x93	-109
4	0xad	-83
5	0x2e	46
6	0xe1	-31
7	0xc9	-55
8	0xee	-18
9	0x8c	-116
10	0x36	54
11	0xc1	-63
12	0x54	84
13	0x47	71
14	0x57	87
15	0xb0	-80
16	0xe0	-32
17	0xb1	-79
18	0xbc	-68
19	0x2c	44
20	0xaf	-81
21	0x93	-109
22	0x76	118
23	0xd6	-42
24	0x9a	-102
25	0xbd	-67
26	0xf0	-16
27	0xea	-22
28	0xe7	-25
29	0x30	48
30	0xd0	-48
31	0x64	100
32	0x31	49
33	0x92	-110
34	0x21	33
35	0x38	56
36	0x4a	74
37	0xcb	-53
38	0x34	52
39	0xc6	-58
40	0xa8	-88
41	0xbd	-67
42	0x20	32
43	0x58	88
44	0xab	-85
45	0x09	9
46	0x0b	11
47	0x81	-127
48	0x01	1
49	0x64	100
50	0xc9	-55
51	0xf4	-12
52	0xf3	-13
53	0x48	72
54	0xa1	-95
55	0x0f	15
56	0x0a	10
57	0x2f	47
58	0xf6	-10
59	0xa0	-96
60	0x0c	12
61	0x25	37
62	0x00	0
63	0x49	73
64	0xf0	-16
65	0x22	34
66	0x12	18
67	0xa1	-95
68	0x96	-106
69	0xab	-85
70	0x8b	-117
71	0xdb	-37
72	0xdb	-37
73	0x98	-104
74	0xb9	-71
75	0x29	41
76	0xa7	-89
77	0x36	54
78	0x09	9
79	0xd4	-44
80	0x30	48
81	0x09	9
82	0xdd	-35
83	0xe6	-26
84	0x0f	15
85	0x2c	44
86	0xaa	-86
87	0xd3	-45
88	0xd6	-42
89	0xe2	-30
90	0x2d	45
91	0x2c	44
92	0xd7	-41
93	0x02	2
94	0x15	21
95	0x45	69
96	0xf1	-15
97	0x8a	-118
98	0x4f	79
99	0xfe	-2
100	0x2a	42
101	0xef	-17
102	0xbf	-65
103	0xfa	-6
104	0x0a	10
105	0x24	36
106	0x93	-109
107	0xe8	-24
108	0x1c	28
109	0x50	80
110	0x9b	-101
111	0xfe	-2
112	0x08	8
113	0x2c	44
114	0xce	-50
115	0xf0	-16
116	0xee	-18
117	0xd7	-41
118	0xb2	-78
119	0x23	35
120	0x22	34
121	0x94	-108
122	0x1d	29
123	0xf1	-15
124	0xaa	-86
125	0xce	-50
126	0xf3	-13
127	0x5e	94
128	0x31	49
129	0xd3	-45
130	0x1e	30
131	0xeb	-21
132	0x12	18
133	0x0d	13
134	0x45	69
135	0xec	-20
136	0x4a	74
137	0x1e	30
138	0xbd	-67
139	0xb5	-75
140	0x5e	94
141	0xc2	-62
142	0xc1	-63
143	0xc9	-55
144	0x07	7
145	0xa2	-94
146	0xde	-34
147	0xea	-22
148	0xb5	-75
149	0xf3	-13
150	0xde	-34
151	0x3c	60
152	0x6a	106
153	0x05	5
154	0x0e	14
155	0x62	98
156	0x98	-104
157	0xf1	-15
158	0xc8	-56
159	0x76	118
160	0x0f	15
161	0x2f	47
162	0x44	68
163	0x5a	90
164	0xeb	-21
165	0x02	2
166	0xd2	-46
167	0xee	-18
168	0xfd	-3
169	0x3f	63
170	0xac	-84
171	0x34	52
172	0xbe	-66
173	0xa8	-88
174	0xb7	-73
175	0xf2	-14
176	0xe4	-28
177	0xa7	-89
178	0x54	84
179	0x06	6
180	0xee	-18
181	0xe1	-31
182	0xb8	-72
183	0x5b	91
184	0xf8	-8
185	0x5e	94
186	0x50	80
187	0xf0	-16
188	0x6a	106
189	0xc6	-58
190	0xd3	-45
191	0xa0	-96
192	0x4b	75
193	0x17	23
194	0xd4	-44
195	0x0f	15
196	0x1f	31
197	0xc6	-58
198	0x09	9
199	0xcd	-51
200	0xbb	-69
201	0xd2	-46
202	0xe9	-23
203	0x17	23
204	0x33	51
205	0x37	55
206	0x27	39
207	0xad	-83
208	0xa3	-93
209	0xaf	-81
210	0x5c	92
211	0x04	4
212	0x39	57
213	0x1c	28
214	0x66	102
215	0xd4	-44
216	0x1a	26
217	0xf6	-10
218	0xe5	-27
219	0xdb	-37
220	0xfe	-2
221	0xc2	-62
222	0xbd	-67
223	0xed	-19
224	0xe7	-25
225	0xd7	-41
226	0xa6	-90
227	0x09	9
228	0xa2	-94
229	0xd7	-41
230	0x53	83
231	0x2f	47
232	0x14	20
233	0xf7	-9
234	0x20	32
235	0x95	-107
236	0x3d	61
237	0xd5	-43
238	0xe8	-24
239	0xfa	-6
240	0xe0	-32
241	0x14	20
242	0xf3	-13
243	0xf2	-14
244	0x36	54
245	0x0e	14
246	0xc7	-57
247	0xc6	-58
248	0x19	25
249	0x40	64
250	0xba	-70
251	0xcc	-52
252	0xfa	-6
253	0x51	81
254	0xe4	-28
255	0xb8	-72

sequential_2/quant_conv2d_14/Conv2D;sequential_2/quant_conv2d_14/LastValueQuant/FakeQuantWithMinMaxVarsPerChannel i1 [64, 2, 2, 64]
0	0x00	0
1	0x13	19
2	0xa8	-88
3	0xcf	-49
4	0xbe	-66
5	0x1d	29
6	0xf9	-7
7	0x4a	74
8	0x52	82
9	0x1b	27
10	0x04	4
11	0x1a	26
12	0xce	-50
13	0xfe	-2
14	0x14	20
15	0x0b	11
16	0xca	-54
17	0x0a	10
18	0xe5	-27
19	0xe8	-24
20	0xc5	-59
21	0xeb	-21
22	0xac	-84
23	0xca	-54
24	0xd8	-40
25	0xa5	-91
26	0x4a	74
27	0xcf	-49
28	0x31	49
29	0x04	4
30	0x48	72
31	0x28	40
32	0xf3	-13
33	0xc8	-56
34	0xe1	-31
35	0x23	35
36	0x0e	14
37	0x0d	13
38	0x9d	-99
39	0xdb	-37
40	0x29	41
41	0x2d	45
42	0x23	35
43	0xe4	-28
44	0x53	83
45	0xa2	-94
46	0x0c	12
47	0xd6	-42
48	0xf9	-7
49	0x48	72
50	0xae	-82
51	0xa5	-91
52	0xfc	-4
53	0xde	-34
54	0x46	70
55	0x8c	-116
56	0x09	9
57	0x4d	77
58	0xe2	-30
59	0xb6	-74
60	0x08	8
61	0xfb	-5
62	0xd2	-46
63	0x9c	-100
64	0x1d	29
65	0x1f	31
66	0x01	1
67	0x2c	44
68	0x1b	27
69	0x29	41
70	0xf7	-9
71	0xc7	-57
72	0x32	50
73	0x38	56
74	0x9e	-98
75	0xd5	-43
76	0xf2	-14
77	0x41	65
78	0xc0	-64
79	0x36	54
80	0xe2	-30
81	0xbc	-68
82	0x07	7
83	0x0d	13
84	0x08	8
85	0xa2	-94
86	0xaf	-81
87	0xaa	-86
88	0xe3	-29
89	0x2c	44
90	0x25	37
91	0xff	-1
92	0x1f	31
93	0xc1	-63
94	0x9f	-97
95	0x59	89
96	0x34	52
97	0x0c	12
98	0x06	6
99	0xa9	-87
100	0x1d	29
101	0x12	18
102	0xa8	-88
103	0xd6	-42
104	0xcb	-53
105	0x1c	28
106	0x4d	77
107	0x00	0
108	0x1c	28
109	0xb4	-76
110	0xb2	-78
111	0x15	21
112	0xe3	-29
113	0x50	80
114	0x34	52
115	0xdd	-35
116	0x1c	28
117	0xff	-1
118	0x2b	43
119	0x3e	62
120	0xf2	-14
121	0xa0	-96
122	0xe3	-29
123	0xe9	-23
124	0xc9	-55
125	0xb7	-73
126	0xc6	-58
127	0x43	67
128	0x24	36
129	0xd6	-42
130	0x28	40
131	0x9d	-99
132	0xab	-85
133	0x81	-127
134	0xd1	-47
135	0x1d	29
136	0x36	54
137	0x06	6
138	0x0b	11
139	0x4c	76
140	0x25	37
141	0x45	69
142	0x1c	28
143	0xc6	-58
144	0x36	54
145	0xe9	-23
146	0x05	5
147	0x28	40
148	0xac	-84
149	0xb3	-77
150	0x0a	10
151	0x2f	47
152	0xd5	-43
153	0x0e	14
154	0x40	64
155	0xff	-1
156	0x22	34
157	0xdb	-37
158	0xf5	-11
159	0x64	100
160	0xb1	-79
161	0x33	51
162	0x50	80
163	0xa7	-89
164	0x24	36
165	0xe0	-32
166	0xe0	-32
167	0xd0	-48
168	0xc9	-55
169	0xe8	-24
170	0xdd	-35
171	0xaf	-81
172	0xa3	-93
173	0x10	16
174	0xa3	-93
175	0x51	81
176	0xf0	-16
177	0x57	87
178	0xba	-70
179	0x63	99
180	0x90	-112
181	0xcc	-52
182	0xc4	-60
183	0x11	17
184	0xfb	-5
185	0xb5	-75
186	0x3f	63
187	0x49	73
188	0xd7	-41
189	0x13	19
190	0x31	49
191	0x41	65
192	0xe7	-25
193	0x45	69
194	0x11	17
195	0xb3	-77
196	0x0e	14
197	0xcd	-51
198	0xff	-1
199	0xb6	-74
200	0xb4	-76
201	0xab	-85
202	0x5c	92
203	0x3e	62
204	0x2b	43
205	0xf1	-15
206	0x0d	13
207	0xb9	-71
208	0x20	32
209	0xdc	-36
210	0x09	9
211	0xf3	-13
212	0x42	66
213	0xbd	-67
214	0xd4	-44
215	0xce	-50
216	0x08	8
217	0x59	89
218	0xfe	-2
219	0xb0	-80
220	0x36	54
221	0x26	38
222	0x12	18
223	0x35	53
224	0x12	18
225	0x29	41
226	0xf9	-7
227	0x11	17
228	0x29	41
229	0x51	81
230	0x43	67
231	0x26	38
232	0x01	1
233	0xa4	-92
234	0xb7	-73
235	0xe8	-24
236	0x3d	61
237	0x36	54
238	0x37	55
239	0x14	20
240	0x0a	10
241	0x50	80
242	0x02	2
243	0x35	53
244	0xf2	-14
245	0xe4	-28
246	0x1f	31
247	0x92	-110
248	0x55	85
249	0xec	-20
250	0xe1	-31
251	0xbe	-66
252	0xca	-54
253	0x2b	43
254	0xba	-70
255	0xc9	-55

sequential_2/quant_dense_6/MatMul;sequential_2/quant_dense_6/LastValueQuant/FakeQuantWithMinMaxVars i1 [100, 128] scale=0.0015765338 zero_point=0
0	0x4d	0.1213931
1	0x4e	0.122969635
2	0x04	0.006306135
3	0xf7	-0.014188804
4	0xef	-0.026801074
5	0x52	0.12927577
6	0x0e	0.022071473
7	0xf3	-0.02049494
8	0xa5	-0.14346458
9	0x2c	0.06936748
10	0x18	0.037836812
11	0xff	-0.0015765338
12	0x30	0.075673625
13	0x0d	0.02049494
14	0x64	0.15765338
15	0x07	0.011035737
16	0xe4	-0.044142947
17	0xb8	-0.11351043
18	0xf2	-0.022071473
19	0xe7	-0.039413344
20	0xa9	-0.13715844
21	0x36	0.08513282
22	0xde	-0.053602148
23	0xe9	-0.036260277
24	0x0b	0.01734187
25	0xb7	-0.115086965
26	0x06	0.009459203
27	0x25	0.05833175
28	0x47	0.111933894
29	0x15	0.03310721
30	0xfa	-0.009459203
31	0x3a	0.09143896
32	0x65	0.1592299
33	0xff	-0.0015765338
34	0x2e	0.072520554
35	0x9d	-0.15607685
36	0xbb	-0.10878083
37	0xdf	-0.052025616
38	0xf5	-0.01734187
39	0x56	0.13558191
40	0x06	0.009459203
41	0xe2	-0.047296014
42	0x25	0.05833175
43	0x4d	0.1213931
44	0x21	0.052025616
45	0x22	0.053602148
46	0xfa	-0.009459203
47	0x28	0.06306135
48	0xd7	-0.064637884
49	0xc2	-0.09774509
50	0x17	0.036260277
51	0x0b	0.01734187
52	0x46	0.11035737
53	0xe8	-0.037836812
54	0x4e	0.122969635
55	0xf5	-0.01734187
56	0x20	0.05044908
57	0x0a	0.015765337
58	0x3f	0.099321626
59	0x1c	0.044142947
60	0xe1	-0.048872545
61	0xa7	-0.14031151
62	0xaa	-0.13558191
63	0xcb	-0.08355629
64	0xf1	-0.023648007
65	0x3d	0.09616856
66	0x17	0.036260277
67	0xb9	-0.111933894
68	0x4a	0.1166635
69	0xe7	-0.039413344
70	0x96	-0.16711257
71	0x9e	-0.1545003
72	0x8e	-0.17972486
73	0xef	-0.026801074
74	0x16	0.03468374
75	0xb2	-0.122969635
76	0x63	0.15607685
77	0xad	-0.1308523
78	0x58	0.13873497
79	0xf1	-0.023648007
80	0x04	0.006306135
81	0xed	-0.029954141
82	0xf6	-0.015765337
83	0x5b	0.14346458
84	0xad	-0.1308523
85	0x59	0.14031151
86	0xf4	-0.018918406
87	0x26	0.059908282
88	0x17	0.036260277
89	0x44	0.107204296
90	0x29	0.064637884
91	0x9b	-0.1592299
92	0xc5	-0.09301549
93	0xbb	-0.10878083
94	0xc0	-0.10089816
95	0xb7	-0.115086965
96	0x5a	0.14188804
97	0x95	-0.16868912
98	0x93	-0.17184219
99	0x98	-0.16395952
100	0xaa	-0.13558191
101	0xfd	-0.0047296016
102	0x39	0.08986243
103	0x35	0.08355629
104	0x52	0.12927577
105	0xea	-0.03468374
106	0xcb	-0.08355629
107	0x21	0.052025616
108	0x08	0.01261227
109	0x1f	0.048872545
110	0xaa	-0.13558191
111	0x45	0.10878083
112	0x13	0.029954141
113	0x35	0.08355629
114	0x16	0.03468374
115	0x32	0.07882669
116	0x40	0.10089816
117	0xf3	-0.02049494
118	0xf3	-0.02049494
119	0xc2	-0.09774509
120	0xea	-0.03468374
121	0xf4	-0.018918406
122	0xd0	-0.075673625
123	0x4a	0.1166635
124	0x2f	0.07409709
125	0x3f	0.099321626
126	0x24	0.056755215
127	0xb9	-0.111933894
128	0x96	-0.16711257
129	0x26	0.059908282
130	0x09	0.014188804
131	0xcc	-0.08197976
132	0xa2	-0.14819418
133	0x19	0.039413344
134	0xe3	-0.04571948
135	0x93	-0.17184219
136	0xe3	-0.04571948
137	0x21	0.052025616
138	0x97	-0.16553605
139	0x00	0.0
140	0xdd	-0.055178683
141	0x29	0.064637884
142	0xf5	-0.01734187
143	0xcf	-0.07725015
144	0x0f	0.023648007
145	0xaa	-0.13558191
146	0xbd	-0.10562776
147	0xcd	-0.08040322
148	0xb9	-0.111933894
149	0x30	0.075673625
150	0xd9	-0.061484817
151	0x94	-0.17026564
152	0x07	0.011035737
153	0xf2	-0.022071473
154	0x15	0.03310721
155	0xf8	-0.01261227
156	0x56	0.13558191
157	0xfb	-0.007882669
158	0x29	0.064637884
159	0xb8	-0.11351043
160	0xbc	-0.107204296
161	0x25	0.05833175
162	0x51	0.12769924
163	0x05	0.007882669
164	0xcc	-0.08197976
165	0x43	0.10562776
166	0xcd	-0.08040322
167	0x2b	0.067790955
168	0xa9	-0.13715844
169	0xba	-0.11035737
170	0x2b	0.067790955
171	0xa3	-0.14661764
172	0x41	0.1024747
173	0x99	-0.16238298
174	0x97	-0.16553605
175	0x17	0.036260277
176	0xf2	-0.022071473
177	0xcd	-0.08040322
178	0x4e	0.122969635
179	0xf3	-0.02049494
180	0x20	0.05044908
181	0x38	0.08828589
182	0x56	0.13558191
183	0x3e	0.09774509
184	0x21	0.052025616
185	0x20	0.05044908
186	0x12	0.028377607
187	0xa9	-0.13715844
188	0xa6	-0.14188804
189	0x14	0.031530675
190	0xee	-0.028377607
191	0x3a	0.09143896
192	0x0d	0.02049494
193	0x3a	0.09143896
194	0x29	0.064637884
195	0xae	-0.12927577
196	0x37	0.08670936
197	0xdc	-0.056755215
198	0x13	0.029954141
199	0xd3	-0.07094402
200	0xf0	-0.02522454
201	0x45	0.10878083
202	0xcf	-0.07725015
203	0x27	0.061484817
204	0xb7	-0.115086965
205	0x3b	0.09301549
206	0x99	-0.16238298
207	0x16	0.03468374
208	0x0a	0.015765337
209	0xa3	-0.14661764
210	0xeb	-0.03310721
211	0xae	-0.12927577
212	0xa5	-0.14346458
213	0x1f	0.048872545
214	0x08	0.01261227
215	0xf3	-0.02049494
216	0xc7	-0.08986243
217	0x70	0.17657179
218	0x45	0.10878083
219	0x01	0.0015765338
220	0xff	-0.0015765338
221	0x3f	0.099321626
222	0xf2	-0.022071473
223	0xf6	-0.015765337
224	0x31	0.07725015
225	0xa6	-0.14188804
226	0x28	0.06306135
227	0x45	0.10878083
228	0xfb	-0.007882669
229	0x44	0.107204296
230	0xaa	-0.13558191
231	0x1d	0.04571948
232	0xbb	-0.10878083
233	0xa0	-0.15134725
234	0x2c	0.06936748
235	0xba	-0.11035737
236	0xd6	-0.06621442
237	0x1b	0.04256641
238	0x50	0.1261227
239	0xb0	-0.1261227
240	0xdf	-0.052025616
241	0x34	0.08197976
242	0xcb	-0.08355629
243	0xa9	-0.13715844
244	0x16	0.03468374
245	0xad	-0.1308523
246	0x3f	0.099321626
247	0x3f	0.099321626
248	0xc9	-0.08670936
249	0xbe	-0.10405123
250	0xee	-0.028377607
251	0xfa	-0.009459203
252	0xdf	-0.052025616
253	0xff	-0.0015765338
254	0xe5	-0.04256641
255	0xd3	-0.07094402

sequential_2/quant_dense_7/MatMul;sequential_2/quant_dense_7/LastValueQuant/FakeQuantWithMinMaxVars i1 [50, 100] scale=0.0018988756 zero_point=0
0	0x19	0.04747189
1	0xd6	-0.07975277
2	0xe7	-0.04747189
3	0x3f	0.11962916
4	0x35	0.10064041
5	0x9b	-0.19178644
6	0x47	0.13482016
7	0x06	0.011393254
8	0x24	0.068359524
9	0x06	0.011393254
10	0xd5	-0.08165165
11	0xc4	-0.113932535
12	0x15	0.039876387
13	0x52	0.15570779
14	0xb4	-0.14431454
15	0x25	0.070258394
16	0xde	-0.06456177
17	0xdc	-0.068359524
18	0x44	0.12912354
19	0xc3	-0.11583141
20	0x2b	0.08165165
21	0xa3	-0.17659543
22	0xab	-0.16140443
23	0x31	0.09304491
24	0x9e	-0.18608981
25	0xeb	-0.039876387
26	0x42	0.12532578
27	0x03	0.005696627
28	0x02	0.0037977512
29	0xff	-0.0018988756
30	0x27	0.07405615
31	0x38	0.10633703
32	0xba	-0.1329213
33	0x3c	0.113932535
34	0xf0	-0.03038201
35	0x32	0.09494378
36	0x43	0.12722467
37	0x50	0.15191005
38	0x18	0.045573015
39	0xfc	-0.0075955023
40	0xd5	-0.08165165
41	0x2d	0.0854494
42	0xe9	-0.043674137
43	0x1c	0.053168517
44	0x22	0.06456177
45	0x34	0.09874153
46	0xc0	-0.12152804
47	0xf4	-0.022786507
48	0xdd	-0.06646065
49	0x38	0.10633703
50	0xa1	-0.18039317
51	0x33	0.096842654
52	0xb2	-0.1481123
53	0x12	0.034179762
54	0xbf	-0.123426914
55	0x28	0.075955026
56	0xff	-0.0018988756
57	0x22	0.06456177
58	0x58	0.16710106
59	0x6d	0.20697744
60	0x1d	0.05506739
61	0x24	0.068359524
62	0xfe	-0.0037977512
63	0x43	0.12722467
64	0xb3	-0.14621341
65	0x46	0.1329213
66	0xe6	-0.049370766
67	0xb9	-0.13482016
68	0x43	0.12722467
69	0x92	-0.20887631
70	0xe0	-0.06076402
71	0x52	0.15570779
72	0x0a	0.018988756
73	0x32	0.09494378
74	0x58	0.16710106
75	0x5c	0.17469655
76	0x32	0.09494378
77	0x2d	0.0854494
78	0xb5	-0.14241567
79	0x40	0.12152804
80	0xd7	-0.077853896
81	0xdf	-0.06266289
82	0xe6	-0.049370766
83	0xa5	-0.17279768
84	0xff	-0.0018988756
85	0xf3	-0.024685383
86	0xfe	-0.0037977512
87	0x59	0.16899993
88	0x4a	0.14051679
89	0xeb	-0.039876387
90	0xb2	-0.1481123
91	0xd7	-0.077853896
92	0xd3	-0.0854494
93	0x3b	0.11203366
94	0x7b	0.2335617
95	0x4e	0.1481123
96	0x9a	-0.19368531
97	0xb4	-0.14431454
98	0xa8	-0.16710106
99	0xd6	-0.07975277
100	0x46	0.1329213
101	0xec	-0.037977513
102	0xc9	-0.104438156
103	0xbe	-0.12532578
104	0xf9	-0.013292129
105	0xd7	-0.077853896
106	0x24	0.068359524
107	0xf1	-0.028483134
108	0xc2	-0.11773028
109	0x07	0.013292129
110	0x95	-0.20317969
111	0x38	0.10633703
112	0xad	-0.15760668
113	0x16	0.041775264
114	0x05	0.009494378
115	0xfb	-0.009494378
116	0xe4	-0.053168517
117	0x34	0.09874153
118	0xf5	-0.020887632
119	0xf2	-0.026584258
120	0x3b	0.11203366
121	0xc5	-0.11203366
122	0xf3	-0.024685383
123	0xde	-0.06456177
124	0x27	0.07405615
125	0x4c	0.14431454
126	0x3f	0.11962916
127	0x9f	-0.18419093
128	0xa2	-0.1784943
129	0xc0	-0.12152804
130	0xb4	-0.14431454
131	0x4b	0.14241567
132	0xb1	-0.15001117
133	0x96	-0.20128082
134	0x0e	0.026584258
135	0xfd	-0.005696627
136	0xf3	-0.024685383
137	0xed	-0.036078636
138	0x4e	0.1481123
139	0xaf	-0.15380892
140	0x50	0.15191005
141	0x0d	0.024685383
142	0xb1	-0.15001117
143	0xc2	-0.11773028
144	0x5e	0.1784943
145	0x19	0.04747189
146	0x22	0.06456177
147	0x0e	0.026584258
148	0x3c	0.113932535
149	0x03	0.005696627
150	0x29	0.077853896
151	0xec	-0.037977513
152	0xd6	-0.07975277
153	0x9f	-0.18419093
154	0x30	0.09114603
155	0x49	0.13861792
156	0x32	0.09494378
157	0xcf	-0.09304491
158	0xe4	-0.053168517
159	0xb5	-0.14241567
160	0x03	0.005696627
161	0x28	0.075955026
162	0xfa	-0.011393254
163	0xbc	-0.12912354
164	0xfc	-0.0075955023
165	0x56	0.1633033
166	0x42	0.12532578
167	0xaa	-0.1633033
168	0x43	0.12722467
169	0xf9	-0.013292129
170	0x8b	-0.22216845
171	0x1d	0.05506739
172	0x29	0.077853896
173	0x95	-0.20317969
174	0x41	0.123426914
175	0xcb	-0.10064041
176	0x17	0.043674137
177	0xbc	-0.12912354
178	0xe2	-0.056966268
179	0x14	0.037977513
180	0x30	0.09114603
181	0x48	0.13671905
182	0xb9	-0.13482016
183	0x15	0.039876387
184	0x2c	0.08355053
185	0xc4	-0.113932535
186	0x1b	0.05126964
187	0xff	-0.0018988756
188	0xc6	-0.11013478
189	0x3d	0.11583141
190	0xc2	-0.11773028
191	0x2e	0.087348275
192	0x2b	0.08165165
193	0xc1	-0.11962916
194	0xe1	-0.05886514
195	0x05	0.009494378
196	0x3d	0.11583141
197	0xa9	-0.16520217
198	0x1b	0.05126964
199	0x5d	0.17659543
200	0x5d	0.17659543
201	0xb2	-0.1481123
202	0x4a	0.14051679
203	0xbc	-0.12912354
204	0xab	-0.16140443
205	0x2d	0.0854494
206	0xb3	-0.14621341
207	0xfc	-0.0075955023
208	0xe1	-0.05886514
209	0x3d	0.11583141
210	0x42	0.12532578
211	0x8b	-0.22216845
212	0xa1	-0.18039317
213	0x36	0.10253928
214	0xcb	-0.10064041
215	0xfe	-0.0037977512
216	0x5d	0.17659543
217	0x50	0.15191005
218	0x20	0.06076402
219	0x32	0.09494378
220	0x5a	0.1708988
221	0xb8	-0.13671905
222	0xf2	-0.026584258
223	0xce	-0.09494378
224	0x32	0.09494378
225	0xe6	-0.049370766
226	0x23	0.06646065
227	0x09	0.017089881
228	0xde	-0.06456177
229	0xe7	-0.04747189
230	0x09	0.017089881
231	0xd2	-0.087348275
232	0x00	0.0
233	0xaa	-0.1633033
234	0xcf	-0.09304491
235	0xca	-0.10253928
236	0x32	0.09494378
237	0x1d	0.05506739
238	0xdd	-0.06646065
239	0xe9	-0.043674137
240	0xec	-0.037977513
241	0xa9	-0.16520217
242	0x20	0.06076402
243	0x1c	0.053168517
244	0x61	0.18419093
245	0x10	0.03038201
246	0x44	0.12912354
247	0xaf	-0.15380892
248	0xe7	-0.04747189
249	0xc7	-0.10823591
250	0x4a	0.14051679
251	0x5e	0.1784943
252	0x37	0.104438156
253	0xd7	-0.077853896
254	0x07	0.013292129
255	0x61	0.18419093

sequential_2/quant_dense_8/MatMul;sequential_2/quant_dense_8/LastValueQuant/FakeQuantWithMinMaxVars i1 [10, 50] scale=0.002584433 zero_point=0
0	0xde	-0.08787072
1	0x1e	0.07753299
2	0xcb	-0.13697495
3	0x4d	0.19900134
4	0x26	0.09820845
5	0x64	0.2584433
6	0x18	0.06202639
7	0x59	0.23001453
8	0x3b	0.15248154
9	0xb6	-0.19124804
10	0x06	0.015506597
11	0x71	0.2920409
12	0xf5	-0.028428763
13	0xb8	-0.18607917
14	0xd6	-0.10854618
15	0x01	0.002584433
16	0x05	0.012922165
17	0x42	0.17057258
18	0x2b	0.11113062
19	0x3b	0.15248154
20	0x3c	0.15506598
21	0x22	0.08787072
22	0xdb	-0.09562402
23	0xfe	-0.005168866
24	0x8c	-0.29979423
25	0x10	0.041350927
26	0xf1	-0.038766496
27	0xf4	-0.031013194
28	0xa4	-0.23776783
29	0x1f	0.08011742
30	0x00	0.0
31	0xb3	-0.19900134
32	0x4b	0.19383247
33	0x1b	0.06977969
34	0x53	0.21450794
35	0xde	-0.08787072
36	0x5f	0.24552113
37	0x31	0.12663722
38	0x91	-0.28687206
39	0x15	0.05427309
40	0x24	0.09303959
41	0xc7	-0.14731267
42	0x0f	0.038766496
43	0x25	0.09562402
44	0x32	0.12922165
45	0x6b	0.27653432
46	0xca	-0.13955937
47	0x6e	0.28428763
48	0xab	-0.21967681
49	0x51	0.20933907
50	0x94	-0.27911875
51	0xf8	-0.020675464
52	0xab	-0.21967681
53	0x56	0.22226124
54	0xfa	-0.015506597
55	0xef	-0.04393536
56	0x2a	0.10854618
57	0x07	0.01809103
58	0xb3	-0.19900134
59	0xad	-0.21450794
60	0x4a	0.19124804
61	0xd1	-0.12146835
62	0x15	0.05427309
63	0x36	0.13955937
64	0xf1	-0.038766496
65	0x58	0.2274301
66	0x66	0.26361215
67	0x37	0.14214382
68	0xab	-0.21967681
69	0xad	-0.21450794
70	0x29	0.10596175
71	0x53	0.21450794
72	0xd0	-0.12405278
73	0x2b	0.11113062
74	0xb0	-0.20675464
75	0x61	0.25068998
76	0xb8	-0.18607917
77	0xa3	-0.24035226
78	0x43	0.173157
79	0xed	-0.049104225
80	0x5b	0.2351834
81	0x94	-0.27911875
82	0xca	-0.13955937
83	0xaf	-0.20933907
84	0x19	0.064610824
85	0x48	0.18607917
86	0xe6	-0.06719526
87	0xb3	-0.19900134
88	0x30	0.12405278
89	0xdb	-0.09562402
90	0xc0	-0.16540371
91	0x4d	0.19900134
92	0xef	-0.04393536
93	0xcc	-0.13439052
94	0x62	0.25327444
95	0x28	0.10337732
96	0xa7	-0.23001453
97	0x6d	0.2817032
98	0xf8	-0.020675464
99	0x67	0.2661966
100	0x93	-0.2817032
101	0xa7	-0.23001453
102	0xde	-0.08787072
103	0x4e	0.20158577
104	0x14	0.05168866
105	0x2e	0.118883915
106	0x36	0.13955937
107	0x06	0.015506597
108	0x5f	0.24552113
109	0x94	-0.27911875
110	0x5c	0.23776783
111	0xb1	-0.2041702
112	0xeb	-0.05427309
113	0x8c	-0.29979423
114	0xb7	-0.1886636
115	0x32	0.12922165
116	0xc1	-0.16281928
117	0xa0	-0.24810556
118	0xac	-0.21709237
119	0x06	0.015506597
120	0xf0	-0.041350927
121	0x5d	0.24035226
122	0x55	0.21967681
123	0x06	0.015506597
124	0x06	0.015506597
125	0x48	0.18607917
126	0xd6	-0.10854618
127	0x75	0.30237865
128	0x29	0.10596175
129	0x0b	0.028428763
130	0x93	-0.2817032
131	0xbd	-0.173157
132	0xcc	-0.13439052
133	0xfe	-0.005168866
134	0x45	0.17832588
135	0x17	0.059441958
136	0xfe	-0.005168866
137	0xed	-0.049104225
138	0x22	0.08787072
139	0x5d	0.24035226
140	0x18	0.06202639
141	0x4a	0.19124804
142	0x38	0.14472824
143	0xed	-0.049104225
144	0x9b	-0.26102772
145	0x04	0.010337732
146	0x16	0.056857526
147	0xcd	-0.13180608
148	0x30	0.12405278
149	0x02	0.005168866
150	0x8b	-0.30237865
151	0xf2	-0.03618206
152	0xf4	-0.031013194
153	0x14	0.05168866
154	0xc9	-0.14214382
155	0x4b	0.19383247
156	0x0b	0.028428763
157	0xf6	-0.02584433
158	0x13	0.049104225
159	0x00	0.0
160	0xa9	-0.22484566
161	0xf2	-0.03618206
162	0xab	-0.21967681
163	0xa9	-0.22484566
164	0xed	-0.049104225
165	0xbd	-0.173157
166	0x2c	0.11371505
167	0x96	-0.2739499
168	0xad	-0.21450794
169	0x5e	0.2429367
170	0x1a	0.06719526
171	0xab	-0.21967681
172	0x8b	-0.30237865
173	0x90	-0.2894565
174	0xce	-0.12922165
175	0x07	0.01809103
176	0xc5	-0.15248154
177	0x87	-0.3127164
178	0xf8	-0.020675464
179	0x18	0.06202639
180	0xc6	-0.14989711
181	0xcb	-0.13697495
182	0x76	0.30496308
183	0x65	0.26102772
184	0xbb	-0.17832588
185	0xcb	-0.13697495
186	0x0c	0.031013194
187	0xda	-0.09820845
188	0x5f	0.24552113
189	0x4c	0.1964169
190	0x46	0.1809103
191	0xd0	-0.12405278
192	0xd9	-0.100792885
193	0xb5	-0.19383247
194	0xa3	-0.24035226
195	0xf3	-0.03359763
196	0xfc	-0.010337732
197	0xb8	-0.18607917
198	0xda	-0.09820845
199	0x53	0.21450794
200	0xb1	-0.2041702
201	0xb7	-0.1886636
202	0x39	0.14731267
203	0x22	0.08787072
204	0xfe	-0.005168866
205	0x31	0.12663722
206	0x1d	0.07494856
207	0xfc	-0.010337732
208	0x3a	0.14989711
209	0xc0	-0.16540371
210	0x86	-0.31530082
211	0xec	-0.05168866
212	0x47	0.18349475
213	0x18	0.06202639
214	0x31	0.12663722
215	0x81	-0.328223
216	0x57	0.22484566
217	0xd2	-0.118883915
218	0x47	0.18349475
219	0x57	0.22484566
220	0x4c	0.1964169
221	0x87	-0.3127164
222	0xea	-0.056857526
223	0x25	0.09562402
224	0x44	0.17574143
225	0xb1	-0.2041702
226	0x19	0.064610824
227	0x15	0.05427309
228	0x2d	0.11629948
229	0xcf	-0.12663722
230	0x35	0.13697495
231	0xe3	-0.07494856
232	0xc6	-0.14989711
233	0x27	0.100792885
234	0x2c	0.11371505
235	0x0b	0.028428763
236	0xbe	-0.17057258
237	0xa9	-0.22484566
238	0x9c	-0.2584433
239	0x04	0.010337732
240	0xd6	-0.10854618
241	0xf4	-0.031013194
242	0x0c	0.031013194
243	0x33	0.13180608
244	0x16	0.056857526
245	0x92	-0.28428763
246	0xa2	-0.2429367
247	0x1d	0.07494856
248	0x91	-0.28687206
249	0x2f	0.12146835
250	0x4c	0.1964169
251	0x9f	-0.25068998
252	0xfa	-0.015506597
253	0x3a	0.14989711
254	0xc8	-0.14472824
255	0x42	0.17057258

sequential_2/quant_output/MatMul;sequential_2/quant_output/LastValueQuant/FakeQuantWithMinMaxVars i1 [1, 10] scale=0.004239136 zero_point=0
0	0xa2	-0.39847878
1	0x81	-0.53837025
2	0xa2	-0.39847878
3	0x19	0.1059784
4	0x4b	0.3179352
5	0x28	0.16956544
6	0x2b	0.18228285
7	0x43	0.2840221
8	0x6b	0.45358753
9	0x1d	0.12293494
