models/opt-160x66x3.tflite (tflite, 234888 bytes, 9 tensors)

sequential_36/quant_conv2d_178/Conv2D;sequential_36/quant_conv2d_178/LastValueQuant/FakeQuantWithMinMaxVarsPerChannel i1 [24, 5, 5, 3]
73 -53 -51 -11 4 -19 -73 32
9 -106 30 -46 62 -73 74 -103
22 36 13 -12 41 62 41 92
65 72 -4 -34 31 -6 92 12
-35 -26 123 78 105 -82 -57 -78
-92 72 -12 -95 35 -13 127 112
-16 66 -97 92 -99 67 21 36
122 18 -34 -16 46 85 64 119
89 74 -10 -39 -6 -37 115 -34
-85 34 107 126 77 105 51 -93
-51 79 116 -57 -85 105 34 -22
63 74 6 -110 79 86 36 61
121 -9 55 16 83 85 -3 -72
79 -121 17 -5 -14 -126 87 127
-126 -102 -49 -94 34 -68 39 -37
26 38 -106 19 -101 86 43 -110
77 67 -119 -40 38 15 -72 50
-94 -28 -125 -74 -43 10 25 39
-89 65 122 62 -26 38 -22 32
108 -63 24 5 -124 109 -64 -81
4 -107 -79 110 86 -39 89 87
32 27 80 45 28 49 -40 31
64 -36 87 106 -89 -1 -4 25
-111 -103 -121 118 30 -113 -39 98
-122 30 49 2 -62 -45 9 -57
-28 18 81 -3 -122 122 26 96
35 -66 69 106 -68 53 -60 97
78 -29 -127 -29 1 20 -91 65
93 -78 92 -48 -87 -113 4 -42
62 113 52 -29 11 100 37 -121
75 -114 -21 -107 78 38 3 -3
-24 82 10 -93 110 88 -62 84
00000000: 49cb cdf5 04ed b720 0996 1ed2 3eb7 4a99
00000010: 1624 0df4 293e 295c 4148 fcde 1ffa 5c0c
00000020: dde6 7b4e 69ae c7b2 a448 f4a1 23f3 7f70
00000030: f042 9f5c 9d43 1524 7a12 def0 2e55 4077
00000040: 594a f6d9 fadb 73de ab22 6b7e 4d69 33a3
00000050: cd4f 74c7 ab69 22ea 3f4a 0692 4f56 243d
00000060: 79f7 3710 5355 fdb8 4f87 11fb f282 577f
00000070: 829a cfa2 22bc 27db 1a26 9613 9b56 2b92
00000080: 4d43 89d8 260f b832 a2e4 83b6 d50a 1927
00000090: a741 7a3e e626 ea20 6cc1 1805 846d c0af
000000a0: 0495 b16e 56d9 5957 201b 502d 1c31 d81f
000000b0: 40dc 576a a7ff fc19 9199 8776 1e8f d962
000000c0: 861e 3102 c2d3 09c7 e412 51fd 867a 1a60
000000d0: 23be 456a bc35 c461 4ee3 81e3 0114 a541
000000e0: 5db2 5cd0 a98f 04d6 3e71 34e3 0b64 2587
000000f0: 4b8e eb95 4e26 03fd e852 0aa3 6e58 c254

sequential_36/quant_conv2d_179/Conv2D;sequential_36/quant_conv2d_179/LastValueQuant/FakeQuantWithMinMaxVarsPerChannel i1 [36, 5, 5, 24]
-14 49 75 85 -19 -63 17 21
-54 39 93 9 -75 -94 -28 -10
25 93 -85 10 -30 62 40 26
88 -76 6 -55 -45 -71 -37 89
-18 88 69 -63 42 -8 64 -18
3 -109 -94 56 -55 94 18 55
98 40 -12 -53 -4 85 -32 -81
23 1 -66 19 87 75 58 48
11 -28 97 -74 -1 10 -2 -28
57 79 -33 11 72 -4 70 -44
58 -51 68 -53 96 -61 31 46
48 -62 4 19 -90 -22 -69 -54
-49 -41 -47 78 41 -87 -6 -103
-18 77 41 57 90 -9 -5 -49
16 57 7 -101 -30 83 66 -3
61 0 -100 96 -4 -90 -53 30
6 17 -20 37 5 11 53 43
85 1 -23 -7 -87 29 0 80
27 29 82 -90 -8 -34 35 59
-11 10 -101 -33 -84 75 -71 -76
-63 80 -30 69 -4 89 26 7
-85 -40 -42 16 -9 100 83 53
-83 68 26 -15 32 43 -65 21
10 0 64 -62 -75 -49 -25 -96
78 80 95 34 34 67 31 -21
-12 -84 -45 -59 24 92 -78 -30
-50 -93 29 4 79 -53 -10 34
29 -43 100 46 57 -67 85 -45
-24 -12 -60 -16 -41 37 -65 91
-59 51 -14 60 28 17 12 -25
79 30 -38 88 60 56 22 65
86 47 -31 60 94 82 35 13
00000000: f231 4b55 edc1 1115 ca27 5d09 b5a2 e4f6
00000010: 195d ab0a e23e 281a 58b4 06c9 d3b9 db59
00000020: ee58 45c1 2af8 40ee 0393 a238 c95e 1237
00000030: 6228 f4cb fc55 e0af 1701 be13 574b 3a30
00000040: 0be4 61b6 ff0a fee4 394f df0b 48fc 46d4
00000050: 3acd 44cb 60c3 1f2e 30c2 0413 a6ea bbca
00000060: cfd7 d14e 29a9 fa99 ee4d 2939 5af7 fbcf
00000070: 1039 079b e253 42fd 3d00 9c60 fca6 cb1e
00000080: 0611 ec25 050b 352b 5501 e9f9 a91d 0050
00000090: 1b1d 52a6 f8de 233b f50a 9bdf ac4b b9b4
000000a0: c150 e245 fc59 1a07 abd8 d610 f764 5335
000000b0: ad44 1af1 202b bf15 0a00 40c2 b5cf e7a0
000000c0: 4e50 5f22 2243 1feb f4ac d3c5 185c b2e2
000000d0: cea3 1d04 4fcb f622 1dd5 642e 39bd 55d3
000000e0: e8f4 c4f0 d725 bf5b c533 f23c 1c11 0ce7
000000f0: 4f1e da58 3c38 1641 562f e13c 5e52 230d

sequential_36/quant_conv2d_180/Conv2D;sequential_36/quant_conv2d_180/LastValueQuant/FakeQuantWithMinMaxVarsPerChannel i1 [48, 5, 5, 36]
8 82 -31 38 -14 44 -12 17
-70 -33 -9 -12 18 -79 98 6
-50 25 -64 78 -69 -86 -80 -2
-95 -29 31 -76 9 -111 -40 -52
-84 -74 17 -9 41 -89 56 66
87 12 68 -56 62 -34 -52 64
36 -41 100 -44 -31 39 79 -62
-20 -57 18 80 -38 100 -28 56
8 -67 31 42 103 89 -29 -37
-40 31 97 -34 -66 100 -9 52
57 -15 -14 93 -73 -42 -2 62
57 -55 35 44 57 -24 55 38
-86 -94 -78 85 -85 -68 22 -4
-81 -27 90 -66 34 29 48 -89
67 82 94 59 2 80 95 31
85 76 1 40 25 -99 30 -60
25 51 21 -92 35 69 -91 -83
106 -46 98 0 -52 -86 96 -27
-17 16 -11 37 4 17 -68 -63
28 -27 -66 65 100 86 -90 96
79 10 40 -44 -47 19 26 3
55 28 89 -56 -94 53 -17 -93
66 53 27 -105 -38 -11 39 -28
84 48 -91 -21 31 -72 -11 -2
-35 63 -19 62 35 -127 94 -4
55 38 -15 103 56 33 32 -75
-11 -70 -79 -80 -58 81 64 89
-52 -98 52 25 14 95 86 -56
-20 -18 44 35 89 -49 -11 45
65 42 -64 -47 -33 -62 -36 40
60 -9 -22 -35 104 -92 73 70
-28 63 2 11 72 -33 48 64
00000000: 0852 e126 f22c f411 badf f7f4 12b1 6206
00000010: ce19 c04e bbaa b0fe a1e3 1fb4 0991 d8cc
00000020: acb6 11f7 29a7 3842 570c 44c8 3ede cc40
00000030: 24d7 64d4 e127 4fc2 ecc7 1250 da64 e438
00000040: 08bd 1f2a 6759 e3db d81f 61de be64 f734
00000050: 39f1 f25d b7d6 fe3e 39c9 232c 39e8 3726
00000060: aaa2 b255 abbc 16fc afe5 5abe 221d 30a7
00000070: 4352 5e3b 0250 5f1f 554c 0128 199d 1ec4
00000080: 1933 15a4 2345 a5ad 6ad2 6200 ccaa 60e5
00000090: ef10 f525 0411 bcc1 1ce5 be41 6456 a660
000000a0: 4f0a 28d4 d113 1a03 371c 59c8 a235 efa3
000000b0: 4235 1b97 daf5 27e4 5430 a5eb 1fb8 f5fe
000000c0: dd3f ed3e 2381 5efc 3726 f167 3821 20b5
000000d0: f5ba b1b0 c651 4059 cc9e 3419 0e5f 56c8
000000e0: ecee 2c23 59cf f52d 412a c0d1 dfc2 dc28
000000f0: 3cf7 eadd 68a4 4946 e43f 020b 48df 3040

sequential_36/quant_conv2d_181/Conv2D;sequential_36/quant_conv2d_181/LastValueQuant/FakeQuantWithMinMaxVarsPerChannel i1 [64, 3, 3, 48]
6 -19 54 78 105 -70 -23 47
-42 -39 2 89 9 -59 -48 57
54 0 -47 55 90 -17 -101 -42
-85 -56 88 -52 79 16 -121 -81
89 -18 24 -106 19 39 7 -87
-26 68 -31 101 -87 112 60 -115
-111 -10 -55 113 1 103 57 92
18 43 8 57 46 90 11 69
75 -96 -81 80 -116 -37 47 105
9 114 108 23 3 -46 -116 52
-22 73 94 -84 -29 -114 -94 81
55 -40 80 6 -42 -59 -59 54
66 46 62 72 -40 -24 49 -113
-100 87 -118 -70 -56 -67 6 -35
-53 84 -63 -8 72 -18 103 10
-118 -71 -85 0 105 74 102 114
40 -79 4 -46 74 52 -4 93
-125 -62 -29 100 78 -20 -70 -58
0 29 -50 108 -70 -67 36 -25
55 10 -117 -54 102 103 -99 93
59 -64 0 110 -117 -55 -109 -85
43 -8 58 -94 -54 50 -90 31
-23 -120 -49 -118 5 -66 -73 14
-16 -7 -39 62 -52 80 37 56
12 -108 7 -35 115 85 -27 98
20 42 88 119 -78 -117 33 -25
-105 37 18 29 -76 100 55 -75
120 -65 45 -104 102 63 98 -12
-90 -88 -4 106 -20 -101 -30 40
-79 39 -96 54 -35 -72 83 26
99 -98 -99 -31 80 -86 -53 103
113 -50 42 70 -116 -38 -109 52
00000000: 06ed 364e 69ba e92f d6d9 0259 09c5 d039
00000010: 3600 d137 5aef 9bd6 abc8 58cc 4f10 87af
00000020: 59ee 1896 1327 07a9 e644 e165 a970 3c8d
00000030: 91f6 c971 0167 395c 122b 0839 2e5a 0b45
00000040: 4ba0 af50 8cdb 2f69 0972 6c17 03d2 8c34
00000050: ea49 5eac e38e a251 37d8 5006 d6c5 c536
00000060: 422e 3e48 d8e8 318f 9c57 8aba c8bd 06dd
00000070: cb54 c1f8 48ee 670a 8ab9 ab00 694a 6672
00000080: 28b1 04d2 4a34 fc5d 83c2 e364 4eec bac6
00000090: 001d ce6c babd 24e7 370a 8bca 6667 9d5d
000000a0: 3bc0 006e 8bc9 93ab 2bf8 3aa2 ca32 a61f
000000b0: e988 cf8a 05be b70e f0f9 d93e cc50 2538
000000c0: 0c94 07dd 7355 e562 142a 5877 b28b 21e7
000000d0: 9725 121d b464 37b5 78bf 2d98 663f 62f4
000000e0: a6a8 fc6a ec9b e228 b127 a036 ddb8 531a
000000f0: 639e 9de1 50aa cb67 71ce 2a46 8cda 9334

sequential_36/quant_conv2d_182/Conv2D;sequential_36/quant_conv2d_182/LastValueQuant/FakeQuantWithMinMaxVarsPerChannel i1 [64, 3, 3, 64]
92 47 -39 107 -72 70 25 39
61 24 31 89 -60 -96 64 -105
21 23 63 -62 84 -44 11 -61
66 -74 -38 -16 -60 75 -74 24
-41 49 -5 32 30 35 -100 -1
-98 72 -36 34 -51 -1 -30 60
100 -26 -10 -28 -93 100 -69 39
51 2 61 -16 31 95 -69 109
3 -37 36 -94 -26 -96 -30 -59
73 71 -36 -5 9 119 89 -81
45 68 -87 -70 115 -5 47 13
-107 16 28 42 25 -41 -2 -9
28 -43 98 -91 27 66 -92 103
-80 6 30 -35 -41 -97 1 -80
-88 77 -88 104 101 94 78 -91
92 50 37 -32 104 42 100 81
-103 96 -45 62 -27 -41 84 -66
-66 -17 -92 -112 112 -4 94 -63
21 -6 -75 -34 -62 58 72 -27
-44 94 67 -108 -87 11 -23 -19
-96 20 40 -76 -73 -87 107 64
7 65 95 14 106 -70 114 -23
4 -105 16 -115 8 -67 -2 12
17 41 -11 14 24 -14 60 -28
52 12 53 -48 -74 59 69 -18
-110 49 80 -103 70 -6 51 93
-88 80 -60 49 -83 42 89 -47
47 -96 -65 20 111 -64 45 -116
-25 -79 -67 -73 81 -37 26 -49
-13 40 111 -28 23 33 77 -70
80 87 69 84 29 -83 -51 -77
-71 -1 100 -32 96 88 -41 20
00000000: 5c2f d96b b846 1927 3d18 1f59 c4a0 4097
00000010: 1517 3fc2 54d4 0bc3 42b6 daf0 c44b b618
00000020: d731 fb20 1e23 9cff 9e48 dc22 cdff e23c
00000030: 64e6 f6e4 a364 bb27 3302 3df0 1f5f bb6d
00000040: 03db 24a2 e6a0 e2c5 4947 dcfb 0977 59af
00000050: 2d44 a9ba 73fb 2f0d 9510 1c2a 19d7 fef7
00000060: 1cd5 62a5 1b42 a467 b006 1edd d79f 01b0
00000070: a84d a868 655e 4ea5 5c32 25e0 682a 6451
00000080: 9960 d33e e5d7 54be beef a490 70fc 5ec1
00000090: 15fa b5de c23a 48e5 d45e 4394 a90b e9ed
000000a0: a014 28b4 b7a9 6b40 0741 5f0e 6aba 72e9
000000b0: 0497 108d 08bd fe0c 1129 f50e 18f2 3ce4
000000c0: 340c 35d0 b63b 45ee 9231 5099 46fa 335d
000000d0: a850 c431 ad2a 59d1 2fa0 bf14 6fc0 2d8c
000000e0: e7b1 bdb7 51db 1acf f328 6fe4 1721 4dba
000000f0: 5057 4554 1dad cdb3 b9ff 64e0 6058 d714

sequential_36/quant_dense_99/MatMul;sequential_36/quant_dense_99/LastValueQuant/FakeQuantWithMinMaxVars i1 [100, 832] scale=0.00077726546 zero_point=0
-0.028758822 -0.020986168 0.020208903 -0.06917663 -0.06373577 0.034976944 0.033422414 -0.00854992
0.060626708 0.07306296 -0.0062181237 0.06373577 -0.0023317963 0.0652903 0.040417805 -0.016322576
-0.016322576 0.03730874 -0.02564976 0.062181238 -0.03808601 -0.062181238 -0.00854992 -0.0023317963
-0.060626708 -0.030313354 -0.005440858 -0.07617202 -0.022540698 0.04663593 0.064513035 -0.055963114
0.03419968 0.00854992 -0.04819046 0.033422414 -0.034976944 0.052076787 0.070731156 0.026427025
-0.0139907785 -0.03964054 -0.0652903 -0.00077726546 0.06995389 0.0031090619 0.06839936 -0.06839936
-0.0132135125 -0.04974499 -0.060626708 -0.0062181237 -0.052076787 -0.047413193 0.00077726546 0.023317965
0.04119507 -0.043526866 -0.059072174 0.027981557 0.0038863274 -0.08394467 0.0062181237 -0.024872495
-0.0147680435 0.045081396 -0.00854992 -0.03264515 0.070731156 -0.045858663 0.040417805 0.073840216
-0.0147680435 0.073840216 -0.020986168 0.06606756 -0.044304132 -0.07306296 -0.0132135125 -0.016322576
0.005440858 0.031090619 -0.0031090619 0.0038863274 0.03964054 -0.06995389 0.07306296 0.024872495
-0.010104451 -0.031867884 0.03808601 0.07228569 0.0652903 0.0629585 0.041972335 -0.009327185
0.07461748 0.02409523 0.020986168 0.07228569 0.08705373 0.04119507 -0.020208903 -0.056740377
0.03886327 0.0015545309 0.00077726546 0.00854992 0.044304132 0.057517644 -0.05984944 -0.011658982
-0.06917663 0.026427025 0.022540698 0.07306296 -0.06606756 0.010104451 0.06606756 -0.033422414
-0.005440858 -0.054408584 0.07694928 -0.03264515 0.023317965 -0.08705373 0.06917663 0.07694928
0.0023317963 0.043526866 -0.034976944 0.07461748 -0.0062181237 0.06606756 0.024872495 0.06839936
0.00854992 -0.08083561 0.029536087 0.06839936 -0.031867884 -0.0069953892 0.02564976 0.059072174
0.033422414 -0.054408584 0.03419968 0.0046635927 0.059072174 0.0069953892 0.011658982 -0.03653148
0.0077726548 -0.009327185 0.010881716 -0.055185847 0.055963114 -0.03653148 0.0 -0.03419968
-0.04819046 -0.056740377 -0.027204292 -0.056740377 0.056740377 -0.044304132 0.0139907785 0.06606756
0.05984944 0.044304132 -0.06373577 -0.060626708 0.067622095 0.052076787 -0.0652903 -0.019431636
-0.057517644 -0.07306296 0.060626708 0.020208903 0.067622095 0.041972335 -0.04974499 -0.0629585
0.07228569 -0.030313354 0.027981557 0.053631317 0.059072174 -0.08239014 -0.0132135125 -0.033422414
0.06684483 -0.028758822 -0.04819046 0.02409523 0.03886327 0.053631317 0.016322576 0.034976944
-0.01709984 0.055963114 0.04119507 0.0077726548 0.07850381 0.028758822 0.03653148 0.0077726548
0.0038863274 0.06373577 0.064513035 0.07694928 -0.07306296 0.070731156 0.052076787 -0.056740377
0.06917663 0.027981557 -0.08005834 0.060626708 -0.050522257 -0.0046635927 0.06995389 -0.042749602
-0.03886327 0.06995389 0.060626708 -0.02564976 -0.03808601 0.05984944 0.029536087 -0.04974499
0.03730874 -0.07306296 -0.07461748 -0.016322576 -0.07694928 -0.070731156 -0.045081396 -0.07928108
-0.0062181237 -0.06684483 -0.052076787 -0.04119507 -0.041972335 0.042749602 0.07772654 0.07850381
-0.03264515 -0.07539475 0.02564976 0.020986168 0.034976944 0.0139907785 -0.07694928 0.06373577
00000000: dbe5 1aa7 ae2d 2bf5 4e5e f852 fd54 34eb
00000010: eb30 df50 cfb0 f5fd b2d9 f99e e33c 53b8
00000020: 2c0b c22b d343 5b22 eecd acff 5a04 58a8
00000030: efc0 b2f8 bdc3 011e 35c8 b424 0594 08e0
00000040: ed3a f5d6 5bc5 345f ed5f e555 c7a2 efeb
00000050: 0728 fc05 33a6 5e20 f3d7 315d 5451 36f4
00000060: 601f 1b5d 7035 e6b7 3202 010b 394a b3f1
00000070: a722 1d5e ab0d 55d5 f9ba 63d6 1e90 5963
00000080: 0338 d360 f855 2058 0b98 2658 d7f7 214c
00000090: 2bba 2c06 4c09 0fd1 0af4 0eb9 48d1 00d4
000000a0: c2b7 ddb7 49c7 1255 4d39 aeb2 5743 ace7
000000b0: b6a2 4e1a 5736 c0af 5dd9 2445 4c96 efd5
000000c0: 56db c21f 3245 152d ea48 350a 6525 2f0a
000000d0: 0552 5363 a25b 43b7 5924 994e bffa 5ac9
000000e0: ce5a 4edf cf4d 26c0 30a2 a0eb 9da5 c69a
000000f0: f8aa bdcb ca37 6465 d69f 211b 2d12 9d52

sequential_36/quant_dense_100/MatMul;sequential_36/quant_dense_100/LastValueQuant/FakeQuantWithMinMaxVars i1 [50, 100] scale=0.0016591391 zero_point=0
-0.1061849 -0.086275235 0.1277537 -0.20075582 -0.13107198 -0.1443451 -0.011613973 0.036501057
0.13936768 0.13770854 -0.036501057 -0.03152364 0.03318278 0.046455894 0.05143331 0.15264079
-0.14102682 0.14766337 -0.09623007 -0.09954834 0.17089133 0.19411927 0.16259563 -0.1360494
0.18084615 -0.11779887 -0.17255047 -0.11116232 0.086275235 -0.011613973 -0.09125265 0.0016591391
-0.19577841 0.004977417 -0.05309245 0.026546225 -0.11613973 0.16093649 -0.15927735 0.18582357
-0.190801 -0.0033182781 0.029864503 0.17089133 0.15595907 -0.04977417 0.08793437 -0.004977417
0.17089133 -0.19909668 0.05641073 0.12277629 0.16923219 0.046455894 -0.044796754 0.11448059
0.17255047 0.18914185 0.11116232 0.061388146 -0.11282146 -0.10784404 -0.041478477 -0.029864503
0.1360494 0.0132731125 0.19743755 0.11613973 0.081297815 -0.1061849 0.12609456 0.1443451
0.18748271 -0.11448059 -0.038160197 -0.079638675 0.18914185 0.038160197 0.16591391 0.09788921
-0.05641073 0.026546225 -0.046455894 0.13936768 -0.019909669 -0.06470642 0.18084615 0.073002115
0.16591391 0.08959351 -0.074661255 0.16259563 -0.16923219 0.11945801 0.11448059 0.043137617
-0.11613973 0.038160197 -0.05309245 0.05475159 0.044796754 0.11945801 -0.11613973 -0.15429993
-0.076320395 -0.09954834 -0.10452576 0.086275235 -0.026546225 -0.12443543 -0.12609456 0.09457093
-0.11282146 -0.061388146 0.15595907 -0.1825053 -0.01659139 -0.044796754 0.06968384 0.09954834
0.043137617 -0.058069866 0.0016591391 -0.09623007 -0.190801 0.12941284 0.190801 0.18914185
0.03152364 -0.09788921 -0.1742096 0.04977417 -0.059729006 -0.10286662 -0.019909669 -0.046455894
-0.084616095 -0.16757305 -0.028205365 0.17089133 0.077979535 0.0132731125 -0.13107198 0.1443451
-0.16093649 -0.05641073 0.15927735 0.16923219 -0.18748271 -0.043137617 -0.009954834 0.19577841
0.14766337 -0.10120748 0.074661255 0.046455894 -0.12941284 0.028205365 -0.11282146 0.19577841
-0.1061849 0.08793437 0.008295695 0.10452576 -0.15098165 0.1360494 0.13107198 0.13107198
0.17089133 0.05475159 -0.18582357 0.01659139 -0.14268596 0.1277537 -0.084616095 0.019909669
0.1443451 -0.16923219 -0.019909669 -0.09125265 -0.061388146 -0.05143331 0.14102682 0.019909669
-0.059729006 -0.06304728 -0.09457093 -0.14932251 -0.084616095 -0.038160197 -0.09788921 0.09457093
-0.12111715 0.01659139 0.16757305 0.18748271 0.05143331 -0.15927735 -0.10286662 0.15264079
-0.18748271 -0.13107198 -0.14102682 0.14932251 -0.19743755 -0.12941284 -0.09125265 0.036501057
0.028205365 0.13273112 -0.026546225 0.11448059 0.008295695 0.14268596 -0.16923219 -0.11116232
0.12609456 -0.11613973 0.15429993 -0.082956955 0.024887085 -0.046455894 -0.048115034 0.05309245
-0.11613973 0.004977417 -0.021568809 -0.082956955 0.15595907 -0.13107198 0.06470642 0.059729006
0.18084615 0.05143331 0.12277629 0.0066365562 -0.11779887 0.038160197 0.06304728 -0.11116232
-0.046455894 -0.19577841 0.17255047 0.16757305 0.014932252 0.17586873 -0.03318278 0.16757305
0.043137617 0.18748271 0.0066365562 0.18748271 -0.190801 -0.0066365562 -0.024887085 0.04977417
00000000: c0cc 4d87 b1a9 f916 5453 eaed 141c 1f5c
00000010: ab59 c6c4 6775 62ae 6db9 98bd 34f9 c901
00000020: 8a03 e010 ba61 a070 8dfe 1267 5ee2 35fd
00000030: 6788 224a 661c e545 6872 4325 bcbf e7ee
00000040: 5208 7746 31c0 4c57 71bb e9d0 7217 643b
00000050: de10 e454 f4d9 6d2c 6436 d362 9a48 451a
00000060: ba17 e021 1b48 baa3 d2c4 c134 f0b5 b439
00000070: bcdb 5e92 f6e5 2a3c 1add 01c6 8d4e 7372
00000080: 13c5 971e dcc2 f4e4 cd9b ef67 2f08 b157
00000090: 9fde 6066 8fe6 fa76 59c3 2d1c b211 bc76
000000a0: c035 053f a552 4f4f 6721 900a aa4d cd0c
000000b0: 579a f4c9 dbe1 550c dcda c7a6 cde9 c539
000000c0: b70a 6571 1fa0 c25c 8fb1 ab5a 89b2 c916
000000d0: 1150 f045 0556 9abd 4cba 5dce 0fe4 e320
000000e0: ba03 f3ce 5eb1 2724 6d1f 4a04 b917 26bd
000000f0: e48a 6865 096a ec65 1a71 0471 8dfc f11e

sequential_36/quant_dense_101/MatMul;sequential_36/quant_dense_101/LastValueQuant/FakeQuantWithMinMaxVars i1 [10, 50] scale=0.0024909605 zero_point=0
-0.06725594 0.25656894 0.23165932 0.2789876 0.03487345 -0.15443955 0.18433107 -0.30638814
0.22916837 -0.0946565 0.19429491 0.2789876 -0.124548025 0.27649662 0.14447571 -0.004981921
0.22916837 0.07472882 0.31137007 0.117075145 -0.28147855 0.22418645 -0.16191244 0.2640418
0.04981921 -0.08718362 -0.2789876 -0.112093225 0.18184012 -0.30389717 -0.07472882 -0.004981921
-0.2839695 -0.15942147 0.09963842 0.057292093 0.13700283 0.1569305 0.251587 0.20674972
-0.28147855 -0.27400565 -0.07971074 -0.004981921 -0.07223786 -0.024909604 -0.18433107 -0.08469266
-0.28895143 0.21173164 -0.2590599 -0.024909604 -0.20924069 -0.122057065 0.0697469 0.31635198
-0.27151468 0.28895143 0.08967458 -0.06725594 0.114584185 -0.29891527 0.27151468 0.21173164
0.04981921 0.20425877 0.054801133 -0.20425877 0.17436723 -0.25407797 0.23913221 -0.13451187
0.2914424 0.024909604 0.09963842 0.14447571 -0.26653278 -0.03238249 -0.04234633 0.27649662
0.19678588 -0.102129385 0.1320209 0.2839695 0.15942147 -0.119566105 0.102129385 0.17934915
0.15942147 0.062274013 -0.059783053 -0.3088791 -0.054801133 0.13700283 0.17934915 0.0
-0.15194859 -0.31137007 -0.029891526 -0.06476498 -0.28147855 0.12952995 0.059783053 -0.19429491
-0.18184012 0.25656894 -0.017436724 -0.07472882 -0.13700283 -0.08718362 0.062274013 0.03736441
-0.117075145 -0.112093225 0.004981921 -0.2466051 0.19429491 -0.04234633 -0.21671356 0.0822017
-0.22916837 -0.13451187 -0.3088791 -0.102129385 -0.054801133 0.1320209 0.26155084 0.062274013
0.24162318 0.22418645 -0.0697469 -0.19678588 -0.14198475 -0.26653278 0.24162318 0.104620345
0.112093225 -0.022418644 -0.16191244 -0.17934915 -0.14198475 0.014945763 0.112093225 0.28147855
-0.07472882 0.112093225 0.119566105 -0.21173164 0.107111305 0.102129385 -0.31137007 0.03736441
0.20425877 0.07971074 0.30389717 0.17436723 0.2839695 0.29393333 -0.13451187 -0.16938531
0.27151468 0.16938531 -0.117075145 0.14696667 0.16191244 0.107111305 0.30140623 -0.04732825
0.30140623 -0.251587 0.23913221 -0.251587 -0.1644034 0.03487345 0.024909604 0.21422261
0.18433107 0.29891527 0.104620345 -0.12952995 0.12952995 0.117075145 0.23415029 0.23415029
0.21920453 -0.21920453 0.13700283 -0.07721978 -0.07721978 0.30638814 -0.22418645 -0.17934915
-0.17436723 -0.22418645 0.25407797 0.28895143 0.2266774 -0.19429491 0.12952995 0.16191244
0.31137007 0.1394938 0.054801133 -0.029891526 -0.0697469 0.1320209 -0.28646046 -0.2640418
-0.07971074 -0.03736441 0.23913221 -0.2017678 -0.08469266 -0.13700283 -0.30140623 -0.26902375
-0.017436724 0.30638814 0.20425877 0.313861 0.21422261 0.21671356 -0.109602265 -0.117075145
0.19180396 -0.2914424 -0.2017678 0.27400565 0.0 0.08967458 -0.07971074 -0.15443955
0.017436724 -0.16938531 -0.22169548 -0.14945763 0.30638814 0.13451187 -0.16689436 0.17436723
-0.19429491 0.08469266 0.19927683 0.26155084 -0.09216554 0.0074728816 0.16191244 -0.27649662
-0.2964243 -0.07472882 -0.104620345 0.13451187 0.014945763 -0.30389717 0.07472882 -0.26902375
00000000: e567 5d70 0ec2 4a85 5cda 4e70 ce6f 3afe
00000010: 5c1e 7d2f 8f5a bf6a 14dd 90d3 4986 e2fe
00000020: 8ec0 2817 373f 6553 8f92 e0fe e3f6 b6de
00000030: 8c55 98f6 accf 1c7f 9374 24e5 2e88 6d55
00000040: 1452 16ae 469a 60ca 750a 283a 95f3 ef6f
00000050: 4fd7 3572 40d0 2948 4019 e884 ea37 4800
00000060: c383 f4e6 8f34 18b2 b767 f9e2 c9dd 190f
00000070: d1d3 029d 4eef a921 a4ca 84d7 ea35 6919
00000080: 615a e4b1 c795 612a 2df7 bfb8 c706 2d71
00000090: e22d 30ab 2b29 830f 5220 7a46 7276 cabc
000000a0: 6d44 d13b 412b 79ed 799b 609b be0e 0a56
000000b0: 4a78 2acc 342f 5e5e 58a8 37e1 e17b a6b8
000000c0: baa6 6674 5bb2 3441 7d38 16f4 e435 8d96
000000d0: e0f1 60af dec9 8794 f97b 527e 5657 d4d1
000000e0: 4d8b af6e 0024 e0c2 07bc a7c4 7b36 bd46
000000f0: b222 5069 db03 4191 89e2 d636 0686 1e94

sequential_36/quant_output/MatMul;sequential_36/quant_output/LastValueQuant/FakeQuantWithMinMaxVars i1 [1, 10] scale=0.0049712243 zero_point=0
-0.27838856 -0.05468347 -0.12428061 0.576662 0.46729508 0.3678706 0.6313455 0.25353244
0.288331 0.4921512
00000000: c8f5 e774 5e4a 7f33 3a63
