models/opt-80x60x3-T3.tflite (tflite, 160280 bytes, 9 tensors)

sequential_3/quant_conv2d_15/Conv2D;sequential_3/quant_conv2d_15/LastValueQuant/FakeQuantWithMinMaxVarsPerChannel i1 [24, 5, 5, 9]
00000000: 0a71 54fe 410f b472 42f1 0033 2023 f5e1
00000010: d9b5 36f0 7769 b08d 1cdf 58bc 46ce d31c
00000020: 0d5e e7d4 8193 cfdf 7656 f8d7 de1a c288
00000030: 0599 b094 f86b b794 a409 96bc f222 49bc
00000040: f64e ce1a b3f8 30f2 0f0e 8b68 9bca bba4
00000050: 6544 c5ac 1743 bed6 d972 cf0e d230 5adc
00000060: 9136 0f97 364d 9c62 244f 1168 c54c 964c
00000070: 5ef2 2005 cb05 ea40 67f2 45cf f1c2 e398
00000080: b38d 9335 70f6 461e 2fd1 8713 9f22 9207
00000090: 529e 51ec 586d 5321 67c5 8e28 5d28 f7d6
000000a0: 2d26 9fa7 e886 ba29 0d71 638e f299 da56
000000b0: 3bdd a0ff 6641 c19c b523 b3d0 6b0d 2664
000000c0: d9fb 5067 7615 ccde 9d28 fe29 9047 0acc
000000d0: cb0f f2f2 ee26 0373 194f 5ee6 c846 3a9d
000000e0: f720 11b9 6054 22fd bb3b 49f2 bbe4 df1e
000000f0: 370e c462 faf1 2d1a fa2c 2e0a cf40 1e52
10 113 84 -2 65 15 -76 114
66 -15 0 51 32 35 -11 -31
-39 -75 54 -16 119 105 -80 -115
28 -33 88 -68 70 -50 -45 28
13 94 -25 -44 -127 -109 -49 -33
118 86 -8 -41 -34 26 -62 -120
5 -103 -80 -108 -8 107 -73 -108
-92 9 -106 -68 -14 34 73 -68
-10 78 -50 26 -77 -8 48 -14
15 14 -117 104 -101 -54 -69 -92
101 68 -59 -84 23 67 -66 -42
-39 114 -49 14 -46 48 90 -36
-111 54 15 -105 54 77 -100 98
36 79 17 104 -59 76 -106 76
94 -14 32 5 -53 5 -22 64
103 -14 69 -49 -15 -62 -29 -104
-77 -115 -109 53 112 -10 70 30
47 -47 -121 19 -97 34 -110 7
82 -98 81 -20 88 109 83 33
103 -59 -114 40 93 40 -9 -42
45 38 -97 -89 -24 -122 -70 41
13 113 99 -114 -14 -103 -38 86
59 -35 -96 -1 102 65 -63 -100
-75 35 -77 -48 107 13 38 100
-39 -5 80 103 118 21 -52 -34
-99 40 -2 41 -112 71 10 -52
-53 15 -14 -14 -18 38 3 115
25 79 94 -26 -56 70 58 -99
-9 32 17 -71 96 84 34 -3
-69 59 73 -14 -69 -28 -33 30
55 14 -60 98 -6 -15 45 26
-6 44 46 10 -49 64 30 82

sequential_3/quant_conv2d_16/Conv2D;sequential_3/quant_conv2d_16/LastValueQuant/FakeQuantWithMinMaxVarsPerChannel i1 [36, 5, 5, 24]
00000000: 3cdf f0f9 3d1a a61f 5f08 a515 59e5 a2c5
00000010: 2057 b24c ca3b 1f9c f0ba 00ea fde3 5831
00000020: 3802 beda 0bfa 220e 5107 f2ea aa09 2e95
00000030: 0139 0501 eb04 1e2a 38b2 3f95 a6b3 440f
00000040: 0ad0 1f49 03cc fea9 a9f7 1f0d eed7 0b39
00000050: a1cf 188a 0633 bffb 2245 3732 c6a8 1e3c
00000060: 43cb ad50 dcf1 2ce5 3137 f881 f241 308b
00000070: f1f0 3b50 3bbd 54fa e3e2 9ef0 9e2a 3911
00000080: c1df 3e4f 5c56 f102 3fd1 3c40 3567 45a8
00000090: 9fc7 ebd1 b2be ed15 5128 ba3a 3ea3 2162
000000a0: d015 3e1b feee ebfe 9931 a057 e8c0 eefa
000000b0: f6cd b1e9 f93e fdc7 4607 bd1d c5c8 f925
000000c0: b544 ffe0 e646 31a7 ded0 f4ab 5aae 11be
000000d0: 17aa 0326 0aa7 54e2 2b1b ea39 3149 d39d
000000e0: 29dc 4744 da51 da26 4e21 c722 1cf6 a452
000000f0: e2de 6b1e cdd7 02dd dd38 b8f1 e5bb d038
60 -33 -16 -7 61 26 -90 31
95 8 -91 21 89 -27 -94 -59
32 87 -78 76 -54 59 31 -100
-16 -70 0 -22 -3 -29 88 49
56 2 -66 -38 11 -6 34 14
81 7 -14 -22 -86 9 46 -107
1 57 5 1 -21 4 30 42
56 -78 63 -107 -90 -77 68 15
10 -48 31 73 3 -52 -2 -87
-87 -9 31 13 -18 -41 11 57
-95 -49 24 -118 6 51 -65 -5
34 69 55 50 -58 -88 30 60
67 -53 -83 80 -36 -15 44 -27
49 55 -8 -127 -14 65 48 -117
-15 -16 59 80 59 -67 84 -6
-29 -30 -98 -16 -98 42 57 17
-63 -33 62 79 92 86 -15 2
63 -47 60 64 53 103 69 -88
-97 -57 -21 -47 -78 -66 -19 21
81 40 -70 58 62 -93 33 98
-48 21 62 27 -2 -18 -21 -2
-103 49 -96 87 -24 -64 -18 -6
-10 -51 -79 -23 -7 62 -3 -57
70 7 -67 29 -59 -56 -7 37
-75 68 -1 -32 -26 70 49 -89
-34 -48 -12 -85 90 -82 17 -66
23 -86 3 38 10 -89 84 -30
43 27 -22 57 49 73 -45 -99
41 -36 71 68 -38 81 -38 38
78 33 -57 34 28 -10 -92 82
-30 -34 107 30 -51 -41 2 -35
-35 56 -72 -15 -27 -69 -48 56

sequential_3/quant_conv2d_17/Conv2D;sequential_3/quant_conv2d_17/LastValueQuant/FakeQuantWithMinMaxVarsPerChannel i1 [48, 5, 5, 36]
00000000: 45a7 955f e427 0330 26bb 5e07 48b9 165e
00000010: 4c61 f321 95b8 fb8b d016 c530 29b5 e9cf
00000020: 5f34 2105 aac0 ec2e 413e cd63 5aa6 a02b
00000030: ae29 d024 d9b3 f215 00c2 ddbc 24c5 fa77
00000040: 98a1 1242 a63c fe63 e831 2638 f909 a505
00000050: 2032 c79a 98cf b747 6cec ca39 cdea 33c9
00000060: 4195 1701 9cbc e034 df9e 3022 d6ef 00e8
00000070: 19d1 3e30 ba35 8c19 2aaf 1c20 2963 a6bc
00000080: 4355 fdc1 4432 1394 2eec f1b6 1f23 068b
00000090: f8da 1d49 a7db e414 631a 4f3d d461 19cf
000000a0: d395 a7cf 0d4f 1cae c541 9cfc efc4 b8ec
000000b0: 54b6 20d4 29eb 149d 5cbc 21c7 50a0 10d5
000000c0: 2a4b 363b 983c 9765 b7d0 8ae7 58c3 2d02
000000d0: 6bd8 fd53 e836 580f b7d8 a929 be00 1b97
000000e0: caf1 8b24 cca0 df58 3bd5 c2ea 9be0 1021
000000f0: 1361 e21d f14b a600 2c38 c1da e318 f720
69 -89 -107 95 -28 39 3 48
38 -69 94 7 72 -71 22 94
76 97 -13 33 -107 -72 -5 -117
-48 22 -59 48 41 -75 -23 -49
95 52 33 5 -86 -64 -20 46
65 62 -51 99 90 -90 -96 43
-82 41 -48 36 -39 -77 -14 21
0 -62 -35 -68 36 -59 -6 119
-104 -95 18 66 -90 60 -2 99
-24 49 38 56 -7 9 -91 5
32 50 -57 -102 -104 -49 -73 71
108 -20 -54 57 -51 -22 51 -55
65 -107 23 1 -100 -68 -32 52
-33 -98 48 34 -42 -17 0 -24
25 -47 62 48 -70 53 -116 25
42 -81 28 32 41 99 -90 -68
67 85 -3 -63 68 50 19 -108
46 -20 -15 -74 31 35 6 -117
-8 -38 29 73 -89 -37 -28 20
99 26 79 61 -44 97 25 -49
-45 -107 -89 -49 13 79 28 -82
-59 65 -100 -4 -17 -60 -72 -20
84 -74 32 -44 41 -21 20 -99
92 -68 33 -57 80 -96 16 -43
42 75 54 59 -104 60 -105 101
-73 -48 -118 -25 88 -61 45 2
107 -40 -3 83 -24 54 88 15
-73 -40 -87 41 -66 0 27 -105
-54 -15 -117 36 -52 -96 -33 88
59 -43 -62 -22 -101 -32 16 33
19 97 -30 29 -15 75 -90 0
44 56 -63 -38 -29 24 -9 32

sequential_3/quant_conv2d_18/Conv2D;sequential_3/quant_conv2d_18/LastValueQuant/FakeQuantWithMinMaxVarsPerChannel i1 [64, 3, 3, 48]
00000000: dbc4 e43f b63e 650e 62e1 2a92 b54b 623a
00000010: 375f 03b9 2862 1242 1b9d e6c4 261e 5002
00000020: f834 c30c 9bc6 5a60 eb5f fb21 0637 049a
00000030: 46fa 02ac 1d46 6b60 c19e 62b5 08e8 6902
00000040: a9e2 3e48 c906 db3b d3d9 ba02 f3d9 f304
00000050: a9fb aea9 6169 dad4 54f5 b548 e24e b0ae
00000060: aabf 5850 2b4a 5a03 00ff 9e52 f8c8 adca
00000070: 01d5 9ac0 9e35 1302 b136 08d9 2919 02aa
00000080: f7e8 022d 561a 63e8 e12e 2ffb ccc3 a5f7
00000090: 5ddb 42a6 a415 9be4 4738 01a0 0069 b80e
000000a0: 9d00 58c0 b31b e0b6 5c0f 223d e407 4d2a
000000b0: 68dc 36e6 41b0 dbff 56ed b7ff 94a6 b5ca
000000c0: e4b1 36c8 11ab 20b2 4395 b899 1870 344c
000000d0: b55f faa8 27a2 c433 adb0 45bd ddd7 1b29
000000e0: ddfe 47a9 af19 fd0c 6e99 fdb4 0be1 69f1
000000f0: f53c cd2e f7b8 004a fd10 31bd c4dd f859
-37 -60 -28 63 -74 62 101 14
98 -31 42 -110 -75 75 98 58
55 95 3 -71 40 98 18 66
27 -99 -26 -60 38 30 80 2
-8 52 -61 12 -101 -58 90 96
-21 95 -5 33 6 55 4 -102
70 -6 2 -84 29 70 107 96
-63 -98 98 -75 8 -24 105 2
-87 -30 62 72 -55 6 -37 59
-45 -39 -70 2 -13 -39 -13 4
-87 -5 -82 -87 97 105 -38 -44
84 -11 -75 72 -30 78 -80 -82
-86 -65 88 80 43 74 90 3
0 -1 -98 82 -8 -56 -83 -54
1 -43 -102 -64 -98 53 19 2
-79 54 8 -39 41 25 2 -86
-9 -24 2 45 86 26 99 -24
-31 46 47 -5 -52 -61 -91 -9
93 -37 66 -90 -92 21 -101 -28
71 56 1 -96 0 105 -72 14
-99 0 88 -64 -77 27 -32 -74
92 15 34 61 -28 7 77 42
104 -36 54 -26 65 -80 -37 -1
86 -19 -73 -1 -108 -90 -75 -54
-28 -79 54 -56 17 -85 32 -78
67 -107 -72 -103 24 112 52 76
-75 95 -6 -88 39 -94 -60 51
-83 -80 69 -67 -35 -41 27 41
-35 -2 71 -87 -81 25 -3 12
110 -103 -3 -76 11 -31 105 -15
-11 60 -51 46 -9 -72 0 74
-3 16 49 -67 -60 -35 -8 89

sequential_3/quant_conv2d_19/Conv2D;sequential_3/quant_conv2d_19/LastValueQuant/FakeQuantWithMinMaxVarsPerChannel i1 [64, 2, 2, 64]
00000000: 61d8 8bfe f2e0 6496 991c 686b 3c46 a428
00000010: f24e 36e3 2f45 caa1 4e2a 2cc3 d121 5886
00000020: c505 35be df23 2d9a ee91 2817 d7c9 ab29
00000030: 6f3b a460 ae2c ec6a 0357 3c8a 9ead 2fe5
00000040: 235c 13ff cec3 9b33 8a90 4f9b 55fe 1fa2
00000050: 8f6b 8c10 0fc3 3f97 14af 6fc6 fb1f 9692
00000060: f4d0 722e 94ce 2918 8e4c 2405 aee5 45a5
00000070: b632 4097 e0df 489d 2657 a4c8 d2ec 1327
00000080: b608 8d8d a3c4 93cc c027 b2de 2a49 9bb3
00000090: cc93 02e2 9956 9026 aecc cfa0 33d1 c969
000000a0: 8cdb 9462 37e1 36d2 a89a ec25 21c2 d522
000000b0: f79b f36d 6181 99d3 ae8a c4f6 2922 0db1
000000c0: be40 cd33 0b13 4dfe e620 c664 c927 1562
000000d0: 3d1a e73d 93c6 6645 f497 bc5f fa63 4c0e
000000e0: faae c8e5 a1ee b6e2 44ba fab1 b424 01e0
000000f0: c166 b823 a44d 4190 310d 0fc7 b293 da20
97 -40 -117 -2 -14 -32 100 -106
-103 28 104 107 60 70 -92 40
-14 78 54 -29 47 69 -54 -95
78 42 44 -61 -47 33 88 -122
-59 5 53 -66 -33 35 45 -102
-18 -111 40 23 -41 -55 -85 41
111 59 -92 96 -82 44 -20 106
3 87 60 -118 -98 -83 47 -27
35 92 19 -1 -50 -61 -101 51
-118 -112 79 -101 85 -2 31 -94
-113 107 -116 16 15 -61 63 -105
20 -81 111 -58 -5 31 -106 -110
-12 -48 114 46 -108 -50 41 24
-114 76 36 5 -82 -27 69 -91
-74 50 64 -105 -32 -33 72 -99
38 87 -92 -56 -46 -20 19 39
-74 8 -115 -115 -93 -60 -109 -52
-64 39 -78 -34 42 73 -101 -77
-52 -109 2 -30 -103 86 -112 38
-82 -52 -49 -96 51 -47 -55 105
-116 -37 -108 98 55 -31 54 -46
-88 -102 -20 37 33 -62 -43 34
-9 -101 -13 109 97 -127 -103 -45
-82 -118 -60 -10 41 34 13 -79
-66 64 -51 51 11 19 77 -2
-26 32 -58 100 -55 39 21 98
61 26 -25 61 -109 -58 102 69
-12 -105 -68 95 -6 99 76 14
-6 -82 -56 -27 -95 -18 -74 -30
68 -70 -6 -79 -76 36 1 -32
-63 102 -72 35 -92 77 65 -112
49 13 15 -57 -78 -109 -38 32

sequential_3/quant_dense_9/MatMul;sequential_3/quant_dense_9/LastValueQuant/FakeQuantWithMinMaxVars i1 [100, 256] scale=0.0014008872 zero_point=0
00000000: 1b46 3802 c4d2 3f45 a4ea df37 06ca 0936
00000010: 0cc8 b10f f3ad cdc4 19aa 2f55 19b1 3bbf
00000020: f3bd e5b1 5aee 0f03 462d 54e1 5911 d13d
00000030: 61b6 016a ceb7 5df5 b0b0 b3e8 1f2e acee
00000040: 3340 473e bee7 5112 bdcc d1ef f137 2ffa
00000050: 1b15 ef32 5ef1 283c a1fc c0f6 a2da 2c0e
00000060: 56eb 14d0 b029 b041 1005 00f5 c2e2 b917
00000070: 43e5 4033 b9b0 1d38 0ad5 d817 a4d0 00e0
00000080: f557 3f05 02df 2ec8 a7b8 fa5d 26bc e12d
00000090: f612 0302 f91f 12cc 49ee 35f8 2b4f cb3a
000000a0: da30 3e2a 0f18 2650 1ccd c809 e234 a7a3
000000b0: 1fbe e248 eab1 130c f4d4 de3c bc45 5045
000000c0: aa05 c4fe 39c3 cdbe dc42 e73b 13b4 46b1
000000d0: dbe8 460c 2def 08c9 21a4 c004 57d3 b751
000000e0: dcf9 c62b 55d8 e8ba a9d5 4fe7 02fa bcf2
000000f0: badc 580a 58ba 09c9 c715 b50a 32b8 c2b4
0.037823953 0.0980621 0.07844968 0.0028017743 -0.084053226 -0.06444081 0.08825589 0.09666121
-0.12888162 -0.030819517 -0.046229277 0.07704879 0.008405323 -0.075647905 0.012607984 0.075647905
0.016810646 -0.07844968 -0.11067008 0.021013306 -0.018211532 -0.116273634 -0.07144524 -0.084053226
0.03502218 -0.1204763 0.0658417 0.11907541 0.03502218 -0.11067008 0.082652345 -0.091057666
-0.018211532 -0.09385944 -0.037823953 -0.11067008 0.12607984 -0.025215968 0.021013306 0.0042026616
0.0980621 0.06303992 0.11767452 -0.0434275 0.124678954 0.023815082 -0.0658417 0.085454114
0.13588606 -0.10366565 0.0014008872 0.14849404 -0.07004436 -0.10226476 0.1302825 -0.015409758
-0.11207097 -0.11207097 -0.107868314 -0.033621293 0.0434275 0.06444081 -0.11767452 -0.025215968
0.07144524 0.08965678 0.099462986 0.086855 -0.09245855 -0.03502218 0.11347186 0.025215968
-0.09385944 -0.07284613 -0.0658417 -0.023815082 -0.021013306 0.07704879 0.0658417 -0.008405323
0.037823953 0.02941863 -0.023815082 0.07004436 0.1316834 -0.021013306 0.056035485 0.084053226
-0.13308428 -0.0056035486 -0.08965678 -0.014008871 -0.1316834 -0.053233713 0.061639033 0.01961242
0.1204763 -0.02941863 0.028017743 -0.067242585 -0.11207097 0.057436373 -0.11207097 0.091057666
0.022414194 0.0070044356 0.0 -0.015409758 -0.086855 -0.042026613 -0.099462986 0.032220405
0.09385944 -0.037823953 0.08965678 0.07144524 -0.099462986 -0.11207097 0.04062573 0.07844968
0.014008871 -0.06023815 -0.056035485 0.032220405 -0.12888162 -0.067242585 0.0 -0.04482839
-0.015409758 0.12187718 0.08825589 0.0070044356 0.0028017743 -0.046229277 0.06444081 -0.07844968
-0.124678954 -0.100863874 -0.008405323 0.1302825 0.053233713 -0.09526033 -0.0434275 0.06303992
-0.014008871 0.025215968 0.0042026616 0.0028017743 -0.00980621 0.0434275 0.025215968 -0.07284613
0.10226476 -0.025215968 0.07424702 -0.011207097 0.06023815 0.11067008 -0.07424702 0.08125146
-0.053233713 0.067242585 0.086855 0.05883726 0.021013306 0.033621293 0.053233713 0.11207097
0.03922484 -0.07144524 -0.07844968 0.012607984 -0.042026613 0.07284613 -0.124678954 -0.1302825
0.0434275 -0.09245855 -0.042026613 0.100863874 -0.030819517 -0.11067008 0.026616856 0.016810646
-0.016810646 -0.061639033 -0.047630165 0.084053226 -0.09526033 0.09666121 0.11207097 0.09666121
-0.1204763 0.0070044356 -0.084053226 -0.0028017743 0.07985057 -0.085454114 -0.07144524 -0.09245855
-0.050431937 0.09245855 -0.03502218 0.082652345 0.026616856 -0.106467426 0.0980621 -0.11067008
-0.051832825 -0.033621293 0.0980621 0.016810646 0.06303992 -0.023815082 0.011207097 -0.07704879
0.046229277 -0.12888162 -0.08965678 0.0056035486 0.12187718 -0.06303992 -0.10226476 0.11347186
-0.050431937 -0.00980621 -0.08125146 0.06023815 0.11907541 -0.056035485 -0.033621293 -0.0980621
-0.12187718 -0.06023815 0.11067008 -0.03502218 0.0028017743 -0.008405323 -0.09526033 -0.01961242
-0.0980621 -0.050431937 0.12327807 0.014008871 0.12327807 -0.0980621 0.012607984 -0.07704879
-0.07985057 0.02941863 -0.10506654 0.014008871 0.07004436 -0.100863874 -0.086855 -0.106467426

sequential_3/quant_dense_10/MatMul;sequential_3/quant_dense_10/LastValueQuant/FakeQuantWithMinMaxVars i1 [50, 100] scale=0.0019624804 zero_point=0
00000000: 952a b0e2 3045 c429 3faf 13e1 9bd1 e7db
00000010: fbe1 a94a ab08 b799 279d fc9f c8f8 e0e8
00000020: b0fb cbc6 e003 db2e cb15 8f49 bacd ae45
00000030: 15c8 c6f4 52c7 0828 44aa 123e d22c 9842
00000040: c993 f996 c91f d40a 90f8 4053 172e f02a
00000050: c14a 16db dbe5 c791 cb12 e5c1 3c1e dac1
00000060: bcd2 e6f7 1833 fe48 3ff3 df2b 40f2 16aa
00000070: 31a2 2af9 0d2a b5a0 a81d 1635 ceaa 2855
00000080: 5a95 feb6 3404 f513 f8a8 ced5 fdd0 aad1
00000090: e2e6 5c13 f251 2954 caf0 2c5e 44ec b928
000000a0: c928 3558 21a0 a8c2 91d1 b22f ab9c 27bf
000000b0: 1443 159f 4107 401b b852 a8cf 555b 0704
000000c0: 244f 06a0 a310 ce5b 0c4a 04a9 53c3 4a29
000000d0: fb25 b406 f2bc fcb2 43ee 042b 303f 3108
000000e0: e44d 249f 479e 19d7 f313 01b9 218a 24ed
000000f0: 23e9 a130 16c7 030c b029 ca0c 47b3 16c3
-0.2099854 0.08242418 -0.15699843 -0.05887441 0.09419906 0.13541114 -0.11774882 0.080461696
0.12363626 -0.15896091 0.037287127 -0.060836893 -0.19821052 -0.09223658 -0.04906201 -0.07261177
-0.009812402 -0.060836893 -0.17073579 0.14522354 -0.16681083 0.015699843 -0.14326106 -0.20213547
0.07653674 -0.19428556 -0.0078499215 -0.19036059 -0.1098989 -0.015699843 -0.06279937 -0.04709953
-0.15699843 -0.009812402 -0.10401146 -0.11382386 -0.06279937 0.0058874413 -0.07261177 0.090274096
-0.10401146 0.04121209 -0.22176029 0.14326106 -0.13737363 -0.100086495 -0.16092339 0.13541114
0.04121209 -0.1098989 -0.11382386 -0.023549765 0.16092339 -0.11186138 0.015699843 0.07849921
0.13344866 -0.16877331 0.035324648 0.121673785 -0.090274096 0.08634914 -0.20409796 0.12952371
-0.10793642 -0.21391036 -0.013737363 -0.20802292 -0.10793642 0.060836893 -0.08634914 0.019624803
-0.2197978 -0.015699843 0.12559874 0.16288587 0.045137048 0.090274096 -0.031399686 0.08242418
-0.12363626 0.14522354 0.04317457 -0.07261177 -0.07261177 -0.05298697 -0.11186138 -0.21783532
-0.10401146 0.035324648 -0.05298697 -0.12363626 0.11774882 0.05887441 -0.074574254 -0.12363626
-0.13344866 -0.090274096 -0.05102449 -0.017662324 0.04709953 0.100086495 -0.0039249607 0.14129859
0.12363626 -0.025512245 -0.064761855 0.084386654 0.12559874 -0.027474726 0.04317457 -0.16877331
0.09616154 -0.18447316 0.08242418 -0.013737363 0.025512245 0.08242418 -0.14718603 -0.18839812
-0.17269827 0.05691193 0.04317457 0.10401146 -0.09812402 -0.16877331 0.07849921 0.16681083
0.17662324 -0.2099854 -0.0039249607 -0.14522354 0.10204898 0.0078499215 -0.021587284 0.037287127
-0.015699843 -0.17269827 -0.09812402 -0.084386654 -0.0058874413 -0.09419906 -0.16877331 -0.09223658
-0.05887441 -0.05102449 0.18054819 0.037287127 -0.027474726 0.15896091 0.080461696 0.16484836
-0.10597394 -0.031399686 0.08634914 0.18447316 0.13344866 -0.039249606 -0.13933611 0.07849921
-0.10793642 0.07849921 0.10401146 0.17269827 0.064761855 -0.18839812 -0.17269827 -0.121673785
-0.21783532 -0.09223658 -0.15307347 0.09223658 -0.16681083 -0.19624804 0.07653674 -0.12756123
0.039249606 0.13148618 0.04121209 -0.19036059 0.12756123 0.013737363 0.12559874 0.05298697
-0.14129859 0.16092339 -0.17269827 -0.09616154 0.16681083 0.17858571 0.013737363 0.0078499215
0.070649296 0.15503594 0.011774883 -0.18839812 -0.18251067 0.031399686 -0.09812402 0.17858571
0.023549765 0.14522354 0.0078499215 -0.17073579 0.16288587 -0.1197113 0.14522354 0.080461696
-0.009812402 0.07261177 -0.14914851 0.011774883 -0.027474726 -0.13344866 -0.0078499215 -0.15307347
0.13148618 -0.035324648 0.0078499215 0.084386654 0.09419906 0.12363626 0.09616154 0.015699843
-0.05494945 0.15111099 0.070649296 -0.19036059 0.13933611 -0.19232307 0.04906201 -0.080461696
-0.025512245 0.037287127 0.0019624804 -0.13933611 0.064761855 -0.23157269 0.070649296 -0.037287127
0.06868681 -0.045137048 -0.18643564 0.09419906 0.04317457 -0.11186138 0.0058874413 0.023549765
-0.15699843 0.080461696 -0.10597394 0.023549765 0.13933611 -0.15111099 0.04317457 -0.1197113

sequential_3/quant_dense_11/MatMul;sequential_3/quant_dense_11/LastValueQuant/FakeQuantWithMinMaxVars i1 [10, 50] scale=0.0029758185 zero_point=0
00000000: c812 31ea 061e 5748 e660 ef32 b4ac d80b
00000010: 3bfa 4844 edee 23dc dc35 3dfb 04c8 4bcd
00000020: 0dbf 01cf ae25 96c0 b751 0e1e de26 de4b
00000030: f909 3133 9b0d d957 e0ac 3efd b8cd 1e0f
00000040: f939 e4c5 ada4 da16 5b0d c6f4 eda4 0a05
00000050: 37a8 f5f7 38ec f9b0 3db6 9bb3 5f40 1958
00000060: c734 e122 473b 12d7 3d59 30cb 1c3a ba0b
00000070: e830 233b b1ca f25e e39d a32a ce64 955d
00000080: f1e0 beb7 47f9 b0b5 fb47 d4ca 5837 ee12
00000090: 4ae4 4322 b543 570d fd6e 5f5c 2a1d 4f65
000000a0: fb09 2e13 4029 e77f 10f0 b804 cb50 60d9
000000b0: 62af e6af abf9 dddb ca3b d0ae 08c1 05b5
000000c0: 15db 24b4 fb00 3cf5 2cc5 52bf f92b f8f2
000000d0: 41b0 1b3d b043 d9e8 a5e0 4b08 4e0c 2dda
000000e0: 2e19 d4be c63f f222 4a76 c3a3 aace d0eb
000000f0: 4ba9 3220 1828 7019 bf2c 18a6 0944 51f2
-0.16664584 0.05356473 0.1458151 -0.065468006 0.01785491 0.089274555 0.2588962 0.21425892
-0.07737128 0.28567857 -0.050588913 0.14879093 -0.22616221 -0.24996875 -0.11903274 0.032734003
0.17557329 -0.01785491 0.21425892 0.20235565 -0.056540553 -0.05356473 0.10415365 -0.10712946
-0.10712946 0.15771838 0.18152493 -0.014879093 0.011903274 -0.16664584 0.22318639 -0.15176675
0.03868564 -0.1934282 0.0029758185 -0.1458151 -0.24401711 0.11010528 -0.31543675 -0.19045238
-0.21723475 0.2410413 0.04166146 0.089274555 -0.10117783 0.113081105 -0.10117783 0.22318639
-0.02083073 0.026782366 0.1458151 0.15176675 -0.30055767 0.03868564 -0.11605692 0.2588962
-0.09522619 -0.24996875 0.18450074 -0.008927455 -0.21425892 -0.15176675 0.089274555 0.044637278
-0.02083073 0.16962165 -0.08332292 -0.17557329 -0.24699293 -0.2737753 -0.113081105 0.065468006
0.2707995 0.03868564 -0.17259747 -0.03570982 -0.056540553 -0.2737753 0.029758185 0.014879093
0.16367002 -0.26187202 -0.032734003 -0.026782366 0.16664584 -0.05951637 -0.02083073 -0.23806548
0.18152493 -0.22021057 -0.30055767 -0.22913802 0.28270274 0.19045238 0.07439546 0.26187202
-0.16962165 0.15474255 -0.09225037 0.10117783 0.21128312 0.17557329 0.05356473 -0.122008555
0.18152493 0.26484784 0.14283928 -0.15771838 0.08332292 0.17259747 -0.2083073 0.032734003
-0.07141964 0.14283928 0.10415365 0.17557329 -0.23508966 -0.1606942 -0.04166146 0.27972692
-0.086298734 -0.29460603 -0.27675113 0.124984376 -0.14879093 0.29758185 -0.31841257 0.27675113
-0.044637278 -0.09522619 -0.19640402 -0.21723475 0.21128312 -0.02083073 -0.23806548 -0.22318639
-0.014879093 0.21128312 -0.13093601 -0.1606942 0.26187202 0.16367002 -0.05356473 0.05356473
0.22021057 -0.08332292 0.19937983 0.10117783 -0.22318639 0.19937983 0.2588962 0.03868564
-0.008927455 0.32734004 0.28270274 0.2737753 0.124984376 0.086298734 0.23508966 0.30055767
-0.014879093 0.026782366 0.13688765 0.056540553 0.19045238 0.122008555 -0.07439546 0.37792894
0.047613095 -0.047613095 -0.21425892 0.011903274 -0.15771838 0.23806548 0.28567857 -0.11605692
0.2916302 -0.2410413 -0.07737128 -0.2410413 -0.25294456 -0.02083073 -0.10415365 -0.11010528
-0.1606942 0.17557329 -0.14283928 -0.24401711 0.023806548 -0.18747656 0.014879093 -0.22318639
0.062492188 -0.11010528 0.10712946 -0.22616221 -0.014879093 0.0 0.17854911 -0.032734003
0.13093601 -0.17557329 0.24401711 -0.1934282 -0.02083073 0.12796019 -0.023806548 -0.04166146
0.1934282 -0.23806548 0.0803471 0.18152493 -0.23806548 0.19937983 -0.11605692 -0.07141964
-0.2707995 -0.09522619 0.22318639 0.023806548 0.23211384 0.03570982 0.13391183 -0.113081105
0.13688765 0.07439546 -0.13093601 -0.19640402 -0.17259747 0.18747656 -0.04166146 0.10117783
0.22021057 0.35114658 -0.18152493 -0.27675113 -0.25592038 -0.14879093 -0.14283928 -0.062492188
0.22318639 -0.2588962 0.14879093 0.09522619 0.07141964 0.11903274 0.33329168 0.07439546
-0.1934282 0.13093601 0.07141964 -0.26782367 0.026782366 0.20235565 0.2410413 -0.04166146

sequential_3/quant_output/MatMul;sequential_3/quant_output/LastValueQuant/FakeQuantWithMinMaxVars i1 [1, 10] scale=0.0051760124 zero_point=0
00000000: 5e3d 7f12 f922 f32f ee13
0.48654518 0.31573677 0.6573536 0.09316822 -0.036232088 0.17598443 -0.06728816 0.24327259
-0.09316822 0.09834424
