models/opt-160x66x3.tflite (tflite, 234512 bytes, 9 tensors)

sequential/quant_conv2d/Conv2D;sequential/quant_conv2d/LastValueQuant/FakeQuantWithMinMaxVarsPerChannel i1 [24, 5, 5, 3]
99 -76 -99 -97 -57 110 -12 20
-19 55 76 -112 73 61 -98 -1
-33 -60 71 14 -113 -4 -106 -100
-88 -61 32 -24 14 -46 -66 45
26 41 -34 -10 90 -71 17 -105
59 -103 105 -28 77 -49 17 -21
-100 45 9 11 72 -25 -65 64
-80 23 103 -74 -44 105 70 99
13 -54 60 -6 -32 127 20 -112
-26 -14 41 68 66 74 65 -60
-77 26 -102 -27 -85 -2 113 -42
-63 99 43 -59 -40 -53 20 -31
3 81 110 56 17 100 36 81
-52 -37 75 116 87 -57 -39 88
104 100 -33 81 -34 50 116 -71
98 107 47 10 37 109 75 127
-74 118 33 80 59 10 26 63
-92 -13 72 122 -4 117 90 92
52 -31 -104 -48 -70 -91 58 -69
46 31 -13 0 94 12 103 -107
3 45 32 -67 -50 37 98 111
-6 -36 -34 70 66 -93 39 7
-31 -114 -37 -4 79 -56 -127 -74
-28 -2 -18 -78 -61 39 -28 -78
-60 -17 1 14 -10 71 -21 -9
29 -13 -55 32 100 5 68 85
-34 -86 104 46 7 7 28 25
34 -19 -81 2 81 -65 19 108
39 -122 70 108 -57 -114 -109 -32
103 -56 111 -21 -59 -60 3 -76
38 96 27 -120 -35 100 87 66
-1 -125 -37 -34 27 0 127 16
00000000: 63b4 9d9f c76e f414 ed37 4c90 493d 9eff
00000010: dfc4 470e 8ffc 969c a8c3 20e8 0ed2 be2d
00000020: 1a29 def6 5ab9 1197 3b99 69e4 4dcf 11eb
00000030: 9c2d 090b 48e7 bf40 b017 67b6 d469 4663
00000040: 0dca 3cfa e07f 1490 e6f2 2944 424a 41c4
00000050: b31a 9ae5 abfe 71d6 c163 2bc5 d8cb 14e1
00000060: 0351 6e38 1164 2451 ccdb 4b74 57c7 d958
00000070: 6864 df51 de32 74b9 626b 2f0a 256d 4b7f
00000080: b676 2150 3b0a 1a3f a4f3 487a fc75 5a5c
00000090: 34e1 98d0 baa5 3abb 2e1f f300 5e0c 6795
000000a0: 032d 20bd ce25 626f fadc de46 42a3 2707
000000b0: e18e dbfc 4fc8 81b6 e4fe eeb2 c327 e4b2
000000c0: c4ef 010e f647 ebf7 1df3 c920 6405 4455
000000d0: deaa 682e 0707 1c19 22ed af02 51bf 136c
000000e0: 2786 466c c78e 93e0 67c8 6feb c5c4 03b4
000000f0: 2660 1b88 dd64 5742 ff83 dbde 1b00 7f10

sequential/quant_conv2d_1/Conv2D;sequential/quant_conv2d_1/LastValueQuant/FakeQuantWithMinMaxVarsPerChannel i1 [36, 5, 5, 24]
80 6 -2 -39 -98 -12 -40 -86
-81 100 -12 -15 83 116 30 -63
53 29 90 65 25 62 97 -28
-24 9 -39 96 -47 76 0 22
-76 113 109 -20 -66 82 -28 -84
-89 53 -21 -50 100 -101 -20 91
71 37 -42 -63 101 20 -34 -68
-46 76 -17 -100 95 13 14 58
-74 83 110 4 -74 -81 -56 -77
29 49 48 -21 -25 81 72 99
20 80 106 -88 38 -20 -9 -80
101 -24 -1 -20 -42 73 30 91
101 -64 -48 9 92 58 75 -71
-62 19 76 76 77 -7 -95 83
-95 21 104 65 16 38 63 31
-73 14 -38 73 -14 -83 87 56
77 127 27 91 -87 69 -17 -56
81 73 40 71 -74 -3 39 -66
15 -100 0 -78 -40 -75 0 70
14 34 -62 27 -57 36 -105 -32
91 68 -56 55 -41 63 100 -55
59 -61 -75 58 -99 17 -43 -8
17 86 -28 -33 96 -16 -101 -9
85 14 -27 61 -74 30 23 0
-1 -11 105 -38 -64 8 23 16
-70 59 32 -60 9 68 86 5
-54 28 111 -2 -23 36 -80 27
31 70 31 45 87 -71 -15 -62
98 116 40 84 -61 10 -85 9
-28 9 -60 94 -96 40 62 -75
23 -30 24 -55 83 -89 -83 -36
106 -30 9 58 -98 46 17 96
00000000: 5006 fed9 9ef4 d8aa af64 f4f1 5374 1ec1
00000010: 351d 5a41 193e 61e4 e809 d960 d14c 0016
00000020: b471 6dec be52 e4ac a735 ebce 649b ec5b
00000030: 4725 d6c1 6514 debc d24c ef9c 5f0d 0e3a
00000040: b653 6e04 b6af c8b3 1d31 30eb e751 4863
00000050: 1450 6aa8 26ec f7b0 65e8 ffec d649 1e5b
00000060: 65c0 d009 5c3a 4bb9 c213 4c4c 4df9 a153
00000070: a115 6841 1026 3f1f b70e da49 f2ad 5738
00000080: 4d7f 1b5b a945 efc8 5149 2847 b6fd 27be
00000090: 0f9c 00b2 d8b5 0046 0e22 c21b c724 97e0
000000a0: 5b44 c837 d73f 64c9 3bc3 b53a 9d11 d5f8
000000b0: 1156 e4df 60f0 9bf7 550e e53d b61e 1700
000000c0: fff5 69da c008 1710 ba3b 20c4 0944 5605
000000d0: ca1c 6ffe e924 b01b 1f46 1f2d 57b9 f1c2
000000e0: 6274 2854 c30a ab09 e409 c45e a028 3eb5
000000f0: 17e2 18c9 53a7 addc 6ae2 093a 9e2e 1160

sequential/quant_conv2d_2/Conv2D;sequential/quant_conv2d_2/LastValueQuant/FakeQuantWithMinMaxVarsPerChannel i1 [48, 5, 5, 36]
102 73 114 27 1 -63 99 -7
63 -86 74 -4 -38 101 113 -22
-34 105 -40 4 97 59 -67 -21
9 -80 50 -92 70 30 2 41
94 -79 88 56 -27 -60 15 1
35 57 14 -38 59 7 62 75
65 88 -22 -85 -96 -54 80 14
4 12 -14 -33 28 -1 94 14
-15 95 -2 -33 1 -8 -65 43
43 -52 74 33 7 100 90 -1
47 9 94 46 5 -28 81 17
81 -8 28 3 71 79 95 3
-67 97 34 -58 -49 127 61 -29
17 17 -8 88 38 -28 108 -48
-32 80 66 6 116 87 11 -38
-97 -47 -31 -36 29 74 116 -50
-19 21 -5 49 -4 96 -18 -88
-60 -8 1 18 -44 15 45 14
88 76 21 74 -63 4 -66 -25
61 -93 -67 64 -27 -67 87 98
7 -18 -49 -85 -65 46 -65 -30
11 88 -66 -68 -80 13 80 62
-87 22 68 26 83 85 -41 -89
58 -11 -33 3 -76 -60 -75 -50
47 -48 93 -7 -68 15 98 4
-13 -71 21 -59 -58 71 12 31
83 -2 47 -49 59 -28 -33 -63
16 1 68 47 -82 -14 41 11
0 58 -13 -52 57 -45 -16 34
1 55 -10 -8 92 -92 -41 -60
-69 -48 96 28 -47 -37 -26 63
15 -28 7 -23 -21 105 52 -13
00000000: 6649 721b 01c1 63f9 3faa 4afc da65 71ea
00000010: de69 d804 613b bdeb 09b0 32a4 461e 0229
00000020: 5eb1 5838 e5c4 0f01 2339 0eda 3b07 3e4b
00000030: 4158 eaab a0ca 500e 040c f2df 1cff 5e0e
00000040: f15f fedf 01f8 bf2b 2bcc 4a21 0764 5aff
00000050: 2f09 5e2e 05e4 5111 51f8 1c03 474f 5f03
00000060: bd61 22c6 cf7f 3de3 1111 f858 26e4 6cd0
00000070: e050 4206 7457 0bda 9fd1 e1dc 1d4a 74ce
00000080: ed15 fb31 fc60 eea8 c4f8 0112 d40f 2d0e
00000090: 584c 154a c104 bee7 3da3 bd40 e5bd 5762
000000a0: 07ee cfab bf2e bfe2 0b58 bebc b00d 503e
000000b0: a916 441a 5355 d7a7 3af5 df03 b4c4 b5ce
000000c0: 2fd0 5df9 bc0f 6204 f3b9 15c5 c647 0c1f
000000d0: 53fe 2fcf 3be4 dfc1 1001 442f aef2 290b
000000e0: 003a f3cc 39d3 f022 0137 f6f8 5ca4 d7c4
000000f0: bbd0 601c d1db e63f 0fe4 07e9 eb69 34f3

sequential/quant_conv2d_3/Conv2D;sequential/quant_conv2d_3/LastValueQuant/FakeQuantWithMinMaxVarsPerChannel i1 [64, 3, 3, 48]
-44 -12 -41 38 -66 -72 51 1
-125 -5 48 65 113 -28 117 40
62 106 -44 -90 104 -16 -27 -10
89 115 -79 95 -20 -16 41 12
-87 -83 -64 -87 -113 -50 -17 20
33 113 5 -28 -96 -28 8 -30
-35 -15 -7 11 5 -65 64 -80
90 26 23 -94 12 58 27 -31
13 -84 113 75 77 -114 68 89
16 -31 -81 -35 63 76 -21 -107
-108 98 -16 101 -114 19 107 -27
-51 -107 -86 55 -21 -64 -123 55
-78 -110 -3 13 57 50 -15 14
83 -104 101 71 89 -69 111 -38
79 72 86 -114 -54 -85 -99 -67
-38 22 64 81 -76 1 -38 112
12 -29 -65 -20 -50 74 -2 -99
112 -30 53 9 61 25 -47 9
-71 74 22 83 -27 -38 62 -39
-7 -44 -1 -51 31 6 3 -14
40 37 -68 81 -8 100 52 108
106 -28 24 -33 69 102 -44 -110
-18 -52 89 87 -70 -21 -102 -115
114 -32 -75 -31 -62 77 99 -43
37 -91 111 -111 50 118 -109 58
-78 -23 -41 -29 -40 -72 -23 51
60 17 11 32 -3 56 3 -1
-33 6 -123 112 105 -92 120 -38
21 -34 25 19 7 -6 34 98
42 -106 0 -114 -41 -76 3 91
-7 -5 -89 67 83 41 44 6
25 -16 -75 -116 -63 -72 53 -59
00000000: d4f4 d726 beb8 3301 83fb 3041 71e4 7528
00000010: 3e6a d4a6 68f0 e5f6 5973 b15f ecf0 290c
00000020: a9ad c0a9 8fce ef14 2171 05e4 a0e4 08e2
00000030: ddf1 f90b 05bf 40b0 5a1a 17a2 0c3a 1be1
00000040: 0dac 714b 4d8e 4459 10e1 afdd 3f4c eb95
00000050: 9462 f065 8e13 6be5 cd95 aa37 ebc0 8537
00000060: b292 fd0d 3932 f10e 5398 6547 59bb 6fda
00000070: 4f48 568e caab 9dbd da16 4051 b401 da70
00000080: 0ce3 bfec ce4a fe9d 70e2 3509 3d19 d109
00000090: b94a 1653 e5da 3ed9 f9d4 ffcd 1f06 03f2
000000a0: 2825 bc51 f864 346c 6ae4 18df 4566 d492
000000b0: eecc 5957 baeb 9a8d 72e0 b5e1 c24d 63d5
000000c0: 25a5 6f91 3276 933a b2e9 d7e3 d8b8 e933
000000d0: 3c11 0b20 fd38 03ff df06 8570 69a4 78da
000000e0: 15de 1913 07fa 2262 2a96 008e d7b4 035b
000000f0: f9fb a743 5329 2c06 19f0 b58c c1b8 35c5

sequential/quant_conv2d_4/Conv2D;sequential/quant_conv2d_4/LastValueQuant/FakeQuantWithMinMaxVarsPerChannel i1 [64, 3, 3, 64]
-48 85 105 50 83 1 66 74
75 44 -41 33 -29 -58 -45 38
-123 -43 -22 87 24 88 -72 32
-63 78 -72 42 36 -107 -84 -58
-31 60 40 -108 14 30 -31 -45
-37 -40 56 -70 65 55 5 69
-1 -44 -94 -71 -82 -77 9 -5
55 116 82 -100 -67 -66 30 -10
88 4 65 94 -64 72 -98 -33
-11 94 -15 29 -11 40 -49 18
-63 -61 35 -26 39 -38 52 -10
108 29 -100 -47 -96 79 59 -91
-10 101 68 -94 -101 3 78 66
-75 103 -53 95 -3 102 101 65
30 58 -69 -42 19 -69 39 59
-92 86 -25 -73 66 -64 -126 -49
-3 75 108 95 -33 13 -74 97
89 -87 109 11 62 125 -28 -52
44 -32 -52 -12 8 42 -57 -14
56 -69 73 -57 72 52 -47 -59
28 33 -69 55 -42 -74 -71 30
-83 29 30 3 -9 -33 76 -81
-16 -53 -42 57 -40 111 83 -47
65 -14 83 -24 -106 9 -54 67
81 18 28 60 -64 59 -66 -22
-8 -91 78 82 -79 84 -49 63
-126 12 -113 -51 -77 27 -77 56
68 -74 92 -126 103 -43 -27 85
127 84 63 3 -36 108 -70 -95
-8 -24 9 -75 100 -9 -76 -27
-58 103 20 65 1 58 43 -62
2 27 103 -19 -50 46 -7 -109
00000000: d055 6932 5301 424a 4b2c d721 e3c6 d326
00000010: 85d5 ea57 1858 b820 c14e b82a 2495 acc6
00000020: e13c 2894 0e1e e1d3 dbd8 38ba 4137 0545
00000030: ffd4 a2b9 aeb3 09fb 3774 529c bdbe 1ef6
00000040: 5804 415e c048 9edf f55e f11d f528 cf12
00000050: c1c3 23e6 27da 34f6 6c1d 9cd1 a04f 3ba5
00000060: f665 44a2 9b03 4e42 b567 cb5f fd66 6541
00000070: 1e3a bbd6 13bb 273b a456 e7b7 42c0 82cf
00000080: fd4b 6c5f df0d b661 59a9 6d0b 3e7d e4cc
00000090: 2ce0 ccf4 082a c7f2 38bb 49c7 4834 d1c5
000000a0: 1c21 bb37 d6b6 b91e ad1d 1e03 f7df 4caf
000000b0: f0cb d639 d86f 53d1 41f2 53e8 9609 ca43
000000c0: 5112 1c3c c03b beea f8a5 4e52 b154 cf3f
000000d0: 820c 8fcd b31b b338 44b6 5c82 67d5 e555
000000e0: 7f54 3f03 dc6c baa1 f8e8 09b5 64f7 b4e5
000000f0: c667 1441 013a 2bc2 021b 67ed ce2e f993

sequential/quant_dense/MatMul;sequential/quant_dense/LastValueQuant/FakeQuantWithMinMaxVars i1 [100, 832] scale=0.0008081811 zero_point=0
0.075969025 0.0032327245 -0.082434475 0.032327246 -0.063038126 0.010506354 0.041217238 0.046874505
0.017779985 -0.054956317 0.07839357 0.0428336 -0.0080818115 -0.069503576 0.033135425 0.054148134
-0.07435267 0.05657268 -0.0048490865 0.022629071 -0.019396346 0.05253177 0.0032327245 0.07435267
-0.0080818115 -0.012122717 -0.061421767 -0.0024245433 0.075969025 0.045258142 -0.075160846 -0.006465449
0.029902702 0.054148134 -0.025053615 0.047682688 -0.029094521 -0.08081811 -0.0428336 0.042025417
-0.08485902 0.0008081811 0.061421767 0.032327246 -0.02828634 0.015355442 -0.06788722 -0.07111994
0.009698173 -0.024245434 0.0024245433 -0.061421767 -0.081626296 0.025861796 -0.006465449 -0.076777205
-0.055764496 -0.07839357 0.077585384 0.0072736302 -0.0113145355 0.029094521 0.042025417 0.025861796
0.03636815 -0.045258142 0.032327246 0.068695396 0.037176333 -0.016971804 -0.06546267 0.032327246
-0.029902702 -0.075160846 0.030710883 -0.075160846 -0.0056572678 -0.038792692 0.0056572678 0.029094521
-0.058189042 -0.039600875 -0.04364178 -0.0008081811 -0.013739079 0.0145472605 -0.009698173 0.04929905
-0.0727363 0.0032327245 0.06546267 0.06546267 0.059805404 0.009698173 0.059805404 -0.054148134
0.0016163622 0.010506354 0.023437252 -0.053339954 -0.048490867 -0.075160846 0.006465449 0.029094521
-0.015355442 0.076777205 0.013739079 -0.0040409057 0.012122717 -0.030710883 -0.075969025 0.033135425
-0.054956317 0.058189042 0.051723592 0.046066325 0.023437252 -0.025053615 0.03394361 0.0727363
0.02828634 -0.06465449 0.06465449 -0.034751788 -0.0113145355 0.019396346 -0.006465449 -0.040409055
0.053339954 0.042025417 0.025053615 -0.08081811 0.009698173 -0.025053615 -0.023437252 -0.06546267
-0.07435267 -0.03636815 0.0113145355 0.0072736302 0.026669977 -0.081626296 -0.05657268 -0.068695396
0.029902702 0.027478158 -0.0056572678 0.054148134 -0.0145472605 0.0032327245 0.075160846 0.050915413
0.04364178 0.03555997 0.029902702 0.047682688 -0.0080818115 0.016163623 -0.06707903 -0.016163623
0.009698173 0.05657268 -0.046874505 -0.006465449 0.070311755 0.077585384 -0.05657268 0.0024245433
0.016971804 0.061421767 -0.07435267 0.034751788 0.058189042 -0.054956317 0.034751788 -0.037984513
0.045258142 -0.055764496 -0.038792692 0.025861796 -0.015355442 -0.015355442 -0.0040409057 0.054148134
-0.068695396 -0.040409055 0.0428336 0.047682688 -0.025861796 0.029094521 0.05010723 -0.020204527
0.02182089 0.0145472605 0.020204527 0.059805404 -0.0008081811 0.039600875 -0.04929905 -0.0113145355
-0.012930898 -0.0145472605 -0.0016163622 -0.06707903 -0.026669977 0.021012709 -0.02182089 0.042025417
-0.0113145355 0.018588167 0.015355442 -0.050915413 0.055764496 -0.04364178 -0.058189042 0.046874505
0.022629071 0.0080818115 0.031519063 -0.025053615 0.009698173 -0.06627085 -0.02828634 -0.023437252
0.04364178 0.029902702 -0.031519063 0.0727363 -0.024245434 0.029902702 -0.029902702 0.06627085
-0.034751788 0.0727363 -0.068695396 -0.02182089 0.07354448 -0.022629071 -0.050915413 -0.07192812
0.063038126 0.006465449 0.029902702 -0.077585384 -0.0080818115 -0.037984513 -0.016971804 -0.018588167
-0.03636815 0.06627085 0.018588167 0.016163623 0.041217238 -0.0727363 -0.025053615 0.058189042
00000000: 5e04 9a28 b20d 333a 16bc 6135 f6aa 2943
00000010: a446 fa1c e841 045c f6f1 b4fd 5e38 a3f8
00000020: 2543 e13b dc9c cb34 9701 4c28 dd13 aca8
00000030: 0ce2 03b4 9b20 f8a1 bb9f 6009 f224 3420
00000040: 2dc8 2855 2eeb af28 dba3 26a3 f9d0 0724
00000050: b8cf caff ef12 f43d a604 5151 4a0c 4abd
00000060: 020d 1dbe c4a3 0824 ed5f 11fb 0fda a229
00000070: bc48 4039 1de1 2a5a 23b0 50d5 f218 f8ce
00000080: 4234 1f9c 0ce1 e3af a4d3 0e09 219b baab
00000090: 2522 f943 ee04 5d3f 362c 253b f614 adec
000000a0: 0c46 c6f8 5760 ba03 154c a42b 48bc 2bd1
000000b0: 38bb d020 eded fb43 abce 353b e024 3ee7
000000c0: 1b12 194a ff31 c3f2 f0ee fead df1a e534
000000d0: f217 13c1 45ca b83a 1c0a 27e1 0cae dde3
000000e0: 3625 d95a e225 db52 d55a abe5 5be4 c1a7
000000f0: 4e08 25a0 f6d1 ebe9 d352 1714 33a6 e148

sequential/quant_dense_1/MatMul;sequential/quant_dense_1/LastValueQuant/FakeQuantWithMinMaxVars i1 [50, 100] scale=0.0016529838 zero_point=0
-0.16199242 -0.18844016 -0.09422008 -0.09917903 -0.026447741 -0.14215662 0.08264919 0.18678717
-0.18017524 -0.023141773 -0.06446637 0.17191032 -0.12397379 -0.12562677 -0.18513419 0.15207452
-0.028100725 0.052895483 0.11405589 0.024794757 0.0 0.17521629 0.011570887 -0.024794757
0.041324597 0.044630565 0.110749915 -0.031406693 -0.08595516 0.031406693 0.18513419 -0.049589515
0.095873065 0.057854433 -0.18844016 -0.023141773 -0.20166403 0.12066782 -0.019835806 -0.024794757
-0.0066119353 -0.13389169 -0.016529838 -0.16529839 0.0049589514 -0.06777234 0.11901484 0.1933991
-0.15703346 0.14546257 -0.12727976 0.0066119353 -0.11405589 -0.02975371 0.16199242 0.105790965
0.15868644 -0.014876855 -0.1124029 0.06611935 -0.15207452 -0.1223208 -0.041324597 -0.17852226
-0.028100725 -0.100832015 0.19835806 -0.1322387 -0.17521629 0.06942532 0.18182822 0.07107831
-0.08926113 0.08264919 -0.14711556 0.07603726 0.018182822 0.0 -0.023141773 -0.049589515
0.18513419 -0.008264919 0.0 0.15207452 0.12727976 -0.14380959 -0.02148879 0.102485
0.1223208 0.100832015 0.0066119353 -0.14215662 -0.19835806 0.014876855 0.008264919 0.041324597
0.18017524 0.03801863 0.0016529838 -0.18844016 -0.11736185 -0.17191032 -0.0512425 -0.054548465
0.16199242 -0.0066119353 0.115708865 -0.102485 -0.08595516 -0.14711556 -0.102485 -0.20166403
0.014876855 -0.1636454 0.07107831 -0.14380959 0.08926113 -0.07934322 -0.07934322 0.06611935
-0.08926113 -0.0066119353 0.07934322 -0.1223208 -0.04297758 -0.08099621 0.1124029 0.046283547
-0.1322387 -0.07934322 0.09422008 -0.1834812 0.12727976 0.17521629 -0.16199242 0.19505209
0.05620145 -0.10744395 0.15703346 -0.02975371 0.16033943 0.13389169 0.18513419 -0.1124029
-0.08430217 -0.023141773 -0.07107831 -0.054548465 -0.02975371 -0.07107831 -0.036365643 0.1223208
0.13885064 -0.115708865 -0.047936533 -0.12066782 0.016529838 -0.08099621 0.19009314 0.18513419
-0.16860434 0.02148879 0.1322387 0.0016529838 0.15538049 0.047936533 -0.18513419 -0.110749915
-0.100832015 -0.13885064 0.14215662 0.102485 -0.12893274 0.06446637 -0.10744395 0.17191032
-0.0066119353 -0.03471266 -0.19505209 0.06446637 0.18182822 -0.0049589514 -0.026447741 0.09091411
-0.0033059677 0.09422008 -0.07934322 0.031406693 -0.019835806 0.03801863 0.026447741 -0.044630565
-0.19670507 -0.04297758 -0.10909693 -0.15868644 -0.14050363 -0.044630565 -0.05950742 0.12562677
-0.102485 -0.009917903 -0.0033059677 0.14215662 0.054548465 0.03801863 -0.052895483 0.02975371
-0.0049589514 -0.0066119353 0.07107831 0.10909693 0.14380959 0.09917903 -0.09422008 -0.08760814
0.17191032 0.12066782 -0.008264919 -0.19835806 0.08760814 0.054548465 -0.06611935 -0.046283547
0.1933991 0.16695137 -0.0611604 0.0049589514 -0.1636454 0.13719766 0.026447741 -0.11736185
-0.08595516 -0.05620145 0.02148879 -0.011570887 -0.11736185 -0.028100725 0.17521629 0.02148879
0.028100725 -0.0611604 0.09917903 0.16529839 0.1124029 -0.028100725 -0.03471266 -0.1636454
0.044630565 -0.09091411 0.14711556 0.06611935 0.1933991 -0.08595516 -0.06281339 0.095873065
00000000: 9e8e c7c4 f0aa 3271 93f2 d968 b5b4 905c
00000010: ef20 450f 006a 07f1 191b 43ed cc13 70e2
00000020: 3a23 8ef2 8649 f4f1 fcaf f69c 03d7 4875
00000030: a158 b304 bbee 6240 60f7 bc28 a4b6 e794
00000040: efc3 78b0 962a 6e2b ca32 a72e 0b00 f2e2
00000050: 70fb 005c 4da9 f33e 4a3d 04aa 8809 0519
00000060: 6d17 018e b998 e1df 62fc 46c2 cca7 c286
00000070: 099d 2ba9 36d0 d028 cafc 30b6 e6cf 441c
00000080: b0d0 3991 4d6a 9e76 22bf 5fee 6151 70bc
00000090: cdf2 d5df eed5 ea4a 54ba e3b7 0acf 7370
000000a0: 9a0d 5001 5e1d 90bd c3ac 563e b227 bf68
000000b0: fceb 8a27 6efd f037 fe39 d013 f417 10e5
000000c0: 89e6 bea0 abe5 dc4c c2fa fe56 2117 e012
000000d0: fdfc 2b42 573c c7cb 6849 fb88 3521 d8e4
000000e0: 7565 db03 9d53 10b9 ccde 0df9 b9ef 6a0d
000000f0: 11db 3c64 44ef eb9d 1bc9 5928 75cc da3a

sequential/quant_dense_2/MatMul;sequential/quant_dense_2/LastValueQuant/FakeQuantWithMinMaxVars i1 [10, 50] scale=0.0024983452 zero_point=0
-0.03747518 -0.1548974 0.044970214 0.23984113 -0.12741561 -0.17988086 -0.06245863 0.25483122
0.23984113 0.14240567 0.0024983452 0.014990071 0.07495036 0.1049305 -0.03247849 -0.08244539
0.06245863 0.24483784 0.027481798 0.16489078 -0.17238583 0.09243877 -0.15739575 -0.13990733
-0.059960283 -0.1324123 -0.09993381 0.029980142 0.2698213 0.0024983452 0.29980144 -0.29730308
-0.14240567 0.05746194 0.1049305 0.012491726 0.21485768 -0.22734942 -0.27731633 -0.12991396
-0.12241892 -0.17488417 -0.18987423 -0.10742884 0.3097948 0.23984113 0.07495036 0.17238583
0.05246525 0.22485107 -0.039973523 -0.0049966904 0.2923064 0.06745532 0.2723196 -0.1049305
0.19736928 0.09243877 -0.112425536 0.13740899 -0.209861 -0.22235273 0.07994705 -0.28481135
-0.014990071 0.112425536 0.102432154 -0.24233949 -0.28481135 -0.29980144 -0.06495698 -0.07495036
-0.19986762 0.16239244 -0.23734279 0.12491726 0.12241892 0.28980803 -0.07245201 0.23984113
-0.2598279 0.30729645 0.14740236 -0.24733618 -0.27731633 0.09243877 0.17238583 -0.23734279
0.23984113 -0.1548974 -0.049966905 0.06245863 0.18487754 0.12241892 0.22235273 0.31728983
-0.034976833 0.034976833 0.009993381 0.11742222 0.27731633 -0.0049966904 0.0024983452 0.24233949
-0.30229977 -0.12491726 -0.13491064 0.11742222 0.11742222 -0.2598279 0.0074950354 -0.19986762
0.07994705 -0.21485768 -0.039973523 -0.24733618 -0.022485107 -0.21485768 0.24233949 0.2873097
0.23984113 -0.2698213 0.044970214 -0.2698213 -0.14990072 0.112425536 0.14740236 -0.13990733
-0.22734942 -0.069953665 -0.12741561 0.084943734 0.10742884 0.13990733 -0.16738912 0.30479813
-0.2598279 0.022485107 0.047468558 -0.27481797 0.039973523 0.13740899 0.047468558 -0.25483122
0.21235934 -0.23984113 -0.21485768 0.019986762 0.18737589 0.034976833 0.24233949 0.20736265
-0.20736265 0.019986762 0.054963596 0.14490402 0.024983453 0.27481797 0.0774487 0.16489078
-0.18737589 0.30229977 0.21235934 0.1598941 0.10992719 0.25233287 -0.2648246 0.084943734
-0.19986762 0.17738251 0.15239906 -0.0074950354 0.21485768 0.12491726 0.034976833 -0.23734279
0.2598279 0.19986762 0.23984113 -0.13491064 -0.16738912 0.16239244 -0.094937116 -0.1324123
-0.07245201 0.22235273 0.024983453 -0.12491726 -0.044970214 0.019986762 -0.07495036 -0.029980142
0.014990071 0.022485107 0.09993381 0.23484445 -0.22235273 0.1598941 0.24233949 0.08244539
0.23984113 0.2323461 -0.25732955 -0.13990733 0.13990733 -0.13990733 -0.12491726 -0.25233287
-0.18987423 0.29980144 0.042471867 0.19237258 0.054963596 0.054963596 -0.18737589 0.19237258
-0.22984776 0.024983453 -0.17238583 -0.15739575 0.27981466 -0.049966905 -0.19237258 0.14990072
0.06245863 -0.30479813 0.1548974 0.03247849 -0.13740899 0.042471867 -0.09743547 -0.29480472
-0.24483784 -0.06745532 0.044970214 -0.05746194 0.27731633 -0.069953665 -0.12491726 -0.25732955
-0.13990733 0.06245863 -0.027481798 -0.2598279 -0.14490402 -0.29980144 0.12741561 0.2723196
-0.039973523 0.069953665 0.009993381 0.17488417 0.13491064 0.14490402 -0.009993381 -0.30479813
00000000: f1c2 1260 cdb8 e766 6039 0106 1e2a f3df
00000010: 1962 0b42 bb25 c1c8 e8cb d80c 6c01 7889
00000020: c717 2a05 56a5 91cc cfba b4d5 7c60 1e45
00000030: 155a f0fe 751b 6dd6 4f25 d337 aca7 208e
00000040: fa2d 299f 8e88 e6e2 b041 a132 3174 e360
00000050: 987b 3b9d 9125 45a1 60c2 ec19 4a31 597f
00000060: f20e 042f 6ffe 0161 87ce ca2f 2f98 03b0
00000070: 20aa f09d f7aa 6173 6094 1294 c42d 3bc8
00000080: a5e4 cd22 2b38 bd7a 9809 1392 1037 139a
00000090: 55a0 aa08 4b0e 6153 ad08 163a 0a6e 1f42
000000a0: b579 5540 2c65 9622 b047 3dfd 5632 0ea1
000000b0: 6850 60ca bd41 dacb e359 0ace ee08 e2f4
000000c0: 0609 285e a740 6121 605d 99c8 38c8 ce9b
000000d0: b478 114d 1616 b54d a40a bbc1 70ec b33c
000000e0: 1986 3e0d c911 d98a 9ee5 12e9 6fe4 ce99
000000f0: c819 f598 c688 336d f01c 0446 363a fc86

sequential/quant_output/MatMul;sequential/quant_output/LastValueQuant/FakeQuantWithMinMaxVars i1 [1, 10] scale=0.005521926 zero_point=0
-0.016565777 -0.3202717 0.7012846 0.62949955 0.3810129 -0.110438526 0.69024074 -0.2760963
-0.5466707 0.44727603
00000000: fdc6 7f72 45ec 7dce 9d51
