models/opt-k2-160x60x3-T1.tflite (tflite, 212840 bytes, 9 tensors)

sequential_18/quant_conv2d_75/Conv2D;sequential_18/quant_conv2d_75/LastValueQuant/FakeQuantWithMinMaxVarsPerChannel i1 [24, 5, 5, 3]
90 117 -85 -70 91 108 -17 -59
86 -13 118 -88 102 -76 -84 -16
81 -18 -56 122 13 -29 114 0
48 28 38 126 76 86 -32 -69
42 19 -43 -72 -127 72 -83 -97
-104 -56 -29 -86 -66 10 103 31
59 71 53 -82 -77 -105 18 0
-6 -70 -39 -123 -64 75 -1 4
100 -42 -9 82 1 42 -96 -77
92 -104 -55 -103 -75 -98 -88 -53
-9 27 -82 5 -44 -93 9 -105
-67 -106 -46 -14 44 18 18 -84
-94 -22 65 -19 18 95 66 64
3 -43 -40 40 47 21 92 -8
112 64 -69 74 122 -93 127 -27
89 50 59 -79 36 -58 -53 31
2 45 89 79 92 13 -66 -57
-83 -1 1 -92 22 -7 95 100
85 -79 49 -76 106 -17 42 -53
-44 -69 92 56 -35 12 90 59
35 -78 23 -104 -79 -13 25 -119
-23 -58 14 5 64 44 -100 88
41 -7 83 13 43 -32 -107 3
47 -100 72 17 -89 39 31 -79
3 4 47 127 -96 -40 92 59
22 17 -73 59 47 53 -89 -3
35 -55 76 16 -16 34 -55 -88
73 -88 -45 -38 95 -36 112 27
-117 61 56 -91 -54 -75 -44 14
-45 20 28 49 -127 -81 -56 -39
-65 34 -16 -69 17 -46 31 31
-84 43 84 -72 -102 -71 -65 44
00000000: 5a75 abba 5b6c efc5 56f3 76a8 66b4 acf0
00000010: 51ee c87a 0de3 7200 301c 267e 4c56 e0bb
00000020: 2a13 d5b8 8148 ad9f 98c8 e3aa be0a 671f
00000030: 3b47 35ae b397 1200 faba d985 c04b ff04
00000040: 64d6 f752 012a a0b3 5c98 c999 b59e a8cb
00000050: f71b ae05 d4a3 0997 bd96 d2f2 2c12 12ac
00000060: a2ea 41ed 125f 4240 03d5 d828 2f15 5cf8
00000070: 7040 bb4a 7aa3 7fe5 5932 3bb1 24c6 cb1f
00000080: 022d 594f 5c0d bec7 adff 01a4 16f9 5f64
00000090: 55b1 31b4 6aef 2acb d4bb 5c38 dd0c 5a3b
000000a0: 23b2 1798 b1f3 1989 e9c6 0e05 402c 9c58
000000b0: 29f9 530d 2be0 9503 2f9c 4811 a727 1fb1
000000c0: 0304 2f7f a0d8 5c3b 1611 b73b 2f35 a7fd
000000d0: 23c9 4c10 f022 c9a8 49a8 d3da 5fdc 701b
000000e0: 8b3d 38a5 cab5 d40e d314 1c31 81af c8d9
000000f0: bf22 f0bb 11d2 1f1f ac2b 54b8 9ab9 bf2c

sequential_18/quant_conv2d_76/Conv2D;sequential_18/quant_conv2d_76/LastValueQuant/FakeQuantWithMinMaxVarsPerChannel i1 [36, 5, 5, 24]
99 -11 -25 70 -22 -58 24 -17
11 22 40 79 28 77 -77 -72
86 5 -83 99 -43 -79 73 69
-51 -5 -22 4 -4 62 -19 -60
82 56 43 -68 9 -69 8 -55
20 -10 -86 34 -73 78 21 -12
77 86 20 -8 29 60 -71 22
-69 53 -64 -14 78 86 -31 -78
22 -83 -75 102 54 1 32 -48
70 -49 60 60 -28 -64 -72 -79
-42 -24 16 -5 5 65 65 43
-38 -51 10 47 31 61 -1 72
15 -26 -80 -28 78 41 -27 49
1 49 -35 70 -81 83 22 48
-34 -36 36 96 -29 57 -32 -11
49 -8 16 40 49 69 68 -7
24 10 -4 -4 -80 -16 -94 -19
-81 2 -32 70 15 -50 -88 -37
9 -6 80 91 -2 24 -28 48
29 -66 39 7 -81 68 41 -45
76 -11 -5 -20 -19 12 -19 -66
74 -26 -48 37 67 42 29 -5
-16 59 23 25 47 -44 48 -106
-44 36 64 -43 -22 26 -99 21
9 -60 -42 -15 -86 -26 82 -51
-47 11 -35 7 55 -2 -76 65
-54 36 -34 -16 -51 40 58 73
25 31 -50 -8 80 80 -61 56
13 -45 65 -10 54 -65 69 -92
-82 77 98 -50 -1 85 -22 10
5 -65 36 -83 49 12 -63 84
34 -43 89 70 41 72 -29 -79
00000000: 63f5 e746 eac6 18ef 0b16 284f 1c4d b3b8
00000010: 5605 ad63 d5b1 4945 cdfb ea04 fc3e edc4
00000020: 5238 2bbc 09bb 08c9 14f6 aa22 b74e 15f4
00000030: 4d56 14f8 1d3c b916 bb35 c0f2 4e56 e1b2
00000040: 16ad b566 3601 20d0 46cf 3c3c e4c0 b8b1
00000050: d6e8 10fb 0541 412b dacd 0a2f 1f3d ff48
00000060: 0fe6 b0e4 4e29 e531 0131 dd46 af53 1630
00000070: dedc 2460 e339 e0f5 31f8 1028 3145 44f9
00000080: 180a fcfc b0f0 a2ed af02 e046 0fce a8db
00000090: 09fa 505b fe18 e430 1dbe 2707 af44 29d3
000000a0: 4cf5 fbec ed0c edbe 4ae6 d025 432a 1dfb
000000b0: f03b 1719 2fd4 3096 d424 40d5 ea1a 9d15
000000c0: 09c4 d6f1 aae6 52cd d10b dd07 37fe b441
000000d0: ca24 def0 cd28 3a49 191f cef8 5050 c338
000000e0: 0dd3 41f6 36bf 45a4 ae4d 62ce ff55 ea0a
000000f0: 05bf 24ad 310c c154 22d5 5946 2948 e3b1

sequential_18/quant_conv2d_77/Conv2D;sequential_18/quant_conv2d_77/LastValueQuant/FakeQuantWithMinMaxVarsPerChannel i1 [48, 3, 3, 36]
-5 43 -6 -56 30 56 -75 -25
57 -23 51 -48 -16 -36 -12 -29
16 -95 -3 -20 75 -38 32 19
20 20 55 14 -90 -1 52 40
-16 -19 -41 60 62 -3 -2 -60
81 -63 37 -40 35 23 -66 42
61 4 -72 27 -33 -37 41 66
-29 -57 -10 -57 71 34 -60 93
83 -1 59 61 41 6 -24 42
-34 0 25 69 -49 50 23 48
77 -56 -9 -34 -4 -5 -55 -56
-7 -27 -83 32 -31 57 43 25
85 39 -31 35 -25 78 -28 -4
-51 14 -35 62 36 36 -1 -91
-19 71 -38 -10 17 7 103 -7
-42 72 86 -19 45 -19 25 -7
-51 3 60 83 -44 21 80 -6
74 -26 8 -20 -48 7 -94 82
10 -5 68 -66 -20 73 -52 -54
-27 -34 38 12 40 54 60 -28
19 2 -47 48 -42 29 -44 -24
-92 27 -10 48 -19 -82 31 -10
-40 23 49 75 -49 -66 -55 -27
-49 34 10 -58 66 -14 80 78
-36 3 6 14 -31 75 4 -75
64 89 -69 -8 56 -65 -60 -41
-53 -35 20 28 -36 -67 9 87
27 -7 -63 22 37 -69 -4 -40
-15 78 59 19 98 47 4 44
77 -26 -99 71 -27 39 21 -65
33 37 25 -10 -5 14 -19 18
19 70 -73 127 7 44 -40 36
00000000: fb2b fac8 1e38 b5e7 39e9 33d0 f0dc f4e3
00000010: 10a1 fdec 4bda 2013 1414 370e a6ff 3428
00000020: f0ed d73c 3efd fec4 51c1 25d8 2317 be2a
00000030: 3d04 b81b dfdb 2942 e3c7 f6c7 4722 c45d
00000040: 53ff 3b3d 2906 e82a de00 1945 cf32 1730
00000050: 4dc8 f7de fcfb c9c8 f9e5 ad20 e139 2b19
00000060: 5527 e123 e74e e4fc cd0e dd3e 2424 ffa5
00000070: ed47 daf6 1107 67f9 d648 56ed 2ded 19f9
00000080: cd03 3c53 d415 50fa 4ae6 08ec d007 a252
00000090: 0afb 44be ec49 ccca e5de 260c 2836 3ce4
000000a0: 1302 d130 d61d d4e8 a41b f630 edae 1ff6
000000b0: d817 314b cfbe c9e5 cf22 0ac6 42f2 504e
000000c0: dc03 060e e14b 04b5 4059 bbf8 38bf c4d7
000000d0: cbdd 141c dcbd 0957 1bf9 c116 25bb fcd8
000000e0: f14e 3b13 622f 042c 4de6 9d47 e527 15bf
000000f0: 2125 19f6 fb0e ed12 1346 b77f 072c d824

sequential_18/quant_conv2d_78/Conv2D;sequential_18/quant_conv2d_78/LastValueQuant/FakeQuantWithMinMaxVarsPerChannel i1 [64, 3, 3, 48]
-28 29 13 10 35 -65 -43 -40
32 -31 52 -79 1 -74 -6 -65
73 -32 30 -62 -12 24 -78 -17
-59 71 -70 -49 -91 -36 66 71
38 -50 -40 65 -13 55 -10 23
-52 -80 -31 -70 31 72 17 -42
-48 51 -2 7 -41 31 -54 -35
9 -83 8 -19 -65 -90 59 -45
-63 -83 -63 39 24 -76 69 -30
47 -76 -36 20 -89 -38 23 -30
44 -79 45 -76 -66 -6 31 12
-17 -53 -43 23 55 62 19 28
-65 -54 35 24 72 25 104 -61
-29 -37 65 -70 -23 49 11 49
-2 -76 71 -52 66 -68 -39 40
-1 -81 57 30 -15 16 8 -50
-32 -30 24 51 51 47 -52 -75
-77 -49 44 -50 -19 58 94 -22
30 4 54 63 63 24 57 6
14 -86 17 12 -26 26 73 -45
89 61 -64 1 78 -75 -80 53
-69 70 18 51 -6 44 -70 81
-26 58 -41 -19 -30 57 3 27
44 -111 -60 48 53 72 72 2
46 69 -71 -77 53 -42 -21 15
-24 -50 -49 15 37 -16 12 -37
70 4 -9 52 -54 -48 52 0
64 -6 -19 22 -22 -28 -66 -2
55 40 -58 74 42 24 107 77
-45 -82 -89 68 -32 18 44 68
-90 -11 -66 40 19 -39 26 64
58 6 13 42 3 -58 -55 -44
00000000: e41d 0d0a 23bf d5d8 20e1 34b1 01b6 fabf
00000010: 49e0 1ec2 f418 b2ef c547 bacf a5dc 4247
00000020: 26ce d841 f337 f617 ccb0 e1ba 1f48 11d6
00000030: d033 fe07 d71f cadd 09ad 08ed bfa6 3bd3
00000040: c1ad c127 18b4 45e2 2fb4 dc14 a7da 17e2
00000050: 2cb1 2db4 befa 1f0c efcb d517 373e 131c
00000060: bfca 2318 4819 68c3 e3db 41ba e931 0b31
00000070: feb4 47cc 42bc d928 ffaf 391e f110 08ce
00000080: e0e2 1833 332f ccb5 b3cf 2cce ed3a 5eea
00000090: 1e04 363f 3f18 3906 0eaa 110c e61a 49d3
000000a0: 593d c001 4eb5 b035 bb46 1233 fa2c ba51
000000b0: e63a d7ed e239 031b 2c91 c430 3548 4802
000000c0: 2e45 b9b3 35d6 eb0f e8ce cf0f 25f0 0cdb
000000d0: 4604 f734 cad0 3400 40fa ed16 eae4 befe
000000e0: 3728 c64a 2a18 6b4d d3ae a744 e012 2c44
000000f0: a6f5 be28 13d9 1a40 3a06 0d2a 03c6 c9d4

sequential_18/quant_conv2d_79/Conv2D;sequential_18/quant_conv2d_79/LastValueQuant/FakeQuantWithMinMaxVarsPerChannel i1 [64, 3, 3, 64]
-21 40 3 -59 -37 37 -36 -12
9 -57 82 -22 85 43 -34 -37
82 13 -74 13 59 8 -12 50
-4 -90 -8 -10 26 79 -78 -59
-35 -49 -53 -11 32 63 -39 -12
-33 45 -32 -127 9 15 3 -57
47 0 37 55 50 -97 39 -82
23 -37 -93 32 -2 -46 -104 86
-107 58 18 65 -32 78 46 37
27 24 -33 -28 15 76 -4 62
-31 -19 -58 -21 0 16 -23 51
-60 -44 16 -11 65 29 53 -110
34 30 -48 -106 66 -67 34 -71
-23 20 -3 54 46 -58 34 -61
69 -97 -81 53 45 -48 63 -2
-45 -45 46 34 12 84 -50 -61
74 -39 -18 -25 -71 30 -1 46
-63 -59 -40 69 -50 0 -94 -33
33 54 72 95 7 27 3 10
-53 -66 -37 -101 -50 -52 -15 -74
19 -45 -6 20 -65 20 -71 -2
-53 -69 -51 27 57 -22 -41 81
-29 33 -53 80 -29 81 46 -52
68 22 49 -58 82 -37 62 98
-57 30 7 -28 -29 6 -52 41
-89 14 -85 -52 49 -88 23 -31
45 71 -72 -57 -37 37 62 16
45 -10 -16 -119 -79 -98 -10 -90
-120 35 25 43 14 -46 4 8
25 -21 -30 -11 -43 19 -6 39
19 57 53 -52 54 -63 -27 -104
-84 15 -70 71 53 82 -9 58
00000000: eb28 03c5 db25 dcf4 09c7 52ea 552b dedb
00000010: 520d b60d 3b08 f432 fca6 f8f6 1a4f b2c5
00000020: ddcf cbf5 203f d9f4 df2d e081 090f 03c7
00000030: 2f00 2537 329f 27ae 17db a320 fed2 9856
00000040: 953a 1241 e04e 2e25 1b18 dfe4 0f4c fc3e
00000050: e1ed c6eb 0010 e933 c4d4 10f5 411d 3592
00000060: 221e d096 42bd 22b9 e914 fd36 2ec6 22c3
00000070: 459f af35 2dd0 3ffe d3d3 2e22 0c54 cec3
00000080: 4ad9 eee7 b91e ff2e c1c5 d845 ce00 a2df
00000090: 2136 485f 071b 030a cbbe db9b cecc f1b6
000000a0: 13d3 fa14 bf14 b9fe cbbb cd1b 39ea d751
000000b0: e321 cb50 e351 2ecc 4416 31c6 52db 3e62
000000c0: c71e 07e4 e306 cc29 a70e abcc 31a8 17e1
000000d0: 2d47 b8c7 db25 3e10 2df6 f089 b19e f6a6
000000e0: 8823 192b 0ed2 0408 19eb e2f5 d513 fa27
000000f0: 1339 35cc 36c1 e598 ac0f ba47 3552 f73a

sequential_18/quant_dense_45/MatMul;sequential_18/quant_dense_45/LastValueQuant/FakeQuantWithMinMaxVars i1 [100, 896] scale=0.0014096062 zero_point=0
-0.052155428 -0.07329952 -0.023963306 -0.03664976 -0.015505668 -0.056384247 -0.06202267 0.050745822
0.043697793 0.11981653 -0.050745822 0.11558771 -0.0042288187 0.03805937 0.0225537 -0.043697793
0.0014096062 0.0098672435 -0.042288184 0.057793856 -0.052155428 0.0451074 0.03383055 0.05497464
0.0 -0.03664976 -0.019734487 0.07329952 0.01832488 -0.015505668 -0.007048031 -0.050745822
0.071889915 -0.019734487 0.057793856 -0.07048031 -0.015505668 -0.016915275 -0.0225537 -0.028192123
-0.05920346 0.025372911 0.0098672435 -0.007048031 0.016915275 0.0451074 0.0014096062 -0.057793856
-0.014096062 0.06484188 0.025372911 -0.09444361 0.043697793 -0.071889915 0.052155428 -0.056384247
0.09303401 0.0028192124 0.031011336 -0.01832488 0.03805937 0.03242094 0.053565037 0.08598598
0.012686456 0.014096062 0.0676611 -0.046517003 0.06484188 0.016915275 -0.0028192124 0.05497464
-0.019734487 -0.0225537 -0.035240155 -0.005638425 -0.028192123 -0.08034755 0.03805937 -0.07893795
-0.0028192124 -0.049336217 -0.06484188 -0.007048031 -0.021144092 0.043697793 0.03664976 0.03664976
-0.03242094 0.0451074 0.019734487 0.047926612 -0.03664976 0.057793856 0.071889915 -0.03383055
0.0028192124 -0.0676611 0.005638425 0.03383055 0.057793856 -0.019734487 0.06484188 -0.066251494
0.005638425 0.025372911 -0.050745822 -0.026782518 0.03242094 -0.07611874 -0.007048031 -0.04087858
0.014096062 0.0 -0.063432276 -0.066251494 0.03664976 -0.046517003 -0.007048031 0.08316676
0.08457637 0.03805937 -0.03242094 0.049336217 -0.0098672435 0.021144092 0.005638425 -0.0028192124
-0.056384247 0.031011336 0.09726283 0.043697793 0.052155428 0.03805937 0.06484188 -0.03383055
-0.060613066 0.0014096062 -0.016915275 -0.0042288187 0.016915275 -0.07893795 0.01127685 0.06202267
0.035240155 0.066251494 0.014096062 0.01832488 -0.031011336 0.07048031 0.028192123 -0.03383055
-0.014096062 -0.06484188 -0.05920346 0.0028192124 0.025372911 -0.06484188 0.02960173 0.01832488
0.05497464 0.03242094 0.012686456 0.03383055 0.031011336 -0.063432276 0.07329952 -0.066251494
0.074709125 -0.023963306 -0.04087858 0.0098672435 -0.0676611 0.007048031 0.023963306 -0.0916244
0.066251494 -0.06202267 -0.007048031 -0.07611874 -0.012686456 -0.012686456 -0.03664976 0.08316676
0.07893795 0.031011336 0.014096062 -0.06202267 0.050745822 -0.0028192124 0.03805937 -0.005638425
-0.039468974 -0.0014096062 -0.02960173 0.05497464 -0.039468974 0.047926612 -0.016915275 -0.01832488
0.066251494 -0.042288184 -0.0098672435 -0.042288184 -0.0042288187 -0.063432276 0.057793856 0.049336217
-0.043697793 -0.03242094 -0.005638425 -0.023963306 0.056384247 0.019734487 0.0451074 0.02960173
-0.047926612 -0.053565037 0.053565037 0.04087858 0.057793856 -0.06202267 -0.042288184 -0.08175716
-0.03242094 0.04087858 -0.043697793 -0.050745822 -0.03805937 0.06202267 -0.031011336 -0.07611874
0.008457637 -0.050745822 -0.016915275 0.0225537 -0.012686456 0.04087858 -0.046517003 0.021144092
-0.060613066 -0.07752834 0.031011336 -0.08598598 0.0451074 -0.005638425 0.047926612 0.026782518
0.07329952 0.035240155 -0.008457637 0.008457637 0.071889915 0.03383055 -0.03664976 0.046517003
00000000: dbcc efe6 f5d8 d424 1f55 dc52 fd1b 10e1
00000010: 0107 e229 db20 1827 00e6 f234 0df5 fbdc
00000020: 33f2 29ce f5f4 f0ec d612 07fb 0c20 01d7
00000030: f62e 12bd 1fcd 25d8 4202 16f3 1b17 263d
00000040: 090a 30df 2e0c fe27 f2f0 e7fc ecc7 1bc8
00000050: fedd d2fb f11f 1a1a e920 0e22 e629 33e8
00000060: 02d0 0418 29f2 2ed1 0412 dced 17ca fbe3
00000070: 0a00 d3d1 1adf fb3b 3c1b e923 f90f 04fe
00000080: d816 451f 251b 2ee8 d501 f4fd 0cc8 082c
00000090: 192f 0a0d ea32 14e8 f6d2 d602 12d2 150d
000000a0: 2717 0918 16d3 34d1 35ef e307 d005 11bf
000000b0: 2fd4 fbca f7f7 e63b 3816 0ad4 24fe 1bfc
000000c0: e4ff eb27 e422 f4f3 2fe2 f9e2 fdd3 2923
000000d0: e1e9 fcef 280e 2015 deda 261d 29d4 e2c6
000000e0: e91d e1dc e52c eaca 06dc f410 f71d df0f
000000f0: d5c9 16c3 20fc 2213 3419 fa06 3318 e621

sequential_18/quant_dense_46/MatMul;sequential_18/quant_dense_46/LastValueQuant/FakeQuantWithMinMaxVars i1 [50, 100] scale=0.0021647213 zero_point=0
-0.06710636 0.08009469 -0.1731777 -0.10607134 0.08442413 -0.10390662 -0.05195331 0.18183659
0.1926602 -0.043294426 -0.1731777 0.17534243 0.14070688 -0.05195331 0.03463554 0.04978859
0.10823606 -0.116894946 -0.12988327 -0.11040078 -0.015153049 -0.14720105 -0.09741246 -0.012988327
0.12555383 0.05628275 -0.075765245 0.062776916 -0.15369521 -0.12555383 0.05195331 -0.12988327
0.08658885 0.008658885 0.19482492 -0.03680026 -0.13854216 0.09524774 0.116894946 -0.0064941635
0.07360052 0.09524774 0.07360052 0.13637744 -0.18400131 0.21214268 0.2034838 0.1428716
-0.0043294425 -0.058447473 0.1428716 -0.021647213 0.08225941 -0.14503632 0.19049548 0.06927108
0.1926602 -0.021647213 0.16884826 0.019482492 -0.09741246 -0.06927108 -0.1623541 0.08658885
0.10823606 -0.18400131 0.15369521 0.0108236065 0.17534243 0.058447473 0.16884826 0.1428716
-0.030306097 -0.1017419 0.15585993 0.14503632 -0.08442413 -0.16451882 0.077929966 -0.1623541
0.16668354 0.090918295 0.09741246 -0.12338911 -0.08442413 -0.06927108 -0.041129705 -0.062776916
0.077929966 0.16018938 -0.16884826 -0.08009469 -0.090918295 0.008658885 -0.16668354 -0.0108236065
-0.077929966 0.015153049 0.03247082 -0.15585993 -0.07360052 -0.0043294425 0.18833075 -0.10390662
-0.09308302 -0.15153049 -0.077929966 0.041129705 -0.19915436 -0.0043294425 0.077929966 0.17101298
0.090918295 -0.10823606 0.2034838 0.17101298 -0.08442413 -0.12122439 0.12338911 -0.17750715
-0.1017419 -0.025976654 -0.038964983 0.16884826 -0.1731777 -0.16018938 -0.012988327 -0.116894946
-0.13637744 -0.13854216 0.04762387 0.08442413 0.1731777 0.1731777 -0.06710636 0.01731777
0.06927108 -0.19915436 0.09524774 -0.0043294425 0.18183659 0.18400131 0.16451882 0.116894946
0.114730224 -0.18400131 -0.08658885 -0.08875357 -0.077929966 -0.060612194 -0.08009469 0.08875357
-0.06494164 -0.03463554 -0.012988327 -0.18400131 -0.20131908 0.0064941635 0.06494164 0.13421272
0.03463554 -0.13854216 0.13421272 -0.03680026 -0.008658885 -0.045459148 0.04762387 0.11040078
-0.1428716 0.17534243 0.0021647213 0.038964983 0.03247082 0.132048 -0.0108236065 -0.077929966
-0.14720105 0.01731777 -0.09308302 0.14720105 -0.0043294425 -0.12771855 -0.1731777 0.008658885
-0.030306097 0.16018938 -0.2143074 0.12988327 0.13637744 0.0108236065 -0.15802465 0.060612194
-0.12988327 -0.021647213 -0.116894946 0.16451882 -0.19482492 0.04762387 0.012988327 0.04762387
0.10607134 0.17101298 0.10823606 0.1623541 -0.20564853 0.0 0.023811935 0.07360052
0.132048 0.08658885 -0.077929966 0.18183659 -0.17750715 -0.1428716 0.2554371 -0.09524774
-0.08009469 0.08225941 0.12771855 0.0021647213 0.01731777 0.17967187 -0.21214268 0.19482492
-0.17534243 0.12122439 -0.19915436 0.19482492 -0.05195331 -0.01731777 0.15802465 -0.05628275
0.10607134 -0.17101298 -0.012988327 -0.18616603 0.0108236065 0.0 0.18616603 0.09308302
0.058447473 -0.2034838 0.19482492 -0.030306097 -0.14936577 -0.17101298 0.15153049 -0.030306097
-0.015153049 0.08875357 -0.11905967 0.060612194 0.10607134 -0.08658885 -0.0714358 -0.17750715
00000000: e125 b0cf 27d0 e854 59ec b051 41e8 1017
00000010: 32ca c4cd f9bc d3fa 3a1a dd1d b9c6 18c4
00000020: 2804 5aef c02c 36fd 222c 223f ab62 5e42
00000030: fee5 42f6 26bd 5820 59f6 4e09 d3e0 b528
00000040: 32ab 4705 511b 4e42 f2d1 4843 d9b4 24b5
00000050: 4d2a 2dc7 d9e0 ede3 244a b2db d604 b3fb
00000060: dc07 0fb8 defe 57d0 d5ba dc13 a4fe 244f
00000070: 2ace 5e4f d9c8 39ae d1f4 ee4e b0b6 faca
00000080: c1c0 1627 5050 e108 20a4 2cfe 5455 4c36
00000090: 35ab d8d7 dce4 db29 e2f0 faab a303 1e3e
000000a0: 10c0 3eef fceb 1633 be51 0112 0f3d fbdc
000000b0: bc08 d544 fec5 b004 f24a 9d3c 3f05 b71c
000000c0: c4f6 ca4c a616 0616 314f 324b a100 0b22
000000d0: 3d28 dc54 aebe 76d4 db26 3b01 0853 9e5a
000000e0: af38 a45a e8f8 49e6 31b1 faaa 0500 562b
000000f0: 1ba2 5af2 bbb1 46f2 f929 c91c 31d8 dfae

sequential_18/quant_dense_47/MatMul;sequential_18/quant_dense_47/LastValueQuant/FakeQuantWithMinMaxVars i1 [10, 50] scale=0.0029334363 zero_point=0
0.29627708 0.24640866 -0.17013931 -0.12320433 0.2992105 0.2258746 0.21414085 0.2669427
-0.18773992 0.017600618 -0.03813467 0.27280957 -0.18480648 0.24054177 -0.05573529 0.21707429
0.25227553 0.19947366 0.2816099 0.15840556 0.10560371 -0.19654024 0.0 0.064535595
-0.1378715 -0.23760834 0.31387767 0.108537145 0.032267798 0.15840556 -0.0058668726 0.032267798
-0.120270886 -0.10267027 -0.24934208 -0.11147058 -0.061602164 0.07040247 0.044001546 0.1936068
-0.09093653 -0.029334363 -0.24054177 0.07040247 0.18773992 0.014667181 0.29627708 0.09093653
0.09386996 -0.2904102 0.07040247 0.18480648 -0.15547213 -0.24347521 0.20534053 0.2904102
-0.2816099 0.21707429 -0.16720587 -0.06746904 0.24347521 -0.23760834 -0.1936068 0.07920278
0.06746904 -0.15840556 0.24640866 -0.19067337 -0.24934208 0.19654024 0.27867645 -0.32561144
-0.0058668726 0.052801855 0.27280957 -0.24347521 0.041068107 0.12907119 -0.0029334363 0.17013931
-0.23174147 0.14373837 -0.30507737 -0.011733745 0.18773992 -0.22000772 0.1936068 -0.044001546
0.035201237 0.049868416 0.1378715 0.120270886 0.25814238 0.26400927 0.035201237 -0.31974456
-0.2992105 0.09973683 -0.17013931 -0.14960524 -0.2669427 0.2024071 -0.18773992 -0.25227553
0.18480648 0.14080495 0.064535595 0.161339 0.108537145 0.041068107 0.19067337 -0.0968034
0.14373837 0.22294116 0.21120742 -0.1378715 0.16720587 -0.1936068 -0.25227553 0.13493808
-0.30801082 -0.21707429 0.052801855 0.21120742 -0.21414085 -0.25227553 -0.30801082 0.21414085
0.25520897 0.011733745 -0.07626934 0.03813467 -0.18187305 -0.161339 0.032267798 -0.28454334
-0.15840556 -0.07333591 0.2346749 -0.14080495 0.16427243 0.10560371 0.13493808 0.22294116
0.1936068 -0.0968034 0.19067337 -0.052801855 -0.2992105 -0.14667182 -0.28454334 -0.07626934
0.17893961 -0.24054177 -0.18480648 0.0968034 -0.14373837 0.12907119 -0.31387767 -0.08506966
0.29334363 0.07626934 -0.22294116 -0.032267798 -0.3168111 0.09973683 0.27867645 0.035201237
-0.25520897 0.11147058 0.161339 0.18480648 -0.2904102 -0.23760834 -0.044001546 -0.17307274
-0.09973683 -0.275743 0.18480648 -0.28747675 -0.1378715 -0.2258746 -0.28454334 -0.22000772
0.19947366 0.07333591 0.049868416 0.14667182 0.2669427 -0.17307274 0.08800309 -0.052801855
-0.14080495 0.12613776 0.044001546 -0.032267798 -0.20534053 -0.12320433 -0.14080495 -0.07920278
-0.19947366 -0.15253869 0.15840556 -0.2904102 0.20827398 -0.14080495 -0.09093653 -0.058668725
0.06746904 0.07040247 0.19654024 -0.18480648 -0.25227553 -0.03813467 -0.14373837 -0.04693498
0.09973683 -0.020534053 0.032267798 0.029334363 0.09973683 -0.10560371 -0.026400927 -0.25814238
-0.322678 -0.17013931 0.044001546 0.14373837 0.24640866 0.11733745 0.064535595 -0.13493808
0.07333591 -0.114404015 0.29627708 0.1936068 -0.24054177 0.22880803 -0.044001546 -0.05573529
-0.09093653 0.18187305 -0.03813467 -0.07920278 0.23760834 -0.05573529 -0.2024071 0.21120742
-0.22000772 0.12320433 0.032267798 0.19654024 0.08800309 0.13493808 0.2258746 0.11147058
00000000: 6554 c6d6 664d 495b c006 f35d c152 ed4a
00000010: 5644 6036 24bd 0016 d1af 6b25 0b36 fe0b
00000020: d7dd abda eb18 0f42 e1f6 ae18 4005 651f
00000030: 209d 183f cbad 4663 a04a c7e9 53af be1b
00000040: 17ca 54bf ab43 5f91 fe12 5dad 0e2c ff3a
00000050: b131 98fc 40b5 42f1 0c11 2f29 585a 0c93
00000060: 9a22 c6cd a545 c0aa 3f30 1637 250e 41df
00000070: 314c 48d1 39be aa2e 97b6 1248 b7aa 9749
00000080: 5704 e60d c2c9 0b9f cae7 50d0 3824 2e4c
00000090: 42df 41ee 9ace 9fe6 3dae c121 cf2c 95e3
000000a0: 641a b4f5 9422 5f0c a926 373f 9daf f1c5
000000b0: dea2 3f9e d1b3 9fb5 4419 1132 5bc5 1eee
000000c0: d02b 0ff5 bad6 d0e5 bccc 369d 47d0 e1ec
000000d0: 1718 43c1 aaf3 cff0 22f9 0b0a 22dc f7a8
000000e0: 92c6 0f31 5428 16d2 19d9 6542 ae4e f1ed
000000f0: e13e f3e5 51ed bb48 b52a 0b43 1e2e 4d26

sequential_18/quant_output/MatMul;sequential_18/quant_output/LastValueQuant/FakeQuantWithMinMaxVars i1 [1, 10] scale=0.0050372398 zero_point=0
0.0100744795 -0.36268127 0.5893571 0.5188357 0.37779298 -0.1662289 -0.015111719 0.0100744795
-0.3929047 -0.63972944
00000000: 02b8 7567 4bdf fd02 b281
