models/opt-80x60x3-T5.tflite (tflite, 163888 bytes, 9 tensors)

sequential_5/quant_conv2d_25/Conv2D;sequential_5/quant_conv2d_25/LastValueQuant/FakeQuantWithMinMaxVarsPerChannel i1 [24, 5, 5, 15]
59 60 39 4 -82 17 -110 47
97 -11 -114 27 -57 -29 -77 -108
-57 -54 2 -109 94 78 -68 -36
9 46 77 -26 -79 92 21 -6
108 -97 95 -69 -58 92 -101 9
21 -8 103 46 105 40 -3 -66
-42 -101 105 -17 58 -104 92 78
-78 -75 41 17 36 10 -101 42
71 116 -8 58 -71 99 -120 -120
-123 -7 24 -2 40 -75 -101 107
12 60 37 -35 63 57 116 -85
66 -105 -2 45 -76 80 23 -103
-91 33 125 -74 44 15 -71 -28
-121 -79 58 81 -1 10 1 21
-36 -62 -63 -71 81 -125 13 88
113 -82 -69 54 100 20 66 -25
38 -31 -121 -107 -3 -84 88 0
83 81 -123 109 -43 14 -16 31
107 79 28 34 -95 -81 92 42
-98 -15 -8 -67 -80 -64 56 -30
42 -51 44 -40 -65 -106 61 63
99 11 -56 -28 16 -76 -61 -31
115 38 106 -17 -32 -64 -29 -115
6 -72 55 -89 -21 -124 81 58
-104 -34 7 112 -121 35 -119 110
29 13 28 -20 86 31 33 -30
-89 71 -11 -112 -65 24 114 -72
101 92 47 37 5 87 82 46
51 70 -26 74 -15 101 112 -39
-73 15 107 58 15 -88 -61 -80
39 -72 -38 -90 61 125 -106 -107
67 68 -28 7 91 -18 63 90
00000000: 3b3c 2704 ae11 922f 61f5 8e1b c7e3 b394
00000010: c7ca 0293 5e4e bcdc 092e 4de6 b15c 15fa
00000020: 6c9f 5fbb c65c 9b09 15f8 672e 6928 fdbe
00000030: d69b 69ef 3a98 5c4e b2b5 2911 240a 9b2a
00000040: 4774 f83a b963 8888 85f9 18fe 28b5 9b6b
00000050: 0c3c 25dd 3f39 74ab 4297 fe2d b450 1799
00000060: a521 7db6 2c0f b9e4 87b1 3a51 ff0a 0115
00000070: dcc2 c1b9 5183 0d58 71ae bb36 6414 42e7
00000080: 26e1 8795 fdac 5800 5351 856d d50e f01f
00000090: 6b4f 1c22 a1af 5c2a 9ef1 f8bd b0c0 38e2
000000a0: 2acd 2cd8 bf96 3d3f 630b c8e4 10b4 c3e1
000000b0: 7326 6aef e0c0 e38d 06b8 37a7 eb84 513a
000000c0: 98de 0770 8723 896e 1d0d 1cec 561f 21e2
000000d0: a747 f590 bf18 72b8 655c 2f25 0557 522e
000000e0: 3346 e64a f165 70d9 b70f 6b3a 0fa8 c3b0
000000f0: 27b8 daa6 3d7d 9695 4344 e407 5bee 3f5a

sequential_5/quant_conv2d_26/Conv2D;sequential_5/quant_conv2d_26/LastValueQuant/FakeQuantWithMinMaxVarsPerChannel i1 [36, 5, 5, 24]
76 -22 47 -45 -53 66 8 13
-24 81 29 -65 -78 -23 -41 -111
4 16 -9 28 68 -36 -43 66
-74 44 56 24 87 -33 10 60
-16 -56 -10 -12 49 56 -26 5
-2 -37 29 16 10 51 27 38
-68 67 -56 14 -75 -19 -41 50
-56 -51 -66 17 15 25 44 16
10 19 -62 -78 25 70 -32 -70
-23 40 -9 54 96 -81 -56 36
-52 -93 -11 -51 -16 -51 14 47
-45 -40 65 -30 -25 71 106 -107
-68 7 70 -22 63 -49 -18 23
-67 -44 -33 50 -46 57 -28 -28
87 49 32 28 -72 9 9 44
11 83 5 -12 -69 -23 -93 42
11 -77 76 77 -32 10 -29 -72
-29 -48 50 51 -27 -10 64 -38
0 -55 -24 -78 -92 -50 32 9
52 -79 45 95 12 91 -9 13
71 7 29 -55 66 -51 -61 -71
82 35 -25 8 -94 -70 -2 -4
-35 45 104 -16 -27 -16 -10 9
-64 -69 65 41 -79 50 -81 -116
-1 -87 -40 -77 -74 -43 -62 -95
-20 -90 67 59 85 20 44 32
19 5 -105 19 46 54 31 -11
-61 91 17 -43 98 -49 69 62
33 63 112 -53 77 -37 -71 49
16 -56 -25 -32 -44 -75 43 25
-40 13 27 -77 -80 63 -71 -52
-72 56 61 -24 88 -71 -3 -27
00000000: 4cea 2fd3 cb42 080d e851 1dbf b2e9 d791
00000010: 0410 f71c 44dc d542 b62c 3818 57df 0a3c
00000020: f0c8 f6f4 3138 e605 fedb 1d10 0a33 1b26
00000030: bc43 c80e b5ed d732 c8cd be11 0f19 2c10
00000040: 0a13 c2b2 1946 e0ba e928 f736 60af c824
00000050: cca3 f5cd f0cd 0e2f d3d8 41e2 e747 6a95
00000060: bc07 46ea 3fcf ee17 bdd4 df32 d239 e4e4
00000070: 5731 201c b809 092c 0b53 05f4 bbe9 a32a
00000080: 0bb3 4c4d e00a e3b8 e3d0 3233 e5f6 40da
00000090: 00c9 e8b2 a4ce 2009 34b1 2d5f 0c5b f70d
000000a0: 4707 1dc9 42cd c3b9 5223 e708 a2ba fefc
000000b0: dd2d 68f0 e5f0 f609 c0bb 4129 b132 af8c
000000c0: ffa9 d8b3 b6d5 c2a1 eca6 433b 5514 2c20
000000d0: 1305 9713 2e36 1ff5 c35b 11d5 62cf 453e
000000e0: 213f 70cb 4ddb b931 10c8 e7e0 d4b5 2b19
000000f0: d80d 1bb3 b03f b9cc b838 3de8 58b9 fde5

sequential_5/quant_conv2d_27/Conv2D;sequential_5/quant_conv2d_27/LastValueQuant/FakeQuantWithMinMaxVarsPerChannel i1 [48, 5, 5, 36]
12 -98 -2 -54 -82 -44 -85 103
-20 -82 -127 -1 -58 32 28 24
-52 38 -51 52 -20 -44 23 0
-81 -39 83 -71 -85 61 -52 12
58 -28 -82 22 57 0 -35 80
-66 11 -60 -12 66 -42 -115 112
18 -39 68 73 65 -39 -52 -90
25 -17 2 13 -93 -105 -16 14
15 4 -53 -24 28 -31 33 78
-17 54 32 -86 61 55 18 50
-61 -79 -58 116 14 7 64 -22
-24 -17 30 2 47 -71 23 -102
55 -100 73 -93 -73 -48 -89 -3
-83 73 19 -30 72 94 25 -88
-12 41 -33 35 89 74 -56 82
67 6 -42 84 91 -36 37 8
-60 -50 -76 11 46 -91 -63 50
-97 57 -57 -45 -99 -89 -35 6
5 -97 -63 58 -7 54 -41 69
15 -1 -103 72 27 -63 49 -81
25 -12 21 -10 47 68 -88 25
69 58 -14 -1 70 53 71 52
-9 9 102 -113 -65 11 -126 4
21 62 -9 82 -30 66 -64 3
-80 2 -26 -6 6 69 11 -36
-100 -81 49 9 40 36 53 -65
-55 60 25 -36 -51 -22 -29 -46
-43 -3 67 -77 23 75 73 -62
-75 -78 51 -49 29 -87 38 -63
-107 -31 -23 48 71 -44 -80 45
-80 36 -22 90 51 -43 3 39
16 95 39 -21 -42 -79 -26 -61
00000000: 0c9e feca aed4 ab67 ecae 81ff c620 1c18
00000010: cc26 cd34 ecd4 1700 afd9 53b9 ab3d cc0c
00000020: 3ae4 ae16 3900 dd50 be0b c4f4 42d6 8d70
00000030: 12d9 4449 41d9 cca6 19ef 020d a397 f00e
00000040: 0f04 cbe8 1ce1 214e ef36 20aa 3d37 1232
00000050: c3b1 c674 0e07 40ea e8ef 1e02 2fb9 179a
00000060: 379c 49a3 b7d0 a7fd ad49 13e2 485e 19a8
00000070: f429 df23 594a c852 4306 d654 5bdc 2508
00000080: c4ce b40b 2ea5 c132 9f39 c7d3 9da7 dd06
00000090: 059f c13a f936 d745 0fff 9948 1bc1 31af
000000a0: 19f4 15f6 2f44 a819 453a f2ff 4635 4734
000000b0: f709 668f bf0b 8204 153e f752 e242 c003
000000c0: b002 e6fa 0645 0bdc 9caf 3109 2824 35bf
000000d0: c93c 19dc cdea e3d2 d5fd 43b3 174b 49c2
000000e0: b5b2 33cf 1da9 26c1 95e1 e930 47d4 b02d
000000f0: b024 ea5a 33d5 0327 105f 27eb d6b1 e6c3

sequential_5/quant_conv2d_28/Conv2D;sequential_5/quant_conv2d_28/LastValueQuant/FakeQuantWithMinMaxVarsPerChannel i1 [64, 3, 3, 48]
-50 34 -43 23 60 -25 -57 22
-37 61 72 59 -74 3 -15 86
17 -37 71 74 6 -86 -50 -44
-40 42 102 63 -72 15 -55 72
-16 81 46 -76 23 -43 -59 36
79 56 -51 -39 -39 -7 -66 -23
2 -33 -72 -59 52 24 -23 -28
-111 58 3 42 62 -38 -35 -49
82 74 -1 -13 -42 -36 55 37
28 -70 -38 2 -59 -38 95 85
18 -64 65 84 -25 36 -6 -31
-70 44 7 -37 -30 -67 -92 10
-14 -65 -37 73 -81 -40 0 1
-107 -23 49 55 76 67 -38 25
-55 -16 -65 -52 13 -3 81 -28
-20 -35 -97 58 73 27 -38 60
27 49 4 -60 -2 -54 6 -17
-12 106 21 -53 19 -77 41 76
77 9 -39 58 -49 -56 -78 43
-56 -20 -67 8 25 -4 -22 -65
-16 80 66 38 -24 -56 63 49
24 47 -44 56 85 -31 32 94
-47 -83 18 78 90 -29 55 -61
-43 64 -29 36 11 21 -54 33
-91 73 11 -71 -86 -31 -36 -32
-45 -71 89 -18 -55 -53 50 -78
-84 13 -85 -32 35 100 5 67
-66 -4 -80 -29 21 -44 -53 -57
70 -39 -73 67 -56 -26 71 -72
-53 -33 -25 68 8 66 53 -39
-76 -12 40 88 20 30 3 57
44 -50 19 -26 78 -31 66 30
00000000: ce22 d517 3ce7 c716 db3d 483b b603 f156
00000010: 11db 474a 06aa ced4 d82a 663f b80f c948
00000020: f051 2eb4 17d5 c524 4f38 cdd9 d9f9 bee9
00000030: 02df b8c5 3418 e9e4 913a 032a 3eda ddcf
00000040: 524a fff3 d6dc 3725 1cba da02 c5da 5f55
00000050: 12c0 4154 e724 fae1 ba2c 07db e2bd a40a
00000060: f2bf db49 afd8 0001 95e9 3137 4c43 da19
00000070: c9f0 bfcc 0dfd 51e4 ecdd 9f3a 491b da3c
00000080: 1b31 04c4 feca 06ef f46a 15cb 13b3 294c
00000090: 4d09 d93a cfc8 b22b c8ec bd08 19fc eabf
000000a0: f050 4226 e8c8 3f31 182f d438 55e1 205e
000000b0: d1ad 124e 5ae3 37c3 d540 e324 0b15 ca21
000000c0: a549 0bb9 aae1 dce0 d3b9 59ee c9cb 32b2
000000d0: ac0d abe0 2364 0543 befc b0e3 15d4 cbc7
000000e0: 46d9 b743 c8e6 47b8 cbdf e744 0842 35d9
000000f0: b4f4 2858 141e 0339 2cce 13e6 4ee1 421e

sequential_5/quant_conv2d_29/Conv2D;sequential_5/quant_conv2d_29/LastValueQuant/FakeQuantWithMinMaxVarsPerChannel i1 [64, 2, 2, 64]
-85 31 99 50 -47 20 -88 65
-55 7 -60 -38 31 69 67 -7
-49 -26 -105 -21 -92 79 73 -32
50 -12 -47 -13 -16 18 100 -92
-4 72 81 -53 -9 35 -104 -70
-36 75 60 76 -56 33 -117 -43
-69 -76 -35 65 -46 -106 -58 -25
49 -31 -15 31 59 -3 61 -4
-42 -100 -52 -88 -58 84 -7 -99
-80 -71 88 47 -92 2 20 -14
-71 33 44 -17 -71 62 -93 75
96 -71 -9 -104 93 58 32 -65
-26 31 -53 113 9 -97 70 -29
48 47 -41 -88 24 82 -51 78
-99 27 -16 -94 -88 33 -113 11
45 -3 43 -60 -14 36 -44 -98
-115 57 -2 -90 -103 80 43 -21
11 95 -82 -98 84 -3 52 -102
12 -41 -27 77 -81 -22 90 -65
-42 105 -6 54 35 -12 -10 107
84 -19 -73 98 82 98 -4 90
43 -62 -40 -61 60 72 -23 -63
14 25 111 -43 -3 106 19 -96
45 43 20 29 -62 19 -42 25
-127 -34 -114 50 -49 31 46 49
-39 -36 17 -45 -19 -85 -114 -24
37 -106 8 91 62 -21 -93 -46
1 88 -77 -41 -89 -23 42 -90
-15 117 -108 13 3 -93 -24 56
-111 6 -70 -65 91 40 -99 31
110 -67 -104 -91 21 -110 -42 -72
-10 -44 -50 -38 -31 1 75 -61
00000000: ab1f 6332 d114 a841 c907 c4da 1f45 43f9
00000010: cfe6 97eb a44f 49e0 32f4 d1f3 f012 64a4
00000020: fc48 51cb f723 98ba dc4b 3c4c c821 8bd5
00000030: bbb4 dd41 d296 c6e7 31e1 f11f 3bfd 3dfc
00000040: d69c cca8 c654 f99d b0b9 582f a402 14f2
00000050: b921 2cef b93e a34b 60b9 f798 5d3a 20bf
00000060: e61f cb71 099f 46e3 302f d7a8 1852 cd4e
00000070: 9d1b f0a2 a821 8f0b 2dfd 2bc4 f224 d49e
00000080: 8d39 fea6 9950 2beb 0b5f ae9e 54fd 349a
00000090: 0cd7 e54d afea 5abf d669 fa36 23f4 f66b
000000a0: 54ed b762 5262 fc5a 2bc2 d8c3 3c48 e9c1
000000b0: 0e19 6fd5 fd6a 13a0 2d2b 141d c213 d619
000000c0: 81de 8e32 cf1f 2e31 d9dc 11d3 edab 8ee8
000000d0: 2596 085b 3eeb a3d2 0158 b3d7 a7e9 2aa6
000000e0: f175 940d 03a3 e838 9106 babf 5b28 9d1f
000000f0: 6ebd 98a5 1592 d6b8 f6d4 ceda e101 4bc3

sequential_5/quant_dense_15/MatMul;sequential_5/quant_dense_15/LastValueQuant/FakeQuantWithMinMaxVars i1 [100, 256] scale=0.0013751441 zero_point=0
0.09075951 -0.006875721 -0.07150749 -0.12513812 -0.11963754 0.027502883 0.033003457 -0.06325663
-0.027502883 -0.017876873 0.04400461 -0.07288264 -0.15951672 -0.07700807 0.12376297 -0.068757206
0.04262947 0.03987918 0.06325663 -0.031628314 0.016501728 0.096260086 0.048130043 -0.0935098
-0.08388379 0.038504034 -0.0055005765 -0.1155121 0.07013235 0.08800922 0.09075951 -0.05088033
-0.024752595 0.0467549 0.0013751441 -0.052255478 0.0027502882 0.059131198 0.11688725 -0.08938437
0.038504034 -0.05638091 -0.11138667 -0.05088033 0.031628314 -0.12513812 -0.03987918 0.07975836
0.11688725 0.11138667 0.10863639 -0.14576527 -0.1402647 -0.004125432 -0.11001153 -0.11001153
-0.0811335 0.07563293 -0.009626009 0.016501728 0.10313581 0.078383215 0.0935098 -0.03712889
0.027502883 0.028878026 0.09763523 -0.009626009 -0.08525894 -0.09075951 0.03025317 0.006875721
0.08525894 0.027502883 -0.04400461 0.0027502882 0.06050634 -0.068757206 -0.045379754 -0.12101268
-0.013751442 -0.034378603 0.041254323 0.10863639 -0.064631775 -0.105886094 0.06325663 0.11276182
-0.09075951 -0.008250864 0.08938437 0.028878026 0.034378603 0.14163984 0.09075951 -0.07975836
-0.006875721 -0.045379754 0.064631775 0.026127739 -0.061881486 -0.11276182 0.04950519 0.031628314
-0.011001153 0.12376297 0.004125432 -0.07975836 0.0 0.05363062 0.07563293 0.06050634
0.04400461 0.08938437 -0.12513812 -0.152641 -0.066006914 0.04950519 0.015126585 -0.09901038
-0.019252017 0.045379754 -0.045379754 -0.020627161 0.012376297 0.017876873 0.08800922 -0.031628314
0.10313581 0.09488495 0.0467549 0.11688725 -0.10038552 -0.0935098 0.14851557 -0.024752595
0.07975836 0.13063869 -0.10176066 0.1155121 -0.055005766 -0.10726124 -0.10726124 0.06738206
-0.07700807 -0.08663408 -0.05088033 -0.03987918 0.09763523 0.006875721 0.015126585 -0.09763523
0.104510956 0.006875721 0.12101268 -0.045379754 0.05775605 -0.064631775 0.022002306 0.08663408
0.012376297 -0.08525894 0.05088033 0.009626009 0.02337745 -0.08800922 0.09075951 0.013751442
-0.031628314 0.07563293 -0.12513812 -0.092134655 0.11001153 -0.12651326 0.15539129 -0.13613927
0.08525894 0.028878026 -0.10176066 0.0027502882 0.059131198 0.020627161 -0.006875721 -0.066006914
0.08388379 -0.12101268 0.114136964 -0.038504034 -0.08388379 0.034378603 -0.015126585 -0.04400461
-0.052255478 0.12376297 0.0055005765 0.0935098 0.061881486 0.11001153 -0.064631775 -0.104510956
-0.020627161 -0.045379754 -0.114136964 -0.05638091 -0.03025317 -0.052255478 -0.009626009 -0.0935098
-0.12376297 -0.092134655 0.07425778 0.12101268 0.028878026 -0.07013235 -0.064631775 -0.04262947
-0.03987918 0.052255478 -0.061881486 -0.03987918 -0.1278884 -0.09075951 0.07563293 0.0467549
-0.12238783 -0.012376297 0.04262947 -0.055005766 0.020627161 -0.11001153 -0.061881486 0.027502883
0.009626009 -0.035753746 0.082508646 0.064631775 -0.082508646 0.026127739 0.078383215 0.04400461
-0.0467549 -0.10863639 -0.10313581 -0.06050634 -0.07975836 -0.04400461 -0.13201383 -0.12238783
0.0935098 0.092134655 0.07563293 0.07013235 -0.08525894 0.008250864 -0.019252017 0.10313581
00000000: 42fb cca5 a914 18d2 ecf3 20cb 8cc8 5ace
00000010: 1f1d 2ee9 0c46 23bc c31c fcac 3340 42db
00000020: ee22 01da 022b 55bf 1cd7 afdb 17a5 e33a
00000030: 5551 4f96 9afd b0b0 c537 f90c 4b39 44e5
00000040: 1415 47f9 c2be 1605 3e14 e002 2cce dfa8
00000050: f6e7 1e4f d1b3 2e52 befa 4115 1967 42c6
00000060: fbdf 2f13 d3ae 2417 f85a 03c6 0027 372c
00000070: 2041 a591 d024 0bb8 f221 dff1 090d 40e9
00000080: 4b45 2255 b7bc 6cee 3a5f b654 d8b2 b231
00000090: c8c1 dbe3 4705 0bb9 4c05 58df 2ad1 103f
000000a0: 09c2 2507 11c0 420a e937 a5bd 50a4 719d
000000b0: 3e15 b602 2b0f fbd0 3da8 53e4 c319 f5e0
000000c0: da5a 0444 2d50 d1b4 f1df add7 eada f9bc
000000d0: a6bd 3658 15cd d1e1 e326 d3e3 a3be 3722
000000e0: a7f7 1fd8 0fb0 d314 07e6 3c2f c413 3920
000000f0: deb1 b5d4 c6e0 a0a7 4443 3733 c206 f24b

sequential_5/quant_dense_16/MatMul;sequential_5/quant_dense_16/LastValueQuant/FakeQuantWithMinMaxVars i1 [50, 100] scale=0.0019574831 zero_point=0
-0.18791838 -0.06851191 0.18204594 -0.09004422 -0.14093879 -0.009787416 0.019574832 0.09787416
0.033277214 -0.12919389 0.10961905 -0.08417177 0.015659865 -0.18008845 -0.06655443 0.19183335
0.15268369 0.011744899 -0.054809526 0.20357825 0.1154915 0.13310885 -0.06263946 0.11940647
0.011744899 0.03131973 0.06459694 0.16834354 -0.09983164 0.107661575 0.17225851 0.13506633
0.058724493 -0.16051361 0.09200171 0.18204594 0.050894562 -0.14485376 0.16051361 -0.08221429
0.14681123 0.017617349 -0.12136395 -0.09983164 0.14681123 -0.03719218 0.080256805 -0.023489797
-0.080256805 -0.086129256 -0.11353402 0.0078299325 -0.023489797 0.070469394 0.03131973 0.13506633
0.24860036 -0.0058724494 0.19183335 0.04893708 -0.174216 0.08808674 0.19183335 0.12332144
0.111576535 -0.1624711 0.101789124 -0.1624711 -0.111576535 0.07829933 -0.1859609 0.16638607
0.17225851 0.12332144 -0.09004422 0.06459694 0.117448986 0.017617349 -0.13310885 0.07438436
0.101789124 -0.12527892 0.025447281 0.19379082 0.076341845 -0.14093879 -0.12527892 0.21532315
-0.03131973 -0.019574832 0.22511056 0.14289626 0.043064628 -0.0019574831 -0.04502211 0.17225851
-0.1507262 0.13702382 0.20553572 0.06851191 -0.070469394 0.04893708 -0.04893708 -0.12332144
-0.18008845 0.17225851 0.052852046 0.019574832 0.06655443 -0.0019574831 0.10570409 -0.20162076
-0.1507262 -0.013702381 0.05676701 -0.05676701 -0.1272364 0.20553572 -0.0058724494 -0.13702382
0.1272364 -0.18400341 0.13506633 0.09200171 0.17030104 -0.15464117 0.029362246 0.11940647
0.050894562 -0.10570409 -0.14876872 0.023489797 -0.09395919 -0.09004422 -0.046979595 0.04502211
-0.027404763 0.13702382 0.03719218 -0.15855613 -0.021532314 0.12919389 0.023489797 -0.17617348
-0.0078299325 0.041107144 0.05676701 -0.20749322 -0.035234697 -0.11940647 -0.05676701 0.101789124
-0.13506633 0.10961905 -0.041107144 -0.13702382 -0.04893708 -0.06459694 -0.101789124 0.12332144
0.101789124 -0.11940647 -0.15855613 0.06851191 0.1507262 0.09983164 -0.09200171 0.05676701
0.18791838 0.05676701 -0.019574832 0.060681976 0.12332144 0.09983164 0.0 -0.12332144
-0.041107144 -0.13115136 0.09787416 0.1859609 0.009787416 -0.06263946 -0.13506633 -0.107661575
0.0019574831 0.1389813 0.17813097 0.015659865 0.015659865 0.16442858 0.14485376 0.05676701
0.22902553 0.0019574831 -0.14289626 0.08221429 0.09983164 0.101789124 -0.03131973 0.230983
0.058724493 0.15268369 -0.19770579 0.11940647 0.041107144 0.14876872 -0.09395919 0.015659865
0.09591667 -0.09983164 -0.1389813 -0.06459694 0.12332144 0.13310885 -0.12919389 -0.060681976
0.1624711 -0.19574831 -0.058724493 0.09395919 0.03719218 0.025447281 0.1624711 0.14093879
-0.05676701 -0.035234697 0.060681976 -0.015659865 0.12136395 -0.060681976 0.060681976 0.03719218
-0.0078299325 -0.17813097 -0.09787416 -0.14485376 0.08221429 -0.06459694 0.16638607 -0.16638607
0.12527892 0.19379082 -0.12527892 -0.043064628 -0.10961905 0.009787416 0.033277214 0.0058724494
-0.101789124 0.07438436 0.17813097 0.1507262 0.09591667 0.08417177 -0.15659866 0.043064628
00000000: a0dd 5dd2 b8fb 0a32 11be 38d5 08a4 de62
00000010: 4e06 e468 3b44 e03d 0610 2156 cd37 5845
00000020: 1eae 2f5d 1ab6 52d6 4b09 c2cd 4bed 29f4
00000030: d7d4 c604 f424 1045 7ffd 6219 a72d 623f
00000040: 39ad 34ad c728 a155 583f d221 3c09 bc26
00000050: 34c0 0d63 27b8 c06e f0f6 7349 16ff e958
00000060: b346 6923 dc19 e7c1 a458 1b0a 22ff 3699
00000070: b3f9 1de3 bf69 fdba 41a2 452f 57b1 0f3d
00000080: 1aca b40c d0d2 e817 f246 13af f542 0ca6
00000090: fc15 1d96 eec3 e334 bb38 ebba e7df cc3f
000000a0: 34c3 af23 4d33 d11d 601d f61f 3f33 00c1
000000b0: ebbd 325f 05e0 bbc9 0147 5b08 0854 4a1d
000000c0: 7501 b72a 3334 f076 1e4e 9b3d 154c d008
000000d0: 31cd b9df 3f44 bee1 539c e230 130d 5348
000000e0: e3ee 1ff8 3ee1 1f13 fca5 ceb6 2adf 55ab
000000f0: 4063 c0ea c805 1103 cc26 5b4d 312b b016

sequential_5/quant_dense_17/MatMul;sequential_5/quant_dense_17/LastValueQuant/FakeQuantWithMinMaxVars i1 [10, 50] scale=0.0031887616 zero_point=0
-0.20408075 -0.12117294 -0.047831424 0.16900437 0.1498718 -0.051020186 -0.26785597 -0.1084179
0.03826514 0.26785597 0.1498718 -0.03826514 0.13073923 -0.30293235 0.29017732 0.23915713
0.009566285 -0.06058647 -0.05420895 -0.22640207 -0.06696399 -0.012755047 0.22002456 -0.26785597
0.27104473 0.14030552 0.17538188 0.08609656 -0.012755047 -0.022321332 -0.06696399 0.047831424
-0.063775234 0.15624931 -0.0829078 -0.31249863 0.15624931 -0.20089199 -0.031887617 0.18813694
0.11798418 -0.31568742 0.09247409 -0.14030552 0.15624931 0.15624931 0.028698854 -0.2327796
-0.2997436 -0.22321332 -0.28698856 0.35076377 -0.012755047 -0.31249863 -0.13711675 -0.13711675
-0.044642664 -0.17857066 -0.10522913 -0.10204037 0.10522913 -0.18175942 -0.10522913 -0.031887617
0.26785597 -0.28698856 0.2168358 0.25510094 -0.22321332 0.14668304 -0.031887617 -0.13392799
-0.17538188 0.2327796 0.2742335 0.1243617 -0.2837998 -0.21045826 0.2168358 -0.11160666
-0.17219312 0.07015276 -0.08928533 0.13711675 0.17219312 0.10522913 -0.08609656 0.01913257
-0.20408075 -0.16900437 -0.05739771 0.0414539 0.028698854 -0.27742225 -0.13711675 -0.025510093
0.12117294 -0.009566285 -0.13073923 -0.2997436 0.025510093 0.26147845 0.22321332 0.025510093
0.2582897 -0.015943808 -0.12755047 0.1913257 -0.3061211 0.23596837 0.022321332 -0.05420895
0.08609656 0.09566285 0.2327796 0.11160666 -0.13392799 0.06058647 -0.03826514 -0.25510094
0.19451445 -0.08609656 -0.09566285 0.051020186 0.19770323 0.18175942 0.27104473 0.025510093
-0.15943809 -0.26147845 -0.08609656 0.19451445 0.0414539 -0.2487234 0.22002456 0.06696399
0.08928533 0.05420895 0.09885161 -0.063775234 0.2327796 0.21045826 -0.2072695 -0.21364704
-0.16900437 0.015943808 -0.009566285 0.028698854 0.09885161 -0.17219312 -0.025510093 -0.07015276
-0.047831424 -0.28061104 0.06696399 0.11160666 -0.0829078 -0.2837998 0.1243617 -0.28698856
0.11798418 -0.1243617 -0.14349428 -0.05739771 0.051020186 -0.09566285 0.012755047 0.1243617
0.047831424 -0.17857066 -0.28698856 0.03826514 -0.2646672 0.063775234 0.08609656 -0.051020186
0.22959083 -0.044642664 -0.30930987 0.022321332 0.09885161 0.0063775233 -0.0829078 -0.03826514
0.16262685 0.27104473 0.18494818 0.2487234 0.18813694 0.27104473 0.012755047 0.17219312
-0.11798418 0.1084179 0.13073923 -0.20089199 -0.2582897 0.22959083 0.047831424 0.07653028
0.31568742 -0.031887617 -0.0414539 0.31249863 0.29336607 -0.22640207 -0.012755047 -0.18813694
0.17538188 0.14349428 0.05420895 -0.17219312 -0.1913257 -0.2582897 -0.15624931 0.051020186
0.25191218 -0.025510093 -0.10204037 -0.15624931 0.28061104 -0.2168358 -0.044642664 -0.2487234
0.06696399 -0.10522913 0.2072695 -0.10204037 0.17857066 -0.28061104 -0.16262685 -0.20089199
-0.06058647 0.14030552 -0.2072695 -0.22321332 0.26785597 0.09566285 0.2837998 0.2072695
-0.1498718 -0.11160666 0.19451445 0.14030552 -0.2997436 0.14030552 -0.14349428 0.26785597
-0.047831424 0.025510093 -0.2742335 -0.047831424 0.26147845 0.028698854 0.28698856 -0.15306056
00000000: c0da f135 2ff0 acde 0c54 2ff4 29a1 5b4b
00000010: 03ed efb9 ebfc 45ac 552c 371b fcf9 eb0f
00000020: ec31 e69e 31c1 f63b 259d 1dd4 3131 09b7
00000030: a2ba a66e fc9e d5d5 f2c8 dfe0 21c7 dff6
00000040: 54a6 4450 ba2e f6d6 c949 5627 a7be 44dd
00000050: ca16 e42b 3621 e506 c0cb ee0d 09a9 d5f8
00000060: 26fd d7a2 0852 4608 51fb d83c a04a 07ef
00000070: 1b1e 4923 d613 f4b0 3de5 e210 3e39 5508
00000080: ceae e53d 0db2 4515 1c11 1fec 4942 bfbd
00000090: cb05 fd09 1fca f8ea f1a8 1523 e6a7 27a6
000000a0: 25d9 d3ee 10e2 0427 0fc8 a60c ad14 1bf0
000000b0: 48f2 9f07 1f02 e6f4 3355 3a4e 3b55 0436
000000c0: db22 29c1 af48 0f18 63f6 f362 5cb9 fcc5
000000d0: 372d 11ca c4af cf10 4ff8 e0cf 58bc f2b2
000000e0: 15df 41e0 38a8 cdc1 ed2c bfba 541e 5941
000000f0: d1dd 3d2c a22c d354 f108 aaf1 5209 5ad0

sequential_5/quant_output/MatMul;sequential_5/quant_output/LastValueQuant/FakeQuantWithMinMaxVars i1 [1, 10] scale=0.004664199 zero_point=0
0.55037546 -0.20522475 0.20988895 0.5923533 0.14459017 0.28451613 -0.107276574 0.027985193
0.31250134 -0.3358223
00000000: 76d4 2d7f 1f3d e906 43b8
