models/opt-k2-160x60x3-T1.tflite (tflite, 212616 bytes, 9 tensors)

sequential/quant_conv2d/Conv2D;sequential/quant_conv2d/LastValueQuant/FakeQuantWithMinMaxVarsPerChannel i1 [24, 5, 5, 3]
27 -33 122 -107 -103 103 -60 -50
64 -66 114 107 31 -1 119 104
-112 -25 -83 36 -26 -34 -31 -7
80 50 -68 37 -74 -116 -17 19
-87 16 105 -92 73 122 101 -5
74 -98 58 -13 -53 -63 -42 -47
108 -127 14 -23 -123 94 127 112
-47 -48 25 -52 -34 -2 -22 93
-14 -6 -33 44 -93 -73 -42 -71
37 45 -46 5 -30 -4 -34 3
-127 102 83 74 -51 -14 -8 105
-46 -111 33 -27 -1 -54 65 -32
34 -74 53 -53 -56 59 -50 80
120 -117 -62 118 -92 -76 -63 -120
111 100 -34 -121 -81 -90 110 91
-60 27 -79 76 94 47 -103 108
92 5 92 -90 -4 -91 -71 123
25 -6 107 40 22 68 -98 -6
103 -98 -9 -115 -40 -22 -9 -42
80 91 24 57 -98 8 -74 110
-32 -112 -50 94 -106 -37 21 -98
1 -54 -89 82 102 -111 43 5
0 85 -91 7 26 -98 54 116
6 111 -109 71 1 -110 127 27
90 32 -75 103 23 84 121 77
16 -6 18 88 118 52 107 5
-71 -104 31 -16 17 73 -67 84
-13 -85 28 84 50 -72 24 -27
-40 -3 -116 -68 -7 1 81 -85
102 72 -65 -7 14 32 119 -27
-91 -27 61 68 26 48 84 14
-124 48 -116 71 -42 -48 115 83
00000000: 1bdf 7a95 9967 c4ce 40be 726b 1fff 7768
00000010: 90e7 ad24 e6de e1f9 5032 bc25 b68c ef13
00000020: a910 69a4 497a 65fb 4a9e 3af3 cbc1 d6d1
00000030: 6c81 0ee9 855e 7f70 d1d0 19cc defe ea5d
00000040: f2fa df2c a3b7 d6b9 252d d205 e2fc de03
00000050: 8166 534a cdf2 f869 d291 21e5 ffca 41e0
00000060: 22b6 35cb c83b ce50 788b c276 a4b4 c188
00000070: 6f64 de87 afa6 6e5b c41b b14c 5e2f 996c
00000080: 5c05 5ca6 fca5 b97b 19fa 6b28 1644 9efa
00000090: 679e f78d d8ea f7d6 505b 1839 9e08 b66e
000000a0: e090 ce5e 96db 159e 01ca a752 6691 2b05
000000b0: 0055 a507 1a9e 3674 066f 9347 0192 7f1b
000000c0: 5a20 b567 1754 794d 10fa 1258 7634 6b05
000000d0: b998 1ff0 1149 bd54 f3ab 1c54 32b8 18e5
000000e0: d8fd 8cbc f901 51ab 6648 bff9 0e20 77e5
000000f0: a5e5 3d44 1a30 540e 8430 8c47 d6d0 7353

sequential/quant_conv2d_1/Conv2D;sequential/quant_conv2d_1/LastValueQuant/FakeQuantWithMinMaxVarsPerChannel i1 [36, 5, 5, 24]
41 -47 -66 -75 39 -43 -7 -71
83 -76 62 16 31 -63 -8 15
28 -67 -10 -36 -45 10 75 68
-26 -17 63 -8 -57 33 54 38
-72 -12 -47 -20 32 -31 13 83
26 -34 37 19 54 -10 -14 67
-51 -27 57 -74 80 -17 82 3
-53 -32 61 -11 -66 -38 -71 -8
53 57 30 -36 60 25 -40 -34
-36 12 1 -21 -8 -69 52 -62
-10 -24 60 -32 -43 -85 77 -8
-57 -10 -58 62 56 -29 -60 -27
23 -73 21 -47 -41 -84 -59 42
-80 13 4 39 10 47 -50 -12
21 -21 -53 -74 -15 70 -82 69
71 55 45 -45 12 59 49 57
20 53 -18 -85 -32 44 50 65
-34 -25 49 21 31 24 -62 -71
69 -70 48 49 9 72 64 -31
46 -9 83 -13 -76 -16 80 -20
-50 -8 -67 -76 0 81 -88 51
19 65 -14 -3 73 -56 24 -62
70 -6 68 -26 8 -23 22 -45
-68 68 -35 27 32 -41 67 84
-15 35 37 -31 -73 19 -35 -13
35 49 92 21 -5 -77 -32 6
29 -56 26 -17 -67 -66 27 38
-68 -61 -42 76 -3 78 72 -45
-84 78 30 6 43 -35 -46 42
-69 58 -13 -27 47 57 -63 -22
-44 63 19 39 32 -8 -58 -41
-21 86 -11 43 -6 71 59 81
00000000: 29d1 beb5 27d5 f9b9 53b4 3e10 1fc1 f80f
00000010: 1cbd f6dc d30a 4b44 e6ef 3ff8 c721 3626
00000020: b8f4 d1ec 20e1 0d53 1ade 2513 36f6 f243
00000030: cde5 39b6 50ef 5203 cbe0 3df5 beda b9f8
00000040: 3539 1edc 3c19 d8de dc0c 01eb f8bb 34c2
00000050: f6e8 3ce0 d5ab 4df8 c7f6 c63e 38e3 c4e5
00000060: 17b7 15d1 d7ac c52a b00d 0427 0a2f cef4
00000070: 15eb cbb6 f146 ae45 4737 2dd3 0c3b 3139
00000080: 1435 eeab e02c 3241 dee7 3115 1f18 c2b9
00000090: 45ba 3031 0948 40e1 2ef7 53f3 b4f0 50ec
000000a0: cef8 bdb4 0051 a833 1341 f2fd 49c8 18c2
000000b0: 46fa 44e6 08e9 16d3 bc44 dd1b 20d7 4354
000000c0: f123 25e1 b713 ddf3 2331 5c15 fbb3 e006
000000d0: 1dc8 1aef bdbe 1b26 bcc3 d64c fd4e 48d3
000000e0: ac4e 1e06 2bdd d22a bb3a f3e5 2f39 c1ea
000000f0: d43f 1327 20f8 c6d7 eb56 f52b fa47 3b51

sequential/quant_conv2d_2/Conv2D;sequential/quant_conv2d_2/LastValueQuant/FakeQuantWithMinMaxVarsPerChannel i1 [48, 3, 3, 36]
-96 25 -8 -61 -44 9 -81 -55
21 41 -36 82 -12 54 35 -5
1 -24 65 -85 106 2 23 -119
-86 15 14 101 -10 1 -43 -104
-72 16 -25 -31 32 28 -100 -10
85 87 -20 -47 24 51 80 8
105 101 -110 -31 71 -91 -49 -77
-23 54 96 23 -101 -52 40 12
-82 -84 -105 -23 27 -35 -34 -31
50 41 -3 2 22 83 4 100
-43 39 -48 76 109 90 -16 -13
1 -45 49 26 -97 -14 -98 59
90 60 79 44 71 -27 -93 -40
75 0 47 -77 32 4 -13 57
-90 -55 -34 -7 113 25 -24 49
-79 -103 51 101 83 47 -79 -88
-90 -127 10 43 -37 62 31 71
13 37 64 76 14 -14 15 80
-62 -16 65 28 2 19 -9 102
73 102 74 -108 -56 -80 54 0
120 -46 -47 69 -21 -68 -85 3
43 -42 29 32 95 -20 33 -60
7 1 49 1 -74 -97 107 14
2 -111 -71 92 72 73 17 -112
-83 21 22 -50 -50 -67 -2 80
74 4 -37 16 -22 -82 71 19
25 72 51 -104 -102 75 69 -40
-14 -115 -57 48 100 -57 29 -16
-6 -28 27 -92 -23 1 -53 -96
-31 59 68 -66 8 -79 96 60
-66 80 86 62 63 -10 -88 -84
72 -66 74 100 63 -78 13 16
00000000: a019 f8c3 d409 afc9 1529 dc52 f436 23fb
00000010: 01e8 41ab 6a02 1789 aa0f 0e65 f601 d598
00000020: b810 e7e1 201c 9cf6 5557 ecd1 1833 5008
00000030: 6965 92e1 47a5 cfb3 e936 6017 9bcc 280c
00000040: aeac 97e9 1bdd dee1 3229 fd02 1653 0464
00000050: d527 d04c 6d5a f0f3 01d3 311a 9ff2 9e3b
00000060: 5a3c 4f2c 47e5 a3d8 4b00 2fb3 2004 f339
00000070: a6c9 def9 7119 e831 b199 3365 532f b1a8
00000080: a681 0a2b db3e 1f47 0d25 404c 0ef2 0f50
00000090: c2f0 411c 0213 f766 4966 4a94 c8b0 3600
000000a0: 78d2 d145 ebbc ab03 2bd6 1d20 5fec 21c4
000000b0: 0701 3101 b69f 6b0e 0291 b95c 4849 1190
000000c0: ad15 16ce cebd fe50 4a04 db10 eaae 4713
000000d0: 1948 3398 9a4b 45d8 f28d c730 64c7 1df0
000000e0: fae4 1ba4 e901 cba0 e13b 44be 08b1 603c
000000f0: be50 563e 3ff6 a8ac 48be 4a64 3fb2 0d10

sequential/quant_conv2d_3/Conv2D;sequential/quant_conv2d_3/LastValueQuant/FakeQuantWithMinMaxVarsPerChannel i1 [64, 3, 3, 48]
22 99 7 22 -14 -112 -47 -54
22 -7 -71 -103 101 -95 -85 49
-67 33 -38 -21 30 -47 81 -112
-30 -5 31 30 -106 98 -93 115
74 99 -117 -77 -10 -16 -30 -74
-119 92 -82 -19 -46 -77 -55 30
52 105 -110 -101 -1 -96 115 13
52 36 -78 85 -15 41 -20 84
-54 -62 68 99 111 -27 26 92
-122 -63 95 109 -29 108 -72 -79
89 67 -21 -71 -42 108 7 27
-52 36 22 -24 32 106 -96 107
-17 -43 -26 -28 -104 -110 46 34
-31 34 86 -114 36 101 -24 60
45 58 112 -64 38 -52 -113 -32
-118 80 -110 1 -80 106 24 5
112 45 -24 -57 -35 69 -51 -4
105 16 -29 -26 32 95 109 -4
-84 8 79 -75 -84 -72 -106 77
0 12 25 -84 79 -105 -36 60
18 35 -71 -43 -102 94 62 -18
-94 -56 109 -21 34 -15 -76 42
-51 -88 62 -61 -21 21 -101 11
-107 -81 -57 -9 89 -54 31 -39
-28 21 -6 98 -67 -37 -75 102
70 9 -2 31 -60 -98 64 66
-25 78 -85 -46 104 92 -111 -22
52 3 -95 -114 23 7 18 -38
20 34 -19 -91 -111 -35 -88 63
7 51 41 24 -30 -50 86 -91
-34 -21 -66 -39 -26 46 107 -87
5 19 19 33 -53 25 -109 -59
00000000: 1663 0716 f290 d1ca 16f9 b999 65a1 ab31
00000010: bd21 daeb 1ed1 5190 e2fb 1f1e 9662 a373
00000020: 4a63 8bb3 f6f0 e2b6 895c aeed d2b3 c91e
00000030: 3469 929b ffa0 730d 3424 b255 f129 ec54
00000040: cac2 4463 6fe5 1a5c 86c1 5f6d e36c b8b1
00000050: 5943 ebb9 d66c 071b cc24 16e8 206a a06b
00000060: efd5 e6e4 9892 2e22 e122 568e 2465 e83c
00000070: 2d3a 70c0 26cc 8fe0 8a50 9201 b06a 1805
00000080: 702d e8c7 dd45 cdfc 6910 e3e6 205f 6dfc
00000090: ac08 4fb5 acb8 964d 000c 19ac 4f97 dc3c
000000a0: 1223 b9d5 9a5e 3eee a2c8 6deb 22f1 b42a
000000b0: cda8 3ec3 eb15 9b0b 95af c7f7 59ca 1fd9
000000c0: e415 fa62 bddb b566 4609 fe1f c49e 4042
000000d0: e74e abd2 685c 91ea 3403 a18e 1707 12da
000000e0: 1422 eda5 91dd a83f 0733 2918 e2ce 56a5
000000f0: deeb bed9 e62e 6ba9 0513 1321 cb19 93c5

sequential/quant_conv2d_4/Conv2D;sequential/quant_conv2d_4/LastValueQuant/FakeQuantWithMinMaxVarsPerChannel i1 [64, 3, 3, 64]
-103 -103 68 41 44 -80 54 78
63 40 -62 -40 17 89 68 43
58 99 59 53 -4 -79 -80 -88
23 80 -43 -98 22 -10 121 -94
89 -94 -8 -74 -80 10 -84 7
21 -10 -10 -87 -70 59 -74 -69
28 -5 -49 -115 5 -67 -36 -76
51 -5 114 79 28 111 -76 14
6 -52 0 -80 -109 54 -79 107
-49 -91 78 -47 47 -95 109 -20
58 -38 19 -4 53 -108 120 67
78 95 -25 61 20 -28 55 100
87 87 30 37 0 107 -46 41
-52 -49 97 2 -86 -87 12 33
-13 -20 91 -66 -97 -27 -123 -39
-96 19 44 62 45 96 83 34
72 43 83 -25 -79 67 98 -118
-31 108 -56 -100 28 18 57 -52
-22 49 -97 -106 -40 24 -52 25
-120 -40 28 19 71 57 51 -40
101 63 -36 -9 -57 32 -74 -34
-43 74 99 115 -95 -91 -94 -79
4 -100 -91 104 -87 28 26 -52
-80 -54 87 25 31 -67 101 96
29 -94 -21 -62 15 10 22 -85
16 109 77 -115 115 90 -27 70
-99 50 -88 -102 36 -73 -16 -85
-6 36 -42 -22 39 4 -14 -113
69 56 41 -49 98 -113 26 69
-50 89 6 16 95 -29 51 -95
-48 -22 117 19 37 5 -66 35
-23 103 32 -29 -6 -108 58 96
00000000: 9999 4429 2cb0 364e 3f28 c2d8 1159 442b
00000010: 3a63 3b35 fcb1 b0a8 1750 d59e 16f6 79a2
00000020: 59a2 f8b6 b00a ac07 15f6 f6a9 ba3b b6bb
00000030: 1cfb cf8d 05bd dcb4 33fb 724f 1c6f b40e
00000040: 06cc 00b0 9336 b16b cfa5 4ed1 2fa1 6dec
00000050: 3ada 13fc 3594 7843 4e5f e73d 14e4 3764
00000060: 5757 1e25 006b d229 cccf 6102 aaa9 0c21
00000070: f3ec 5bbe 9fe5 85d9 a013 2c3e 2d60 5322
00000080: 482b 53e7 b143 628a e16c c89c 1c12 39cc
00000090: ea31 9f96 d818 cc19 88d8 1c13 4739 33d8
000000a0: 653f dcf7 c720 b6de d54a 6373 a1a5 a2b1
000000b0: 049c a568 a91c 1acc b0ca 5719 1fbd 6560
000000c0: 1da2 ebc2 0f0a 16ab 106d 4d8d 735a e546
000000d0: 9d32 a89a 24b7 f0ab fa24 d6ea 2704 f28f
000000e0: 4538 29cf 628f 1a45 ce59 0610 5fe3 33a1
000000f0: d0ea 7513 2505 be23 e967 20e3 fa94 3a60

sequential/quant_dense/MatMul;sequential/quant_dense/LastValueQuant/FakeQuantWithMinMaxVars i1 [100, 896] scale=0.0008976872 zero_point=0
-0.061940417 -0.034112114 -0.047577422 0.04578205 0.012567621 -0.0017953744 -0.060145043 -0.06822423
0.0350098 -0.008079185 -0.0026930617 -0.013465309 0.076303415 0.017056057 -0.06463348 0.052963547
0.0350098 0.0017953744 -0.0071814978 0.024237555 -0.056554295 -0.066428855 0.024237555 -0.0421913
0.012567621 0.0071814978 0.0700196 0.040395927 0.024237555 0.06283811 -0.030521365 -0.033214428
-0.06104273 -0.0071814978 0.008976872 0.023339868 -0.049372796 0.008976872 0.021544494 -0.023339868
0.0017953744 0.017953744 0.011669934 -0.0700196 0.0017953744 0.020646807 -0.010772247 -0.024237555
-0.04488436 -0.039498236 -0.052963547 0.021544494 0.06104273 -0.026930617 -0.056554295 -0.02244218
0.012567621 0.047577422 -0.03231674 -0.07271267 -0.07181498 -0.08168954 0.02244218 -0.039498236
-0.05116817 0.041293614 -0.06822423 0.07989416 -0.009874559 0.0350098 -0.06912192 -0.047577422
0.0026930617 -0.017056057 -0.06912192 -0.066428855 0.009874559 -0.06373579 -0.034112114 -0.066428855
0.08079185 0.017056057 0.07181498 -0.009874559 -0.04488436 0.04578205 -0.0017953744 0.037702862
-0.06822423 -0.043986674 -0.034112114 0.046679735 -0.011669934 -0.012567621 -0.053861234 0.041293614
0.043986674 0.043088987 0.0 0.030521365 0.050270483 -0.01615837 0.025135241 -0.012567621
-0.037702862 0.024237555 0.052963547 -0.057451982 -0.03590749 -0.02244218 -0.034112114 0.04488436
0.0143629955 -0.060145043 -0.04578205 0.027828304 0.07809879 0.05834967 0.039498236 -0.041293614
-0.05475892 0.059247356 0.07450804 -0.037702862 -0.076303415 -0.043088987 -0.028725991 0.023339868
0.075405724 0.056554295 0.07361035 -0.065531164 -0.013465309 0.0421913 0.0421913 -0.030521365
-0.0062838104 0.07361035 -0.013465309 0.012567621 0.008079185 0.026930617 -0.018851431 -0.030521365
0.05475892 0.02244218 -0.008079185 -0.012567621 -0.020646807 0.06822423 0.060145043 0.06912192
0.0017953744 0.018851431 0.03860055 -0.009874559 -0.050270483 0.004488436 0.06912192 0.01615837
-0.0053861234 0.004488436 -0.023339868 0.0772011 0.036805175 -0.043088987 -0.027828304 0.031419054
0.06732654 0.059247356 -0.06104273 -0.043986674 -0.07450804 0.04847511 -0.008976872 -0.031419054
0.0053861234 -0.053861234 -0.037702862 0.0008976872 0.05834967 0.050270483 -0.047577422 0.019749118
-0.027828304 0.06373579 0.025135241 0.0421913 -0.075405724 0.041293614 0.039498236 -0.056554295
-0.018851431 -0.056554295 -0.027828304 0.018851431 -0.0772011 -0.04578205 0.0062838104 0.05116817
0.02244218 -0.0062838104 -0.057451982 0.05834967 0.06822423 -0.050270483 0.06822423 -0.033214428
-0.0053861234 0.047577422 0.0071814978 0.0143629955 0.06822423 0.06283811 0.018851431 -0.027828304
0.023339868 -0.03590749 -0.018851431 0.037702862 -0.0071814978 0.047577422 0.0421913 -0.047577422
0.06283811 0.06463348 0.060145043 0.019749118 -0.0053861234 0.034112114 0.06283811 -0.076303415
0.05475892 0.065531164 -0.05475892 0.0700196 -0.05565661 -0.047577422 -0.06822423 -0.024237555
0.05565661 0.06732654 -0.05475892 0.012567621 -0.015260682 0.041293614 0.07450804 0.018851431
-0.025135241 0.05206586 -0.017056057 -0.07450804 0.0026930617 -0.008079185 -0.0017953744 -0.06283811
00000000: bbda cb33 0efe bdb4 27f7 fdf1 5513 b83b
00000010: 2702 f81b c1b6 1bd1 0e08 4e2d 1b46 dedb
00000020: bcf8 0a1a c90a 18e6 0214 0db2 0217 f4e5
00000030: ced4 c518 44e2 c1e7 0e35 dcaf b0a5 19d4
00000040: c72e b459 f527 b3cb 03ed b3b6 0bb9 dab6
00000050: 5a13 50f5 ce33 fe2a b4cf da34 f3f2 c42e
00000060: 3130 0022 38ee 1cf2 d61b 3bc0 d8e7 da32
00000070: 10bd cd1f 5741 2cd2 c342 53d6 abd0 e01a
00000080: 543f 52b7 f12f 2fde f952 f10e 091e ebde
00000090: 3d19 f7f2 e94c 434d 0215 2bf5 c805 4d12
000000a0: fa05 e656 29d0 e123 4b42 bccf ad36 f6dd
000000b0: 06c4 d601 4138 cb16 e147 1c2f ac2e 2cc1
000000c0: ebc1 e115 aacd 0739 19f9 c041 4cc8 4cdb
000000d0: fa35 0810 4c46 15e1 1ad8 eb2a f835 2fcb
000000e0: 4648 4316 fa26 46ab 3d49 c34e c2cb b4e5
000000f0: 3e4b c30e ef2e 5315 e43a edad 03f7 feba

sequential/quant_dense_1/MatMul;sequential/quant_dense_1/LastValueQuant/FakeQuantWithMinMaxVars i1 [50, 100] scale=0.0017162886 zero_point=0
-0.09611216 0.07208412 -0.08238185 0.017162886 -0.008581443 0.07723299 0.16647999 0.0
0.1973732 -0.04633979 0.16304742 -0.13215423 0.17162886 -0.20080577 0.02402804 -0.07208412
-0.09954474 0.17677774 0.1819266 0.17162886 -0.15618226 0.14416824 -0.11499134 0.0755167
0.07380041 0.042907216 0.18364288 -0.13901938 -0.16991258 0.02402804 0.13043794 -0.18879175
-0.0068651545 0.15618226 0.066935256 0.020595463 0.17162886 0.1819266 -0.1802103 -0.015446598
-0.16991258 0.01201402 0.12700535 0.14073567 0.10469361 0.13043794 -0.015446598 -0.18707547
0.02574433 -0.17506143 0.14931712 -0.008581443 -0.18879175 0.03432577 0.042907216 -0.044623505
0.056637526 0.16991258 -0.020595463 -0.041190926 -0.04805608 -0.054921236 0.10640989 0.03432577
0.13387051 -0.0755167 -0.19222432 0.10469361 0.080665566 0.16819629 0.17334515 0.02574433
0.0034325772 0.1802103 0.15961485 0.06350268 0.08753072 -0.12700535 -0.108126186 -0.094395876
0.14245196 0.056637526 -0.15274969 0.13215423 -0.13901938 -0.13901938 -0.02574433 0.054921236
0.06350268 -0.10126103 -0.11327505 0.080665566 -0.18879175 -0.13730308 -0.13043794 0.15618226
-0.03775835 0.0 0.18364288 -0.06350268 0.14931712 0.10469361 -0.066935256 0.17162886
-0.0068651545 0.15789856 0.18364288 0.0755167 0.11670762 -0.11842392 0.13387051 -0.029176906
0.12700535 0.017162886 0.06865154 -0.053204946 -0.022311753 0.05148866 0.09954474 -0.0051488657
-0.084098145 -0.18364288 0.1510334 0.16133113 0.080665566 0.108126186 0.030893195 0.070367835
0.03775835 0.16991258 0.17677774 0.1355868 0.02574433 0.14760081 0.06865154 0.01201402
0.18707547 0.17162886 -0.121856496 0.032609485 0.032609485 -0.042907216 0.16304742 -0.14588453
0.05835381 -0.11670762 -0.070367835 -0.12700535 0.03604206 -0.08924701 0.11155876 -0.17506143
-0.1201402 0.06350268 0.13730308 0.1973732 0.07380041 0.017162886 -0.080665566 -0.03947464
-0.15618226 0.0102977315 0.09954474 0.10297732 0.17849402 0.018879175 -0.056637526 -0.07723299
0.18707547 0.08581443 0.16819629 0.11842392 -0.02402804 -0.09611216 0.027460618 -0.054921236
0.19394061 -0.0017162886 -0.044623505 -0.07894928 0.054921236 0.09954474 0.0755167 0.094395876
0.03432577 0.04633979 0.054921236 0.14073567 -0.044623505 -0.12700535 -0.084098145 0.14416824
-0.06521897 -0.094395876 -0.13215423 -0.121856496 -0.094395876 0.10640989 0.029176906 -0.16991258
-0.06178639 0.053204946 -0.066935256 -0.15446597 -0.14931712 0.13901938 -0.17677774 -0.07208412
-0.08238185 0.08753072 0.1647637 0.18364288 -0.06350268 -0.10984247 -0.0600701 -0.1802103
-0.11670762 0.06178639 0.10640989 0.08753072 -0.17677774 0.020595463 -0.18707547 -0.18364288
-0.1355868 0.08753072 0.07723299 0.03947464 0.0034325772 0.0600701 0.10640989 0.09611216
0.19908948 0.15446597 -0.14760081 0.08238185 -0.09954474 -0.10640989 0.13901938 0.18707547
-0.17162886 -0.18879175 0.07380041 0.121856496 0.094395876 -0.07380041 -0.18879175 0.018879175
-0.16819629 -0.12357278 0.10126103 0.04805608 0.18364288 0.029176906 -0.12872164 -0.08238185
00000000: c82a d00a fb2d 6100 73e5 5fb3 648b 0ed6
00000010: c667 6a64 a554 bd2c 2b19 6baf 9d0e 4c92
00000020: fc5b 270c 646a 97f7 9d07 4a52 3d4c f793
00000030: 0f9a 57fb 9214 19e6 2163 f4e8 e4e0 3e14
00000040: 4ed4 903d 2f62 650f 0269 5d25 33b6 c1c9
00000050: 5321 a74d afaf f120 25c5 be2f 92b0 b45b
00000060: ea00 6bdb 573d d964 fc5c 6b2c 44bb 4eef
00000070: 4a0a 28e1 f31e 3afd cf95 585e 2f3f 1229
00000080: 1663 674f 0f56 2807 6d64 b913 13e7 5fab
00000090: 22bc d7b6 15cc 419a ba25 5073 2b0a d1e9
000000a0: a506 3a3c 680b dfd3 6d32 6245 f2c8 10e0
000000b0: 71ff e6d2 203a 2c37 141b 2052 e6b6 cf54
000000c0: dac9 b3b9 c93e 119d dc1f d9a6 a951 99d6
000000d0: d033 606b dbc0 dd97 bc24 3e33 990c 9395
000000e0: b133 2d17 0223 3e38 745a aa30 c6c2 516d
000000f0: 9c92 2b47 37d5 920b 9eb8 3b1c 6b11 b5d0

sequential/quant_dense_2/MatMul;sequential/quant_dense_2/LastValueQuant/FakeQuantWithMinMaxVars i1 [10, 50] scale=0.0028042668 zero_point=0
-0.072910935 -0.0588896 -0.05328107 0.067302406 0.23836267 0.19629867 0.0925408 0.064498134
-0.084128 0.22994988 -0.3196864 0.05328107 0.27201387 0.15703894 -0.16545174 -0.20471147
0.11497494 -0.21032001 0.1430176 0.2187328 0.011217067 0.30005655 0.24116693 0.2860352
-0.0028042668 -0.14582187 0.1850816 -0.30005655 0.20751575 0.26920962 0.23275414 -0.13180053
0.19910294 0.033651203 0.3028608 0.11217067 0.044868268 -0.12899627 0.24957974 -0.18788587
0.27201387 -0.067302406 -0.21312428 0.033651203 -0.24957974 0.17386454 0.21032001 0.30005655
-0.24116693 0.24677548 0.039259735 -0.30846936 0.16545174 -0.22153707 0.19069014 -0.0056085335
-0.011217067 0.0 0.20751575 -0.17947307 0.0757152 0.23836267 -0.21032001 -0.17666881
0.22994988 0.2019072 0.022434134 0.19910294 -0.25799254 -0.030846935 0.2551883 -0.14862613
0.17106028 0.14582187 -0.24116693 -0.20471147 -0.064498134 -0.31688213 0.008412801 0.0588896
-0.030846935 0.036455467 -0.030846935 -0.30846936 0.168256 -0.1514304 -0.081323735 0.22434133
-0.044868268 -0.09814934 -0.008412801 -0.0056085335 -0.11497494 0.1850816 0.039259735 -0.019629868
-0.3112736 0.16264747 0.2019072 -0.1093664 0.14021334 0.12058347 -0.1598432 0.09534507
-0.22994988 0.22994988 0.0757152 -0.1430176 -0.30005655 -0.067302406 -0.0504768 0.0588896
0.168256 0.2355584 0.06169387 0.21032001 0.1093664 0.11217067 -0.1009536 -0.1009536
-0.072910935 -0.21312428 0.17947307 0.0 -0.1009536 -0.18227734 0.13740908 0.15703894
-0.07010667 0.0504768 0.0588896 0.31688213 0.014021333 -0.27481815 -0.27201387 -0.12338774
-0.008412801 0.24677548 -0.17666881 0.14021334 -0.3112736 0.22994988 0.0588896 -0.22434133
0.016825601 -0.047672536 -0.28323093 0.044868268 -0.067302406 0.064498134 0.26360106 0.26079682
0.008412801 0.22434133 0.22714561 0.24116693 0.15703894 0.29164374 -0.019629868 -0.18227734
0.2355584 -0.0757152 -0.2888395 -0.30566508 0.20471147 0.24677548 0.19910294 -0.27481815
0.2860352 0.1430176 -0.033651203 -0.08693227 -0.14582187 -0.14021334 -0.30846936 0.24116693
-0.27481815 -0.28042668 -0.12058347 -0.22714561 0.07851947 -0.13460481 -0.011217067 -0.008412801
-0.033651203 -0.14582187 -0.022434134 -0.30005655 -0.11217067 -0.06169387 -0.07010667 -0.072910935
0.26920962 0.11497494 -0.0504768 0.28323093 0.047672536 -0.0028042668 -0.084128 -0.07851947
0.0925408 -0.26920962 -0.21312428 0.11497494 -0.016825601 -0.13460481 -0.072910935 0.22153707
-0.1850816 0.05328107 -0.26360106 -0.011217067 -0.1009536 0.15423468 -0.0056085335 0.23836267
0.26640534 -0.24397121 -0.019629868 -0.1850816 0.1430176 0.1850816 -0.17386454 0.35614187
0.336512 0.047672536 -0.036455467 0.13460481 -0.31407788 0.17106028 -0.028042667 0.24397121
-0.17106028 0.084128 -0.17947307 0.016825601 -0.1177792 0.12899627 0.29164374 -0.2355584
-0.21312428 0.2019072 0.09814934 0.047672536 0.19069014 0.3028608 -0.14021334 -0.1850816
0.17947307 -0.044868268 -0.14582187 0.09534507 -0.0757152 -0.13740908 0.1093664 0.18227734
00000000: e6eb ed18 5546 2117 e252 8e13 6138 c5b7
00000010: 29b5 334e 046b 5666 ffcc 4295 4a60 53d1
00000020: 470c 6c28 10d2 59bd 61e8 b40c a73e 4b6b
00000030: aa58 0e92 3bb1 44fe fc00 4ac0 1b55 b5c1
00000040: 5248 0847 a4f5 5bcb 3d34 aab7 e98f 0315
00000050: f50d f592 3cca e350 f0dd fdfe d742 0ef9
00000060: 913a 48d9 322b c722 ae52 1bcd 95e8 ee15
00000070: 3c54 164b 2728 dcdc e6b4 4000 dcbf 3138
00000080: e712 1571 059e 9fd4 fd58 c132 9152 15b0
00000090: 06ef 9b10 e817 5e5d 0350 5156 3868 f9bf
000000a0: 54e5 9993 4958 479e 6633 f4e1 ccce 9256
000000b0: 9e9c d5af 1cd0 fcfd f4cc f895 d8ea e7e6
000000c0: 6029 ee65 11ff e2e4 21a0 b429 fad0 e64f
000000d0: be13 a2fc dc37 fe55 5fa9 f9be 3342 c27f
000000e0: 7811 f330 903d f657 c31e c006 d62e 68ac
000000f0: b448 2311 446c cebe 40f0 cc22 e5cf 2741

sequential/quant_output/MatMul;sequential/quant_output/LastValueQuant/FakeQuantWithMinMaxVars i1 [1, 10] scale=0.0055065253 zero_point=0
0.31387195 0.6883157 0.57818514 0.44052202 -0.14867619 -0.24779364 -0.66078305 0.5231199
0.12114356 0.6993287
00000000: 397d 6950 e5d3 885f 167f
