models/opt-k2-160x120x3-T1.tflite (tflite, 266768 bytes, 9 tensors)

sequential_5/quant_conv2d_25/Conv2D;sequential_5/quant_conv2d_25/LastValueQuant/FakeQuantWithMinMaxVarsPerChannel i1 [24, 5, 5, 3]
00000000: 3c10 1df0 daa4 4690 04f9 c1dc 2848 2251
00000010: c3bb 2af6 6134 8f42 39bb 0371 4545 66b7
00000020: 0ae2 ac05 c3a2 2522 0841 33d0 533c 5545
00000030: 2613 04a4 4c18 a2e5 1c42 35ee 241c 590a
00000040: 813f 13c3 5a65 9a30 495a be66 15f6 4926
00000050: c54d 3ccc ea45 1c7d 1981 6940 d94c ece9
00000060: 0a22 05aa a110 e56b 4a94 4d05 264b cb5c
00000070: 4eff ea8d 922b 91f7 133e feed 4faa 3fcc
00000080: da42 88a2 353c dd35 5812 e9b8 2940 5aae
00000090: ad20 d2e3 3fe7 9314 2eeb d39a 1cac 18c1
000000a0: 0275 0350 d2e4 1300 99f6 44d5 1b48 70fe
000000b0: bd1d daa9 8e1d d6d1 8596 a15f dfc1 215f
000000c0: db9a 378d e432 0acf 4365 b59b 2a20 1b2f
000000d0: 5148 f895 1c40 6003 8910 7f9d 166e e4d7
000000e0: 60b0 92cd a530 2c0b 8495 a595 bcf2 c924
000000f0: beee 7af6 10fd 54f3 074c 62cb 48a0 b2c6
60 16 29 -16 -38 -92 70 -112
4 -7 -63 -36 40 72 34 81
-61 -69 42 -10 97 52 -113 66
57 -69 3 113 69 69 102 -73
10 -30 -84 5 -61 -94 37 34
8 65 51 -48 83 60 85 69
38 19 4 -92 76 24 -94 -27
28 66 53 -18 36 28 89 10
-127 63 19 -61 90 101 -102 48
73 90 -66 102 21 -10 73 38
-59 77 60 -52 -22 69 28 125
25 -127 105 64 -39 76 -20 -23
10 34 5 -86 -95 16 -27 107
74 -108 77 5 38 75 -53 92
78 -1 -22 -115 -110 43 -111 -9
19 62 -2 -19 79 -86 63 -52
-38 66 -120 -94 53 60 -35 53
88 18 -23 -72 41 64 90 -82
-83 32 -46 -29 63 -25 -109 20
46 -21 -45 -102 28 -84 24 -63
2 117 3 80 -46 -28 19 0
-103 -10 68 -43 27 72 112 -2
-67 29 -38 -87 -114 29 -42 -47
-123 -106 -95 95 -33 -63 33 95
-37 -102 55 -115 -28 50 10 -49
67 101 -75 -101 42 32 27 47
81 72 -8 -107 28 64 96 3
-119 16 127 -99 22 110 -28 -41
96 -80 -110 -51 -91 48 44 11
-124 -107 -91 -107 -68 -14 -55 36
-66 -18 122 -10 16 -3 84 -13
7 76 98 -53 72 -96 -78 -58

sequential_5/quant_conv2d_26/Conv2D;sequential_5/quant_conv2d_26/LastValueQuant/FakeQuantWithMinMaxVarsPerChannel i1 [36, 5, 5, 24]
00000000: ac55 1cd2 5e42 4aec 0e2b 14c4 0d40 f69c
00000010: e127 e71c 683c d23a 3727 d1cc e909 41fb
00000020: c155 932b 07d9 b228 9f49 1845 ff32 676e
00000030: e5ad b3c8 4d57 a324 937c bcf8 05d9 485a
00000040: 17c0 12e4 0229 7beb 59b4 946c 47fa dd19
00000050: c623 00fd 1ffa e964 c052 3604 b8c9 cb2d
00000060: dc18 eda7 ce0f b40b 4f4c 1521 180b 55c1
00000070: 42d5 9633 9655 20d7 33f0 46f2 22d1 2420
00000080: fb2a 1a23 de34 b3a8 dcb4 59c3 3aa0 0109
00000090: 9e1d 058e 4af8 7224 e5d8 4eb1 529b b6fb
000000a0: 2704 04db 3e02 b24b b630 d992 1f4a d15d
000000b0: 89ed 9dab f6e6 e920 fe30 3e5e b008 dbd4
000000c0: 082d cff1 2a69 0b5b b960 dd22 d430 13f0
000000d0: 0a50 40b1 b6bc c800 303e f6a9 022a 03bd
000000e0: bb5d 113a 53fa 97c4 e2de 2e9d b2e2 b0bd
000000f0: cdb7 0043 d316 2c0c e23c 3004 eea3 bf1c
-84 85 28 -46 94 66 74 -20
14 43 20 -60 13 64 -10 -100
-31 39 -25 28 104 60 -46 58
55 39 -47 -52 -23 9 65 -5
-63 85 -109 43 7 -39 -78 40
-97 73 24 69 -1 50 103 110
-27 -83 -77 -56 77 87 -93 36
-109 124 -68 -8 5 -39 72 90
23 -64 18 -28 2 41 123 -21
89 -76 -108 108 71 -6 -35 25
-58 35 0 -3 31 -6 -23 100
-64 82 54 4 -72 -55 -53 45
-36 24 -19 -89 -50 15 -76 11
79 76 21 33 24 11 85 -63
66 -43 -106 51 -106 85 32 -41
51 -16 70 -14 34 -47 36 32
-5 42 26 35 -34 52 -77 -88
-36 -76 89 -61 58 -96 1 9
-98 29 5 -114 74 -8 114 36
-27 -40 78 -79 82 -101 -74 -5
39 4 4 -37 62 2 -78 75
-74 48 -39 -110 31 74 -47 93
-119 -19 -99 -85 -10 -26 -23 32
-2 48 62 94 -80 8 -37 -44
8 45 -49 -15 42 105 11 91
-71 96 -35 34 -44 48 19 -16
10 80 64 -79 -74 -68 -56 0
48 62 -10 -87 2 42 3 -67
-69 93 17 58 83 -6 -105 -60
-30 -34 46 -99 -78 -30 -80 -67
-51 -73 0 67 -45 22 44 12
-30 60 48 4 -18 -93 -65 28

sequential_5/quant_conv2d_27/Conv2D;sequential_5/quant_conv2d_27/LastValueQuant/FakeQuantWithMinMaxVarsPerChannel i1 [48, 5, 5, 36]
00000000: 555c 32e4 ba5e 3b40 53ad de30 43c8 26c6
00000010: 8dff f845 4c58 4497 c81f f411 9b9e 3bd4
00000020: 20e4 4eaf c03e d4ac 1547 ff18 c0df 00ae
00000030: 67e7 3162 a139 b862 31ec 695f 3b1f 1530
00000040: 9615 1630 48bc 9bf8 00a8 4841 f41b 5904
00000050: a2c6 993d 4947 db9a 0fa2 de3c e4a5 9912
00000060: 3ca0 1dd5 b2a5 bac8 cda5 29ad bede 41c1
00000070: 9fd1 ee0b 933c cbaa 90a0 3fb6 e5c7 ed35
00000080: 9424 9f49 9212 fc56 0d0e 59d6 c2fc 1a9e
00000090: 4adc 90e7 f91d 07cc b1eb a5c5 47c1 1ee3
000000a0: bf33 60fb dbd5 9d4e de26 c33e 495a aae4
000000b0: b10f c9bd 0cee b736 0016 e8f9 fd25 fa69
000000c0: 145d 1947 33d6 3103 bcda e3e9 42bb beb1
000000d0: 2d8b 1500 5c5b 16f1 c603 10c8 a7c1 0dbc
000000e0: 28e9 6194 daa3 6b66 d9ee 65e2 f427 189d
000000f0: 44e7 261c f1f9 4c34 0c62 0bf8 0129 44d9
85 92 50 -28 -70 94 59 64
83 -83 -34 48 67 -56 38 -58
-115 -1 -8 69 76 88 68 -105
-56 31 -12 17 -101 -98 59 -44
32 -28 78 -81 -64 62 -44 -84
21 71 -1 24 -64 -33 0 -82
103 -25 49 98 -95 57 -72 98
49 -20 105 95 59 31 21 48
-106 21 22 48 72 -68 -101 -8
0 -88 72 65 -12 27 89 4
-94 -58 -103 61 73 71 -37 -102
15 -94 -34 60 -28 -91 -103 18
60 -96 29 -43 -78 -91 -70 -56
-51 -91 41 -83 -66 -34 65 -63
-97 -47 -18 11 -109 60 -53 -86
-112 -96 63 -74 -27 -57 -19 53
-108 36 -97 73 -110 18 -4 86
13 14 89 -42 -62 -4 26 -98
74 -36 -112 -25 -7 29 7 -52
-79 -21 -91 -59 71 -63 30 -29
-65 51 96 -5 -37 -43 -99 78
-34 38 -61 62 73 90 -86 -28
-79 15 -55 -67 12 -18 -73 54
0 22 -24 -7 -3 37 -6 105
20 93 25 71 51 -42 49 3
-68 -38 -29 -23 66 -69 -66 -79
45 -117 21 0 92 91 22 -15
-58 3 16 -56 -89 -63 13 -68
40 -23 97 -108 -38 -93 107 102
-39 -18 101 -30 -12 39 24 -99
68 -25 38 28 -15 -7 76 52
12 98 11 -8 1 41 68 -39

sequential_5/quant_conv2d_28/Conv2D;sequential_5/quant_conv2d_28/LastValueQuant/FakeQuantWithMinMaxVarsPerChannel i1 [64, 3, 3, 48]
00000000: f35c 3a5b b21f c0d2 09f9 c632 d5e9 fe1c
00000010: f050 39e8 d3db 8ecb c8c9 a9a9 0427 cf11
00000020: ab56 00b4 4fe0 26b5 20ad 2033 060e f09e
00000030: cf17 97ce 043f 20ae 0e9b 510e adf9 b688
00000040: df1e 3b27 1c11 11d4 1838 47e5 1841 1765
00000050: c91d 49e0 bf1e f318 dd44 fc24 3b0a 98e9
00000060: 56bd 1a44 b560 381e cae7 6430 1b22 13e4
00000070: a703 b13a 34a0 aeb9 da15 b6de 2608 a103
00000080: e504 c6b9 a6b2 e2dc 4299 0ec0 f753 54eb
00000090: 5262 48cf 6ab5 3bac e069 c70a d20a 4cbe
000000a0: fbda 2230 225d 45b5 0e4a e663 f240 1541
000000b0: 32df a93b fff4 f94a e9b8 c6e9 bb0a cd98
000000c0: 9e2f 45e5 1c32 38c7 0ac3 5517 4832 fe52
000000d0: 28e1 b224 6406 321b cd29 1e28 39ee 3d23
000000e0: ba30 0e23 fbf4 36a9 2453 b5ad 920e b1f2
000000f0: 15e0 dad1 b7da 3c45 2a12 0cd4 30dc aa47
-13 92 58 91 -78 31 -64 -46
9 -7 -58 50 -43 -23 -2 28
-16 80 57 -24 -45 -37 -114 -53
-56 -55 -87 -87 4 39 -49 17
-85 86 0 -76 79 -32 38 -75
32 -83 32 51 6 14 -16 -98
-49 23 -105 -50 4 63 32 -82
14 -101 81 14 -83 -7 -74 -120
-33 30 59 39 28 17 17 -44
24 56 71 -27 24 65 23 101
-55 29 73 -32 -65 30 -13 24
-35 68 -4 36 59 10 -104 -23
86 -67 26 68 -75 96 56 30
-54 -25 100 48 27 34 19 -28
-89 3 -79 58 52 -96 -82 -71
-38 21 -74 -34 38 8 -95 3
-27 4 -58 -71 -90 -78 -30 -36
66 -103 14 -64 -9 83 84 -21
82 98 72 -49 106 -75 59 -84
-32 105 -57 10 -46 10 76 -66
-5 -38 34 48 34 93 69 -75
14 74 -26 99 -14 64 21 65
50 -33 -87 59 -1 -12 -7 74
-23 -72 -58 -23 -69 10 -51 -104
-98 47 69 -27 28 50 56 -57
10 -61 85 23 72 50 -2 82
40 -31 -78 36 100 6 50 27
-51 41 30 40 57 -18 61 35
-70 48 14 35 -5 -12 54 -87
36 83 -75 -83 -110 14 -79 -14
21 -32 -38 -47 -73 -38 60 69
42 18 12 -44 48 -36 -86 71

sequential_5/quant_conv2d_29/Conv2D;sequential_5/quant_conv2d_29/LastValueQuant/FakeQuantWithMinMaxVarsPerChannel i1 [64, 3, 3, 64]
00000000: 083b f007 c8cc cbb3 b702 c7f1 d526 0fde
00000010: e0c9 bcbd 08bc bb1f 50be c9db e649 f3ff
00000020: 39b0 f502 969a 0ffd a7a8 cd09 f7ff a4c6
00000030: d345 c84f 2ebe 303b b325 9bf2 38fd 11b3
00000040: 41c5 c507 05f6 ba9f e08b cbc1 9221 e823
00000050: b3e9 f812 0cfa facd 0d1e 2aef 18e5 ca0f
00000060: 0635 21c8 e353 b629 ed29 29e5 3fe3 cd41
00000070: ec00 e2c5 0dd2 00e1 dae9 ddd2 0e0b 0621
00000080: 465f d53d a91d e7cb eeed d5a7 ea1f bc38
00000090: 15bb f4a0 d2c2 1a07 3131 ecf2 fcd3 9fe8
000000a0: cdbc caca f9e0 aa27 f4ad 08ee 0008 23ee
000000b0: 0934 0303 3ff1 c6cf 4002 27bc cf95 052f
000000c0: 96d2 b618 b9c2 bfb8 4bda 1b31 3f55 3cca
000000d0: edca ffc7 303a cab8 1f14 e64e cd0d ebe9
000000e0: a627 bbef a744 eac6 d1bc a7d3 c8ab 5508
000000f0: bbae 08cb 2cec 3638 18ac 063c d9d3 222a
8 59 -16 7 -56 -52 -53 -77
-73 2 -57 -15 -43 38 15 -34
-32 -55 -68 -67 8 -68 -69 31
80 -66 -55 -37 -26 73 -13 -1
57 -80 -11 2 -106 -102 15 -3
-89 -88 -51 9 -9 -1 -92 -58
-45 69 -56 79 46 -66 48 59
-77 37 -101 -14 56 -3 17 -77
65 -59 -59 7 5 -10 -70 -97
-32 -117 -53 -63 -110 33 -24 35
-77 -23 -8 18 12 -6 -6 -51
13 30 42 -17 24 -27 -54 15
6 53 33 -56 -29 83 -74 41
-19 41 41 -27 63 -29 -51 65
-20 0 -30 -59 13 -46 0 -31
-38 -23 -35 -46 14 11 6 33
70 95 -43 61 -87 29 -25 -53
-18 -19 -43 -89 -22 31 -68 56
21 -69 -12 -96 -46 -62 26 7
49 49 -20 -14 -4 -45 -97 -24
-51 -68 -54 -54 -7 -32 -86 39
-12 -83 8 -18 0 8 35 -18
9 52 3 3 63 -15 -58 -49
64 2 39 -68 -49 -107 5 47
-106 -46 -74 24 -71 -62 -65 -72
75 -38 27 49 63 85 60 -54
-19 -54 -1 -57 48 58 -54 -72
31 20 -26 78 -51 13 -21 -23
-90 39 -69 -17 -89 68 -22 -58
-47 -68 -89 -45 -56 -85 85 8
-69 -82 8 -53 44 -20 54 56
24 -84 6 60 -39 -45 34 42

sequential_5/quant_dense_12/MatMul;sequential_5/quant_dense_12/LastValueQuant/FakeQuantWithMinMaxVars i1 [100, 1152] scale=0.00093034364 zero_point=0
00000000: f7ce 083d f33f c3de 1029 ec10 2ac3 f1ff
00000010: f813 17ef 2c41 5df3 d039 c7f4 46b1 0e13
00000020: d8f3 eaf0 162b 0505 fb2d 17e8 bae3 18c2
00000030: e6f5 0cea bfd8 d4fa eb24 b9ca 0809 47de
00000040: 2203 fffc 3005 d8a4 e73a 5e3b 0f07 13ba
00000050: 09ee bc38 f740 68ed da0b c6e6 e936 fcc8
00000060: 0dfb 2c22 d7e2 e60f 4cd1 b721 c309 02e8
00000070: 29f8 d313 1023 1ad8 0415 db19 21a6 22ea
00000080: cde8 b11f f00c 00a5 1b5f e8cd 4c4f 10dd
00000090: 2df9 4bde 5b41 d4be 1abe 182d 0647 cdf0
000000a0: 3bea fad2 fe49 0827 ec47 d73f 3e43 bdf6
000000b0: 1e1c b4c2 2ae7 3bfb f454 be0a bea3 fc0b
000000c0: e024 0cc3 3c03 ffbd e83b d200 4c07 333c
000000d0: ef06 242a 3736 f60b 0bda 04a5 ca52 22cd
000000e0: e0f9 0e0e c9c6 3127 fd2b ccb6 4d33 fb3c
000000f0: e11a 3cd6 c92a 37f0 31f1 d20e 0116 aa34
-0.008373093 -0.046517182 0.007442749 0.05675096 -0.012094467 0.05861165 -0.05675096 -0.031631682
0.014885498 0.03814409 -0.018606873 0.014885498 0.039074432 -0.05675096 -0.013955154 -0.00093034364
-0.007442749 0.017676529 0.021397904 -0.015815841 0.04093512 0.060472336 0.08652196 -0.012094467
-0.044656493 0.053029586 -0.053029586 -0.011164123 0.06512406 -0.07349715 0.013024811 0.017676529
-0.037213746 -0.012094467 -0.02046756 -0.014885498 0.02046756 0.040004775 0.0046517183 0.0046517183
-0.0046517183 0.041865464 0.021397904 -0.022328246 -0.06512406 -0.026979966 0.022328246 -0.057681307
-0.024188934 -0.01023378 0.011164123 -0.02046756 -0.060472336 -0.037213746 -0.04093512 -0.0055820616
-0.019537216 0.03349237 -0.0660544 -0.050238557 0.007442749 0.008373093 0.0660544 -0.031631682
0.031631682 0.0027910308 -0.00093034364 -0.0037213746 0.044656493 0.0046517183 -0.037213746 -0.085591614
-0.023258591 0.053959932 0.0874523 0.054890275 0.013955154 0.0065124054 0.017676529 -0.06512406
0.008373093 -0.016746186 -0.063263364 0.052099243 -0.008373093 0.059541993 0.096755736 -0.017676529
-0.035353057 0.01023378 -0.053959932 -0.024188934 -0.021397904 0.050238557 -0.0037213746 -0.052099243
0.012094467 -0.0046517183 0.04093512 0.031631682 -0.03814409 -0.027910309 -0.024188934 0.013955154
0.070706114 -0.04372615 -0.06791508 0.03070134 -0.05675096 0.008373093 0.0018606873 -0.022328246
0.03814409 -0.007442749 -0.041865464 0.017676529 0.014885498 0.03256203 0.024188934 -0.037213746
0.0037213746 0.019537216 -0.034422714 0.023258591 0.03070134 -0.08373093 0.031631682 -0.02046756
-0.047447525 -0.022328246 -0.07349715 0.028840654 -0.014885498 0.011164123 0.0 -0.08466127
0.025119279 0.08838265 -0.022328246 -0.047447525 0.070706114 0.07349715 0.014885498 -0.03256203
0.041865464 -0.0065124054 0.069775775 -0.031631682 0.08466127 0.060472336 -0.04093512 -0.06140268
0.024188934 -0.06140268 0.022328246 0.041865464 0.0055820616 0.0660544 -0.047447525 -0.014885498
0.054890275 -0.02046756 -0.0055820616 -0.042795807 -0.0018606873 0.06791508 0.007442749 0.036283404
-0.018606873 0.0660544 -0.03814409 0.05861165 0.057681307 0.062333025 -0.062333025 -0.009303437
0.027910309 0.026049621 -0.070706114 -0.057681307 0.039074432 -0.023258591 0.054890275 -0.0046517183
-0.011164123 0.078148864 -0.06140268 0.009303437 -0.06140268 -0.08652196 -0.0037213746 0.01023378
-0.029770996 0.03349237 0.011164123 -0.05675096 0.055820618 0.0027910308 -0.00093034364 -0.062333025
-0.022328246 0.054890275 -0.042795807 0.0 0.070706114 0.0065124054 0.047447525 0.055820618
-0.015815841 0.0055820616 0.03349237 0.039074432 0.0511689 0.050238557 -0.009303437 0.01023378
0.01023378 -0.035353057 0.0037213746 -0.08466127 -0.050238557 0.07628818 0.031631682 -0.047447525
-0.029770996 -0.0065124054 0.013024811 0.013024811 -0.0511689 -0.053959932 0.04558684 0.036283404
-0.0027910308 0.040004775 -0.048377868 -0.06884543 0.07163646 0.047447525 -0.0046517183 0.055820618
-0.028840654 0.024188934 0.055820618 -0.039074432 -0.0511689 0.039074432 0.0511689 -0.014885498
0.04558684 -0.013955154 -0.042795807 0.013024811 0.00093034364 0.02046756 -0.08000955 0.048377868

sequential_5/quant_dense_13/MatMul;sequential_5/quant_dense_13/LastValueQuant/FakeQuantWithMinMaxVars i1 [50, 100] scale=0.0019587984 zero_point=0
00000000: 529f 12ac 2755 21bb c8a3 3101 50b3 252a
00000010: 4cce 0c98 44bd c9d5 14f5 21c0 c9ec 3650
00000020: ba57 f1c7 deda 5d50 e32d 3232 cad7 e8c1
00000030: 7017 f2ee f3ac 7750 a966 d9df 5d59 b4aa
00000040: 071b 2747 48ca cabe a046 b8ef f518 604d
00000050: e4c8 c27f 4d16 18fb 1902 03d2 e831 cdc7
00000060: f3ca 2339 07e5 f293 a7a9 b621 46b6 e2fb
00000070: 0b36 c94e 452e 53b3 dfa5 3405 6021 af1f
00000080: e165 badb c1b7 712b d2ac 0de3 3420 bebb
00000090: ebcf 2204 5cf5 a62d fc13 1b2b f8ee c7aa
000000a0: 62da ac49 bcc9 59e0 e847 341a 25ee a3d7
000000b0: d7f9 2eb7 46f8 8f32 47d6 fa37 5a10 30ff
000000c0: edb1 fc12 a02b 532c 1f5c 4409 ff35 a95b
000000d0: a8f2 f4ff a70c 522c 224e c4cc a9c3 20e9
000000e0: dfb4 00d0 a110 badf a15a a448 d7df d197
000000f0: c039 039f 5f3b 02ea 1faf f700 18b4 503c
0.16062146 -0.19000344 0.03525837 -0.16453907 0.076393135 0.16649786 0.06464034 -0.1351571
-0.10969271 -0.18216825 0.09598112 0.0019587984 0.15670387 -0.15082748 0.07247554 0.082269534
0.14886868 -0.097939916 0.02350558 -0.20371503 0.13319829 -0.13123949 -0.10773391 -0.08422833
0.03917597 -0.021546783 0.06464034 -0.1253631 -0.10773391 -0.03917597 0.10577511 0.15670387
-0.13711588 0.17041546 -0.029381976 -0.11165151 -0.066599146 -0.07443434 0.18216825 0.15670387
-0.056805152 0.08814593 0.097939916 0.097939916 -0.10577511 -0.08031073 -0.04701116 -0.1234043
0.21938542 0.045052364 -0.027423177 -0.03525837 -0.025464378 -0.16453907 0.233097 0.15670387
-0.17041546 0.19979744 -0.076393135 -0.06464034 0.18216825 0.17433305 -0.14886868 -0.16845666
0.013711588 0.052887555 0.076393135 0.13907468 0.14103349 -0.10577511 -0.10577511 -0.12928069
-0.18804464 0.13711588 -0.14103349 -0.033299573 -0.021546783 0.04701116 0.18804464 0.15082748
-0.054846354 -0.10969271 -0.1214455 0.24876739 0.15082748 0.043093566 0.04701116 -0.009793992
0.048969958 0.003917597 0.005876395 -0.09010473 -0.04701116 0.09598112 -0.09989872 -0.11165151
-0.025464378 -0.10577511 0.06855794 0.11165151 0.013711588 -0.052887555 -0.027423177 -0.21350902
-0.17433305 -0.17041546 -0.14495108 0.06464034 0.13711588 -0.14495108 -0.05876395 -0.009793992
0.021546783 0.10577511 -0.10773391 0.15278627 0.1351571 0.09010473 0.16258027 -0.15082748
-0.06464034 -0.17825066 0.10185751 0.009793992 0.18804464 0.06464034 -0.15866266 0.06072275
-0.06072275 0.19783863 -0.13711588 -0.07247554 -0.1234043 -0.14299229 0.22134422 0.08422833
-0.09010473 -0.16453907 0.025464378 -0.056805152 0.10185751 0.06268155 -0.12928069 -0.1351571
-0.041134767 -0.09598112 0.066599146 0.007835194 0.18020946 -0.021546783 -0.17629185 0.08814593
-0.007835194 0.03721717 0.052887555 0.08422833 -0.015670387 -0.03525837 -0.11165151 -0.16845666
0.19196224 -0.07443434 -0.16453907 0.14299229 -0.13319829 -0.10773391 0.17433305 -0.06268155
-0.04701116 0.13907468 0.10185751 0.050928757 0.07247554 -0.03525837 -0.18216825 -0.08031073
-0.08031073 -0.013711588 0.09010473 -0.14299229 0.13711588 -0.015670387 -0.22134422 0.097939916
0.13907468 -0.082269534 -0.01175279 0.10773391 0.17629185 0.031340774 0.09402232 -0.0019587984
-0.03721717 -0.15474507 -0.007835194 0.03525837 -0.18804464 0.08422833 0.16258027 0.08618713
0.06072275 0.18020946 0.13319829 0.017629186 -0.0019587984 0.103816316 -0.17041546 0.17825066
-0.17237426 -0.027423177 -0.02350558 -0.0019587984 -0.17433305 0.02350558 0.16062146 0.08618713
0.066599146 0.15278627 -0.1175279 -0.10185751 -0.17041546 -0.119486704 0.06268155 -0.045052364
-0.06464034 -0.14886868 0.0 -0.09402232 -0.18608585 0.031340774 -0.13711588 -0.06464034
-0.18608585 0.17629185 -0.18020946 0.14103349 -0.08031073 -0.06464034 -0.092063524 -0.20567383
-0.1253631 0.11165151 0.005876395 -0.19000344 0.18608585 0.11556911 0.003917597 -0.043093566
0.06072275 -0.15866266 -0.017629186 0.0 0.04701116 -0.14886868 0.15670387 0.1175279

sequential_5/quant_dense_14/MatMul;sequential_5/quant_dense_14/LastValueQuant/FakeQuantWithMinMaxVars i1 [10, 50] scale=0.0035362479 zero_point=0
00000000: f7c2 190a 4ac1 c243 47eb 3dd4 4eb3 f83c
00000010: 300f b75a 41b7 cbc0 381c bff1 2aa6 57b3
00000020: 1e3e d14c 0a2c 16bd d4ef c10f 11fb 0de1
00000030: 54e5 0417 2549 c3a2 24d9 b854 0552 15d4
00000040: aa24 c2e0 374f d258 dffc b03f f4eb d926
00000050: 340c ecca cc27 d11e 2e43 4540 20b2 f1bf
00000060: 0da9 44bb 6a37 64ca 9e0f c043 02a9 0422
00000070: 3c2e 2fc8 2cb5 6d31 e9cd fdcd bdce 5eba
00000080: 00dd 4d44 c6b2 2e1c b9ae cdd8 4ac7 28f3
00000090: 01d0 f8ee 4462 eafc eacc d67f ceb6 231a
000000a0: 1634 572f 33ff 1a0d d9e3 bf37 0f15 6855
000000b0: 1518 bdd4 4c21 cb07 4f15 11db 49c6 c1b7
000000c0: c302 cedf 1701 c3f7 b8c5 07e4 0f4a e2f9
000000d0: 3cba dd55 0c3b fbd0 b62e d6bf b7fd 4efb
000000e0: 19f3 014c ccac ca41 09e3 ba19 f5ef befd
000000f0: eab9 2714 21b9 1057 c43b 4b0e 342d 1db4
-0.03182623 -0.21924737 0.0884062 0.03536248 0.26168233 -0.22278361 -0.21924737 0.23692861
0.2510736 -0.0742612 0.21571112 -0.1555949 0.27582735 -0.2722911 -0.028289983 0.21217488
0.1697399 0.05304372 -0.2581461 0.3182623 0.22985612 -0.2581461 -0.18742114 -0.22631986
0.19802988 0.09901494 -0.22985612 -0.05304372 0.1485224 -0.3182623 0.30765358 -0.2722911
0.10608744 0.21924737 -0.16620365 0.26875484 0.03536248 0.1555949 0.07779745 -0.23692861
-0.1555949 -0.060116213 -0.22278361 0.05304372 0.060116213 -0.01768124 0.045971222 -0.109623685
0.2970448 -0.09547869 0.0141449915 0.081333704 0.13084117 0.2581461 -0.21571112 -0.3324073
0.12730493 -0.13791367 -0.25460985 0.2970448 0.01768124 0.28997234 0.0742612 -0.1555949
-0.30411732 0.12730493 -0.21924737 -0.11315993 0.19449364 0.27936357 -0.16266741 0.3111898
-0.11669618 -0.0141449915 -0.28289983 0.22278361 -0.042434976 -0.0742612 -0.13791367 0.13437742
0.18388489 0.042434976 -0.07072496 -0.19095738 -0.18388489 0.13791367 -0.16620365 0.10608744
0.16266741 0.23692861 0.2440011 0.22631986 0.11315993 -0.27582735 -0.05304372 -0.22985612
0.045971222 -0.30765358 0.24046485 -0.2440011 0.3748423 0.19449364 0.3536248 -0.19095738
-0.34655228 0.05304372 -0.22631986 0.23692861 0.0070724958 -0.30765358 0.0141449915 0.120232426
0.21217488 0.16266741 0.16620365 -0.19802988 0.1555949 -0.2652186 0.38545102 0.17327614
-0.081333704 -0.18034863 -0.010608744 -0.18034863 -0.23692861 -0.1768124 0.3324073 -0.24753734
0.0 -0.12376867 0.2722911 0.24046485 -0.20510238 -0.27582735 0.16266741 0.09901494
-0.2510736 -0.28997234 -0.18034863 -0.14144991 0.26168233 -0.20156613 0.14144991 -0.045971222
0.0035362479 -0.1697399 -0.028289983 -0.06365246 0.24046485 0.34655228 -0.07779745 -0.0141449915
-0.07779745 -0.18388489 -0.1485224 0.44910347 -0.1768124 -0.26168233 0.12376867 0.091942444
0.07779745 0.18388489 0.30765358 0.16620365 0.18034863 -0.0035362479 0.091942444 0.045971222
-0.13791367 -0.10255119 -0.22985612 0.19449364 0.05304372 0.0742612 0.36776978 0.30058107
0.0742612 0.08486995 -0.23692861 -0.1555949 0.26875484 0.11669618 -0.18742114 0.024753734
0.27936357 0.0742612 0.060116213 -0.13084117 0.2581461 -0.20510238 -0.22278361 -0.2581461
-0.21571112 0.0070724958 -0.1768124 -0.11669618 0.081333704 0.0035362479 -0.21571112 -0.03182623
-0.25460985 -0.20863862 0.024753734 -0.09901494 0.05304372 0.26168233 -0.10608744 -0.024753734
0.21217488 -0.24753734 -0.12376867 0.30058107 0.042434976 0.20863862 -0.01768124 -0.1697399
-0.26168233 0.16266741 -0.1485224 -0.22985612 -0.2581461 -0.010608744 0.27582735 -0.01768124
0.0884062 -0.045971222 0.0035362479 0.26875484 -0.18388489 -0.2970448 -0.19095738 0.22985612
0.03182623 -0.10255119 -0.24753734 0.0884062 -0.038898725 -0.060116213 -0.23339236 -0.010608744
-0.07779745 -0.2510736 0.13791367 0.07072496 0.11669618 -0.2510736 0.056579966 0.30765358
-0.21217488 0.20863862 0.2652186 0.04950747 0.18388489 0.15913115 0.10255119 -0.26875484

sequential_5/quant_output/MatMul;sequential_5/quant_output/LastValueQuant/FakeQuantWithMinMaxVars i1 [1, 10] scale=0.005510374 zero_point=0
00000000: 53bb ea22 44df 8992 8114
0.45736104 -0.3802158 -0.121228226 0.18735272 0.37470543 -0.18184234 -0.6557345 -0.60614115
-0.6998175 0.11020748
