models/pilotnet-dg-160x60x3-T1-r1.0.tflite (tflite, 212616 bytes, 9 tensors)

sequential/quant_conv2d/Conv2D;sequential/quant_conv2d/LastValueQuant/FakeQuantWithMinMaxVarsPerChannel i1 [24, 5, 5, 3]
00000000: 57c6 becc 184f a4c6 eee0 a081 c81a f9e3
00000010: 5d86 d8c8 c408 53dc 10d7 f85a 3796 d7fc
00000020: dee3 4531 5896 e292 a08a ffdd 2d2d 2b15
00000030: 4ceb f0a1 5970 e99a e86d b419 adde 7817
00000040: 92ef 1aac 1d48 5803 7a4b e80d 6221 6d29
00000050: 7e93 5d98 c1e1 6ad3 3e7e 94ed c30d 0016
00000060: 4255 b729 a4cd ca55 d530 34bc 8cf7 1705
00000070: 7f4f b844 3bfb 57c0 72f2 feee 9dd4 09a8
00000080: 46bf be0d 14fd 3dd5 932d abc4 9da5 3dc1
00000090: 9c79 410d 585e 22da 92e8 e13b 472a ab68
000000a0: 678c acd4 cece 3e64 5889 241d 2535 d473
000000b0: 3452 7360 7ae2 5500 73a2 bc6e f31c 60b7
000000c0: bbec aded 7f6c 6655 7f74 c7de d8f2 74c8
000000d0: 4782 0351 3a52 4f8d 4a70 e03c 1a5b 6195
000000e0: b52d 3b5a 2b88 ea3f bff4 4b59 9292 2b7a
000000f0: 42ea d3d6 8171 04df 0589 2c94 11fa 39f1
87 -58 -66 -52 24 79 -92 -58
-18 -32 -96 -127 -56 26 -7 -29
93 -122 -40 -56 -60 8 83 -36
16 -41 -8 90 55 -106 -41 -4
-34 -29 69 49 88 -106 -30 -110
-96 -118 -1 -35 45 45 43 21
76 -21 -16 -95 89 112 -23 -102
-24 109 -76 25 -83 -34 120 23
-110 -17 26 -84 29 72 88 3
122 75 -24 13 98 33 109 41
126 -109 93 -104 -63 -31 106 -45
62 126 -108 -19 -61 13 0 22
66 85 -73 41 -92 -51 -54 85
-43 48 52 -68 -116 -9 23 5
127 79 -72 68 59 -5 87 -64
114 -14 -2 -18 -99 -44 9 -88
70 -65 -66 13 20 -3 61 -43
-109 45 -85 -60 -99 -91 61 -63
-100 121 65 13 88 94 34 -38
-110 -24 -31 59 71 42 -85 104
103 -116 -84 -44 -50 -50 62 100
88 -119 36 29 37 53 -44 115
52 82 115 96 122 -30 85 0
115 -94 -68 110 -13 28 96 -73
-69 -20 -83 -19 127 108 102 85
127 116 -57 -34 -40 -14 116 -56
71 -126 3 81 58 82 79 -115
74 112 -32 60 26 91 97 -107
-75 45 59 90 43 -120 -22 63
-65 -12 75 89 -110 -110 43 122
66 -22 -45 -42 -127 113 4 -33
5 -119 44 -108 17 -6 57 -15

sequential/quant_conv2d_1/Conv2D;sequential/quant_conv2d_1/LastValueQuant/FakeQuantWithMinMaxVarsPerChannel i1 [36, 5, 5, 24]
00000000: f1a6 e3ec 522f 87f4 113e 13b8 a7d9 a619
00000010: 526c 1895 8b01 c395 676e d4a4 bac9 e33a
00000020: e11a c8d7 9e51 21a0 2c69 5025 8f64 aa34
00000030: affb 9c33 c996 a2fb 96f2 c1a3 aaaa c9ce
00000040: a6cf e42a 18d8 70ff f56d d25b b84c 18b5
00000050: 8e50 aedc e28a eef1 56c4 1624 adf0 14b0
00000060: 9602 440d 5dfb 5205 8fdf ba68 1cd4 1c68
00000070: bbf5 19a9 ecc6 f55b d4a3 c5e8 44f5 acda
00000080: c7c7 5914 92d2 95cc d9cf 30e3 5afe 843c
00000090: cfd7 56c8 2ec0 8afa 4155 392c bc02 9e26
000000a0: ee37 e40f 03db ac62 e8d0 4d02 1846 a5b3
000000b0: 3cf6 2512 fbc6 f507 3b61 b6e3 e90b d84b
000000c0: dd32 3188 431a e1c3 09a6 8eb3 39cb 6464
000000d0: a1a3 d068 5ec1 12cb bc84 ea2e a09d f289
000000e0: 88d4 f9af 64dc c502 3353 fe6e 16b2 4305
000000f0: ef65 0040 84a9 89a9 55fc c4dd e48c 0ce9
-15 -90 -29 -20 82 47 -121 -12
17 62 19 -72 -89 -39 -90 25
82 108 24 -107 -117 1 -61 -107
103 110 -44 -92 -70 -55 -29 58
-31 26 -56 -41 -98 81 33 -96
44 105 80 37 -113 100 -86 52
-81 -5 -100 51 -55 -106 -94 -5
-106 -14 -63 -93 -86 -86 -55 -50
-90 -49 -28 42 24 -40 112 -1
-11 109 -46 91 -72 76 24 -75
-114 80 -82 -36 -30 -118 -18 -15
86 -60 22 36 -83 -16 20 -80
-106 2 68 13 93 -5 82 5
-113 -33 -70 104 28 -44 28 104
-69 -11 25 -87 -20 -58 -11 91
-44 -93 -59 -24 68 -11 -84 -38
-57 -57 89 20 -110 -46 -107 -52
-39 -49 48 -29 90 -2 -124 60
-49 -41 86 -56 46 -64 -118 -6
65 85 57 44 -68 2 -98 38
-18 55 -28 15 3 -37 -84 98
-24 -48 77 2 24 70 -91 -77
60 -10 37 18 -5 -58 -11 7
59 97 -74 -29 -23 11 -40 75
-35 50 49 -120 67 26 -31 -61
9 -90 -114 -77 57 -53 100 100
-95 -93 -48 104 94 -63 18 -53
-68 -124 -22 46 -96 -99 -14 -119
-120 -44 -7 -81 100 -36 -59 2
51 83 -2 110 22 -78 67 5
-17 101 0 64 -124 -87 -119 -87
85 -4 -60 -35 -28 -116 12 -23

sequential/quant_conv2d_2/Conv2D;sequential/quant_conv2d_2/LastValueQuant/FakeQuantWithMinMaxVarsPerChannel i1 [48, 3, 3, 36]
00000000: ea51 f73f d33b 0bf6 5723 4a21 c350 fec3
00000010: 35e4 0517 5a46 36e7 d196 e438 c453 4686
00000020: 6acf 0f4b bcae fd9e 6dc3 5e14 ecf2 39dd
00000030: 1af3 ebc4 195f 7f1a 2051 cbd7 a347 0cc0
00000040: fcde 468d 3262 94e4 9207 6ea7 d35c 1249
00000050: 3860 a9c9 f7e7 0a36 a603 db14 f1b8 9b5d
00000060: c564 f023 a314 cbc3 0fd0 1cdc aa92 8f49
00000070: 0b0d 5ccc 2f1d 66a2 0a1a 8806 e311 ad92
00000080: cf21 1401 c44e bd38 f4d8 ed92 da1a 17f6
00000090: b167 2b37 420b 6853 f9e4 3670 fd89 8814
000000a0: d7b5 e058 a3e5 de6d 668e 5356 46ee 2c6f
000000b0: 0035 509e 25ac a7be a585 11b5 d011 a89e
000000c0: 8a69 1c30 f8b1 0769 e16b ef0d 308f ec17
000000d0: 43f3 dd81 0249 f229 4196 86f3 8d31 f1d3
000000e0: 4d3d 0c68 47c2 f83e 86a6 f620 cb38 a98d
000000f0: 4737 d56c ca99 138d 1f59 01ee bf0b a433
-22 81 -9 63 -45 59 11 -10
87 35 74 33 -61 80 -2 -61
53 -28 5 23 90 70 54 -25
-47 -106 -28 56 -60 83 70 -122
106 -49 15 75 -68 -82 -3 -98
109 -61 94 20 -20 -14 57 -35
26 -13 -21 -60 25 95 127 26
32 81 -53 -41 -93 71 12 -64
-4 -34 70 -115 50 98 -108 -28
-110 7 110 -89 -45 92 18 73
56 96 -87 -55 -9 -25 10 54
-90 3 -37 20 -15 -72 -101 93
-59 100 -16 35 -93 20 -53 -61
15 -48 28 -36 -86 -110 -113 73
11 13 92 -52 47 29 102 -94
10 26 -120 6 -29 17 -83 -110
-49 33 20 1 -60 78 -67 56
-12 -40 -19 -110 -38 26 23 -10
-79 103 43 55 66 11 104 83
-7 -28 54 112 -3 -119 -120 20
-41 -75 -32 88 -93 -27 -34 109
102 -114 83 86 70 -18 44 111
0 53 80 -98 37 -84 -89 -66
-91 -123 17 -75 -48 17 -88 -98
-118 105 28 48 -8 -79 7 105
-31 107 -17 13 48 -113 -20 23
67 -13 -35 -127 2 73 -14 41
65 -106 -122 -13 -115 49 -15 -45
77 61 12 104 71 -62 -8 62
-122 -90 -10 32 -53 56 -87 -115
71 55 -43 108 -54 -103 19 -115
31 89 1 -18 -65 11 -92 51

sequential/quant_conv2d_3/Conv2D;sequential/quant_conv2d_3/LastValueQuant/FakeQuantWithMinMaxVarsPerChannel i1 [64, 3, 3, 48]
00000000: 0763 b8cb 4cf4 5c4e 14d5 60d5 1753 4d99
00000010: 380b a365 811b a989 893a 282e d2e7 90c5
00000020: 2801 f617 2f00 a545 b922 ffcc 0864 36e5
00000030: 00c3 1024 b860 ef2c 1daf a3ef 542d f662
00000040: 41f6 f32d 8432 f29b 8400 70ce a54c 66e8
00000050: 39b2 3a32 5f9a 47be 0951 4856 9e34 f0b8
00000060: 33da 011e d542 d703 b6d4 12f1 98c3 3790
00000070: c0e6 0015 9750 999f e1c9 1ddc 5e19 0d0a
00000080: 373f 5dfd d7c3 976c 28a4 9e28 759c 8ff9
00000090: d5a3 8adf 2027 b431 7349 69ec 5194 a9a4
000000a0: aeed f86b 9a55 1c03 0521 1bc9 3f1f a8a6
000000b0: 5cc6 fd0e c7e2 bab4 d886 ecee c489 fc9a
000000c0: d14a f4f6 0124 1894 6028 df94 f623 485b
000000d0: 6747 9295 ee20 3b98 5be4 e1b6 0fb9 1f12
000000e0: c0e9 1b94 c4cc 6f34 50d6 fbfa b6b8 4d8d
000000f0: d2c1 0dec f308 2812 646f 241e f1d1 21d5
7 99 -72 -53 76 -12 92 78
20 -43 96 -43 23 83 77 -103
56 11 -93 101 -127 27 -87 -119
-119 58 40 46 -46 -25 -112 -59
40 1 -10 23 47 0 -91 69
-71 34 -1 -52 8 100 54 -27
0 -61 16 36 -72 96 -17 44
29 -81 -93 -17 84 45 -10 98
65 -10 -13 45 -124 50 -14 -101
-124 0 112 -50 -91 76 102 -24
57 -78 58 50 95 -102 71 -66
9 81 72 86 -98 52 -16 -72
51 -38 1 30 -43 66 -41 3
-74 -44 18 -15 -104 -61 55 -112
-64 -26 0 21 -105 80 -103 -97
-31 -55 29 -36 94 25 13 10
55 63 93 -3 -41 -61 -105 108
40 -92 -98 40 117 -100 -113 -7
-43 -93 -118 -33 32 39 -76 49
115 73 105 -20 81 -108 -87 -92
-82 -19 -8 107 -102 85 28 3
5 33 27 -55 63 31 -88 -90
92 -58 -3 14 -57 -30 -70 -76
-40 -122 -20 -18 -60 -119 -4 -102
-47 74 -12 -10 1 36 24 -108
96 40 -33 -108 -10 35 72 91
103 71 -110 -107 -18 32 59 -104
91 -28 -31 -74 15 -71 31 18
-64 -23 27 -108 -60 -52 111 52
80 -42 -5 -6 -74 -72 77 -115
-46 -63 13 -20 -13 8 40 18
100 111 36 30 -15 -47 33 -43

sequential/quant_conv2d_4/Conv2D;sequential/quant_conv2d_4/LastValueQuant/FakeQuantWithMinMaxVarsPerChannel i1 [64, 3, 3, 64]
00000000: a447 1a9d b92a 59bd 569c 001a 39ae 28c3
00000010: f822 f9bf eafa b163 4002 fa50 5161 2b09
00000020: bf12 2ebb c7bd 4f91 3c0d 1cae c328 1e1c
00000030: d510 00d8 4d27 eea9 fecd f159 0809 1824
00000040: 321a cb14 01a8 d23c f83b 3c04 21f6 ecc1
00000050: f0e6 3d3b e6d2 0bcc ce20 d8b4 f605 3dee
00000060: 0e8e 0ed0 fba8 f700 0ac6 9417 302d f62c
00000070: d4db 99ff d3b3 f8e7 f101 ce21 2be6 b8fa
00000080: fa64 cc51 12da 5113 fabe 4720 182d 3541
00000090: 9edd 63e2 1e6b d3b9 bec0 d4f9 b49c eb5b
000000a0: 34e1 300e be4f be96 cf4b a21f cac3 0e2d
000000b0: 2254 e369 6a1e c9b9 5302 a1e5 f6c7 56ee
000000c0: a8e9 aa13 153c a154 c92f f10a fc4c 1bd8
000000d0: 4d1e 1c63 d0d5 5428 3127 de67 a655 0ff2
000000e0: fb05 2a6c a6df dcc9 039d 4af8 540e 6c47
000000f0: 495d 4dd2 45de b42e 13f8 a7d5 abbe 180e
-92 71 26 -99 -71 42 89 -67
86 -100 0 26 57 -82 40 -61
-8 34 -7 -65 -22 -6 -79 99
64 2 -6 80 81 97 43 9
-65 18 46 -69 -57 -67 79 -111
60 13 28 -82 -61 40 30 28
-43 16 0 -40 77 39 -18 -87
-2 -51 -15 89 8 9 24 36
50 26 -53 20 1 -88 -46 60
-8 59 60 4 33 -10 -20 -63
-16 -26 61 59 -26 -46 11 -52
-50 32 -40 -76 -10 5 61 -18
14 -114 14 -48 -5 -88 -9 0
10 -58 -108 23 48 45 -10 44
-44 -37 -103 -1 -45 -77 -8 -25
-15 1 -50 33 43 -26 -72 -6
-6 100 -52 81 18 -38 81 19
-6 -66 71 32 24 45 53 65
-98 -35 99 -30 30 107 -45 -71
-66 -64 -44 -7 -76 -100 -21 91
52 -31 48 14 -66 79 -66 -106
-49 75 -94 31 -54 -61 14 45
34 84 -29 105 106 30 -55 -71
83 2 -95 -27 -10 -57 86 -18
-88 -23 -86 19 21 60 -95 84
-55 47 -15 10 -4 76 27 -40
77 30 28 99 -48 -43 84 40
49 39 -34 103 -90 85 15 -14
-5 5 42 108 -90 -33 -36 -55
3 -99 74 -8 84 14 108 71
73 93 77 -46 69 -34 -76 46
19 -8 -89 -43 -85 -66 24 14

sequential/quant_dense/MatMul;sequential/quant_dense/LastValueQuant/FakeQuantWithMinMaxVars i1 [100, 896] scale=0.0008877614 zero_point=0
00000000: e151 4a06 0ee0 3a00 f7c3 111f 11e5 cded
00000010: b545 19a8 10ea d7aa f1d6 3538 f62f 09dd
00000020: f9e3 4c4b 4517 d8b2 f73c cd36 ffe4 baf9
00000030: 3614 ff0e fed9 b61d ca0f 0e3c 38d7 073f
00000040: ef24 30ef b0fc 50db 10d7 0b06 232b df38
00000050: ec12 c6d9 4dde 2e21 35b2 26e8 08a8 dcd8
00000060: 07ab faf5 b134 4514 f9f5 103a 1422 eb45
00000070: 0015 4ad9 ce2d 3abf c9b6 1f1f abb6 d842
00000080: 05b1 065c f44c fa06 e50f 1e1c 3817 d133
00000090: 3adb 00d0 b03e 31cf b52b a6b9 434c 1eae
000000a0: f5f4 42e5 c6fa bb3a 35b8 1750 2aff df17
000000b0: 04bd b9ed e4c8 4705 0f46 e7cc 4636 d0b1
000000c0: 324b 521e bf02 084a 09af d9a5 3218 08fe
000000d0: a1d8 ea0a 4722 ec04 f348 d2c8 29f8 e001
000000e0: e252 03f4 d2f9 33fb 1e4c 30f2 1b21 120e
000000f0: 0804 29bc 2ece 42c9 e846 bb3d 1f41 2e0e
-0.027520604 0.071908675 0.06569435 0.0053265686 0.01242866 -0.028408365 0.05149016 0.0
-0.007989853 -0.054153446 0.0150919445 0.027520604 0.0150919445 -0.023969559 -0.045275833 -0.016867466
-0.066582106 0.061255537 0.022194035 -0.078123 0.014204183 -0.01953075 -0.036398217 -0.076347485
-0.013316421 -0.03728598 0.047051355 0.04971464 -0.0088776145 0.041724786 0.007989853 -0.03107165
-0.00621433 -0.02574508 0.067469865 0.066582106 0.061255537 0.020418512 -0.035510458 -0.06924539
-0.007989853 0.053265683 -0.045275833 0.047939118 -0.0008877614 -0.02485732 -0.0621433 -0.00621433
0.047939118 0.017755229 -0.0008877614 0.01242866 -0.0017755228 -0.034622695 -0.06569435 0.02574508
-0.047939118 0.013316421 0.01242866 0.053265683 0.04971464 -0.036398217 0.00621433 0.055928968
-0.0150919445 0.03195941 0.04261255 -0.0150919445 -0.071020916 -0.0035510457 0.071020916 -0.032847174
0.014204183 -0.036398217 0.009765375 0.0053265686 0.03107165 0.038173743 -0.029296126 0.04971464
-0.017755229 0.015979705 -0.05149016 -0.034622695 0.06835763 -0.030183889 0.040837023 0.029296126
0.047051355 -0.06924539 0.033734933 -0.021306274 0.0071020913 -0.078123 -0.03195941 -0.035510458
0.00621433 -0.07545972 -0.0053265686 -0.009765375 -0.07013315 0.046163592 0.061255537 0.017755229
-0.00621433 -0.009765375 0.014204183 0.05149016 0.017755229 0.030183889 -0.01864299 0.061255537
0.0 0.01864299 0.06569435 -0.034622695 -0.04438807 0.039949264 0.05149016 -0.057704493
-0.048826877 -0.06569435 0.027520604 0.027520604 -0.07545972 -0.06569435 -0.035510458 0.058592252
0.0044388073 -0.07013315 0.0053265686 0.08167405 -0.010653137 0.067469865 -0.0053265686 0.0053265686
-0.023969559 0.013316421 0.026632842 0.02485732 0.04971464 0.020418512 -0.041724786 0.045275833
0.05149016 -0.032847174 0.0 -0.04261255 -0.071020916 0.05504121 0.043500308 -0.043500308
-0.066582106 0.038173743 -0.07989853 -0.06303106 0.059480015 0.067469865 0.026632842 -0.072796434
-0.009765375 -0.010653137 0.058592252 -0.023969559 -0.05149016 -0.0053265686 -0.061255537 0.05149016
0.047051355 -0.06391882 0.020418512 0.071020916 0.03728598 -0.0008877614 -0.029296126 0.020418512
0.0035510457 -0.059480015 -0.06303106 -0.016867466 -0.02485732 -0.04971464 0.06303106 0.0044388073
0.013316421 0.0621433 -0.022194035 -0.046163592 0.0621433 0.047939118 -0.04261255 -0.07013315
0.04438807 0.066582106 0.072796434 0.026632842 -0.057704493 0.0017755228 0.0071020913 0.06569435
0.007989853 -0.071908675 -0.034622695 -0.08078629 0.04438807 0.021306274 0.0071020913 -0.0017755228
-0.08433733 -0.035510458 -0.01953075 0.0088776145 0.06303106 0.030183889 -0.017755229 0.0035510457
-0.011540898 0.06391882 -0.040837023 -0.04971464 0.036398217 -0.0071020913 -0.028408365 0.0008877614
-0.026632842 0.072796434 0.0026632843 -0.010653137 -0.040837023 -0.00621433 0.045275833 -0.0044388073
0.026632842 0.067469865 0.04261255 -0.01242866 0.023969559 0.029296126 0.015979705 0.01242866
0.0071020913 0.0035510457 0.036398217 -0.060367778 0.040837023 -0.04438807 0.058592252 -0.048826877
-0.021306274 0.0621433 -0.061255537 0.054153446 0.027520604 0.057704493 0.040837023 0.01242866

sequential/quant_dense_1/MatMul;sequential/quant_dense_1/LastValueQuant/FakeQuantWithMinMaxVars i1 [50, 100] scale=0.0016878202 zero_point=0
00000000: fa3e f488 0dd0 ff03 fd92 8e5f 3dea a7eb
00000010: a8ab 4e71 f770 94fa a64e d16f 0ab9 3200
00000020: bf71 5d0c a689 aa9c f72c f3bc 6edf 6f0d
00000030: 5bab cd45 3367 4073 53f3 4498 f9a2 18a7
00000040: ec29 66e4 11fa 2d4f d0a2 c0c9 4c3f 1057
00000050: 0a08 1cf5 0ee5 5a4e 9807 c7e3 64f3 4b23
00000060: 3def fc19 4859 d834 ab6c e66d 8f12 4c9a
00000070: 5ddf 7105 8b8e 299d 3aa5 415e 3bb6 e242
00000080: 1399 fa1e 6212 f5ef 6b69 a8cb 0857 2e5d
00000090: 3e10 cb9c e558 6ff8 bf72 dedf d602 3422
000000a0: 3e6e 1725 2642 abb5 398d 96b3 d1f8 aaa5
000000b0: 8c44 bbbc fa66 75c6 8ef8 d1a1 3471 ca71
000000c0: 0f47 8a59 53b4 90ed 48e3 ff93 54ba cf6e
000000d0: 0566 1e12 366a e6b4 01ad 3d27 17fb d849
000000e0: 465d 1deb df38 58a8 f071 1de7 5ec8 1737
000000f0: 0228 e2a0 7232 35a7 d3c1 08c9 2146 3993
-0.010126921 0.10464485 -0.020253843 -0.20253842 0.021941662 -0.08101537 -0.0016878202 0.0050634607
-0.0050634607 -0.18566021 -0.1924115 0.16034292 0.10295703 -0.037132043 -0.150216 -0.035444222
-0.14852817 -0.14346471 0.13164997 0.19072369 -0.015190382 0.18903586 -0.18228458 -0.010126921
-0.15190382 0.13164997 -0.079327546 0.18734804 0.016878203 -0.119835235 0.08439101 0.0
-0.10970831 0.19072369 0.15696728 0.020253843 -0.15190382 -0.2008506 -0.14515254 -0.16878203
-0.015190382 0.07426409 -0.021941662 -0.114771776 0.18566021 -0.055698067 0.18734804 0.021941662
0.15359163 -0.14346471 -0.08607883 0.11645959 0.08607883 0.17384548 0.10802049 0.19409932
0.14008908 -0.021941662 0.114771776 -0.1755333 -0.011814741 -0.15865509 0.040507685 -0.150216
-0.033756405 0.06920063 0.17215766 -0.047258966 0.028692944 -0.010126921 0.07595191 0.1333378
-0.08101537 -0.15865509 -0.10802049 -0.09283011 0.12827434 0.106332675 0.027005123 0.14684035
0.016878203 0.0135025615 0.047258966 -0.018566022 0.023629483 -0.045571145 0.15190382 0.13164997
-0.1755333 0.011814741 -0.09620575 -0.048946787 0.16878203 -0.021941662 0.12658651 0.059073705
0.10295703 -0.028692944 -0.0067512807 0.042195506 0.12152305 0.150216 -0.06751281 0.08776665
-0.14346471 0.18228458 -0.043883324 0.1839724 -0.19072369 0.030380763 0.12827434 -0.17215766
0.15696728 -0.055698067 0.19072369 0.008439101 -0.19747496 -0.1924115 0.06920063 -0.1670942
0.09789357 -0.15359163 0.10970831 0.15865509 0.09958139 -0.124898694 -0.050634604 0.111396134
0.032068584 -0.17384548 -0.010126921 0.050634604 0.16540638 0.030380763 -0.018566022 -0.028692944
0.18059675 0.17722112 -0.14852817 -0.08945447 0.0135025615 0.14684035 0.07763973 0.15696728
0.10464485 0.027005123 -0.08945447 -0.16878203 -0.045571145 0.14852817 0.18734804 -0.0135025615
-0.10970831 0.1924115 -0.057385888 -0.055698067 -0.070888445 0.0033756404 0.08776665 0.057385888
0.10464485 0.18566021 0.038819864 0.062449347 0.06413717 0.111396134 -0.14346471 -0.12658651
0.09620575 -0.19409932 -0.17890894 -0.12996216 -0.079327546 -0.0135025615 -0.14515254 -0.15359163
-0.19578715 0.114771776 -0.11645959 -0.114771776 -0.010126921 0.17215766 0.19747496 -0.09789357
-0.1924115 -0.0135025615 -0.079327546 -0.16034292 0.08776665 0.19072369 -0.09114229 0.19072369
0.025317302 0.119835235 -0.19916278 0.150216 0.14008908 -0.12827434 -0.18903586 -0.032068584
0.12152305 -0.048946787 -0.0016878202 -0.1839724 0.14177689 -0.11814741 -0.08270319 0.18566021
0.008439101 0.17215766 0.050634604 0.030380763 0.09114229 0.17890894 -0.043883324 -0.12827434
0.0016878202 -0.14008908 0.10295703 0.065824986 0.038819864 -0.008439101 -0.06751281 0.12321088
0.11814741 0.15696728 0.048946787 -0.035444222 -0.055698067 0.09451793 0.14852817 -0.14852817
-0.027005123 0.19072369 0.048946787 -0.042195506 0.15865509 -0.09451793 0.038819864 0.09283011
0.0033756404 0.06751281 -0.050634604 -0.16203074 0.1924115 0.08439101 0.08945447 -0.150216
-0.07595191 -0.106332675 0.0135025615 -0.09283011 0.055698067 0.11814741 0.09620575 -0.1839724

sequential/quant_dense_2/MatMul;sequential/quant_dense_2/LastValueQuant/FakeQuantWithMinMaxVars i1 [10, 50] scale=0.0025861154 zero_point=0
00000000: 4d8f d19c 00da 5333 2a90 cbf4 5125 ad97
00000010: 6be5 036a e3af 09b8 c263 56e2 e8a9 3844
00000020: 26d0 5e06 f546 4288 cf09 56f2 5fad e459
00000030: a638 e203 cb17 0b9f 3a2d f463 9242 245b
00000040: 2e63 c012 f2d2 b490 67ed 18a5 86c7 a8fc
00000050: 07d5 1e29 c695 2860 0e0e 4acb 35ec 5f95
00000060: 9e41 7f12 02dd a73c 969a ff8d 11a4 5c27
00000070: ab8e 8d8f 85b9 11b3 5ff0 86cb bc06 4087
00000080: 6426 9227 b295 fc40 6231 436b e670 3fdb
00000090: bf1f 5bce cae1 3526 183f 8d79 4f44 b757
000000a0: 04a3 d43c 0dc9 daa9 6221 d193 c0eb fb17
000000b0: 20c4 72e9 0d14 098c a111 644a 1ae8 5c33
000000c0: 4e26 f46e fd0a 2447 bbe5 4c34 386a 86f8
000000d0: e64d 1c16 ade3 c8b7 d5e1 2445 0c49 b2e7
000000e0: ad93 b0c2 2a92 7777 8531 e3ca 0caa ec6d
000000f0: d8be cda3 b067 b4fb 4a77 f7a5 c26c dc27
0.19913088 -0.29223105 -0.12154742 -0.25861153 0.0 -0.09827238 0.21464758 0.13189189
0.108616844 -0.28964493 -0.13706411 -0.031033386 0.20947535 0.09568627 -0.21464758 -0.2715421
0.27671435 -0.06982511 0.0077583464 0.27412823 -0.07499734 -0.20947535 0.023275038 -0.1862003
-0.16033915 0.25602543 0.22240593 -0.07758346 -0.06206677 -0.22499204 0.14482246 0.17585585
0.09827238 -0.12413354 0.24309485 0.015516693 -0.028447269 0.18102808 0.17068362 -0.31033385
-0.12671965 0.023275038 0.22240593 -0.036205616 0.24568096 -0.21464758 -0.07241123 0.23016427
-0.23275039 0.14482246 -0.07758346 0.0077583464 -0.13706411 0.059480652 0.028447269 -0.25085318
0.14999469 0.11637519 -0.031033386 0.25602543 -0.2844727 0.17068362 0.09310015 0.2353365
0.118961304 0.25602543 -0.16551138 0.046550076 -0.036205616 -0.118961304 -0.19654477 -0.28964493
0.26636988 -0.04913619 0.06206677 -0.2353365 -0.31550607 -0.14740857 -0.22757815 -0.010344462
0.018102808 -0.11120296 0.07758346 0.10603073 -0.14999469 -0.27671435 0.10344461 0.24826708
0.036205616 0.036205616 0.19137254 -0.13706411 0.13706411 -0.051722307 0.24568096 -0.27671435
-0.2534393 0.1680975 0.32843664 0.046550076 0.005172231 -0.09051404 -0.23016427 0.15516692
-0.27412823 -0.26378378 -0.0025861154 -0.29740328 0.04396396 -0.23792261 0.23792261 0.1008585
-0.21981981 -0.29481715 -0.29740328 -0.29223105 -0.3180922 -0.1836142 0.04396396 -0.19913088
0.24568096 -0.041377846 -0.31550607 -0.13706411 -0.17585585 0.015516693 0.16551138 -0.31291997
0.25861153 0.09827238 -0.2844727 0.1008585 -0.201717 -0.27671435 -0.010344462 0.16551138
0.2534393 0.12671965 0.17326973 0.27671435 -0.067239 0.28964493 0.16292527 -0.09568627
-0.1680975 0.08016957 0.2353365 -0.12930577 -0.13965023 -0.08016957 0.13706411 0.09827238
0.06206677 0.16292527 -0.29740328 0.31291997 0.20430312 0.17585585 -0.18878642 0.22499204
0.010344462 -0.24050874 -0.113789074 0.15516692 0.0336195 -0.14223635 -0.09827238 -0.22499204
0.2534393 0.08534181 -0.12154742 -0.28188658 -0.16551138 -0.054308422 -0.012930577 0.059480652
0.08275569 -0.15516692 0.29481715 -0.059480652 0.0336195 0.051722307 0.023275038 -0.29998937
-0.24568096 0.04396396 0.25861153 0.19137254 0.067239 -0.06206677 0.23792261 0.13189189
0.201717 0.09827238 -0.031033386 0.2844727 -0.0077583464 0.025861153 0.09310015 0.1836142
-0.17844196 -0.06982511 0.19654477 0.134478 0.14482246 0.27412823 -0.31550607 -0.020688923
-0.067239 0.19913088 0.07241123 0.056894537 -0.21464758 -0.07499734 -0.14482246 -0.18878642
-0.11120296 -0.08016957 0.09310015 0.17844196 0.031033386 0.18878642 -0.201717 -0.06465288
-0.21464758 -0.28188658 -0.20688923 -0.16033915 0.108616844 -0.2844727 0.30774772 0.30774772
-0.3180922 0.12671965 -0.07499734 -0.13965023 0.031033386 -0.22240593 -0.051722307 0.28188658
-0.10344461 -0.17068362 -0.13189189 -0.24050874 -0.20688923 0.26636988 -0.19654477 -0.012930577
0.19137254 0.30774772 -0.023275038 -0.2353365 -0.16033915 0.27930045 -0.09310015 0.1008585

sequential/quant_output/MatMul;sequential/quant_output/LastValueQuant/FakeQuantWithMinMaxVars i1 [1, 10] scale=0.004741425 zero_point=0
00000000: 7ac5 c50a b481 957c 81a6
0.5784539 -0.2797441 -0.2797441 0.04741425 -0.3603483 -0.602161 -0.5073325 0.5879367
-0.602161 -0.42672828
